results/max-hiddenunits32-config1-0/3DBall/3DBall-500418.onnx (onnx, 29866 bytes, 6 tensors)

network_body._body_endoder.seq_layers.0.bias f4 [32]
0	0x3e2f858d	0.1714079
1	0x3dbc8ec5	0.092069186
2	0x3d9713c4	0.07376817
3	0x3e17fe67	0.1484314
4	0x3c8d765c	0.017268352
5	0x3d16ca90	0.036814272
6	0x3d4b2a82	0.049601085
7	0x3d00c90c	0.031441733
8	0x3be94376	0.0071186377
9	0x3e8549c0	0.2603283
10	0x3e1b45d8	0.15163362
11	0x3d834c82	0.06411077
12	0x3d82dd6f	0.06389891
13	0x3ddcbc44	0.10778096
14	0x3da8dd8a	0.0824538
15	0x3e21acc4	0.15788561
16	0x3d9d2a05	0.0767403
17	0x3de15d2c	0.11004099
18	0xbd2e1948	-0.04250458
19	0x3e462fcd	0.19354172
20	0x3df00295	0.117192425
21	0x3e4559b7	0.19272505
22	0x3c9ea8b0	0.019367546
23	0x3d0743e2	0.033023722
24	0x3e390911	0.18069865
25	0x3e71c7a4	0.23611313
26	0x3e054fd7	0.13018738
27	0x3dd3588b	0.103196226
28	0x3e223716	0.15841326
29	0x3c820ce1	0.015875282
30	0x3dae7275	0.08517925
31	0xbdbdf81c	-0.09275839

action_model._continuous_distribution.log_sigma f4 [1, 2]
0	0xbe14a4f1	-0.14516045
1	0xbe34515f	-0.17609166

action_model._continuous_distribution.mu.weight f4 [2, 32]
0	0xbd8ad0b9	-0.06778092
1	0x3e1fe250	0.15613675
2	0x3dd743ce	0.105109796
3	0x3da63264	0.0811508
4	0x3df67694	0.12034336
5	0x3d8030a8	0.062592804
6	0xbb47beb5	-0.003047866
7	0xbc9a2fe8	-0.018821672
8	0x3b7ff431	0.0039055462
9	0xbe8e9499	-0.27847746
10	0xbdbc0bb6	-0.09181921
11	0xbd9a1fba	-0.075255826
12	0xbda8054b	-0.082041346
13	0x3db6e393	0.08930125
14	0xbc89edcd	-0.016837025
15	0xbd96b378	-0.0735845
16	0x3e1221df	0.14270733
17	0xbda974c6	-0.08274226
18	0x3cd928e0	0.026508749
19	0xbe8db95a	-0.27680475
20	0x3c9a8fce	0.0188674
21	0xbe2cd7fb	-0.16879265
22	0x3e31a08f	0.17346404
23	0x3d6abbff	0.057308193
24	0xbe179d4e	-0.148061
25	0xbe4fe95e	-0.20303866
26	0xbd85dedb	-0.06536647
27	0xbe213708	-0.15743649
28	0x3e5328ac	0.20620984
29	0x3cc7da18	0.024395987
30	0x3e758b41	0.23978902
31	0x3d193cfe	0.037411682
32	0x3e6c4413	0.23072843
33	0x3e074e2c	0.13213414
34	0x3e3a0cba	0.18168917
35	0xbe889226	-0.26674002
36	0xbd71b892	-0.05901391
37	0x3d926839	0.07148785
38	0xbd90409c	-0.07043573
39	0x3c68c684	0.014207486
40	0x3cf2817c	0.029602759
41	0xbdc46fae	-0.09591614
42	0x3ce71da1	0.02821237
43	0x3d8923bb	0.06696268
44	0xbdb4cd16	-0.088281795
45	0xbe75a696	-0.23989329
46	0xbe43a43e	-0.19105622
47	0x3e76e152	0.2410939
48	0x3d9c35ff	0.076274864
49	0xbd284cd3	-0.04108889
50	0x3bba90ce	0.0056935316
51	0x3e4b8d08	0.19878018
52	0x3e54c3c2	0.207778
53	0xbdb9e792	-0.09077372
54	0xbd479500	-0.04872608
55	0x3dc39005	0.09548954
56	0x3cc30927	0.023808075
57	0xbe3ce1e0	-0.1844554
58	0xbd5a0d9a	-0.053235628
59	0x3dd3646d	0.10321889
60	0xbdd473c2	-0.103736416
61	0x3dc1dec1	0.09466315
62	0xbcf06b10	-0.029347926
63	0x3b8c7264	0.0042860974

action_model._continuous_distribution.mu.bias f4 [2]
0	0xbd9d5a3c	-0.076832265
1	0xbc5aa66d	-0.013345343

network_body.processors.0.normalizer.running_mean f4 [8]
0	0x3aee8eb4	0.0018200488
1	0x3b0a0412	0.0021059555
2	0x3e091b5c	0.13389343
3	0x40438859	3.055197
4	0xbec668f4	-0.38751948
5	0xbcae3b3a	-0.021268476
6	0xbe9356e0	-0.28777218
7	0xbc7c3726	-0.015394008

sqrt f4 [8]
0	0x3d43b875	0.047783334
1	0x3d338c87	0.04383519
2	0x3f22497b	0.6339337
3	0x3e3b63ff	0.18299864
4	0x3f1205aa	0.5703989
5	0x3ef79a68	0.4835999
6	0x3f23b586	0.6394886
7	0x3ed7b6f6	0.42131776
