results/max-hiddenunits32-config1-0/3DBall/3DBall-349418.onnx (onnx, 29866 bytes, 6 tensors)

network_body._body_endoder.seq_layers.0.bias f4 [32]
000000 81 f0 2f 3e b6 73 b8 3d c6 e1 95 3d 8e d3 0f 3e
       0.17181589 0.09006445 0.073184535 0.14045545
000010 23 ed 54 3c d2 9e 23 3d 4e 5e 12 3d 10 dc 00 3d
       0.012995991 0.039946385 0.035734467 0.031459868
000020 fe 3c 00 3c 7c f5 82 3e a6 97 1c 3e 84 b3 83 3d
       0.007827042 0.25577915 0.15292224 0.06430724
000030 17 52 71 3d ae d6 c6 3d 1c 5d 97 3d 11 99 24 3e
       0.058916178 0.09708916 0.07390806 0.16074015
000040 93 f6 95 3d 17 7c dd 3d 92 80 27 bd 76 7d 45 3e
       0.07322421 0.10814684 -0.0408941 0.19286141
000050 3e 10 f4 3d a4 e7 3f 3e 68 7c 5d 3c 4c b5 0c 3d
       0.119171605 0.18740708 0.01351843 0.034352586
000060 b0 27 3c 3e b3 65 68 3e 0a 6e f8 3d 78 51 da 3d
       0.18374515 0.22695045 0.12130363 0.1066007
000070 8e 30 1c 3e dc 37 77 3c 00 31 a8 3d 4d 52 c2 bd
       0.15252897 0.0150890015 0.08212471 -0.09488354

action_model._continuous_distribution.log_sigma f4 [1, 2]
000000 69 08 0e be 02 b3 26 be
       -0.13870396 -0.16279224

action_model._continuous_distribution.mu.weight f4 [2, 32]
000000 df 44 81 bd 68 e6 15 3e a6 1c c5 3d b8 85 b8 3d
       -0.06311964 0.14638674 0.09624605 0.0900988
000010 7f ea e8 3d 3f 0a 85 3d a5 63 f2 bb 2a 05 af bc
       0.113728516 0.06496095 -0.0073971325 -0.021364767
000020 e4 52 bb 3a 41 56 8d be fe 35 c1 bd 5e 01 8d bd
       0.0014291671 -0.2760487 -0.09434126 -0.068850264
000030 52 eb 9c bd 46 c9 ad 3d 4f 6c 9b bc e1 d1 98 bd
       -0.07662071 0.084856555 -0.018972544 -0.07461906
000040 d8 26 0b 3e 03 4e a7 bd db 03 df 3c 1e 12 8b be
       0.13589036 -0.081691764 0.027223518 -0.2716226
000050 8f 8a 64 3c a4 18 28 be 14 dc 2b 3e 5e a5 62 3d
       0.013949051 -0.1641565 0.16783172 0.055333488
000060 34 a5 19 be 9e e2 48 be 3e e3 71 bd 49 bf 1c be
       -0.15004426 -0.19617698 -0.059054606 -0.15307344
000070 c7 2f 4d 3e 4b 05 ac 3c d2 c1 72 3e 3b 01 13 3d
       0.20037757 0.020998618 0.23706749 0.035889845
000080 1f 16 6e 3e a8 15 07 3e 9c 7e 2c 3e 98 3c 81 be
       0.23250626 0.13191855 0.16845173 -0.25241542
000090 90 f2 77 bd 90 c8 9f 3d 4e 97 74 bd f6 70 e6 3b
       -0.06053406 0.07801926 -0.059714608 0.007032509
0000a0 34 28 dc 3c b5 91 a4 bd bd 96 0a 3d 8a 3a 86 3d
       0.02687464 -0.08035604 0.03383516 0.06554134
0000b0 96 9e aa bd d7 95 6a be 71 9b 3a be 26 9a 7e 3e
       -0.08331029 -0.22908722 -0.18223359 0.2486349
0000c0 ba 1b 90 3d 9b ca 1d bd a6 c9 75 3b 30 ad 4b 3e
       0.070365384 -0.038523298 0.0037504225 0.19890285
0000d0 72 1f 51 3e c5 b5 a4 bd 0f 03 29 bd 5b 56 bc 3d
       0.20422152 -0.08042482 -0.041262683 0.091961585
0000e0 9c 61 e2 3c 74 28 35 be e7 94 28 bd 71 23 ea 3d
       0.027634434 -0.17691213 -0.04115763 0.11432541
0000f0 61 9f c4 bd 1a 71 b8 3d a5 82 aa bc a3 be 8d ba
       -0.096007116 0.090059474 -0.02081425 -0.001081426

action_model._continuous_distribution.mu.bias f4 [2]
000000 f4 54 9e bd 52 0a cf bb
       -0.07731047 -0.006318369

network_body.processors.0.normalizer.running_mean f4 [8]
000000 76 27 fd 3a 0f b5 06 3b 71 f5 7c 3d 80 38 44 40
       0.0019314128 0.0020554697 0.06175751 3.0659485
000010 27 1b b8 be dc b4 05 bd 72 89 b0 be 3d 2a 96 bc
       -0.35958216 -0.032643184 -0.34479862 -0.018330688

sqrt f4 [8]
000000 f3 ed 56 3d fb f6 44 3d 8e 8a 3a 3f 15 f6 5a 3e
       0.05247302 0.0480871 0.7286767 0.21382935
000010 d3 c0 2a 3f 31 60 10 3f 57 e8 3a 3f f2 08 fc 3e
       0.66700476 0.56396776 0.7301077 0.49225575
