results/max-hiddenunits16-config2-2/3DBall/3DBall-49988.pt (torch, 44451 bytes, 56 tensors)

network_body.observation_encoder.processors.0.normalizer.running_mean f4 [8]
00000000: a1d7 26ba 3cf9 c3ba b7c3 dfbc 40ed 4240
00000010: 8509 91bd 767f 8ebb 15d8 85bf 0d06 87bd
-0.00063645287 -0.0014951597 -0.027315004 3.0457306 -0.07081894 -0.0043486906 -1.0456568 -0.06592951

network_body.observation_encoder.processors.0.normalizer.running_variance f4 [8]
00000000: 5dea e443 4001 da43 bef9 9a47 fc1b 2b46
00000010: 8708 9747 5bbc 9147 783c 6f47 63a2 8d47
457.83096 436.00977 79347.484 10950.996 77329.055 74616.71 61244.47 72516.77

network_body.processors.0.normalizer.running_mean f4 [8]
00000000: a1d7 26ba 3cf9 c3ba b7c3 dfbc 40ed 4240
00000010: 8509 91bd 767f 8ebb 15d8 85bf 0d06 87bd
-0.00063645287 -0.0014951597 -0.027315004 3.0457306 -0.07081894 -0.0043486906 -1.0456568 -0.06592951

network_body.processors.0.normalizer.running_variance f4 [8]
00000000: 5dea e443 4001 da43 bef9 9a47 fc1b 2b46
00000010: 8708 9747 5bbc 9147 783c 6f47 63a2 8d47
457.83096 436.00977 79347.484 10950.996 77329.055 74616.71 61244.47 72516.77

network_body._body_endoder.seq_layers.0.weight f4 [16, 8]
00000000: 150f cf3e eca4 433e 29c4 97bc 49a7 97be
00000010: bcca debd 3379 de3d f8eb 99be 7848 08bf
00000020: f62a 6bbe 03ad abbe d21e eabe 9b99 1c3e
00000030: cfc2 19bf e4e4 07bf 3bb7 cf3e 59ed 013e
00000040: a6d1 38bf e119 023f 8007 97be 81cc 1b3f
00000050: d297 83be daec 36bd e3b7 13bf 4457 333e
00000060: a3cf 03bc c30f 923d a51d 26be 3ce8 e2bd
00000070: b45a 56bd 914c 503e a19f fdbd 25db 1bbe
00000080: 8087 b7bd 6d96 1fbf 8ef2 703e 3ca7 013f
00000090: 169e 67bd ff68 483f 130f 82bd 4189 ddbd
000000a0: d11e f63e ca3a 583e b70b 2abe 1d5f 773e
000000b0: 34a1 d43e 618e 8ebd 945d c4be cd8d 843e
000000c0: a64d c3be 4b25 1a3f a7bb 0a3e 8aac f33d
000000d0: 8afd 1b3f c8d9 0f3e 2019 af3e 9976 b5be
000000e0: 561e 77be 921a 2abf c2aa 653e 4ee7 ea3e
000000f0: 5ab9 04bf de49 77bc a50e c23d 9d66 cabe
00000100: 39b1 183e 31e4 0c3e e9d3 aa3e ccfc 813d
00000110: 1ab6 fabe 4814 05bd f68e 21be c6e2 0fbf
00000120: ec3b 153f aa5b 40be b86c 8ebf feb2 b2bc
00000130: d023 3abc 0342 313f 980e dfbc 9561 e7bd
00000140: 91bd 29bd dd83 8dbd 6e7b 06bc 60f1 a63d
00000150: 8011 57be 3ee5 e6bc ff4e e2be 4459 9a3e
00000160: 563d cbbe 7c16 353f 0ab1 e73d fe7c 3e3d
00000170: 031f fb3c 7f67 b13e f216 26bf dc6c 003c
00000180: fc43 48bf 74b2 d23c 0cff 613e 3f97 0f3f
00000190: a5a4 89be 997f 23be 9dcb 243e 1c95 e03e
000001a0: 3d68 9d3d 80d8 cbbe 5321 61be ffa0 2cbe
000001b0: cb0f 4dbe 0bca 8fbe 1fc1 393e 3069 d13d
000001c0: 8058 de3e f4df 32be 1391 a23e f548 233f
000001d0: 6225 c5be 4ecc 66bb 106c e13e 499e 033f
000001e0: 25c4 d7bc 4e29 813e c37f 57bf 2134 02be
000001f0: 3575 653e 73ed 81be a366 bfbe eebd 0fbf
0.40441194 0.19105881 -0.018526154 -0.29619816 -0.10878512 0.10862961 -0.30062842 -0.5323558
-0.22965607 -0.33530435 -0.4572664 0.15292971 -0.6006288 -0.53083634 0.4056948 0.12688197
-0.721949 0.5082074 -0.2949791 0.60858923 -0.25701767 -0.044659473 -0.57702464 0.17513758
-0.00804511 0.071319126 -0.16222246 -0.110794514 -0.052332595 0.20341708 -0.123839624 -0.15220316
-0.089613914 -0.62338907 0.23530027 0.50645804 -0.056547247 0.7828521 -0.063505314 -0.10817195
0.48070386 0.21116176 -0.16606031 0.24157377 0.41529238 -0.0696075 -0.38352644 0.25889435
-0.3814518 0.60213155 0.13548146 0.118981436 0.60933745 0.1404792 0.34198856 -0.35442045
-0.24132666 -0.66446793 0.2242842 0.45879596 -0.51845324 -0.015093295 0.094754495 -0.39531413
0.14911355 0.13758923 0.333648 0.06347045 -0.48967057 -0.032490045 -0.15777192 -0.56205404
0.5829456 -0.18784967 -1.1126928 -0.021813866 -0.011361077 0.6924135 -0.027228639 -0.11297909
-0.04144055 -0.069099165 -0.008208139 0.081515074 -0.2100277 -0.028185483 -0.44200894 0.3014623
-0.39695233 0.70737433 0.113130644 0.04650592 0.030654436 0.34649274 -0.6487876 0.007838454
-0.78228736 0.025719859 0.22069949 0.5609016 -0.26883426 -0.15966643 0.16093297 0.4386376
0.076858975 -0.39813614 -0.21985368 -0.1685829 -0.20025556 -0.28083834 0.18140076 0.10225141
0.43426895 -0.17468244 0.31751308 0.637832 -0.38505083 -0.003521699 0.44027758 0.514134
-0.026338646 0.25226825 -0.84179324 -0.12715198 0.22407992 -0.25376472 -0.37382993 -0.56149185

network_body._body_endoder.seq_layers.0.bias f4 [16]
00000000: 49ea 753d e637 ae3d 903e 813d d25b 9abd
00000010: 17fa 073e ccf5 d83d 607b 333d 7841 bf3d
00000020: 82a6 7a3d 0a4e c93d f1eb 01bd c60d 753d
00000030: e641 973d 222c a8bd 38bd f23c 60c1 943c
0.060037885 0.085067555 0.06310761 -0.075370446 0.13278995 0.10593757 0.04381883 0.09338659
0.06119395 0.09829338 -0.031719152 0.05982759 0.07385616 -0.08211543 0.029631242 0.018158615

network_body._body_endoder.seq_layers.2.weight f4 [16, 16]
00000000: a862 a23e cae1 243d 5db5 d4be 1e79 6fbe
00000010: a405 08bf c7b4 3cbd 50f7 37be 48c7 21be
00000020: 3b07 39be d63c b63c b4c3 ffbe 09fb 9f3e
00000030: e5d7 5ebe 4262 e33d bc69 1bbe 60ba e83d
00000040: 87b2 4a3e c3a4 ef3e 5e94 c7be bd6b 5a3e
00000050: a7e7 7bbb 0be3 80bd 54f4 dbbe 3a07 61bd
00000060: 8fb8 333e 9aea 13bd 9d5e 163f 79e3 e53d
00000070: afcc 14bf 82ab 13bf b181 cabe 7caa f0be
00000080: acca 6fbe a049 acbe 71a9 ec3d 62ce 2bbe
00000090: 099d 853d ce3d aabe 4198 923e e6d4 eabd
000000a0: 9707 973e 27d7 a4bc 0ee2 14bd 10b5 463f
000000b0: 3a45 d63e cf45 d1be 5201 04bd caac 1d3a
000000c0: 8420 073f 1116 d93e fef7 5abe ed81 10be
000000d0: c958 943d 3d78 e73b bc58 afbd e45a aabd
000000e0: 0cd3 a4bd 310d 053e 300b 173e 38c7 1a3f
000000f0: 75a8 6b3e 1c2f 05be 51f6 753d 2798 003d
00000100: a4bf 9d3e 2ab5 98be 0629 223e 54e8 803d
00000110: 4d1f 18be 20dc 5d3e de53 923e ad74 b4bd
00000120: 87f3 fd3c f9b6 c3ba a524 02bf 56ea f23d
00000130: c05c 7c3e 0887 c5be 5e2a 733e 8b59 f1bd
00000140: faf7 513e 8c3c 20bd 7a7d 1c3c c2c1 083d
00000150: d16a eb3e 3f5d 473e 5a5d 80be c342 b73c
00000160: fc63 273a c76f e93c ec63 adbc 7cca c43e
00000170: bd4f f6bb f389 f9bd 3d57 ebbe f21a 8abe
00000180: 20ac c93d 12f4 cd3e 06a4 893e 6e2b 1d3d
00000190: c858 a63e 7864 60bd 795f e3be 450c 973d
000001a0: d97a 36be 6054 74be 1489 c2bc b13a 86be
000001b0: 6d98 aa3e 03d4 903c 5b68 003d 7b88 d3be
000001c0: 7ed6 193e 824a f23e 8e41 7bbe cc35 84be
000001d0: c0c0 1d3e c184 a5be 08cc cabd 2232 9e3e
000001e0: ad4c 783e e842 da3e 69aa f3bd 32dc 8abe
000001f0: 3cb0 35be 2c53 a7bd ee07 54bd e9d0 073e
00000200: 5df6 cc3e d504 f63c 7da8 013e ddf6 abbb
00000210: b169 aebc d51a 523f d10e cbbe 47f9 513d
00000220: eb4d 023e 93a5 f73e e63b 81be 427b aebe
00000230: c707 04be fe7f 2fbd cec1 e33e 6ddd 06be
00000240: f284 7a3e bfd2 f8bd 1e93 18bd 7ca4 96be
00000250: 0041 8fbe fc48 b23b 367e 05bd fcaf 16bf
00000260: b73d 15bf f780 20be b0d9 a8be d3fe e13d
00000270: 13a3 b43e 10d9 b8bd acc6 c2be 4bc8 8dbe
00000280: 8ac2 9e3e 0d00 043e 6507 663d a29b d5bd
00000290: d631 a9be 8621 153f 26dd 44bd e671 40be
000002a0: 824e 63be 4758 403e c599 213e 4b3e 473f
000002b0: d552 27be 6f5b 2c3e 6d17 9e3d 6f94 373e
000002c0: 1c99 e7be 0897 b0bc b4d7 1cbd cba1 7c3e
000002d0: c465 8a3e 005f b23d c349 183f 4314 393e
000002e0: c8a1 633e 7779 133e 77e9 66be c828 1bbf
000002f0: 7a0e edbc d1d4 4d3e 2f7d bc3d d8c5 993e
00000300: 6876 95be 483f c1be ccdf 473d 3607 a93d
00000310: db4b 363f f8ca ba3e b987 883e 8950 8ebe
00000320: 77fa 93bd cc80 61be b8c1 cebe 86f9 613e
00000330: e95f 7c3d 0f4a 1e3e 6a5c 2e3d 6168 72bd
00000340: 120f abbe f056 04bf 2a3f f83e 26e3 c43d
00000350: 6475 05bd 38cf 863e 195c febd 5f7a 933e
00000360: c088 d93d 5aa9 d5bd 506c e23e e622 ee3e
00000370: 5c39 41bd ac90 003e 103d 0bbe b5a7 a03e
00000380: 6548 4cbd 380f 3f3c 81ac 053e 85c1 88bd
00000390: 3b3f 1e3e 9de1 003f c454 b7be 2e74 a63e
000003a0: 4820 a8be cbce 8fbe 8c6d 2abe 04a3 083d
000003b0: a91b bb3d b26f debe e836 143d 09b7 253e
000003c0: 5d15 1f3d 9ed3 2bbe 5f04 4b3e 85db bfbc
000003d0: e200 45be 5f79 23be 4a43 b9be 4bdf ee3d
000003e0: f8d5 89bc 5c88 843d 1dc3 f33d e2b8 0a3f
000003f0: e8d6 30be 5695 98be aedb 4e3e 357d 533d
0.31715894 0.04025439 -0.4154462 -0.23386046 -0.53133607 -0.04607084 -0.17965436 -0.15798676
-0.18069164 0.022245806 -0.49953997 0.31246212 -0.21762045 0.111027256 -0.15177053 0.11363673
0.19794665 0.4680539 -0.38980383 0.21330161 -0.0038437636 -0.06293305 -0.42959845 -0.054938532
0.17550872 -0.036112405 0.5873812 0.112250276 -0.5812482 -0.57683575 -0.39552072 -0.4700507
-0.23417157 -0.3364992 0.11555756 -0.16777948 0.06524093 -0.33250278 0.28631786 -0.114663884
0.29497978 -0.020122124 -0.036348395 0.7762003 0.4184969 -0.40873572 -0.03222782 0.0006014822
0.5278399 0.42399648 -0.21383664 -0.14112063 0.07243497 0.007063894 -0.085618466 -0.08318117
-0.080480665 0.12993313 0.14750361 0.60460234 0.2301348 -0.13006252 0.06004936 0.031395104
0.30810273 -0.29825717 0.15835962 0.06294313 -0.1485569 0.21666002 0.2857961 -0.08811317
0.030999912 -0.001493185 -0.50837165 0.11861102 0.24644756 -0.38579583 0.2374663 -0.11784657
0.20504752 -0.039120242 0.0095514 0.033387907 0.45979932 0.19469164 -0.25071222 0.022370702
0.0006385443 0.028495682 -0.02116581 0.38435733 -0.0075168298 -0.12184515 -0.45964995 -0.26973683
0.09847283 0.40225273 0.26882952 0.038371496 0.3248961 -0.054783314 -0.44408777 0.07375387
-0.178203 -0.23860312 -0.023747005 -0.26216653 0.33319417 0.01767922 0.03134952 -0.41315064
0.15023229 0.4732247 -0.24536726 -0.25822294 0.1540556 -0.32327846 -0.09902197 0.30897623
0.24248 0.4262917 -0.118977375 -0.2712112 -0.1774301 -0.08170161 -0.051765375 0.13263287
0.4003171 0.030031601 0.1266193 -0.0052479343 -0.021290632 0.8207219 -0.39659742 0.05126312
0.12725036 0.4836851 -0.2524101 -0.34078413 -0.12893592 -0.042846672 0.444838 -0.13170405
0.24464777 -0.121495716 -0.037249677 -0.29422367 -0.2797928 0.0054408293 -0.032591067 -0.5886228
-0.58297294 -0.15674196 -0.32978582 0.11034932 0.35280666 -0.090257764 -0.380422 -0.27691874
0.31007797 0.12890644 0.056159396 -0.10430075 -0.33045834 0.5825428 -0.048062466 -0.18793449
-0.22197917 0.18783675 0.15781315 0.77829427 -0.16340192 0.16831754 0.07719312 0.17927717
-0.45234 -0.021556392 -0.038291648 0.24671094 0.27030766 0.08709526 0.5948755 0.18074135
0.22229683 0.14401804 -0.22549997 -0.606091 -0.028937567 0.20100714 0.092035644 0.30033755
-0.291919 -0.37743592 0.048797414 0.082533285 0.71209496 0.36482978 0.26666048 -0.27795818
-0.07225507 -0.22021788 -0.4038217 0.22067842 0.061614905 0.15457939 0.0425686 -0.059181575
-0.33409935 -0.51695156 0.4848569 0.096136376 -0.032582656 0.2632997 -0.1241991 0.288043
0.10621786 -0.10432692 0.4422326 0.46511 -0.047173843 0.12555188 -0.13597512 0.3137795
-0.04987373 0.011661343 0.13054086 -0.06677536 0.15453808 0.5034426 -0.3580686 0.32510513
-0.3283713 -0.28087458 -0.16643351 0.03335859 0.09136135 -0.43444592 0.036185175 0.16183104
0.038838733 -0.16779944 0.19825886 -0.023420105 -0.19238618 -0.15964268 -0.3618415 0.116636835
-0.016825661 0.06471321 0.11902449 0.5418836 -0.1726948 -0.29801434 0.20200989 0.05163308

network_body._body_endoder.seq_layers.2.bias f4 [16]
00000000: 6ccf 14bd 1b28 1a3d 273f 2c3d aeec debc
00000010: b171 543c f443 1a3c 080f 8c3d 0388 be3d
00000020: 8eec 0b3d 3d37 0c3d a1c2 c83d fabd 423d
00000030: 64f8 1f3d 5d5d 04bd 3e41 2f3d 579a 483d
-0.036330625 0.037635904 0.042052414 -0.027212467 0.012966559 0.009415615 0.068388045 0.09303286
0.034161143 0.034232367 0.098027475 0.047544457 0.039055243 -0.0323156 0.04278683 0.048975315

network_body._body_endoder.seq_layers.4.weight f4 [16, 16]
00000000: b7df 1a3e 9036 96be 9866 17be 87f1 e93d
00000010: 89a1 c33e d409 233d b92d 2e3e 6763 a8be
00000020: bb54 bb3d 7e25 313e ab7b e23d 64a6 a6be
00000030: 357a 563e 01f1 833e cfd4 ffbe 94c8 90be
00000040: 859a 93be 4ea4 abbb a95e de3d 5160 0a3e
00000050: a175 32be 1287 133e df95 823e de5f 37be
00000060: 1608 a2be e36f a83d 9163 433c da52 f33e
00000070: 1210 ff3d b6b2 933d d149 00be a24f 85bd
00000080: 2427 3e3e 0198 a2bd 81c2 72be 82d4 1a3e
00000090: 9c5f 063d 2911 7b3e 6276 033f 0056 b33e
000000a0: 1adb 9dbd 3bf5 cebd e49d 6cbe 329d 473e
000000b0: 3614 483e e93e cabd 7a6f a13d 279f 0dbe
000000c0: 72c0 77be 44ff 743e a256 413e 046a 583e
000000d0: ea1d 993e 7974 c13d 710b ad3d a4bc 94bc
000000e0: 3649 7d3d 9531 963e 9f39 fc3e 22b9 babe
000000f0: 9850 e23e ddb7 93be 269a 993e 6f73 4c3e
00000100: 6fd3 83be df99 003f 7876 5dbe 8155 91be
00000110: 7938 00bf 72ba 41be 75a0 fa3e 0484 f33e
00000120: 2935 fc3c 83c5 debe c779 20be 3958 943e
00000130: 74a6 78be 75f5 19be 72be 5d3e 8a2d de3d
00000140: e62f 123e d3e1 603e a64a 34bf c1e0 2b3e
00000150: bb50 94be a31b 8a3d 6b78 e7bd 5d76 803e
00000160: 98b8 a73d 5e2e 953e 6f2d a0bd 6640 443e
00000170: 1fa9 0fbe 72ea 313e ef91 6e3e 7b03 8b3e
00000180: 503c f8bb b60c 0abe 0557 87be a8c2 6abd
00000190: 8108 0d3f f2b9 703e ffdd 5a3e 39ec 30be
000001a0: 0cd6 673b e7a6 cf3d 093e 33bf 187f a6bc
000001b0: 5e4c 263e a7b3 023e aff9 023f cd39 793e
000001c0: 1547 9fbe 6878 4fbe 94f7 cb3e e874 62be
000001d0: f1df 7b3e 9726 cd3d 91ac 3bbe 3ff8 8d3c
000001e0: 8e73 4dbe 0130 7bbb 032d 14be 28c4 703e
000001f0: b8de 8b3d 3307 2c3c c161 293e 8c81 603e
00000200: 224f f939 53d9 4c3b 1d75 a43e 1680 e7bd
00000210: 0593 49bb fae5 183e c5eb 103e f9c0 a33e
00000220: 7483 acbe c153 0bbe 1aff ebbd 184b 6bbe
00000230: 4a4f 9f3e 1a7e 493d 1002 b83c 060b 2c3e
00000240: f0dd 5bbe 232c aebc a3b0 da3e 927b 913e
00000250: 9d59 15be 05c5 2d3e 2dd8 8b3e 6380 723d
00000260: 7e52 2ebe 0609 df3e 1a96 20bf c90f f73d
00000270: f6b5 693e e05b a3be af70 66be 5b07 a93e
00000280: 6875 c13b 0b83 353e b273 893c f241 633b
00000290: 5c05 29bd 57a6 7fbe fce1 213d e0c4 d7be
000002a0: c42c e93d 9a89 843e 78d5 7e3e e169 033d
000002b0: 8f70 7b3d 8ebf f0be d3ff a8be 68e2 91bd
000002c0: cf6d aebe 2afc f03d 7130 0cbe d7de 34bc
000002d0: e737 38be 4bfc b03e 33fc d23e b4dd 1a3f
000002e0: 037a 93bd 4170 93be f2d4 663e 3aef d03d
000002f0: 2c7c 73be 7b8a 303e 98b4 4abe 9974 8c3e
00000300: aba3 97be 371c edbe bba1 c83d bfb9 78be
00000310: 5d9d 123f 4d89 a0be 035a 1f3f 29f3 43be
00000320: 471c 7dbf 1386 38be d1b3 0c3e f7fe 18be
00000330: d1d8 473e c6c8 263e 9421 ea3d 0622 c2be
00000340: 9233 02be 0e55 963e 03f9 9b3c 1b9d 453e
00000350: 914c e93e 4a6f bebd f7b5 81bd 9eb4 cbbd
00000360: 61cf d6be fffe e33d 1f93 193e 197e 843e
00000370: 07d0 933e 9d19 e83e 0549 99bd 6d0f 073e
00000380: 931e 5dbc 0426 853e 3ff2 c43d a984 1cbe
00000390: f0ea d23d ec87 213f a2ee f8be 05ba f33c
000003a0: e92f 4abe f16d 723c 43af d9bd 2e52 efbd
000003b0: d46a b73e a1b0 df3e a090 55be 4b72 793d
000003c0: c2e6 be3d 4c43 e9be 57c7 bbbe e90b c53c
000003d0: 7136 233e cb76 8e3d baff 58be ed50 413c
000003e0: 3a42 2f3e 4c8d d6be 0360 273e ce90 ce3e
000003f0: 5548 693d eaf1 c73d bd2c 963d e2d2 a43e
0.15124403 -0.29338503 -0.1478523 0.11423021 0.3820918 0.039804295 0.1700963 -0.32888338
0.091470204 0.17299458 0.11058744 -0.3254882 0.20945056 0.2576981 -0.49967048 -0.2827803
-0.28828827 -0.0052380925 0.10857899 0.13513304 -0.17427684 0.14406994 0.25504968 -0.17907664
-0.31646794 0.08224466 0.011925594 0.47524148 0.12454237 0.07211821 -0.12528159 -0.065093294
0.18569618 -0.07939149 -0.2370701 0.15120128 0.032806024 0.24518265 0.5135251 0.3502655
-0.07707806 -0.10105368 -0.23107105 0.19493559 0.1953896 -0.098752804 0.078825906 -0.13830243
-0.24194506 0.23925501 0.18880704 0.21134192 0.29905635 0.094460435 0.08449448 -0.018156357
0.061837398 0.29334703 0.4926271 -0.3646937 0.44202113 -0.28851214 0.30000418 0.1996591
-0.2574725 0.5023479 -0.21627223 -0.28385547 -0.5008617 -0.1891878 0.48950544 0.47561657
0.030787067 -0.43510064 -0.15671454 0.2897356 -0.24282247 -0.1503504 0.2165468 0.1084853
0.14276084 0.21961145 -0.70426404 0.16784956 -0.28967842 0.067435525 -0.11302265 0.25090304
0.08189505 0.29136938 -0.07821166 0.19165191 -0.14029358 0.1737459 0.23297857 0.27151093
-0.007575549 -0.13481411 -0.26433578 -0.057314545 0.550911 0.23508433 0.21373747 -0.17277612
0.0035375385 0.10139256 -0.70016533 -0.020324275 0.1624007 0.12763844 0.51162237 0.24338455
-0.3110892 -0.20260775 0.39837325 -0.22114909 0.24597146 0.10017126 -0.18327548 0.017330287
-0.20063612 -0.0038328173 -0.14470296 0.23512328 0.068295896 0.010499763 0.16541196 0.21924418
0.0004755194 0.0031257465 0.321206 -0.11303727 -0.0030757796 0.14931479 0.14152439 0.31983164
-0.3369404 -0.13606168 -0.11523266 -0.22977865 0.3111518 0.049192525 0.022461921 0.1680108
-0.21471381 -0.02126128 0.42712888 0.2841459 -0.14584966 0.16969688 0.27313367 0.05920447
-0.17023656 0.43561572 -0.62729037 0.12063558 0.22823319 -0.31906033 -0.22503923 0.33013424
0.0059038885 0.1772577 0.0167788 0.0034676758 -0.041264877 -0.24965797 0.039522156 -0.4214239
0.113854915 0.25886232 0.2488612 0.032083396 0.06138664 -0.47021145 -0.33007678 -0.07123262
-0.34068152 0.117668465 -0.13690354 -0.011039457 -0.17990075 0.34567484 0.41208038 0.6049454
-0.07201006 -0.2879658 0.2254217 0.10201879 -0.23777837 0.17240326 -0.19795454 0.27432707
-0.29617056 -0.4631059 0.09796473 -0.24289607 0.5727137 -0.31354752 0.6224672 -0.19135727
-0.9887127 -0.18019895 0.1374047 -0.14941011 0.19516303 0.16287526 0.11432186 -0.37916583
-0.12714985 0.29361767 0.019039636 0.19298212 0.45566228 -0.092985705 -0.06333535 -0.09946559
-0.41955093 0.11132621 0.14997528 0.25877455 0.2886965 0.4533204 -0.074846305 0.13189478
-0.013496059 0.26005566 0.09616517 -0.15284981 0.10298717 0.63098025 -0.48619562 0.029751787
-0.19744839 0.01479672 -0.10629132 -0.116855964 0.3582369 0.43689445 -0.20855951 0.060900014
0.09321357 -0.45559156 -0.36675522 0.02405353 0.15938736 0.06956252 -0.21191302 0.011799079
0.17115107 -0.41904676 0.1634522 0.40344852 0.056953747 0.09762938 0.07332752 0.3219214

network_body._body_endoder.seq_layers.4.bias f4 [16]
00000000: 854e d5bc e37a 65bc be00 cb3b 7d4a 163d
00000010: bf79 8a3d b5a4 813d 9dab 9cbc 48d1 553c
00000020: 6289 dabb 83c2 883c 57f9 7d3d c05b d53c
00000030: a92c 013d 5e68 d23c eb1b 523c 5ed3 543d
-0.026038418 -0.014006349 0.006195157 0.03669213 0.067615025 0.063302435 -0.0191248 0.013050385
-0.0066692093 0.016694313 0.062005367 0.026044726 0.031536732 0.025684532 0.012824039 0.051959388

action_model._continuous_distribution.log_sigma f4 [1, 2]
00000000: 5471 5fbc c3cf 27bc
-0.013637859 -0.010242405

action_model._continuous_distribution.mu.weight f4 [2, 16]
00000000: 7077 5c3c 7303 0a3e fe15 983c b176 76bc
00000010: 9490 6ebd cc9a 21be fa22 a23d 34bf e93d
00000020: c464 213e 73e3 053e cfc2 2cbd 0dd6 e6bc
00000030: 2584 293e 6203 723c c414 adbc 41a4 c2bd
00000040: d7c4 fbbc 7b5c 363d 1fee cd3d a7dd e9bd
00000050: fc6c 0b3e b0ef ca3d dcf3 4e3d c18f a0bd
00000060: 57be cf3d d47d bd3b 7608 cabd 7004 183e
00000070: 77fa ddbd 2c99 3bbd da89 6abd 3c6c 9bbc
0.0134562105 0.13477878 0.018565174 -0.015042947 -0.05824335 -0.15781707 0.079168275 0.11413422
0.15761095 0.13075046 -0.04217797 -0.02817824 0.16554315 0.014771314 -0.021128066 -0.09503985
-0.030733509 0.04452179 0.100551836 -0.1141923 0.13615793 0.09908998 0.05052553 -0.07839919
0.10143726 0.005782822 -0.09864895 0.14845443 -0.10838788 -0.045800373 -0.05726037 -0.018972509

action_model._continuous_distribution.mu.bias f4 [2]
00000000: 69c6 ebbc 3185 77bc
-0.028781133 -0.015107439

exp_avg f4 [16, 8]
00000000: bec7 27ba 7017 aeb9 d73d ea38 1c3d 8eb9
00000010: a321 133a 4593 0e3a 6770 e5b9 c7db bc39
00000020: 6fbf 67ba 2efa 51ba 77f9 6f3a 176b 73b9
00000030: a1ef cc3a cebe 9d3a 7430 093a 04d8 853a
00000040: a66f bf39 0fc2 9b37 1d65 91b9 6479 6db9
00000050: 0eca eab9 69ff 0bba f6b8 2f39 dc4a ffb8
00000060: e4c1 cc37 a3cf c238 a1ec 85b8 bc3d 3739
00000070: 6de7 2837 c110 6fb8 c5e7 d138 dc1d 9938
00000080: 6ec4 fcb7 0738 13ba b46c 5139 17ba 90b9
00000090: 8757 a33a 4096 beb9 3981 1d3a cddc 7239
000000a0: 61fe 60ba d453 d2b7 f41d 023a 8505 e6ba
000000b0: c0f2 8bb8 f23b 783a a005 77ba 2e8c 643a
000000c0: 82af f039 70bb 8639 77cb 8539 efdd 7fba
000000d0: 272e f3ba f8f6 ccb9 347c a63a c1d3 b9ba
000000e0: 1a5e e037 ef45 13ba 247c e739 c457 c639
000000f0: 40c9 ae3a 1b31 d839 bcb0 d139 0869 1e3a
00000100: c9f0 4b39 b5cd a137 de66 9a39 23aa c038
00000110: 79b4 d539 c7ac 8f37 bf2f b4b9 020a df37
00000120: 6405 1fba 89c0 c4b7 ba0b 853a d0db 6638
00000130: cb9d 923a a612 c43a d350 2939 0c67 e939
00000140: 5196 4ab8 5c9e b439 e168 6839 dbcf b13a
00000150: 8328 2e3a 7d0d 8539 e998 eab8 21d8 8939
00000160: bf72 39ba ba4d 5aba 69e4 85b9 c66f 14bb
00000170: fda2 0cbb b781 56b9 2723 9eb9 df9b 7eba
00000180: d9e7 483a 4005 5f39 9fdf eeb9 4d7c b3b9
00000190: 94d7 18ba bc76 95ba 065c 4c39 fff7 9fba
000001a0: d384 29b9 0fd4 2138 568d ac38 7b38 d937
000001b0: 4864 d6b8 aae3 7039 9625 6539 1f75 6d39
000001c0: 2ee6 67b9 7fa7 8eb7 1803 cb39 fb82 1db9
000001d0: 1774 cfb9 af07 fb39 1a00 3ab9 cd2a d5b6
000001e0: 8757 7bb8 1e72 0039 604a 7839 9b4d 8139
000001f0: c5d2 35b9 535a a039 de99 0bb9 90ae 4db9
-0.00064003083 -0.00033205329 0.00011169508 -0.0002712988 0.0005612617 0.0005438815 -0.0004376203 0.000360219
-0.00088404765 -0.0008009997 0.00091542996 -0.0002321418 0.001563538 0.0012035014 0.00052333553 0.0010211472
0.00036513543 1.8567805e-05 -0.0002773189 -0.00022647303 -0.000447825 -0.0005340488 0.00016758204 -0.00012173291
2.4408982e-05 9.289316e-05 -6.38601e-05 0.00017475238 1.0067463e-05 -5.6997644e-05 0.00010009067 7.30117e-05
-3.013221e-05 -0.00056159537 0.00019972288 -0.00027604468 0.0012461998 -0.0003635157 0.00060083304 0.00023161173
-0.0008582827 -2.5072986e-05 0.000496357 -0.0017549252 -6.673252e-05 0.0009469382 -0.00094231404 0.0008718398
0.0004590713 0.00025698123 0.0002551933 -0.0009760549 -0.0018553183 -0.00039093918 0.001270181 -0.0014177487
2.67467e-05 -0.0005618026 0.00044152245 0.00037830893 0.0013335124 0.00041235317 0.00039995264 0.00060428726
0.00019449288 1.9288485e-05 0.0002944981 9.186964e-05 0.00040760988 1.7127384e-05 -0.0003436785 2.6588332e-05
-0.0006066172 -2.3454677e-05 0.001015059 5.504099e-05 0.0011185942 0.0014959171 0.00016147205 0.00044518
-4.8300546e-05 0.00034450262 0.00022164315 0.0013565974 0.000664361 0.00025377786 -0.00011186471 0.00026291705
-0.00070742884 -0.0008327622 -0.00025537916 -0.002264963 -0.0021459453 -0.00020456953 -0.000301623 -0.00097125577
0.00076639425 0.00021268893 -0.00045561508 -0.00034234152 -0.00058304635 -0.0011403183 0.00019489237 -0.0012204646
-0.00016166577 3.8582886e-05 8.227925e-05 2.5894717e-05 -0.00010222994 0.00022972995 0.00021853144 0.00022645712
-0.00022115625 -1.7005716e-05 0.00038721482 -0.00015021481 -0.0003956861 0.00047880175 -0.0001773838 -6.3528773e-06
-5.992458e-05 0.00012249543 0.0002367883 0.00024662618 -0.00017340023 0.00030584875 -0.00013313393 -0.00019615353

exp_avg_sq f4 [16, 8]
00000000: 1f7e 2f36 b2eb 2a36 662b 9036 16ac b836
00000010: a37b 7736 cd6c b435 f65b 9437 b29f 9135
00000020: 504f 1d37 efa1 2037 7494 7137 313f b437
00000030: 7377 8937 60fe da36 1a00 8b37 5305 2337
00000040: ac4b 0c36 ae72 0936 228e 1236 7f8a b636
00000050: dd74 2d36 e529 4c35 ccba cb36 965b 9835
00000060: e010 ac33 6bca ae33 9709 ef33 6162 3e34
00000070: 0020 0934 aaa2 9033 3231 ae34 6200 ab33
00000080: ad18 9c36 6f96 be36 8afe dc36 0c28 4e37
00000090: 022d d536 69b6 3c36 2fbd 2b37 015a 3e36
000000a0: e505 cb36 e38a cc36 5d36 1137 4f9d 8737
000000b0: e421 2037 df8b 4636 bf9f f037 32ae 7c36
000000c0: ef2c 8e36 146f d336 759b de36 85cb 5e37
000000d0: d71e 0c37 6673 5036 41e5 2937 a560 a836
000000e0: f4cd 7e36 fcde 9936 764d d536 5133 4337
000000f0: 76ac db36 cbe2 2936 9063 0637 4184 7e36
00000100: 9836 0e35 f50d 0f35 6428 4735 3330 6235
00000110: c66c 7e35 f188 e734 d480 1636 6426 0c35
00000120: ac7c 8c36 708c b036 f078 fa36 e78e 4f37
00000130: a114 eb36 f095 4e36 5822 4937 8dc1 8236
00000140: 0e63 2236 347a 1736 2eb5 5a36 8332 ac36
00000150: 0dd3 4636 5af7 7935 a8dd 8537 e751 9e35
00000160: 8aa3 4a37 2cc9 6737 88c5 a537 efec 1038
00000170: 659e a937 29a9 e436 12b1 8738 2241 1637
00000180: c435 2837 b431 2a37 68a9 5437 1aa8 ff37
00000190: 57a5 6b37 397e a836 1973 ba37 a784 ea36
000001a0: c72c 1535 89a7 c134 f2b4 2435 d04d 9b35
000001b0: fe60 2735 5320 8f34 557b ae35 3594 c334
000001c0: d4cc 0d35 5483 4e35 8a04 6235 5ca7 2436
000001d0: ab09 7635 6002 a734 2947 7f35 c4a3 f034
000001e0: d89c 3c35 4b8a 2235 f05a 6f35 cf18 d635
000001f0: 2e06 7035 183f dd34 03de f735 4d63 d834
2.6150444e-06 2.5469167e-06 4.2965867e-06 5.5036608e-06 3.6877834e-06 1.344271e-06 1.7685798e-05 1.0849819e-06
9.376396e-06 9.574446e-06 1.4399284e-05 2.1487098e-05 1.6387296e-05 6.5265194e-06 1.6570139e-05 9.716797e-06
2.0905672e-06 2.0481343e-06 2.1838428e-06 5.4401457e-06 2.5847032e-06 7.6056887e-07 6.0716175e-06 1.1351538e-06
8.012444e-08 8.139326e-08 1.1131049e-07 1.7730919e-07 1.2770761e-07 6.735111e-08 3.244582e-07 7.962878e-08
4.652035e-06 5.679954e-06 6.586143e-06 1.2287881e-05 6.3531343e-06 2.812036e-06 1.0236442e-05 2.8364595e-06
6.0505577e-06 6.0958423e-06 8.655331e-06 1.6166507e-05 9.544634e-06 2.9585715e-06 2.8684617e-05 3.7652321e-06
4.2371607e-06 6.301221e-06 6.634213e-06 1.3279617e-05 8.351831e-06 3.1061586e-06 1.0126562e-05 5.018041e-06
3.796883e-06 4.585714e-06 6.3569123e-06 1.1634854e-05 6.5467857e-06 2.5314973e-06 8.010204e-06 3.7925931e-06
5.2978567e-07 5.329196e-07 7.4192053e-07 8.42617e-07 9.478066e-07 4.312674e-07 2.242673e-06 5.220993e-07
4.186839e-06 5.261558e-06 7.4646596e-06 1.23714335e-05 7.0059473e-06 3.0783667e-06 1.198853e-05 3.896834e-06
2.4197539e-06 2.2571885e-06 3.2589992e-06 5.13188e-06 2.9627147e-06 9.311967e-07 1.5958052e-05 1.1795754e-06
1.2078215e-05 1.3815512e-05 1.9761515e-05 3.4552937e-05 2.0220128e-05 6.8146223e-06 6.4702836e-05 8.955862e-06
1.0026099e-05 1.0144362e-05 1.2675628e-05 3.0476647e-05 1.4045588e-05 5.0214844e-06 2.2226524e-05 6.989186e-06
5.5571985e-07 3.607095e-07 6.135807e-07 1.1571046e-06 6.235349e-07 2.6659345e-07 1.2999905e-06 3.6429415e-07
5.282466e-07 7.693209e-07 8.4198166e-07 2.453532e-06 9.165621e-07 3.1107902e-07 9.5098454e-07 4.482264e-07
7.0263695e-07 6.0550946e-07 8.916677e-07 1.5951463e-06 8.941596e-07 4.1210365e-07 1.8467548e-06 4.0305386e-07

exp_avg f4 [16]
00000000: 046b e5b9 5063 f838 7353 c3b9 00f9 1339
00000010: 950f cfb9 22b5 a3ba a309 caba 1436 8239
00000020: 7a19 2839 68c6 bc37 c0d9 753a d577 b4ba
00000030: eb31 bcba 492d 9139 51ba 54b9 648a a5b7
-0.00043758017 0.0001184406 -0.00037255473 0.00014111772 -0.00039493726 -0.0012489895 -0.0015414249 0.00024835824
0.0001603122 2.2503737e-05 0.00093784556 -0.0013768623 -0.0014358138 0.00027690295 -0.00020287304 -1.9733976e-05

exp_avg_sq f4 [16]
00000000: 41ec 8036 582e ac37 9db8 6d36 d9d7 ca33
00000010: 76f5 2037 d3a9 3237 0096 3b37 7c62 1637
00000020: 5402 6235 7ef6 1d37 0aeb 8736 42b7 c937
00000030: 71df ba37 5773 3e35 4403 be35 c99b 6035
3.842201e-06 2.0525578e-05 3.542321e-06 9.4456205e-08 9.593894e-06 1.0649167e-05 1.1180993e-05 8.963627e-06
8.419495e-07 9.41532e-06 4.0506757e-06 2.4046403e-05 2.2276976e-05 7.094836e-07 1.4157054e-06 8.36732e-07

exp_avg f4 [16, 16]
00000000: 4cb3 c3b8 2111 a2b9 b5bb 9e38 c6a8 ab36
00000010: 64e2 e938 0429 6739 6ef0 2138 5352 5ab8
00000020: 40a8 e1b8 7c00 25b9 5e2c 8f38 5357 0f39
00000030: f039 4e39 bcbf 3bb9 84bc 05b8 4fce 06b9
00000040: e627 23b9 5f52 e8b9 7ce3 1bb9 ae91 8db7
00000050: 6558 b539 bc0e 1839 89ce e438 6423 34b8
00000060: fbcc 94b9 db2f 1eb9 823e 48b7 3296 f834
00000070: 3076 7b39 35c6 35b9 b23e 6d38 0141 59b9
00000080: 1e56 233a d62b e139 39d4 13ba e8e9 1839
00000090: 6ca2 3cba a0cd 3cba 58a1 6fb9 02d3 28b7
000000a0: 7a3e 233a 1a98 6038 cc5a 5138 0b80 bcb9
000000b0: 1fda 42ba 0888 a739 f70d 19ba a411 c939
000000c0: b708 73b8 cd46 a0b7 cf0c 4939 8256 8437
000000d0: 2274 6838 7411 b138 8407 e5b7 fee7 8d38
000000e0: 084a 18b8 e739 50b8 3413 cc38 6355 2a39
000000f0: 6d2a ed38 f4dd 4eb8 92f1 95b7 51af 5338
00000100: 57c2 123a 9ebd 4f3a 7085 93ba 533b 9339
00000110: 1056 26ba 2f58 cfba c457 11ba 3463 173a
00000120: 70ff 1b3a f6ee 3a37 c4b3 44b8 54dc 67ba
00000130: 06e4 4eba e6b9 d439 1238 51ba fac6 6639
00000140: c5a0 d7b8 b9e6 f8b7 e548 3839 3dbf acb8
00000150: 4587 dd38 684a bd39 222a 6939 1fcd 30b9
00000160: c455 06b9 fe8a d838 09e2 0bb9 3f51 8e38
00000170: 77b2 1039 ad73 d5b6 3f3c 5939 4a84 4738
00000180: 0727 3fb8 9bbf fa38 d443 42ba 9ce0 76b9
00000190: d61e 96b8 5ad9 263a 08a7 0d3a c697 2eba
000001a0: 357d eeb9 d0d2 9c39 7618 f4b9 45e7 38ba
000001b0: ada9 1f36 0461 6c39 5a10 5d39 2054 2b39
000001c0: 319c 23b9 e496 75ba b373 7cba 923b 52b9
000001d0: 0a88 9b3a bb97 0c3a bf43 c539 89d1 41b8
000001e0: bca5 09ba 5463 0a39 04f6 dbb9 fa0b 01ba
000001f0: f05b e839 b5f6 0db9 aef8 c639 8b81 00ba
00000200: 2078 01ba 6d3c a2ba 769c c338 96a7 2eb8
00000210: 5370 973a 7434 303a 54df 2239 7132 2139
00000220: 3806 a0b9 3322 3aba 14fb 5139 707a 5c3a
00000230: fb13 1c3a 66c6 29ba e735 013a ee22 2cba
00000240: 7c70 3a39 d2f5 4d39 c71b 78b9 6385 fa38
00000250: 5d69 cdb8 e81d e9b9 5bb7 40b9 b28b 8839
00000260: 0eb2 4139 442a 0db8 5e14 0c37 f766 12b9
00000270: b907 93b9 0933 df38 eaec b2b9 c478 2639
00000280: b5bd e038 8d37 76b9 f85f f3b7 0c78 9b39
00000290: 16f5 9638 5a4f 40ba 8a0e e3b9 fb61 c639
000002a0: eecf 0c39 2168 e2b9 9f8e d839 d892 2a39
000002b0: 70ec 34b9 88a6 aeb8 87e9 79ba c8d0 0a39
000002c0: 7a7d 20b9 fd18 ddb9 c0b2 29b9 bce7 10b9
000002d0: 491c 263a 2a52 063a e9e6 9f39 e840 5cb8
000002e0: 8f8f 80b9 e43f 7d37 6ecb e4b8 1268 cbb7
000002f0: ff98 d639 cf60 29b9 e957 e739 f2ab 7db9
00000300: 9a5a cc39 4c5c d139 e20a 59ba 98a9 3639
00000310: 57b7 72ba d1fb 94ba ead5 39b9 fd15 5838
00000320: 1c21 c039 7b4d 12b9 898e 80b8 6643 2aba
00000330: d7cd 00ba d2ff a639 20a8 5cba 2b6a 6839
00000340: 3058 04b9 c908 63b8 1d35 08b8 ac27 96b8
00000350: f8c4 ce38 5c40 65b5 f599 bc38 b0f2 08b8
00000360: 0009 69b7 78b9 d4b6 fea3 17b9 723a 1bb9
00000370: 74b2 6d38 9557 31b8 a262 2239 8800 6eb9
00000380: d616 99b8 8dd2 8ab8 d675 04ba 8420 81b8
00000390: c88c 5839 82d2 4c38 9eee 3738 c2f0 9438
000003a0: e73a bfb8 008c a7b7 13ea b1b8 5b73 a7b9
000003b0: 7f4f e938 207c 0d37 ba26 8339 b0fe 16b9
000003c0: 2114 64b9 7b8e c1b9 fffa c7b7 5613 b7b8
000003d0: dec2 1b39 8a62 bd39 7bce 8339 a11d 6ab9
000003e0: df96 4ab9 49a9 48b9 bba7 23b9 cbe2 5639
000003f0: 22ad 5239 68a3 31b9 a522 2c39 49c0 48b9
-9.331721e-05 -0.0003091181 7.56899e-05 5.115845e-06 0.00011152474 0.00022045156 3.860931e-05 -5.205192e-05
-0.00010760175 -0.00015735807 6.8270354e-05 0.00013670074 0.00019667274 -0.00017905136 -3.188524e-05 -0.00012856092
-0.00015559755 -0.0004431186 -0.00014866696 -1.6876347e-05 0.0003458887 0.00014501339 0.000109103574 -4.2948304e-05
-0.00028381482 -0.00015085882 -1.1935483e-05 4.630288e-07 0.00023981254 -0.00017335343 5.6563593e-05 -0.00020718949
0.0006230789 0.00042948005 -0.00056392286 0.00014582986 -0.00071958336 -0.00072022714 -0.00022852921 -1.0062709e-05
0.0006227266 5.3547417e-05 4.9914044e-05 -0.00035953554 -0.0007433015 0.00031954073 -0.0005838568 0.0003835085
-5.794383e-05 -1.9106456e-05 0.00019173625 1.577591e-05 5.5421267e-05 8.4432686e-05 -2.7302427e-05 6.766616e-05
-3.630857e-05 -4.964499e-05 9.731055e-05 0.00016244272 0.00011308943 -4.9320937e-05 -1.7874674e-05 5.0469596e-05
0.0005598417 0.00079246785 -0.0011254977 0.00028082225 -0.0006345222 -0.0015819127 -0.0005544389 0.0005774975
0.0005950844 1.1142101e-05 -4.689746e-05 -0.0008844782 -0.00078922545 0.00040574296 -0.00079810724 0.00022008634
-0.000102819446 -2.9671342e-05 0.00017574763 -8.23722e-05 0.00010563297 0.00036104326 0.00022236307 -0.00016861082
-0.00012811186 0.00010325572 -0.00013340278 6.786221e-05 0.00013799393 -6.361361e-06 0.00020717176 4.75685e-05
-4.5574296e-05 0.00011956618 -0.000741062 -0.00023544062 -7.158301e-05 0.00063647854 0.0005403613 -0.0006660189
-0.00045488184 0.00029911706 -0.00046557531 -0.0007053505 2.379161e-06 0.00022542855 0.00021082294 0.0001633917
-0.00015603077 -0.0009368493 -0.00096302776 -0.00020049352 0.0011866104 0.0005363186 0.00037625243 -4.620993e-05
-0.00052508316 0.00013197708 -0.0004195423 -0.0004922744 0.00044318987 -0.00013538713 0.00037950784 -0.0004902116
-0.00049388595 -0.0012377627 9.327468e-05 -4.164091e-05 0.0011553861 0.00067216833 0.0001553272 0.00015372947
-0.0003052221 -0.0007100433 0.00020025327 0.00084105786 0.0005953905 -0.0006476402 0.00049289915 -0.0006566484
0.00017780246 0.00019641899 -0.00023661471 0.00011945774 -9.794787e-05 -0.00044463505 -0.00018378852 0.00026044023
0.00018472245 -3.3656383e-05 8.349392e-06 -0.00013962002 -0.0002804378 0.00010642975 -0.0003412732 0.00015875982
0.00010716488 -0.00023481082 -2.9012546e-05 0.00029653346 7.198208e-05 -0.0007336043 -0.00043307646 0.00037838504
0.000134289 -0.0004318366 0.00041304991 0.00016267167 -0.00017254218 -8.3279854e-05 -0.00095333945 0.00013238483
-0.00015305533 -0.00042171023 -0.00016183686 -0.00013819238 0.0006336612 0.0005123938 0.00030498885 -5.2512536e-05
-0.00024521022 1.5094851e-05 -0.00010909779 -2.4247947e-05 0.00040931252 -0.0001615316 0.00044125252 -0.00024192015
0.00038977416 0.00039932353 -0.0008279515 0.00017420051 -0.0009258887 -0.0011366551 -0.00017722664 5.151889e-05
0.00036645762 -0.00013952509 -6.130065e-05 -0.00064950285 -0.0004913485 0.00031852588 -0.00084173866 0.00022164795
-0.00012621353 -5.41292e-05 -3.2474392e-05 -7.159947e-05 9.859534e-05 -8.5402803e-07 8.993215e-05 -3.2650947e-05
-1.3889978e-05 -6.3396838e-06 -0.00014461574 -0.00014803724 5.66714e-05 -4.2281656e-05 0.00015486268 -0.00022697647
-7.299862e-05 -6.619571e-05 -0.00050529593 -6.157256e-05 0.0002065181 4.883344e-05 4.385283e-05 7.1020346e-05
-9.118561e-05 -1.9973144e-05 -8.4836174e-05 -0.0003193867 0.00011125113 8.433155e-06 0.0002501512 -0.00014399993
-0.00021751273 -0.00036917985 -2.3839528e-05 -8.7297216e-05 0.00014854546 0.00036122306 0.00025140107 -0.00022327017
-0.00019320425 -0.0001913655 -0.00015607376 0.00020493117 0.00020091658 -0.00016940909 0.00016416104 -0.00019145118

exp_avg_sq f4 [16, 16]
00000000: 55ad 7434 5d77 8c34 d374 0535 0f12 ff32
00000010: 746b 0c34 db6c b134 5293 bf34 95cc 0334
00000020: d2a9 3834 753c 7834 9100 1334 60cf 4835
00000030: 0276 2634 4ecb 8833 af3d 4534 f058 5435
00000040: 4c8f ab35 10f2 8535 dd9d 8735 2ccd 9333
00000050: d275 9035 0682 0a35 26c4 9634 968f d235
00000060: ecf4 df35 691d 0935 5859 0835 1006 2536
00000070: b435 a134 c923 4534 a3db 0a35 315b 1835
00000080: b58d 0737 0171 b036 1b20 4338 35ff 6b35
00000090: 9927 4637 9fd7 2137 50b6 dd36 91b8 3637
000000a0: ce03 1637 7c31 b436 97e8 0037 e8de 0838
000000b0: 18c1 6f37 156a 8535 55df 3037 18eb c637
000000c0: 2e00 a434 078e 1c34 a813 1f36 2deb 4433
000000d0: 337b 3734 40d1 0035 7eab 0134 5093 2b34
000000e0: 8e6a 6034 3382 7b34 35eb d234 ce57 f535
000000f0: 9bbc 9034 006d 3b33 8ab5 2734 731d f635
00000100: 06c2 6936 e01e 8336 826d e637 c6cd f334
00000110: c151 0237 2ba7 f736 6c8e cf36 11cd e936
00000120: 5cb7 9f36 34b4 7d36 30cd 5736 7845 8937
00000130: e39d 4b37 0096 6335 e64d 3b37 519c 1337
00000140: 5c2e 0435 25e3 9f34 ce41 2136 7dfb 4c33
00000150: 6bcc 6035 51e6 1835 e565 7234 fdd2 5435
00000160: 5e95 0435 68f8 b434 ed3a f234 9743 0836
00000170: d8f0 2c35 bc93 8833 6028 e234 4ea8 a235
00000180: 8518 c035 6075 1837 93d7 a437 a1a4 a234
00000190: fee6 6737 0f83 1d36 fd8f 2736 be5b 7237
000001a0: 2c0b 7a36 940d 7136 5503 ec35 22c1 9b36
000001b0: 55ca 8737 9876 5835 b1ff 4737 0bc3 3c36
000001c0: ca75 9d36 eae9 9237 503c 1b37 caa4 d834
000001d0: a2d4 2e37 8ad7 4536 20ee 2036 7911 8d37
000001e0: c300 1337 5506 4f37 3580 c135 f2f9 4736
000001f0: ee2c da36 53f6 3336 cdf0 1f37 5c43 5037
00000200: feee 0736 8f39 c836 5b9e c337 f2d7 d434
00000210: e0c7 2e37 1c37 f136 2a64 6936 db67 1937
00000220: 515e 6c36 d05c 9d36 9d03 3736 b9a1 2937
00000230: 9c48 3837 cd64 6d35 3e05 6837 f869 f636
00000240: 028d 0334 e296 6d34 5763 0335 5571 6f32
00000250: 83f4 1d34 45d0 8534 e6a9 6b34 2ce2 c933
00000260: a873 d233 84fc 6534 2be0 a533 b146 cb34
00000270: bba1 c834 fd4b 2a33 04ea 6534 d264 3334
00000280: 9b7c c635 15d6 e935 3eaf 2b37 363a 1634
00000290: b232 0836 c692 8d36 1609 e735 1acf d635
000002a0: ba08 ea35 bfd6 0d36 73bb e935 8af7 c536
000002b0: 4ceb 4036 7c05 c434 9890 3b36 30c4 5136
000002c0: d3fd ec34 0fac 1d36 be92 0b36 abf1 9933
000002d0: a778 1a36 d12d 8935 a187 6035 2429 2b36
000002e0: 40cc 6735 5b06 0536 b048 7234 b488 db34
000002f0: 9007 f535 4136 cf34 f79c 2136 f6be 0536
00000300: 5c7a cc35 b028 ca35 ac0f 6f37 09f3 6734
00000310: ace8 ed36 62ce ac36 5890 5836 095e a136
00000320: e6aa 1136 1fb6 0a36 3da5 1136 f400 2c37
00000330: 3bca cc36 5331 0935 8585 be36 3cdb 8d36
00000340: eac9 db34 7148 9433 ae09 2435 0a4f c132
00000350: 3673 0734 4c4a e834 2b47 9333 1915 1634
00000360: 106a 8b34 f8ee 8634 e276 4134 2dbf 5e35
00000370: 29ca 2034 6a4b f732 bce0 d833 d02c 2f35
00000380: 3fc6 9034 8052 3134 dc59 0d36 1f4f 2633
00000390: 2a50 8a34 b026 2935 e1e0 f333 920b 8734
000003a0: 773d 4034 6a21 a334 87e9 d434 fc72 0236
000003b0: 2f52 9034 0135 6d33 a4af 7d34 4d2b ea35
000003c0: 64d4 9235 3575 2d35 e3bc db36 f3b6 1f34
000003d0: 81f4 2d35 410e c435 3ac1 9134 4313 5335
000003e0: fe15 3835 fefa 8635 c02a a635 bc18 a236
000003f0: 6154 4a35 d807 1534 a987 4135 b935 d336
2.2787329e-07 2.616388e-07 4.971636e-07 2.969412e-08 1.3077607e-07 3.3048022e-07 3.5683712e-07 1.2274752e-07
1.7198116e-07 2.3118794e-07 1.3690648e-07 7.4807576e-07 1.5502886e-07 6.3699744e-08 1.8369495e-07 7.9105575e-07
1.2782198e-06 9.979722e-07 1.0104228e-06 6.8825415e-08 1.0763126e-06 5.1598215e-07 2.8082394e-07 1.5688008e-06
1.6686076e-06 5.1079274e-07 5.079396e-07 2.4590445e-06 3.002766e-07 1.8360073e-07 5.172862e-07 5.6757113e-07
8.079621e-06 5.258364e-06 4.6521523e-05 8.7915697e-07 1.1810939e-05 9.646551e-06 6.607537e-06 1.0891018e-05
8.941583e-06 5.3701788e-06 7.683549e-06 3.2632524e-05 1.4290468e-05 9.940146e-07 1.0542416e-05 2.3712913e-05
3.054751e-07 1.4580301e-07 2.3704288e-06 4.5848697e-08 1.7088023e-07 4.7988215e-07 1.207645e-07 1.5979208e-07
2.090039e-07 2.3423563e-07 3.9286684e-07 1.8279477e-06 2.695932e-07 4.3638465e-08 1.561913e-07 1.8336999e-06
3.4832642e-06 3.9076986e-06 2.746913e-05 4.5411997e-07 7.767639e-06 7.3806345e-06 6.185661e-06 6.967814e-06
4.759915e-06 3.780483e-06 3.2156931e-06 1.6364022e-05 1.2136504e-05 8.478237e-07 1.1164206e-05 8.798278e-06
4.9241294e-07 2.9781327e-07 2.4029173e-06 4.772618e-08 8.374397e-07 5.6959567e-07 2.2575075e-07 7.928318e-07
4.939119e-07 3.3708352e-07 4.5118887e-07 2.0304922e-06 6.4425467e-07 6.359866e-08 4.2125157e-07 1.2118924e-06
1.4312251e-06 9.0872345e-06 1.9650708e-05 3.0294635e-07 1.3822455e-05 2.347111e-06 2.4968751e-06 1.4445684e-05
3.7259406e-06 3.5919702e-06 1.758434e-06 4.6418436e-06 1.6187472e-05 8.0638847e-07 1.1920857e-05 2.8127713e-06
4.692677e-06 1.7513481e-05 9.2527625e-06 4.0353035e-07 1.0420716e-05 2.9480748e-06 2.3980465e-06 1.6816646e-05
8.76206e-06 1.2339636e-05 1.4416934e-06 2.9798798e-06 6.502137e-06 2.6816458e-06 9.533204e-06 1.2413449e-05
2.025568e-06 5.967165e-06 2.3319551e-05 3.9645198e-07 1.0417745e-05 7.1887753e-06 3.4778009e-06 9.143691e-06
3.522164e-06 4.6897694e-06 2.7271228e-06 1.0110839e-05 1.098416e-05 8.8436065e-07 1.3829498e-05 7.3437077e-06
1.2251624e-07 2.2127236e-07 4.894586e-07 1.39374e-08 1.4710717e-07 2.4924717e-07 2.1947889e-07 9.400932e-08
9.799925e-08 2.1419152e-07 7.724187e-08 3.786313e-07 3.7370577e-07 3.965032e-08 2.1412421e-07 1.6707352e-07
1.4788415e-06 1.7422159e-06 1.0233196e-05 1.3991016e-07 2.0295088e-06 4.219214e-06 1.7213486e-06 1.6004517e-06
1.7436898e-06 2.1135636e-06 1.7414408e-06 5.899875e-06 2.874719e-06 3.6511835e-07 2.7949336e-06 3.1257623e-06
4.4143107e-07 2.3494974e-06 2.079803e-06 7.168577e-08 2.3018017e-06 1.022063e-06 8.364387e-07 2.5504933e-06
8.635143e-07 1.9822244e-06 2.256445e-07 4.0891393e-07 1.8256123e-06 3.859623e-07 2.4082235e-06 1.9929698e-06
1.5234796e-06 1.5062014e-06 1.4249159e-05 2.1601967e-07 7.090237e-06 5.1500256e-06 3.2270527e-06 4.809121e-06
2.170616e-06 2.066961e-06 2.1702865e-06 1.0252221e-05 6.1032165e-06 5.1108253e-07 5.677985e-06 4.2276497e-06
4.093884e-07 6.904964e-08 6.1108847e-07 2.25041e-08 1.2614768e-07 4.3267426e-07 6.858166e-08 1.3977514e-07
2.5967938e-07 2.5133318e-07 1.8017775e-07 8.297964e-07 1.4974707e-07 2.8788879e-08 1.0099163e-07 6.525779e-07
2.6966333e-07 1.6514423e-07 2.1062942e-06 3.8721847e-08 2.576283e-07 6.3013704e-07 1.13564745e-07 2.5154128e-07
1.7903754e-07 3.0385428e-07 3.965799e-07 1.943844e-06 2.6881887e-07 5.522907e-08 2.3626359e-07 1.7446961e-06
1.0939661e-06 6.461808e-07 6.548698e-06 1.4874585e-07 6.480332e-07 1.4607286e-06 2.7148945e-07 7.8631655e-07
6.8577344e-07 1.0056826e-06 1.2380406e-06 4.8308557e-06 7.537365e-07 1.387956e-07 7.2095514e-07 6.294544e-06

exp_avg f4 [16]
00000000: 3ec7 a1b7 3478 95b8 193e b8ba c39b ca38
00000010: 6ed1 0bbb db99 eb39 7d1b 4f39 c988 9c39
00000020: 27c9 b939 eb49 5bba 0d58 c4ba a1cf 1e3a
00000030: bb20 eeba ed10 9b38 2e4a 9938 718a 1939
-1.9285475e-05 -7.127263e-05 -0.0014056592 9.6611235e-05 -0.0021334547 0.00044937324 0.00019751299 0.00029856552
0.0003543582 -0.00083652016 -0.0014979854 0.0006058161 -0.0018167713 7.3941286e-05 7.3094256e-05 0.0001464279

exp_avg_sq f4 [16]
00000000: 53e9 9f35 c314 3f36 4772 f937 b5d1 4f35
00000010: 84f3 c637 7c07 ce35 dfe5 b437 9bea e037
00000020: f85b c337 2c4b 8a35 c35b 0d37 6e84 a936
00000030: e705 6437 efc0 f034 bb5f 7635 46f3 3036
1.191433e-06 2.8473303e-06 2.9736328e-05 7.7418673e-07 2.3716835e-05 1.5350374e-06 2.1564714e-05 2.6812128e-05
2.3288638e-05 1.0303679e-06 8.42562e-06 5.0520093e-06 1.3591233e-05 4.484386e-07 9.178145e-07 2.6367647e-06

exp_avg f4 [16, 16]
00000000: c831 8d38 7544 0539 d4f7 1cb9 a3ec 4838
00000010: d759 33b9 2af5 beb7 00cf 6136 5643 d838
00000020: 6e77 11b9 4760 a8b8 0050 33b9 39b8 ebb7
00000030: f51b 88b9 dbec feb8 d4cf ffb8 5b0d c2b7
00000040: a80d a638 e7a4 88b8 d99e aab8 ad3d 8037
00000050: 8f08 7339 2512 63b9 f4ad 24b9 6e37 3a39
00000060: 5278 a339 8502 7638 19ee 0839 c13c 2f39
00000070: b016 8738 f811 b4b9 01ef 48b9 b8d1 18b9
00000080: 0bd5 4bb7 2fc6 5ab9 e94c 8ab8 8ddb 9fb7
00000090: a030 9d39 a6d2 8bb8 5197 9938 c845 7d38
000000a0: 5784 033a 7f34 3b39 f45f 3639 1601 b939
000000b0: 7937 093a 7662 98b9 eeec 2239 b1c4 41b9
000000c0: 7680 9839 c16a 0e3a 5862 13ba 929c 5c39
000000d0: 971c 57ba 95de 41b8 86e3 1c38 0cdd 3939
000000e0: 15c6 41ba c33f 9fb9 da64 3bba c951 84b9
000000f0: df8d 92ba da08 b7b9 47fb d5b9 8393 78b8
00000100: 1f77 1db8 9107 6db9 5e84 34b6 69be 28b9
00000110: 656b a239 88c2 8438 655c 1c39 40d6 8ab9
00000120: ba59 1039 3fe0 c239 980f 2fb9 cea2 c439
00000130: 60a5 503a f1ee 0fba 342b 7c39 b740 92b9
00000140: cf17 64b9 6533 abb9 4c82 163a 5918 98b9
00000150: aeb1 fd39 7975 a539 ec40 0439 ecdc 37ba
00000160: 40ab d937 6001 dc39 a136 e8b7 314c 7739
00000170: 1f41 9a3a d4c8 e6b7 09e9 0a3a a2b7 1fb9
00000180: f11c 4338 9d33 d6b8 b1f1 f7b8 b6c8 5b37
00000190: b18c 6939 e428 2ab9 ef84 adb8 01aa 90b7
000001a0: 3f91 ba39 13ba 4b38 4980 2539 e7a5 5039
000001b0: 0a31 3f39 5825 73b9 cd7b 3c37 9e32 0ab9
000001c0: 247e 8d39 b384 dd39 3f91 f9b9 c01b 9e38
000001d0: 112d c8b9 f53a 50b9 22d4 33b9 6ae6 be39
000001e0: 295d 86b9 a10b 7eb9 e5bf 28ba 3f6b c5b8
000001f0: 803f 55ba d789 39ba 9a04 1aba 6b7e 4fb9
00000200: 06e9 a038 2944 37b9 e2ed 8e38 fc43 c738
00000210: eea9 053a baf2 45b9 9234 92b9 69ca 8839
00000220: a095 473a f2f5 3839 da7a 4c3a 67f7 a439
00000230: 0807 d039 af21 53b9 37ca 49b8 55ab ddb8
00000240: a424 4239 ad0d 9038 c2e1 87b8 87c3 d738
00000250: df0f 9738 029c 4ab9 f95a 6cb9 baf5 3e39
00000260: bbb2 8539 edc5 7db8 6795 1639 80ef a238
00000270: ba0e 0ab9 318f 50b9 e004 59b9 7706 f5b8
00000280: 10cc 9038 3b71 8f39 156d 17b8 ac72 0239
00000290: acf6 bab9 eb7f 3039 f82d d5b8 542a 8337
000002a0: 886e f3b9 b8e3 19b9 fb8d 0fb8 8a20 5fb9
000002b0: a84d dbb9 90ea 5c39 e97b ceb8 49e5 fe38
000002c0: 81bc 39b9 7bbe 08ba 996d f439 0b98 bfb9
000002d0: 4505 323a 74f5 ee38 9c6e 67b8 9eed 61b9
000002e0: c3a3 d339 abbf e839 999c ae39 474f a339
000002f0: 8865 9d3a 7913 1bb6 8a49 cf39 232e 26b9
00000300: 4fa9 da39 e32a 0a3a 4b94 5aba 3b55 b036
00000310: 35f9 00ba 2c34 96b9 1be5 a6b9 3ee4 d439
00000320: 14ad 7cb9 761d 9eb9 d0fa 53ba 0509 2737
00000330: 90f3 79ba 65b2 89ba e38c 3cba d97c e1b9
00000340: b9f4 0939 bb40 5f39 3afd 70b9 3e3c f138
00000350: 6392 96b9 f365 06b8 3ced 01b7 7b12 0839
00000360: 879c 5db9 a131 0bb9 3b01 65b9 33d0 95b8
00000370: c984 e5b9 0482 1fb9 e7a6 4cb9 6e34 78b7
00000380: 625d d638 b6bc 5139 77ca 4bb9 3580 a638
00000390: 71f9 a5b9 a4e3 b5b6 cc5f 5b38 dbb7 fb37
000003a0: 752b 9ab9 7733 08b9 36d4 aab9 341b ceb8
000003b0: 5a4f d4b9 7287 e0b8 063e 10b9 df87 35b7
000003c0: 64d6 58b8 bcd3 cd35 974a 5339 eb83 6736
000003d0: a318 bcb8 90cb 4f39 734f 8338 2435 b7b9
000003e0: 8fef 5eb9 643e 5338 545e 0639 09ad 7cb8
000003f0: 2ef0 2939 4264 c539 e1a4 9339 ded7 9c38
6.7326764e-05 0.0001270937 -0.00014969643 4.79041e-05 -0.00017104238 -2.2763928e-05 3.3648103e-06 0.00010312225
-0.00013872769 -8.028797e-05 -0.00017100573 -2.8099968e-05 -0.0002596077 -0.000121557816 -0.000121980585 -2.3132821e-05
7.9180405e-05 -6.515701e-05 -8.1358194e-05 1.5287509e-05 0.00023177474 -0.00021655166 -0.00015705061 0.00017758991
0.00031179428 5.8653317e-05 0.00013058669 0.00016711933 6.4415275e-05 -0.00034345663 -0.00019162522 -0.00014573976
-1.2149346e-05 -0.00020863929 -6.5946784e-05 -1.9056513e-05 0.00029981602 -6.667273e-05 7.3237934e-05 6.038489e-05
0.00050169736 0.00017853266 0.00017392618 0.0003528676 0.00052344013 -0.00029065058 0.00015537787 -0.00018479188
0.0002908741 0.00054327777 -0.00056222593 0.00021039162 -0.00082058593 -4.622208e-05 3.7405196e-05 0.00017725321
-0.0007391882 -0.0003037435 -0.0007148512 -0.00025237937 -0.0011181197 -0.00034911075 -0.00040813742 -5.926519e-05
-3.7542657e-05 -0.000226049 -2.6899138e-06 -0.00016092662 0.00030979063 6.330485e-05 0.00014911739 -0.0002648104
0.00013766336 0.0003716964 -0.0001669511 0.00037505332 0.0007959213 -0.0005490622 0.00024048687 -0.00027895506
-0.00021752644 -0.00032653954 0.00057414616 -0.0002900984 0.00048388302 0.00031558776 0.00012612686 -0.0007013816
2.594816e-05 0.00041962694 -2.7681994e-05 0.00023584139 0.0011768675 -2.7511654e-05 0.0005299007 -0.0001523183
4.6518577e-05 -0.00010213929 -0.00011822896 1.3100149e-05 0.00022273023 -0.00016227696 -8.274044e-05 -1.7245302e-05
0.000355849 4.8572267e-05 0.00015783416 0.00019898229 0.00018233448 -0.00023188198 1.1234498e-05 -0.00013179562
0.00026987598 0.00042251273 -0.00047601198 7.539196e-05 -0.0003818055 -0.00019858389 -0.00017149796 0.00036411296
-0.0002562788 -0.0002422766 -0.0006437286 -9.413668e-05 -0.00081347674 -0.00070777297 -0.00058753195 -0.00019788153
7.6727985e-05 -0.00017477632 6.815397e-05 9.5017225e-05 0.0005098869 -0.00018877807 -0.00027886458 0.0002609075
0.00076135434 0.00017639229 0.0007800289 0.00031464847 0.0003967809 -0.00020135076 -4.811046e-05 -0.00010570014
0.00018514931 6.8690024e-05 -6.479352e-05 0.00010288419 7.203197e-05 -0.00019322339 -0.00022540604 0.00018211352
0.000255009 -6.0504233e-05 0.00014360771 7.769372e-05 -0.00013166192 -0.00019889769 -0.00020696549 -0.000116837145
6.904465e-05 0.0002735945 -3.6102796e-05 0.00012440485 -0.0003566047 0.00016832321 -0.00010165194 1.5636128e-05
-0.00046430924 -0.00014676049 -3.4226086e-05 -0.00021279059 -0.00041828793 0.00021068216 -9.8459255e-05 0.000121543715
-0.00017713198 -0.0005216372 0.00046620963 -0.0003654364 0.00067909464 0.000113944436 -5.5177705e-05 -0.00021546191
0.00040367068 0.00044393292 0.0003330454 0.0003114885 0.0012008408 -2.3108134e-06 0.00039536908 -0.00015848181
0.00041706345 0.0005270673 -0.00083381374 5.255131e-06 -0.0004919947 -0.000286491 -0.00031832684 0.00040605845
-0.0002409707 -0.00030158059 -0.0008086385 9.956076e-06 -0.000953489 -0.0010505436 -0.00071926246 -0.00043008363
0.00013156504 0.00021291051 -0.00022982518 0.000115029965 -0.00028719296 -3.2043037e-05 -7.744235e-06 0.00012976855
-0.00021134513 -0.00013274561 -0.000218396 -7.143654e-05 -0.00043777216 -0.00015211856 -0.00019517132 -1.4794159e-05
0.00010221709 0.00020002094 -0.00019435013 7.939377e-05 -0.000316571 -5.420721e-06 5.2302887e-05 3.0007146e-05
-0.00029405547 -0.00012989143 -0.00032583036 -9.8279124e-05 -0.00040494913 -0.00010706381 -0.00013756016 -1.0820076e-05
-5.169808e-05 1.5335313e-06 0.00020150315 3.4498469e-06 -8.9691275e-05 0.00019816891 6.261365e-05 -0.00034944073
-0.00021260812 5.0364426e-05 0.00012814376 -6.0242633e-05 0.0001620657 0.00037649466 0.0002816087 7.478868e-05
