results/max-hiddenunits512-config1-2/3DBall/3DBall-449085.onnx (onnx, 29626 bytes, 4 tensors)

action_model._continuous_distribution.log_sigma f4 [1, 2]
000000 9b 65 06 be 70 d2 5a be
       -0.13124697 -0.21369338

action_model._continuous_distribution.mu.bias f4 [2]
000000 5c a2 c5 3c bf ab 18 3c
       0.02412527 0.009318291

network_body.processors.0.normalizer.running_mean f4 [8]
000000 1f 14 c0 ba dc 95 fa ba d3 0a 3c be 37 b3 44 40
       -0.0014654434 -0.0019118148 -0.18363504 3.0734384
000010 f4 cd 83 3d 94 f3 54 3c 53 cb a8 be 1a 5d 23 bc
       0.06435767 0.012997527 -0.32967624 -0.009970928

sqrt f4 [8]
000000 ac 75 66 3d f1 e0 5d 3d b7 d2 32 3f b2 83 5e 3e
       0.056264564 0.0541696 0.69852775 0.21729925
000010 2d a6 29 3f 0f a4 0d 3f c0 df 32 3f 77 bf 0e 3f
       0.6626919 0.5532846 0.69872665 0.557609
