results/max-hiddenunits16-config2-1/3DBall/3DBall-100131.pt (torch, 44538 bytes, 56 tensors)

network_body.observation_encoder.processors.0.normalizer.running_mean f4 [8]
00000000: fc9c 46b9 a47f 883b 617c bebc 34f9 4540
00000010: 79a9 333d 3cb1 00bd 607c 63bf 809c 783d
-0.00018941233 0.0041656066 -0.023252668 3.0933352 0.043862794 -0.031419024 -0.88861656 0.060696125

network_body.observation_encoder.processors.0.normalizer.running_variance f4 [8]
00000000: 7038 2744 e308 1f44 d279 0d48 8d8a 8a46
00000010: 1e2d 0d48 28e2 cb47 ec2d 0848 3004 ce47
668.88184 636.13885 144871.28 17733.275 144564.47 104388.31 139447.69 105480.375

network_body.processors.0.normalizer.running_mean f4 [8]
00000000: fc9c 46b9 a47f 883b 617c bebc 34f9 4540
00000010: 79a9 333d 3cb1 00bd 607c 63bf 809c 783d
-0.00018941233 0.0041656066 -0.023252668 3.0933352 0.043862794 -0.031419024 -0.88861656 0.060696125

network_body.processors.0.normalizer.running_variance f4 [8]
00000000: 7038 2744 e308 1f44 d279 0d48 8d8a 8a46
00000010: 1e2d 0d48 28e2 cb47 ec2d 0848 3004 ce47
668.88184 636.13885 144871.28 17733.275 144564.47 104388.31 139447.69 105480.375

network_body._body_endoder.seq_layers.0.weight f4 [16, 8]
00000000: 90d6 cbbd 37c9 20bf 53f0 f2be 7367 623c
00000010: c5fd 993a 0b9f 89bd 8b8b 05be 7b85 8bbd
00000020: 64f1 2f3f dc6b 043e 7f00 8c3e f3dd a63e
00000030: 9add c13e 3e6e abbe c6f5 69be f2ad 6a3f
00000040: 355f 04bf d87b 353f eb61 d53e c3d1 49bd
00000050: 4873 0b3d 75a1 fdbe 4a73 efbd 0340 d33e
00000060: 790f 0d3e dedc 7cbe 6462 7fbe b881 9ebe
00000070: ebf0 e3be 7aae d7be 1d00 e1be 263a bc3c
00000080: 4619 20bf 5a24 2dbe a9f5 863e 4a96 58bd
00000090: c96b dcbe 4e6d 853e b229 abbc 58af b53c
000000a0: 7262 913c f86b c5be f5f0 2e3f 602f c7bd
000000b0: db67 23be 417a 163f b8e4 36bd fa48 22be
000000c0: 885d b23e a5bc 893e 4768 c2bc 93bc 87bf
000000d0: 2460 65bf dedc a9be 0d37 66bf cdd5 15bc
000000e0: f51d 083e 40e9 83be 771c f6bb 5faa 56be
000000f0: e98d 18bf c7b3 373f 6146 a63e 4124 53be
00000100: ddc3 71be 1fb7 f4be edb0 283f 7ab6 3abe
00000110: 4fc7 223e c036 e7bd 0d0c ecbe d384 97be
00000120: 2ba0 923e aad1 073e cb8b 81be 2049 37bf
00000130: 02f3 18be 94e6 1e3f 04a1 02be 2fef b0bd
00000140: 48f9 a7bc 9bdf 363f 4cfc 70be c9fc f13e
00000150: 43fb 18bf 83ae 303f a869 0a3c 89f4 72be
00000160: ab8d e7bd fadb fbbd 2a5a 96bd 7b9a 54bc
00000170: f03e fc3e 8246 093f b7eb bcbd 5b79 0fbc
00000180: b0c6 903e 8df3 08bf 4788 a1bd e283 07bf
00000190: e793 f23d a45c c73e 5043 87bd 1a70 a03e
000001a0: ebcb ba3e b364 813e e404 c73e aca9 f0bc
000001b0: 22a7 843c f2af 97bc 74ce e73d 24d4 283f
000001c0: c3b5 313f 72a8 83be 6cb5 323e 86ed c93d
000001d0: 7891 30bf 7311 80bf c121 993e 774a ecbe
000001e0: b3a5 3c3d b7e9 41bf f767 2c3f 627b af3e
000001f0: 18cb a83e e8b0 3fbe 4612 0e3e 7836 b9be
-0.09953034 -0.6280703 -0.47448978 0.0138186095 0.0011748603 -0.06719788 -0.13041513 -0.06812569
0.6872771 0.1293177 0.27344128 0.3259121 0.3786438 -0.33482546 -0.22847661 0.9167167
-0.51707774 0.70892096 0.41676268 -0.04927231 0.034045488 -0.49537244 -0.116919115 0.41259775
0.13775434 -0.24693629 -0.24939877 -0.30958343 -0.44519743 -0.42125303 -0.439454 0.022976946
-0.62538564 -0.16908398 0.263593 -0.0528777 -0.43050984 0.26059955 -0.020893905 0.022178337
0.017747138 -0.38558936 0.6833642 -0.09725833 -0.15957586 0.58780295 -0.044651717 -0.15848151
0.34836984 0.26901737 -0.023731364 -1.0604423 -0.89599824 -0.3317632 -0.8992775 -0.009145212
0.13292678 -0.25763893 -0.0075107175 -0.20963429 -0.5959154 0.71758693 0.3247557 -0.20619299
-0.23609872 -0.4779596 0.6589497 -0.18233672 0.15896343 -0.112897396 -0.46102944 -0.29593524
0.28637823 0.13263574 -0.25301966 -0.71595955 -0.1493645 0.62070584 -0.12756735 -0.08639371
-0.020504609 0.71434945 -0.23533744 0.47263172 -0.59758395 0.69016284 0.008448042 -0.23726095
-0.11306318 -0.122978166 -0.07341416 -0.012976284 0.49266768 0.5362321 -0.092246465 -0.008756961
0.28276587 -0.5349663 -0.07887321 -0.5293561 0.118446164 0.38937867 -0.06604636 0.31335527
0.36483702 0.2527214 0.3887092 -0.02937778 0.016192976 -0.018516514 0.11318675 0.659487
0.6941797 -0.2571445 0.1745202 0.09859757 -0.6897197 -1.0005325 0.29908565 -0.46150562
0.04605646 -0.75747246 0.6734614 0.3427382 0.32967448 -0.18719828 0.13874158 -0.3617437

network_body._body_endoder.seq_layers.0.bias f4 [16]
00000000: 25b7 c63d a5f9 b63d 740e 1a3e e504 463c
00000010: ce18 093e 63cc 593d 4f8e 4cbc cd96 363d
00000020: e9ea ac3d aa82 273d 2845 6bbd 1a9b 203e
00000030: 2f0d b6bc 1b59 0f3e a730 0f3e 8a62 9a3b
0.09702901 0.08934335 0.15044576 0.012086128 0.13388368 0.053173434 -0.012485101 0.04457741
0.08443243 0.040896095 -0.057439 0.15684167 -0.022223083 0.13998835 0.13983403 0.004711454

network_body._body_endoder.seq_layers.2.weight f4 [16, 16]
00000000: ad40 433e 9557 c7be 112a 823e 9b5b 9fbe
00000010: 332b 433d 1cf0 913d f37a a5bc 4a8f f93e
00000020: 2bf4 a9be b901 21be f06e 9abe 5334 093d
00000030: d85d 7dbe 828c 7dbe 241d ebbc 46af df3d
00000040: f253 b7bd e234 edbe 0de9 03be 060f 033e
00000050: 9695 983e 095b cb3e b094 d3be 370d 2abe
00000060: aa67 eb3e 2d1e 713e cb9a 533e e578 5abc
00000070: b77e b8be 2085 08be 500d cfbd 098e 433e
00000080: 687c d23b 1b5b 9abd ab5a f73a 5cbd 07bf
00000090: 2bbf d4be 63c1 9cbc fcc0 e9bd 4ece 8ebe
000000a0: 026b d6be 1e65 fdbd 0e0b 0cbc 4fdc 4d3e
000000b0: eeef 35bd 64c4 a63e f3b6 3cbe b0ee ecbe
000000c0: 4514 193f 5f62 a0bb 94b2 e7be 243b 993e
000000d0: 4667 55be cbfa 913d b020 62be a11f c7bd
000000e0: 37b6 4abe 7f0d 5b3e 8d91 553d cc2a a8bc
000000f0: 1851 16be 91fb a93d 800a 743e 7ad3 2bbd
00000100: 401a 193e d055 1cbe 33a5 ecbc 982c 50bd
00000110: b544 203e f03b e23d 7cdd dd3e 608b f03d
00000120: 5a54 dfbd 87fb bebe 18c0 cdbd 1ecf 9f3e
00000130: f58f 4b3e bff8 133d e88c 44be bfad c3be
00000140: 8ebf ffbd e467 afbe c44c e43e 95f2 f8bb
00000150: ed2b 45bd 3a12 7fbb f9b5 8abd c8f1 9abe
00000160: c329 363e 13ad eabd 4b5c af3e cecd a6bd
00000170: a635 bc3e cb0c e23e 8b11 79be 596a ccbe
00000180: a9e8 45be 3332 e3bd e659 2dbe 5c6c 31bf
00000190: ff3a 76bd fafa 07bc a80e 32bd 1abd dcbd
000001a0: 7419 723e 2288 013e d0dc ae3d 65d7 ec3d
000001b0: 905a b4bd 30f7 b8be 02d5 16bf 4b56 233e
000001c0: 4a07 973d b9f0 893d ba2a c43d 7dc9 673e
000001d0: ae93 d1be 3fb7 313e b140 0a3e 7b19 e3bd
000001e0: 987d 18bd db40 373e 150a 73be 405c 2c3e
000001f0: 4baf b5be 848a cb3e 4007 03be 7637 34bd
00000200: ef38 7f3e 00b3 c63d 5c03 6cbe 1c3f 99be
00000210: 8de2 bdbe f89f 25bf 1fa2 5d3e 0ffa f9be
00000220: a262 27bf 2b6b 643e 7c07 aebd 5fc4 15be
00000230: e3ac d93d 73ef 2d3e 1e5e 0f3e 2a64 06bd
00000240: 16fd adbe a2e5 8e3e 25f4 203e b7ab 91be
00000250: 618b 5b3e 2609 8cbe c709 0fbe e82d 86be
00000260: 79fa 8bbd 789e 9c3e b1eb 26be e6ac 0d3f
00000270: 0b4d 39be e6be 263d bee5 2abf cf0d 2abc
00000280: 9397 2f3c 91a3 ba3e 2e91 fabe 9fee 3e3e
00000290: c3ad 25be ba2f 91be d33e d53e 707c b6be
000002a0: 4e74 85bd 2f33 7bbe 043a 52bc 236f ab3e
000002b0: 8e04 2dbd c234 e23d 7cae f73e 6fbb f43c
000002c0: 1862 f4bd 906f cd3d 23c3 54be f1bd 11be
000002d0: 10d4 4c3e bc4e 28be 4962 b83d 4434 f43e
000002e0: 7c41 c4bd e6e5 1bbe 1807 cabe 738a ae3e
000002f0: e361 00bd 4816 a9bd 898b 37be 0a9e a73b
00000300: 18ae bf3e f726 a1bd a1fa 0b3d 4361 ea3c
00000310: 0c26 473e 0d7d 993e 467b 96bd 5c00 043f
00000320: f28f 1b3f 4d7e 46be c812 063d d94f b03d
00000330: afc3 5a3e eb8e 31bf 06dd 263e 4805 813e
00000340: 3fb5 2cbc 9357 c23c e422 14bd 9eca dd3e
00000350: a777 9bbe b39e adbe c60e 5ebe b9f2 8ebe
00000360: 7123 8dbd 75d5 abbe 156f adbe d2d4 51be
00000370: bdab 40be aee7 9a3e 38a2 a63e a1e1 3b3e
00000380: 07b0 313e fa45 23be 1c4e a63d 9209 70be
00000390: bc3c c93e 5bec f5bd 54e2 f3bd 6111 0e3f
000003a0: e3aa 893e 6a0f 52be 857f 45be adaa 97bd
000003b0: ffbb 2cbe d334 823e 40d8 96be 5c22 2abc
000003c0: c2ab 52be 327a 343e 4fd1 c13e 1c6f a1bb
000003d0: c9b7 0cbe 04b2 b6bd b46e aebd dd6e b4bc
000003e0: f91e b03d 71f1 13bd 5235 bd3d 2323 083e
000003f0: 1f4a 05bf 7d6a d63e 956f 16be edde 393e
0.1906764 -0.38934007 0.2542272 -0.31124577 0.04764862 0.07125875 -0.020200228 0.48742133
-0.33194098 -0.15723313 -0.30162764 0.033497166 -0.2474283 -0.2476063 -0.028700419 0.10922103
-0.08951558 -0.4632941 -0.1288187 0.127987 0.29801625 0.39717892 -0.41324377 -0.16606604
0.45977527 0.23546667 0.20664518 -0.013334488 -0.36034176 -0.13332033 -0.10109961 0.19097151
0.006423522 -0.07536908 0.0018871626 -0.53023314 -0.415521 -0.019135183 -0.11413762 -0.27891773
-0.41878515 -0.12372802 -0.0085475575 0.20103572 -0.044418268 0.3257171 -0.18429165 -0.46275854
0.59796554 -0.0048945392 -0.45253432 0.29927933 -0.20840177 0.07127913 -0.22082782 -0.097228296
-0.19796072 0.21391867 0.05214076 -0.02052822 -0.14679372 0.082999356 0.2383213 -0.041949727
0.1495142 -0.1526711 -0.028887367 -0.050823778 0.1565121 0.110465884 0.43333042 0.11745334
-0.10904761 -0.37301275 -0.100464046 0.31212705 0.19879134 0.036125895 -0.19194376 -0.38218495
-0.12487708 -0.3425895 0.44589818 -0.0075972774 -0.048137594 -0.0038920776 -0.0677299 -0.3026259
0.17789368 -0.114587925 0.342501 -0.08144723 0.3675968 0.44150385 -0.24323098 -0.39924887
-0.19327034 -0.11093559 -0.16928825 -0.6930597 -0.060114857 -0.008299584 -0.04347101 -0.10778256
0.23642522 0.12649587 0.085382104 0.11564521 -0.08806336 -0.3612609 -0.58918774 0.15950887
0.07374437 0.06735367 0.09578462 0.22635455 -0.40932983 0.17355059 0.1350124 -0.110888444
-0.03722915 0.17895834 -0.23734315 0.16832066 -0.354853 0.39754117 -0.12795734 -0.043998204
0.24924062 0.0970211 -0.23048156 -0.2993096 -0.37086907 -0.6469722 0.21643876 -0.48823592
-0.65384877 0.22306506 -0.08497521 -0.14625691 0.10628679 0.16985874 0.14000747 -0.032810368
-0.33982152 0.2790957 0.15718134 -0.2845132 0.21439888 -0.2735073 -0.13968574 -0.262069
-0.06834883 0.30589652 -0.16300847 0.5534195 -0.18095796 0.0407094 -0.6675681 -0.010379269
0.01071729 0.36452916 -0.48938888 0.18645714 -0.16179566 -0.28356725 0.41649494 -0.35641813
-0.06516324 -0.24531244 -0.012831215 0.33483228 -0.04224067 0.11045219 0.4837531 0.029874532
-0.119327724 0.100310445 -0.20777564 -0.14232613 0.2000277 -0.16436285 0.090031214 0.47696126
-0.09582803 -0.15224418 -0.39458537 0.34090003 -0.031343352 -0.08256203 -0.17924322 0.0051152753
0.3743751 -0.0786876 0.034174565 0.028610831 0.19448107 0.2997822 -0.07347731 0.5156305
0.6076652 -0.19384117 0.032732755 0.0860898 0.2136371 -0.693587 0.16295251 0.25199342
-0.010541259 0.0237234 -0.036166087 0.43318647 -0.30364725 -0.3391014 -0.21685323 -0.27919558
-0.068915255 -0.33561292 -0.3387381 -0.20491341 -0.18815513 0.30254883 0.32545638 0.1834779
0.17352305 -0.15944663 0.08120367 -0.23441151 0.3930415 -0.12007972 -0.11908403 0.5549527
0.2688819 -0.20513692 -0.19286926 -0.07405601 -0.1686859 0.25430927 -0.2946186 -0.0103841685
-0.20573333 0.17624739 0.37855002 -0.0049265753 -0.13741983 -0.089206725 -0.08517209 -0.02202552
0.085996576 -0.03611893 0.09238686 0.13294654 -0.52066225 0.4187812 -0.14691003 0.18151446

network_body._body_endoder.seq_layers.2.bias f4 [16]
00000000: 0050 8e3c 3e36 fcbb 336e 473d abd5 f53d
00000010: 78f0 0b3d 3c9d 313e 97ca ae3d 2435 583d
00000020: 7ed8 243d 7bbf 203e ab8d 243d 7c4d 89bd
00000030: a9b1 b83c a2a6 593c 1bc5 c13d 918b 963d
0.017372131 -0.007696896 0.04868908 0.120036446 0.034164876 0.17345136 0.08534735 0.052785054
0.040245526 0.15698044 0.040174168 -0.06704232 0.022545652 0.013284357 0.09461423 0.07350839

network_body._body_endoder.seq_layers.4.weight f4 [16, 16]
00000000: 95b6 643c f252 933e 302a c5bd ea90 c63c
00000010: 0549 b83e c154 403f ee19 913e 5059 1abe
00000020: 8fd1 91be 919e 863e 937c 01bf cdff 1fbe
00000030: 7989 92be d555 47bf 2f69 0e3f f87a a8bc
00000040: b9fd 703e 4b3c 42be 6fff 9dbe 0be9 28be
00000050: 1bdc 473e 15e6 f0bd a21d 2d3f b9ec 213e
00000060: 0699 5ebf 25c3 3f3e 62b7 6bbe 71e2 e53d
00000070: 72c2 593e 2f51 b0be b64e 853e 2f1f 123e
00000080: 0db4 03be 3664 0bbd b2e5 393e 8b96 0fbe
00000090: 8baf 75bc 3cd7 b03d aa1b 5c3e 74b0 bc3e
000000a0: 8dd6 bbbc c1fa 463f 253b 14bf c6cf 6a3c
000000b0: d870 79be 8ed9 91be 7276 ae3e d93c b13d
000000c0: 11f0 183d 707d fdbe 0ac0 a1bd 4d29 9eba
000000d0: 4cd1 8dbe e71b 0f3e 7cbb 8ebe cca5 b83e
000000e0: cc8d b0bd 5e5a f0be 22b1 0fbd 91d7 8bbe
000000f0: 9452 3ebb afe4 7dbe 6cbf 8e3e 52f4 02bd
00000100: e179 983e 7bda bd3e 5d9e 71be 9303 5b3e
00000110: 7dc3 7a3e 8869 33be 461a dfbc b074 ac3e
00000120: 7137 40be 47aa d73e f140 5dbb c558 fe3e
00000130: fda9 de3e a966 7bbe 0527 8c3d 6339 b13c
00000140: 5901 22be bda2 83be 85ac 3bbe dd6f 013f
00000150: 5207 743d ccea 19be 8c41 8dbe c1a8 ce3d
00000160: 61e7 b0bd 0d88 a63d ba33 003e 86e1 28be
00000170: 6065 91be 9049 073f df04 d4bd c585 123f
00000180: 3837 3fbd 2f2c 30be 4f6b efbe ce90 2a3e
00000190: 788b 393e 718d 49bd 341b 193f 2407 ff3d
000001a0: 16b7 dd3e 7834 843e 420e a53e cbff fb3e
000001b0: d651 a03d 0336 133e 9efb 11be b203 43be
000001c0: 4bcc a2bd 9096 0bbf 92d8 823d 3970 42be
000001d0: 44b7 33be 126e b63e 1e31 62bd 43b0 a8bd
000001e0: 0df8 d2bd 411c ec3d 4e0c 363e f226 cebe
000001f0: 86e8 45bf b4bf 9bbe 7954 70be ff51 e23d
00000200: d672 d93d 6bf9 30be cd30 e3be fb24 13be
00000210: a16f 7ebe fd01 22bd 3e3c 6b3e 437b ff3e
00000220: fed3 4cbe 5602 853e 3993 ebbe 575b 933e
00000230: 8e73 ae3e a5a9 09be 7463 433d d2db a9bd
00000240: de6d 05be 03f3 bcbe 24b0 6a3e a812 263e
00000250: c0c0 523e 59dd 883e f40c 88bd 690d e13e
00000260: 0a9e 523e 9614 743e 8437 b1be 3a83 ccbd
00000270: 58ea 0fbf facf f43e 46df 51be 8193 593e
00000280: 2088 c53c 83a7 01be 9ffc 3b3e a1f9 a83e
00000290: 400b 34be 3e20 f43b bb13 0abe 3874 2abe
000002a0: 8f9a c63d 5df9 19bf 96f3 383d 4974 753c
000002b0: 1e0d 063e 05a0 e83e 9f8b 21be 4935 58be
000002c0: cb1b eb3e 3b52 603d 2e24 d1bd 51ea 183f
000002d0: 241f 3bbd 0d5a d2be 7b6f 20be addb f9bd
000002e0: 7b43 dbbd cd31 90be 5552 7cbe e787 e63d
000002f0: 71d6 463e 3fbd 57be 2efa 98be ab1e 0ebf
00000300: 5a57 8b3e 3797 d53e 9f0d 29be 32a8 833d
00000310: 614a 61be dbe2 72be 3519 d6be f61f e5be
00000320: 8d3c 0bbf a78e 57bf f37c f6be ad02 553e
00000330: dfa7 7a3e 685d 533e aab1 7ebd 8536 13bf
00000340: 8bdd f2be 1c00 b3be 853a 0b3f 301b 943e
00000350: f10e 23bd f907 5abe 2ae5 fa3d de24 f23e
00000360: 1974 fbbc 26c0 4c3e 9d13 d73e dbd2 0b3d
00000370: de90 09be fa13 1c3e 9aea 69bd 0e26 e5bc
00000380: c5b5 3fbd 0021 2e3c 55a2 10bf 9b2d f33e
00000390: b7c8 bcbd 5a83 85be 598f 9abe 7d09 8fbe
000003a0: 98a0 e6bd d40f febe 4710 263f 13d3 643d
000003b0: 8c4d f33e ce82 d4bc 50ac ac3e f431 8dbe
000003c0: 963c cd3e 6059 d03c 9c0b 043e dd8d d63b
000003d0: d304 ea3e 37d1 113f fce1 033e 7028 18be
000003e0: b2a2 5abe 348f 773d d834 cebd 080c 2c3e
000003f0: 0592 1a3e 3eea 4dbe 14b0 ac3e 919b bc3d
0.013959547 0.2877422 -0.09627187 0.024239022 0.3599321 0.75129324 0.28340095 -0.15073133
-0.28480193 0.26292852 -0.5058071 -0.15624924 -0.28620508 -0.77865344 0.5562925 -0.020566449
0.23534288 -0.18968312 -0.30858943 -0.16495149 0.19517557 -0.11762635 0.6762334 0.15812959
-0.86952245 0.18726785 -0.23019174 0.11224831 0.21265581 -0.34436938 0.26036614 0.14269708
-0.12861653 -0.034031115 0.18154028 -0.14022271 -0.014995466 0.08634803 0.21494928 0.36853373
-0.022929454 0.7772637 -0.5790275 0.014331764 -0.24359453 -0.28486294 0.34074742 0.08654184
0.03733832 -0.49509764 -0.07897957 -0.0012066752 -0.27698743 0.13975488 -0.27877414 0.36063993
-0.086207956 -0.46943945 -0.035081036 -0.27312902 -0.002904092 -0.24794267 0.27880418 -0.031971283
0.29780486 0.3708075 -0.23595567 0.21388082 0.24488635 -0.17520726 -0.027234208 0.33682775
-0.18771149 0.421221 -0.0033760632 0.496771 0.43489066 -0.2455088 0.0684338 0.02163381
-0.15820827 -0.25710097 -0.1832753 0.50561315 0.059577294 -0.15030974 -0.2758907 0.10090781
-0.08637882 0.081314184 0.12519732 -0.1649228 -0.28397655 0.5284662 -0.103524916 0.57235366
-0.04668352 -0.17204355 -0.46761557 0.16656801 0.1811961 -0.049207155 0.59807134 0.12452534
0.43303746 0.2582128 0.3223744 0.49218592 0.07828109 0.14376073 -0.1425614 -0.19044378
-0.07949122 -0.54526615 0.06388964 -0.18988122 -0.17550379 0.35630852 -0.055222623 -0.08236744
-0.10301218 0.115288265 0.17778131 -0.40264088 -0.7730793 -0.30419695 -0.23469724 0.11050796
0.10617606 -0.17282645 -0.4437317 -0.14369576 -0.2484727 -0.039552677 0.229722 0.4989873
-0.20002744 0.25978345 -0.4601076 0.28780624 0.34072536 -0.1344362 0.047702268 -0.082938805
-0.13030192 -0.36904153 0.22918755 0.16218054 0.20581341 0.26731375 -0.066430956 0.43955544
0.205681 0.23835978 -0.34612668 -0.09985967 -0.56216955 0.47814924 -0.20495328 0.21247675
0.024112761 -0.12661557 0.18358086 0.33002952 -0.17582417 0.0074501326 -0.13484089 -0.16645896
0.096974485 -0.60146123 0.045154177 0.014981338 0.13090941 0.45434585 -0.15775917 -0.21114077
0.45919642 0.05476592 -0.10211979 0.5973254 -0.045683995 -0.41084328 -0.15667526 -0.12200103
-0.1070623 -0.28162995 -0.24640782 0.1125639 0.1941774 -0.21068285 -0.29878372 -0.55515546
0.2721508 0.4171693 -0.16509102 0.06428565 -0.2200103 -0.23719351 -0.41816106 -0.44750947
-0.5438927 -0.84202045 -0.48142204 0.20801802 0.244781 0.206411 -0.062181152 -0.57505065
-0.4743465 -0.3496102 0.5438617 0.28926992 -0.03980917 -0.21292104 0.12250741 0.47293752
-0.030695008 0.19995174 0.4200715 0.034136634 -0.13434169 0.15241995 -0.0571085 -0.027972247
-0.04680421 0.010627985 -0.564977 0.47495732 -0.09217971 -0.26076776 -0.3018749 -0.27936926
-0.112610996 -0.4962145 0.6486859 0.05586536 0.475201 -0.025941279 0.33725214 -0.27577174
0.40085286 0.025433242 0.12895054 0.006547673 0.45706806 0.5695986 0.12879175 -0.14859176
-0.21351126 0.060439304 -0.10068673 0.16801465 0.15094765 -0.20108888 0.33728087 0.092093594

network_body._body_endoder.seq_layers.4.bias f4 [16]
00000000: 4e3d 833d a8fd 143d 50df a53d 7121 133b
00000010: 0f29 ad3b f2bd 9a3d 8c13 f23c f6d1 ee3d
00000020: cb58 bebc b414 d83d a153 423d b714 f53c
00000030: 2d53 613d c5ad 893d 561b 753d 303d a53c
0.06408177 0.036374718 0.08099234 0.0022450353 0.0052844356 0.075557604 0.029550336 0.116611406
-0.0232357 0.10550824 0.047443036 0.029917104 0.055010963 0.06722597 0.059840523 0.020170778

action_model._continuous_distribution.log_sigma f4 [1, 2]
00000000: 4f40 83bd 1dae 91bd
-0.0640875 -0.071132876

action_model._continuous_distribution.mu.weight f4 [2, 16]
00000000: ed7a 923e 7b2a 9f3e 48fd 0a3e cfb3 97bd
00000010: 0779 d83d 7857 1cbe 83d2 4cbd 1e2d 00be
00000020: 2743 a83d 017c d8bd 4ea5 36be e5c9 8abd
00000030: 7bd7 423d 4108 b3bd 9fc9 96bd 3fb5 1d3e
00000040: 8339 81bd 2a2a c23d fd7c 4cbe a128 893d
00000050: 6c79 a33d 69f9 5bbd 824a 6b3c 7d88 afbe
00000060: 2079 063d 95d5 86be facc 1e3e 3446 4d3e
00000070: df98 253e 9e33 d0bd 2dd7 093e 2cd1 9abd
0.2860941 0.31087098 0.13573182 -0.07407343 0.10569959 -0.15267742 -0.050005447 -0.12517211
0.08215933 -0.10570527 -0.17836496 -0.067767896 0.04756878 -0.08741809 -0.07362675 0.15401171
-0.063097976 0.094806984 -0.19969554 0.066972025 0.07982144 -0.053704653 0.014361026 -0.3428382
0.032830358 -0.26334825 0.1550788 0.20046312 0.16171597 -0.10166095 0.1346099 -0.075594276

action_model._continuous_distribution.mu.bias f4 [2]
00000000: 19d1 e1bc 9ae6 a9bc
-0.027565526 -0.020739842

exp_avg f4 [16, 8]
00000000: 2537 8bb9 180c ef3a b9c3 163a 85be 56bb
00000010: 10a6 4e3a f9cb 183a 924e 3bbb e2e7 f83a
00000020: d348 21bb 84d7 5e3a 14ab 1c3a c2cd 67b8
00000030: ed4b f1ba c393 d83a 26a6 083b 195d a83a
00000040: 4e0f 573b 087a 31bb 4e40 57ba 29b2 b83a
00000050: 0c23 0f3a d8f8 d4ba fbd3 6eba 27d8 3cbb
00000060: 052d 0dbb c75f 313a 178d 823a 9da3 9dba
00000070: 7148 b4b9 e432 a23a f0b0 2eba 5023 b13a
00000080: 7bbf 963b af85 0d3a 1d14 f6ba d8b6 aeba
00000090: ab94 593a 79a6 82bb 3250 92bb 4526 21bb
000000a0: 99f0 f13a 085c 89b9 8a83 9c3a 7666 6cba
000000b0: c6e9 773a 8130 7fb8 b45b 17bb 38c1 0e38
000000c0: 8acf d1b9 ca27 71b8 fa88 9739 e2ab 3b39
000000d0: fe4a 383a e3e7 a339 427a 113a 05c4 a239
000000e0: 3bba 603b 8f83 d03a bf4e e0ba 6b52 49bb
000000f0: be22 b0b9 85d5 11bb a5b3 80bb eede 4fb9
00000100: 16be 583b 8d62 1aba 4fa8 023a cb58 97b8
00000110: 562d 0b3b 8f87 d1ba 52ed 8ebb 2f67 80ba
00000120: 75ce 8bb9 c788 59b9 4689 e139 b010 b23a
00000130: 71a2 14ba 8fda 1838 e27d 953a 8cdd 2dba
00000140: 4e87 8539 6b20 4dba 7cdf e031 5172 d539
00000150: 2c43 5939 351d 5938 cf13 9538 6f4e bcb9
00000160: 9633 033b 186e 13ba f8ee 24ba d823 c13a
00000170: 7ce0 68ba e059 d2ba 3769 a4ba 47a7 18bb
00000180: 723c 7f3a ebf1 7bb9 d889 3c3a 1a7f afba
00000190: e102 833a ea27 a339 444f 9aba cd9b 343a
000001a0: e11e 39bb 7702 05bb 3a08 84ba 4d6a ef3a
000001b0: 5904 fdba 7159 d13a 5bd7 aa3a 63ad 17bb
000001c0: ffed 59bb dca2 6e3b 5e65 5d3b a2b7 b5ba
000001d0: fabb 58bb 9663 df3a cd55 52ba 468e fd3a
000001e0: b341 ea37 f6e3 71b9 3b12 803a bf9c 44ba
000001f0: 83a4 c43a 0b37 00b9 15f2 1bba 11c1 7b3a
-0.00026553232 0.0018237857 0.0005751211 -0.0032767367 0.00078830216 0.0005828734 -0.0028580767 0.0018990005
-0.0024610057 0.0008500742 0.00059764204 -5.526632e-05 -0.0018409468 0.0016523529 0.0020850985 0.0012845128
0.0032815519 -0.0027080793 -0.0008211181 0.0014091182 0.00054602395 -0.0016248478 -0.0009110567 -0.002881536
-0.0021541726 0.0006766286 0.0009960261 -0.001202691 -0.00034386248 0.0012374786 -0.0006663939 0.0013514552
0.004600463 0.00053986436 -0.0018774305 -0.0013329638 0.00083000463 -0.0039871302 -0.0044651264 -0.002458946
0.0018458545 -0.00026199245 0.0011941057 -0.00090179534 0.0009457137 -6.084191e-05 -0.002309543 3.4035387e-05
-0.00040018215 -5.7495934e-05 0.0002890302 0.00017897741 0.00070302177 0.00031262552 0.0005549529 0.00031045094
0.003429069 0.0015908348 -0.0017113312 -0.003071929 -0.0003359522 -0.0022252512 -0.0039276653 -0.00019824106
0.0033072284 -0.0005889319 0.00049841864 -7.21678e-05 0.002123674 -0.0015985834 -0.004361787 -0.0009796376
-0.00026665968 -0.00020745686 0.0004301762 0.0013585296 -0.00056699576 3.6443173e-05 0.0011405314 -0.00066324393
0.00025468547 -0.000782496 6.5446653e-09 0.00040711698 0.00020719756 5.1764033e-05 7.108563e-05 -0.00035916592
0.0020019761 -0.000562401 -0.00062917126 0.0014735414 -0.00088835484 -0.0016048513 -0.0012543563 -0.0023293064
0.0009736485 -0.00024027347 0.0007192171 -0.001338932 0.0009995365 0.0003111952 -0.001177289 0.0006889671
-0.0028247165 -0.0020295659 -0.0010073252 0.0018265933 -0.0019303664 0.001597209 0.0013034152 -0.0023144118
-0.003325343 0.003641299 0.0033782343 -0.0013863931 -0.0033071027 0.0017043229 -0.00080236496 0.0019344769
2.7925567e-05 -0.00023068473 0.0009771058 -0.00075001636 0.0015002642 -0.00012227536 -0.0005948854 0.0009603659

exp_avg_sq f4 [16, 8]
00000000: ae74 2e38 b752 3f38 3615 3b38 f05a 0a38
00000010: 1938 2f38 ca47 b437 521b 5c38 613a c937
00000020: 49e2 9237 84be b537 5776 fb37 9f6a c537
00000030: 385b d637 0d79 3537 c73e 0138 99eb 5237
00000040: ff0e 3038 75b1 5638 5ad9 5f38 375c 1238
00000050: 0554 4f38 8c35 c137 e362 8538 bdce 0138
00000060: 0c44 a537 a715 9037 e9bb c837 06f7 6837
00000070: 58ce a237 c317 2637 af34 4038 15d7 3e37
00000080: 7919 5f38 3c38 4338 0412 6838 3ffa 2138
00000090: e229 6a38 7b8c 0738 29ab 7438 ae16 0d38
000000a0: 81b0 ba37 4c7b da37 0bc7 0638 8b27 ba37
000000b0: d416 0038 fc46 7c37 874f 0938 eab5 8637
000000c0: 45da 0736 4225 2b36 3182 4b36 3e46 cd35
000000d0: 2d41 9d36 4679 c735 973d fc36 9b7d f735
000000e0: 4622 9638 3104 9538 094f a738 ee53 2b38
000000f0: 0584 bf38 27f8 7638 0f95 b638 31ab 8238
00000100: 55f0 0f38 edac 3238 1260 5838 f35c 2f38
00000110: 1762 6c38 33b0 a337 8693 a438 8996 b737
00000120: 9ea2 2f36 dd28 ff35 6cf1 6836 e514 4536
00000130: 1626 8336 1d31 1d36 804b 0337 3586 1236
00000140: 6867 4336 1538 bc36 c048 4e36 a85f 7536
00000150: b8cc a836 9816 e835 4f93 4536 e39e 0936
00000160: 5037 8a37 d0d6 9537 ae8c 9637 8a38 3a37
00000170: 21f2 ca37 6bf8 3b37 88b8 8e37 3656 4337
00000180: d5b6 9436 72ec b936 717d d136 56a7 a636
00000190: c3bc e136 e8f2 4b36 3331 0737 333e 4f36
000001a0: a9b7 a738 17a8 ab38 7527 f438 27c0 8438
000001b0: a630 d638 5ec9 6a38 9f1f d838 939c 7338
000001c0: c5cb b138 49f3 e638 3244 0139 ce90 a238
000001d0: 7adf d738 f570 3d38 4f99 d038 6c30 8638
000001e0: fd53 4737 b583 4237 8623 9837 5bbf 4837
000001f0: 05df 8937 ce5d 0237 a65c 8d37 7887 0d37
4.15935e-05 4.5614983e-05 4.460403e-05 3.2986456e-05 4.1775496e-05 2.1491102e-05 5.247753e-05 2.3988252e-05
1.7509929e-05 2.1665597e-05 2.9976638e-05 2.353388e-05 2.5553265e-05 1.0816625e-05 3.0814463e-05 1.257183e-05
4.1975636e-05 5.1186846e-05 5.3369768e-05 3.4894994e-05 4.9430895e-05 2.3032328e-05 6.360353e-05 3.0948537e-05
1.970122e-05 1.717622e-05 2.392936e-05 1.3885792e-05 1.9407991e-05 9.8999035e-06 4.5825433e-05 1.137496e-05
5.3191066e-05 4.6543995e-05 5.532989e-05 3.861845e-05 5.5828954e-05 3.231734e-05 5.833354e-05 3.363814e-05
2.2255119e-05 2.604504e-05 3.2133463e-05 2.2191341e-05 3.053884e-05 1.5036898e-05 3.273741e-05 1.6058755e-05
2.0243617e-06 2.5502673e-06 3.0325139e-06 1.5294133e-06 4.686552e-06 1.4861951e-06 7.5173552e-06 1.843949e-06
7.158941e-05 7.1056544e-05 7.977902e-05 4.0847743e-05 9.13218e-05 5.888208e-05 8.7062006e-05 6.23077e-05
3.4317683e-05 4.2599557e-05 5.1587886e-05 4.1809817e-05 5.6358138e-05 1.9513163e-05 7.847608e-05 2.1885398e-05
2.6171688e-06 1.9010873e-06 3.471122e-06 2.936745e-06 3.908538e-06 2.342341e-06 7.825787e-06 2.1833814e-06
2.9117455e-06 5.6093654e-06 3.0738738e-06 3.6563524e-06 5.0306226e-06 1.7291923e-06 2.9441032e-06 2.0507075e-06
1.6476639e-05 1.7862214e-05 1.7946903e-05 1.1099628e-05 2.4193027e-05 1.1203908e-05 1.7013648e-05 1.1642978e-05
4.432028e-06 5.5409555e-06 6.2432887e-06 4.966666e-06 6.7274973e-06 3.0390747e-06 8.058082e-06 3.0881608e-06
7.99739e-05 8.1852246e-05 0.00011642176 6.330042e-05 0.00010213377 5.5977485e-05 0.000103055725 5.8081536e-05
8.477973e-05 0.0001101257 0.00012327803 7.751734e-05 0.00010293625 4.516631e-05 9.946769e-05 6.398637e-05
1.1880879e-05 1.15939665e-05 1.8136354e-05 1.1965482e-05 1.6435524e-05 7.770444e-06 1.6851653e-05 8.435796e-06

exp_avg f4 [16]
00000000: bd08 9e3a 893c 22ba c3eb bbbb 3c5f 5f3a
00000010: 6f65 75bb 1527 9f3a 8136 abb9 ad1d 25b8
00000020: 22da 933a 81f8 7eba 5bae a2b8 42f5 4cbb
00000030: 6513 043b e1e8 e3bb e9c2 75b9 66b3 803a
0.0012057048 -0.000618883 -0.005734892 0.0008520966 -0.0037444492 0.0012142385 -0.0003265627 -3.9366703e-05
0.0011280219 -0.0009726361 -7.757238e-05 -0.0031274115 0.0020153162 -0.0069552516 -0.0002343763 0.000981909

exp_avg_sq f4 [16]
00000000: b962 7738 5c36 2838 d6e7 9f38 5660 0f38
00000010: 53d4 c338 a179 4f38 4260 9f36 aa4a 2739
00000020: 826d 9c38 c2a7 ad36 112e ae36 c1ca f337
00000030: f378 ec36 3396 3b39 a5cf 3a39 be0b d037
5.898133e-05 4.0104947e-05 7.6248936e-05 3.4183577e-05 9.337873e-05 4.946592e-05 4.749775e-06 0.00015954176
7.459057e-05 5.1753314e-06 5.190967e-06 2.9062272e-05 7.0474284e-06 0.00017889663 0.00017815696 2.4801e-05

exp_avg f4 [16, 16]
00000000: 8969 95b6 4352 233a 93a1 e038 ccdb 4a3a
00000010: 2ee0 ceba beb9 c9ba 555c 343a 09f4 b2ba
00000020: 6427 b1b9 8738 adb8 5140 93ba c8a7 f5b9
00000030: cdb1 8cb9 2b86 aab9 3a8f 293a f192 3dba
00000040: c1b1 b439 4292 5e3a 5391 97b7 5cc4 313a
00000050: e2eb c7ba 1242 7bba 444c 0c3a 6041 b5ba
00000060: 2289 c139 d34a 27b9 8d1c f2ba 3eff 08b9
00000070: cfdb 93b8 6a68 40b9 c19c 3e3a d9cb c739
00000080: c2a1 27b8 64cb acba 3632 05ba 60ea b7b9
00000090: a4fb 633a 0d00 183a 0937 b6b9 9ff4 293a
000000a0: 6904 e538 b0cb 59b8 f3e7 6f3a 2bca 1bb8
000000b0: fc43 30b8 8fd6 e4b9 9ce6 f7b9 3af1 e4b8
000000c0: 2b55 beba 9234 63b9 641d 713a f46d 5b3a
000000d0: 00e5 a83a 8e35 0b3a 3995 2d3b 784e fa39
000000e0: 74ef cf39 a6f1 653a 02ab 6a3a 95ab dc38
000000f0: dee8 a239 af70 dd39 6693 acba 691c 0ebb
00000100: c128 59b7 c270 c639 a715 c8ba a826 0d3a
00000110: 498f 28bb d0b4 07ba 7e70 d93a 93f4 a5ba
00000120: eb3a e239 1986 793a baf4 f4ba 18db 3aba
00000130: 2805 053a 7130 30ba 34fe 2c3a ac11 4239
00000140: 76a0 e739 076e 98ba a54d 9dbb 8dbe 4eb9
00000150: 54fc 6cbb 8aef 99ba 2039 faba 39f2 efba
00000160: c27f c2b9 2d53 56ba 4d26 78bb 05b6 96ba
00000170: da45 b3b9 88b1 31bb a227 563a 6e63 3c3a
00000180: 4966 023a 0a0d 1b3a a748 dcba fffc 483a
00000190: 1d96 54bb 5827 b7ba c517 473a 27e6 06bb
000001a0: 8b95 81b9 b567 cbb9 dd1c 1bbb 6c8b 86ba
000001b0: 4427 0cba e0e0 84ba b2e1 ac3a 1f36 5d3a
000001c0: 833e bbb8 1715 fbba 6843 9eba 319d 91ba
000001d0: 8560 0ab9 84f1 c5b8 7c28 39bb 6d94 3e39
000001e0: a854 22ba 10e9 72ba ecf4 4939 d436 b6b9
000001f0: 8e28 17ba 732d 96ba 1b1a 53ba 66c6 54b7
00000200: 51af 19ba 705f 13ba 2a85 2f3a 69ba 14ba
00000210: 8f0c 8e3a 2337 053a 27c4 2cb9 6478 6f39
00000220: 75d4 4739 accc 4a39 09e7 033a 74bb b639
00000230: 8c85 3c39 7e87 cf39 f289 f7ba 7b43 6aba
00000240: f090 ed39 7c60 14bb bd5b 7fbb 2c71 5e3a
00000250: 8ee8 42bb 981f beba 3f1a fa39 fc61 ccba
00000260: 239d 87ba 5dcd 81ba 3287 c5ba 283c 1cbb
00000270: 1221 b9ba ee18 4bbb 3def 0b3b 9414 7339
00000280: 875e 4bb9 fc29 94ba 61f3 9a3a 72de a0b9
00000290: 9d0e e33a 7880 2cba dcab ccba 5797 d839
000002a0: 79ad 16ba bdd6 93ba 8cbe 4d3a f146 e839
000002b0: 9307 3bba 7d10 97b8 15dc d3ba 3677 9eba
000002c0: 8b52 1839 7704 d93a 18c2 c739 a466 333a
000002d0: 643e 59ba 8910 9db9 40b0 c43a 3b47 35ba
000002e0: 49a4 d039 ea09 003a 8060 dcb9 3748 1439
000002f0: c77d 9b39 f7ef f539 1138 023a 2991 c339
00000300: 2840 c539 2aee 7a3b b1ca 073b a7fa 7e3b
00000310: f407 16b8 a9fd b73a 7eb8 293c f575 15ba
00000320: 31be 873b b2f5 683b f077 11ba 1abb 843a
00000330: 358b 193b ffc0 d83a 7ea5 bc3a d87a 693a
00000340: 7e89 b2ba 099f d9ba 330d 9a3a c846 e6b9
00000350: a43f de3a d13d 503a b389 263a 29a2 603a
00000360: a3c9 c939 6520 423a 6d46 b439 d3f7 9739
00000370: 9603 0b3a 45f3 ed39 0d30 42bb b1e4 08bb
00000380: a5f6 303a cb92 1f3a d4bf 11bb 18e2 9a3a
00000390: 2a06 94bb 87eb 3abb b0a8 233a 1509 51bb
000003a0: e78a fab9 27f2 23ba bf4e 5cbb 3049 acba
000003b0: 540c 4fba e51d fdba 4a87 e43a 6d61 a839
000003c0: b464 7f39 65a8 26bb ac4b dcba ccca 2eba
000003d0: 7541 c0b9 157e ffb8 bc97 ccba 664d 7a39
000003e0: b479 23ba e245 8eb9 44d5 7bb7 0de8 f8b9
000003f0: 8baa b0b9 7adb bbba 240d 1fba fe7a 77b9
-4.452832e-06 0.00062302145 0.00010711248 0.0007738441 -0.0015783363 -0.0015390438 0.00068802136 -0.001365305
-0.0003378942 -8.259812e-05 -0.0011234378 -0.00046855048 -0.00026835353 -0.0003252489 0.0006468181 -0.0007231674
0.00034464712 0.0008490422 -1.8068275e-05 0.0006781274 -0.0015252794 -0.00095847354 0.00053519406 -0.0013828687
0.00036914 -0.00015954235 -0.0018471644 -0.00013065056 -7.050449e-05 -0.00018349444 0.0007271283 0.00038108116
-3.996655e-05 -0.0013183174 -0.00050810294 -0.00035079103 0.000869686 0.00057983474 -0.0003475475 0.000648329
0.000109203924 -5.192653e-05 0.00091516896 -3.7143163e-05 -4.2024985e-05 -0.00043647407 -0.0004728333 -0.00010916819
-0.0014521232 -0.00021667991 0.00091978 0.00083705713 0.001288563 0.00053104095 0.0026486649 0.0004774218
0.00039660523 0.0008771665 0.0008951874 0.00010522377 0.00031072547 0.0004223636 -0.0013166487 -0.0021684414
-1.2943697e-05 0.00037849514 -0.0015265242 0.00053844834 -0.002572017 -0.00051767845 0.0016589311 -0.001266139
0.00043149976 0.00095185783 -0.0018688657 -0.00071279844 0.00050743157 -0.00067210855 0.00065991585 0.00018507865
0.00044179306 -0.001162947 -0.0048005157 -0.00019716677 -0.0036161141 -0.0011744362 -0.0019090511 -0.0018306441
-0.0003709775 -0.00081758463 -0.0037864626 -0.0011498338 -0.00034193584 -0.0027113874 0.0008169358 0.0007186447
0.0004974348 0.0005914724 -0.001680632 0.0007667094 -0.0032438107 -0.0013973517 0.00075947895 -0.0020583959
-0.00024716216 -0.00038796445 -0.0023668327 -0.001026494 -0.0005346427 -0.0010137819 0.0013189821 0.00084385456
-8.9284986e-05 -0.0019156066 -0.0012074532 -0.0011109469 -0.00013196662 -9.438678e-05 -0.002825289 0.00018175105
-0.00061924243 -0.00092662964 0.00019260094 -0.00034754595 -0.0005766236 -0.0011457637 -0.0008052901 -1.2682378e-05
-0.0005862611 -0.0005621826 0.0006695563 -0.0005673529 0.0010837483 0.00050817634 -0.0001647627 0.00022837665
0.00019057265 0.00019340467 0.00050316803 0.0003485341 0.00017978827 0.00039583066 -0.0018885715 -0.0008936447
0.0004531215 -0.0022640517 -0.0038964592 0.0008485492 -0.0029740664 -0.0014505265 0.0004770327 -0.0015593166
-0.0010346513 -0.0009903122 -0.0015070199 -0.0023839567 -0.0014124236 -0.00309902 0.0021352314 0.00023181952
-0.00019394803 -0.0011304016 0.00118218 -0.00030683313 0.0017323081 -0.00065804226 -0.0015615183 0.00041311487
-0.00057478953 -0.0011279207 0.0007848523 0.00044303344 -0.00071346125 -7.203312e-05 -0.0016163612 -0.0012089971
0.00014526599 0.0016557117 0.0003810085 0.0006843603 -0.000828719 -0.00029957693 0.001500614 -0.0006915216
0.00039795254 0.000488429 -0.00042033568 0.00014141282 0.00029657615 0.0004690883 0.0004967461 0.0003730145
0.00037622568 0.003828893 0.0020720179 0.0038906725 -3.5770194e-05 0.0014037389 0.010358928 -0.0005701476
0.0041425456 0.0035546836 -0.0005549183 0.0010126561 0.002342892 0.001653701 0.0014392582 0.000890655
-0.0013621298 -0.0016603182 0.0011753201 -0.00043921755 0.0016956222 0.00079437817 0.0006352916 0.00085690856
0.0003848794 0.000740534 0.00034384747 0.00028985608 0.00053029635 0.00045385413 -0.0029630691 -0.0020888264
0.000675062 0.00060872425 -0.0022239583 0.0011816649 -0.0045173364 -0.0028521733 0.0006243093 -0.0031896282
-0.00047787206 -0.000625404 -0.0033616272 -0.001314437 -0.00078982604 -0.0019311277 0.0017435339 0.00032116045
0.0002435621 -0.002542996 -0.001680722 -0.00066677923 -0.00036669863 -0.00012182832 -0.0015609185 0.00023870691
-0.0006236092 -0.00027136417 -1.5010421e-05 -0.00047475137 -0.000336964 -0.0014332377 -0.0006067327 -0.00023601574

exp_avg_sq f4 [16, 16]
00000000: ce8d e836 17a1 8a36 d2e8 a336 e639 f835
00000010: b1ec c736 d27c 0c37 5626 6f36 f9b8 2d37
00000020: 7eee 8236 313c 1536 cfaf 6437 a2f0 9f36
00000030: 9b7c 0636 65c6 6236 62ed 8537 bdfb 7637
00000040: c8be 9f36 2b24 0a37 8974 0d37 c0d1 1f36
00000050: 6fd0 f636 c88d 1a37 b4a8 cd36 5be0 2237
00000060: 5add cd36 2ded 2536 fd1d 2438 99ce 8136
00000070: f1fe 1136 7a1e d436 ecd7 9937 98b2 7437
00000080: 0dce 4a36 e29d 2a37 d1b4 c836 8e80 9b35
00000090: bd6a 1136 aee8 3f36 22f5 1236 3e6a 5a36
000000a0: 172d d135 d171 ba35 7e0b 3d37 b921 8036
000000b0: 7ff4 ea35 9b06 e336 d363 c336 3bc6 8736
000000c0: 6dc6 8737 fb61 6037 a4ba 7336 d04d e036
000000d0: 9bfb a436 f657 1137 2b9e 7137 2e07 4037
000000e0: 34e3 fe36 addb 6e36 e8fe 9937 e03c c436
000000f0: 8ad6 9336 14cd c236 0ce4 8d38 76b2 0338
00000100: 60d1 c436 c393 a936 142a e136 5250 0037
00000110: b079 f836 76e7 0e37 4fda 3238 94de ff36
00000120: 9223 3937 2b26 fd36 a207 9637 3448 aa36
00000130: 5dfe d036 27aa 9336 3045 c036 74a7 ce36
00000140: b13d 0c37 37f7 aa37 c836 3638 8d58 2437
00000150: 4e63 b137 550a 8f37 a9aa 4638 e2f3 a037
00000160: 1454 9237 ebf5 1b37 25b8 0339 7825 1337
00000170: 8b17 1737 60b3 c337 1da1 be37 c289 3e37
00000180: 26de 2637 c430 8237 fe22 2a37 74f8 5136
00000190: 2dd2 4837 35d6 ba37 9cfc f536 4ade 5d37
000001a0: e728 ae37 be97 8536 0c7b 0938 2a8d 8437
000001b0: bf7f c336 ebbd 0c37 6c64 db36 5632 4b38
000001c0: ad63 4836 7f7f 4937 a99a 8736 2e23 6b36
000001d0: 58e7 a035 e45d 8e36 c054 8a37 b971 0036
000001e0: 2bfd 9136 7b01 3036 b363 6b36 220b 1c36
000001f0: f10a 0136 0e8c c436 8c6e 2137 3f49 1437
00000200: ed71 1037 d297 1b37 2acc cf36 94ef 7036
00000210: 0110 2936 7d5f 1536 4a8b 4937 7101 8236
00000220: 31b1 3c36 0768 3e36 db82 5a37 bd8d aa36
00000230: 3332 2536 1847 b036 96f4 4a37 4683 2937
00000240: c8e6 9a37 6821 8738 ede6 1f38 ce85 fd36
00000250: ea01 a537 9b51 0138 8eca a237 503a 8937
00000260: f98c 0238 46d2 0137 b9c5 4c38 3a04 0138
00000270: 66d9 6837 0bac 1638 8ff5 4937 3186 8738
00000280: fc30 6337 f31b 1f38 56ed 2d37 4151 6f37
00000290: f90c cb36 7c9b 8a37 aa55 9e38 bd83 f936
000002a0: bb0d e537 f87c 4d37 3b31 c037 3fac 6237
000002b0: 01a9 5337 2b47 7837 37aa 2338 0402 2d38
000002c0: b636 4136 448c 1137 37a1 2136 9a77 b835
000002d0: 26db 1336 9cb1 9a36 4c2b 9736 91e1 7d36
000002e0: d26d 5436 cad1 bc35 2333 8136 f013 7936
000002f0: 64a8 ff35 ff41 8636 a4a9 b036 5fb8 1b37
00000300: 6535 0c38 9953 8138 d8d8 ca37 98db 0238
00000310: 0cbb d737 7491 5838 34ca 2139 9375 2738
00000320: 1d35 6438 5819 e637 f943 bd38 03eb e137
00000330: b59e bd37 a1b8 c637 c4ce e038 796f d638
00000340: 2aba 5737 8d7e 1838 8310 9437 1edb 9f36
00000350: 2156 ae36 ba03 3f37 1079 1137 88dc ba36
00000360: 4898 5e37 c400 4436 902d 8037 7fd2 0637
00000370: aeb6 8936 ae91 9d37 1d02 5138 8030 3238
00000380: ea2d 2a37 882b 8937 7f6a a637 aaf9 8d36
00000390: 78d3 ac37 e64f cd37 dba4 1837 7e5a be37
000003a0: 0728 8237 80ff 9b36 94aa 5038 e85b 4037
000003b0: ba59 b336 49c4 9137 6e48 5237 fa05 f037
000003c0: 63b7 a936 ebb7 bf37 849c 3637 e18a 3f36
000003d0: dcfe b736 052c 4f37 fb84 1737 40ea 0837
000003e0: fbe9 1937 a0c6 1f36 4912 f737 767c 9936
000003f0: 3a30 4436 8bc8 5237 e0f3 f937 26e6 ea37
6.930647e-06 4.131474e-06 4.8848824e-06 1.849429e-06 5.9582167e-06 8.373712e-06 3.563609e-06 1.0354671e-05
3.902066e-06 2.2237766e-06 1.3630793e-05 4.7665826e-06 2.0040086e-06 3.3792105e-06 1.5965375e-05 1.4721355e-05
4.760779e-06 8.233862e-06 8.431388e-06 2.3814937e-06 7.355636e-06 9.212126e-06 6.1291157e-06 9.708189e-06
6.135245e-06 2.472497e-06 3.9128576e-05 3.8685507e-06 2.175508e-06 6.3216403e-06 1.8339568e-05 1.4585115e-05
3.0220283e-06 1.016955e-05 5.9815143e-06 1.1585814e-06 2.1668814e-06 2.8596655e-06 2.1898381e-06 3.2546372e-06
1.5584836e-06 1.3891205e-06 1.1267954e-05 3.818623e-06 1.7505516e-06 6.765896e-06 5.823074e-06 4.0463906e-06
1.6185653e-05 1.3374253e-05 3.631846e-06 6.684779e-06 4.9168716e-06 8.6631535e-06 1.4401546e-05 1.1445763e-05
7.59624e-06 3.5592632e-06 1.8357721e-05 5.848342e-06 4.405917e-06 5.805525e-06 6.765881e-05 3.139904e-05
5.8656296e-06 5.053794e-06 6.710421e-06 7.648096e-06 7.4051422e-06 8.517751e-06 4.2641823e-05 7.6255037e-06
1.1035141e-05 7.544431e-06 1.7884948e-05 5.0748004e-06 6.228495e-06 4.4007497e-06 5.7301004e-06 6.1587725e-06
8.359014e-06 2.0380698e-05 4.34432e-05 9.795779e-06 2.1146287e-05 1.705174e-05 4.736582e-05 1.9187053e-05
1.7443708e-05 9.295977e-06 0.00012561733 8.770607e-06 9.005783e-06 2.332934e-05 2.272479e-05 1.1356957e-05
9.946094e-06 1.5519916e-05 1.0140937e-05 3.1288046e-06 1.1969864e-05 2.2272676e-05 7.3309766e-06 1.3224382e-05
2.0761463e-05 3.981374e-06 3.277794e-05 1.580136e-05 5.8263245e-06 8.388869e-06 6.5383992e-06 4.844585e-05
2.9860341e-06 1.2010219e-05 4.0413183e-06 3.5038206e-06 1.1988259e-06 4.24286e-06 1.6490347e-05 1.9139682e-06
4.3508094e-06 2.6226905e-06 3.5075761e-06 2.3252292e-06 1.9228867e-06 5.8575597e-06 9.6220865e-06 8.838541e-06
8.609594e-06 9.274068e-06 6.1928486e-06 3.590224e-06 2.5192278e-06 2.2258312e-06 1.2012964e-05 3.8744697e-06
2.8117322e-06 2.8372758e-06 1.302428e-05 5.0828953e-06 2.4616136e-06 5.253485e-06 1.2097085e-05 1.0103749e-05
1.8465696e-05 6.443524e-05 3.812362e-05 7.5555645e-06 1.9670424e-05 3.0831998e-05 1.9406227e-05 1.6358827e-05
3.1125706e-05 7.737957e-06 4.8821534e-05 3.0759933e-05 1.3878895e-05 3.5923014e-05 1.2037707e-05 6.462297e-05
1.3541659e-05 3.7934584e-05 1.0366863e-05 1.42644285e-05 6.0513817e-06 1.6523285e-05 7.549983e-05 7.4361146e-06
2.7305321e-05 1.2248049e-05 2.2911108e-05 1.3510754e-05 1.2615929e-05 1.4798522e-05 3.9020753e-05 4.124829e-05
2.8791087e-06 8.675332e-06 2.408471e-06 1.3743877e-06 2.2032268e-06 4.610234e-06 4.505191e-06 3.7831235e-06
3.1654386e-06 1.4068148e-06 3.8504527e-06 3.7115497e-06 1.9047989e-06 4.001194e-06 5.2649575e-06 9.281647e-06
3.342833e-05 6.1667706e-05 2.4181252e-05 3.1198928e-05 2.5717098e-05 5.1633877e-05 0.00015429483 3.9925402e-05
5.44089e-05 2.7429938e-05 9.024883e-05 2.6931526e-05 2.260446e-05 2.3689414e-05 0.000107196654 0.000102250786
1.2858343e-05 3.6357484e-05 1.7650664e-05 4.764078e-06 5.195631e-06 1.1385355e-05 8.670861e-06 5.568905e-06
1.3267687e-05 2.9206722e-06 1.5280006e-05 8.036032e-06 4.104185e-06 1.8783696e-05 4.983145e-05 4.2483676e-05
1.014348e-05 1.6351943e-05 1.9838333e-05 4.231192e-06 2.060247e-05 2.447511e-05 9.098289e-06 2.2691904e-05
1.5515847e-05 4.649104e-06 4.9749928e-05 1.146549e-05 5.3450613e-06 1.737675e-05 1.2533839e-05 2.8613013e-05
5.0579415e-06 2.2854618e-05 1.0884487e-05 2.8542056e-06 5.4834945e-06 1.2348411e-05 9.031263e-06 8.160772e-06
9.1739885e-06 2.3808461e-06 2.945321e-05 4.5742445e-06 2.9234347e-06 1.2563668e-05 2.9796676e-05 2.8002145e-05

exp_avg f4 [16]
00000000: 13a5 31ba b3be 21b9 23cd 7cba fc0a 81ba
00000010: 86e9 46bb 5ca8 f1bb 9e1e 5fbb 8b79 38bb
00000020: 4427 29ba ee4b 00bc 86db d039 7dee 8d3a
00000030: 992b 953b a6cb a7ba 2435 a0bb 7525 49bb
-0.0006776612 -0.00015425197 -0.0009643605 -0.0009845193 -0.0030351593 -0.0073748063 -0.003404535 -0.0028148617
-0.00064526894 -0.007830603 0.0003983641 0.0010828521 0.0045523164 -0.0012801781 -0.0048891474 -0.0030692492

exp_avg_sq f4 [16]
00000000: dee1 1838 ef34 4238 8ee0 f237 e350 6838
00000010: fa34 d837 8655 d338 30eb 7f38 b51c a237
00000020: 41ea 2338 9109 1e39 d94a 8c38 2ebf aa37
00000030: 44c3 4139 6428 b038 6f01 a538 eb34 5238
3.644998e-05 4.6302503e-05 2.8953214e-05 5.5388442e-05 2.5773876e-05 0.00010077194 6.1015773e-05 1.9325273e-05
3.9080394e-05 0.00015071618 6.689662e-05 2.0354604e-05 0.00018478656 8.399857e-05 7.86808e-05 5.0117185e-05

exp_avg f4 [16, 16]
00000000: f86d 18ba 92d1 d9ba 0429 a6b9 124f 993a
00000010: d873 39ba 89f8 4fbb b7e2 16ba 5033 eb39
00000020: c318 c33a 0eb0 0abb 9ff7 d73a 8f7a 94b9
00000030: cb77 f9ba c517 c93a 6c57 3fbb 214e dfba
00000040: ad84 87ba 3ed4 f1ba 36a7 c9b8 5e23 483a
00000050: bebb 353a b210 c9ba 1919 07ba f1f9 073b
00000060: 8dba b23a cc71 7dba fc06 523b bc76 0eba
00000070: 10af 7bba 319c ec3a 7b79 2abb edab cbb9
00000080: be8b d0b7 7dad e4b9 bd24 09ba 6723 593a
00000090: 6912 27ba 8b96 15bb 250a bab9 fdf4 c4b9
000000a0: 8343 f839 3a3a 06bb e184 153a aabf d4b8
000000b0: 4b2b 2aba 2fc2 353a 1994 c6ba 0d8f c5ba
000000c0: 9229 9cb8 e0f5 1639 e671 a738 6374 d4b9
000000d0: eb68 9439 7c90 323a 6a62 0139 cc0b 9137
000000e0: 6ac7 29b9 5c50 0a3a aa0f 44b8 776b 5c37
000000f0: 6985 6837 1ec2 b0b9 23d4 d739 6296 bb39
00000100: ecff 0fba 60ed 44ba 7e63 20b8 24b4 9639
00000110: 0d81 333a d7ad 28b9 35b6 86b9 2328 a03a
00000120: 3cea 2c3a 789b 83b8 1f25 f63a 3f24 96b9
00000130: 37ac 78b8 744d 4f3a 355e 61ba b557 2f39
00000140: bacf b839 9f62 333a 1853 8939 43ed 6aba
00000150: f7cb ffb8 66b4 363a 6ed6 133a 48b9 8bba
00000160: a623 87ba dd22 d039 ec71 1cbb df47 a739
00000170: e40d 9db9 fc6b c4ba 8624 603a 4ded c6b9
00000180: 6aee de37 b890 1d39 af79 2638 fadc 66b9
00000190: a972 1738 1292 6939 a61f 0c39 eed2 5db9
000001a0: 73a9 2cb9 48d3 8639 2806 9bb9 7c08 a738
000001b0: 3e63 ce36 2f90 9eb9 5d72 8739 41a1 bf37
000001c0: 4967 383a 3dc6 b03a 2824 18b8 a8f0 35ba
000001d0: fdf5 4cba a93e 18ba 8e28 6c3a 706b 00bb
000001e0: 0d53 faba d4b5 69ba f5b1 87bb 398e 163a
000001f0: 660b 9539 cd4d ecba 7036 3e3a 5a66 d9ba
00000200: 9c0a 89b9 a57c e1b9 3380 05b8 951a 8839
00000210: 580b bd37 9a23 a8b9 8b0a 13b9 7a48 da39
00000220: ca68 d039 c742 2bb9 587c 483a 30e0 14b9
00000230: a5fc 5fb9 145c 003a 3726 15ba d5e2 cc36
00000240: 5242 2b3a cf3c 953a 726e a2b8 10c6 19ba
00000250: 3c25 97ba db84 0dba 1750 483a 7ad6 11bb
00000260: 062c d4ba 2a54 3aba d2e2 78bb e3aa 083a
00000270: c909 7038 89ff d1ba b661 343a 3480 baba
00000280: d133 a8b9 de5e 6039 5ba5 f238 a0df 8eba
00000290: 18c7 473a 86dc 8f3a 8d58 bb39 1295 1339
000002a0: 578c 74b9 34f2 883a 2cf0 9c39 daba cb38
000002b0: 1a10 8bb9 4d1e 52ba d8c9 173a 2d8b ea39
000002c0: bcab e5b9 0927 21b8 0f15 4f36 4565 25ba
000002d0: 096d 413a 23f5 183a 53b3 3e39 4d32 c839
000002e0: cee9 0f39 b9fa 443a 17fa 4a3a 3151 8c38
000002f0: 0102 99b8 58bc 87b9 da63 7b39 db45 6039
00000300: 824a d1b9 67bd b1b9 6ec2 2a38 61ca 37b9
00000310: f6f3 3939 8ff4 9339 d4a1 86b7 281d 4239
00000320: 981e af39 f8f4 7b39 a922 0d3a da59 b0b8
00000330: 0965 feb9 4b5b a539 1d86 37b9 b517 9038
00000340: e32d eb39 132f 243a c306 2b39 b3b8 04ba
00000350: 45d7 3cba bd44 8f38 1f07 e239 beeb b1ba
00000360: cd30 66ba c724 aab8 6fae 2abb 70b3 a539
00000370: 5173 e8b9 85a8 88ba 9c2a 1e3a 5e4b 16ba
00000380: 40eb e9b9 007b 9e38 0556 78b9 42a1 0fba
00000390: 6df0 713a 6cb4 153a a6f5 1039 156e d039
000003a0: 830f 9838 4401 1e3a 4791 ac3a e5cc 2bb7
000003b0: 882e e039 9476 78b9 0eda 9a39 14e2 8939
000003c0: 3491 2cb9 0463 64ba 89d3 30b9 9c74 673a
000003d0: af7c a0b9 ba86 e4ba 9c66 dcb9 57ef eb39
000003e0: fe53 4a3a b997 a9ba 5bc7 8f3a 19f4 3fb9
000003f0: bc34 25ba 973f 8a3a 89e2 c9ba fd1d 6cba
-0.00058147265 -0.0016618243 -0.00031692546 0.0011696538 -0.0007074452 -0.0031733832 -0.0005755829 0.00044860924
0.0014884699 -0.0021162066 0.0016476995 -0.00028320073 -0.0019032893 0.0015342167 -0.0029196395 -0.0017036834
-0.0010339223 -0.0018450094 -9.615572e-05 0.00076346647 0.0006932578 -0.0015340059 -0.0005153581 0.0020748342
0.0013635919 -0.0009668141 0.003204762 -0.0005434563 -0.00096009765 0.001805192 -0.002601235 -0.00038847272
-2.4860605e-05 -0.00043616808 -0.00052316097 0.00082831684 -0.0006373288 -0.0022825326 -0.00035484243 -0.00037566564
0.00047352546 -0.0020481483 0.00057036994 -0.00010144648 -0.00064914365 0.00069335377 -0.0015150338 -0.001507254
-7.446403e-05 0.0001439671 7.984396e-05 -0.00040522506 0.0002830693 0.0006811691 0.00012339061 1.729084e-05
-0.00016191383 0.00052762567 -4.674463e-05 1.3138043e-05 1.385934e-05 -0.00033713965 0.0004116605 0.00035779463
-0.00054931524 -0.0007512178 -3.8239632e-05 0.00028744445 0.0006847538 -0.00016086489 -0.00025694226 0.0012218993
0.0006596183 -6.275525e-05 0.0018779373 -0.00028637235 -5.9288195e-05 0.0007907965 -0.0008597107 0.00016721974
0.00035249983 0.0006843004 0.00026192586 -0.00089617464 -0.00012197339 0.00069696305 0.00056395575 -0.0010660077
-0.0010310307 0.00039698827 -0.0023871614 0.0003190627 -0.00029955723 -0.0014985795 0.00085503643 -0.00037942306
2.6575482e-05 0.00015026599 3.969081e-05 -0.0002201683 3.610799e-05 0.00022275027 0.0001336323 -0.0002115478
-0.00016466323 0.00025715888 -0.0002956849 7.964761e-05 6.1508317e-06 -0.00030243534 0.00025834414 2.2844064e-05
0.00070344337 0.0013486814 -3.6273297e-05 -0.00069404626 -0.00078186375 -0.0005807677 0.00090087287 -0.0019595288
-0.0019098237 -0.0008915339 -0.004141087 0.0005743239 0.00028427987 -0.0018028558 0.00072560366 -0.0016586289
-0.0002613858 -0.00043008212 -3.1829066e-05 0.00025959747 2.2535838e-05 -0.00032069982 -0.0001402294 0.000416342
0.00039750925 -0.00016332707 0.0007647923 -0.00014197896 -0.00021361055 0.0004896533 -0.00056895934 6.1060805e-06
0.0006533015 0.001138592 -7.745334e-05 -0.00058660004 -0.0011531482 -0.000539852 0.0007641329 -0.0022253082
-0.0016187436 -0.00071078783 -0.0037976992 0.00052134524 5.7229572e-05 -0.001602159 0.0006881015 -0.0014228881
-0.00032082063 0.00021397645 0.00011570259 -0.0010900386 0.0007620915 0.0010975755 0.00035733395 0.00014074545
-0.00023321934 0.0010448159 0.0002993358 9.714598e-05 -0.00026524143 -0.00080153794 0.000579027 0.00044735652
-0.00043806236 -3.8421746e-05 3.0857661e-06 -0.0006309341 0.0007378613 0.0005834868 0.00018186615 0.0003818445
0.00013724642 0.0007514167 0.0007742955 6.690843e-05 -7.295982e-05 -0.00025889534 0.00023974423 0.00021388328
-0.000399191 -0.00033901187 4.0712235e-05 -0.00017527632 0.00017733857 0.00028220235 -1.6049402e-05 0.00018512143
0.00033401395 0.00024028483 0.0005383888 -8.40907e-05 -0.00048521932 0.0003153927 -0.00017502201 6.870871e-05
0.0004485688 0.0006263118 0.0001631035 -0.0005062923 -0.00072037085 6.831575e-05 0.00043111385 -0.0013574285
-0.00087810756 -8.113082e-05 -0.0026043912 0.00031604944 -0.00044336406 -0.0010426199 0.0006033571 -0.00057332765
-0.00044616498 7.5569376e-05 -0.00023683168 -0.00054790464 0.00092292466 0.0005710784 0.00013824421 0.0003975487
7.250814e-05 0.000602741 0.0013165855 -1.02401e-05 0.00042759278 -0.00023695297 0.00029535632 0.00026299118
-0.0001645729 -0.0008712264 -0.00016863471 0.0008829327 -0.00030610475 -0.0017435171 -0.0004203812 0.00045001015
0.0007718204 -0.0012938894 0.0010969447 -0.00018306113 -0.00063021085 0.0010547516 -0.0015402596 -0.0009007154
