results/max-hiddenunits-config1-1/3DBall/3DBall-399390.onnx (onnx, 29671 bytes, 6 tensors)

network_body._body_endoder.seq_layers.0.bias f4 [16]
0	0x3cc40f2f	0.023933021
1	0x3e6a03a0	0.22852945
2	0x3ea8b517	0.3295066
3	0x3e607e69	0.21923222
4	0xbdcca798	-0.099929035
5	0x3e0a2723	0.13491492
6	0x3d5e28a9	0.054237995
7	0x3e7324ad	0.2374446
8	0x3e16e6a7	0.14736424
9	0x3e796674	0.24355489
10	0x3e2b97a9	0.16757073
11	0x3d7e285b	0.062050205
12	0x3c8658af	0.01639971
13	0x3dc83be2	0.09777047
14	0x3e2f01e1	0.1709056
15	0x3e07ead8	0.1327318

action_model._continuous_distribution.log_sigma f4 [1, 2]
0	0xbe3ce65f	-0.18447255
1	0xbe0a3143	-0.13495354

action_model._continuous_distribution.mu.weight f4 [2, 16]
0	0x3d0fd48b	0.035114806
1	0xbdcc99e1	-0.099902876
2	0xbe4ff67b	-0.20308869
3	0x3ebd30da	0.36951333
4	0x3d7e7529	0.06212345
5	0xbb8f0657	-0.0043647694
6	0xbde6a7d2	-0.11262478
7	0x3ecb2518	0.39676738
8	0xbe61cd68	-0.22051013
9	0xbe8f4f06	-0.27989978
10	0xbe97fb4b	-0.2968391
11	0xbd8c9de4	-0.06866053
12	0x3e116291	0.14197756
13	0x3e5f2916	0.21793017
14	0xbd25aaac	-0.04044597
15	0xbcd6d8bc	-0.026226394
16	0xbe14bab4	-0.14524347
17	0xbe90b821	-0.2826548
18	0x3de4bde5	0.11169032
19	0xbd689a43	-0.05678774
20	0x3cbb0d92	0.02283362
21	0xbe5c2d0e	-0.21501562
22	0xb994ffa5	-0.0002841923
23	0x3e86b06f	0.26306483
24	0xbe12a340	-0.14320087
25	0x3d82bde2	0.063838735
26	0xbd6f5d0f	-0.058438357
27	0xbe1f5747	-0.15560637
28	0x3de0526c	0.10953221
29	0xbdfff4f1	-0.12497891
30	0x3ece655d	0.4031171
31	0xbea7c3eb	-0.3276666

action_model._continuous_distribution.mu.bias f4 [2]
0	0xbda1ba4b	-0.07896861
1	0x3cd96a73	0.026540017

network_body.processors.0.normalizer.running_mean f4 [8]
0	0x3ac930c6	0.0015349619
1	0x397a1bb7	0.00023852182
2	0x3e6ef9d0	0.23337483
3	0x4043f817	3.0620172
4	0x3d68d479	0.056843255
5	0x3b0481cd	0.002021897
6	0xbec75395	-0.38930956
7	0xbb7dfe40	-0.003875628

sqrt f4 [8]
0	0x3d73bdb6	0.059507094
1	0x3d5e02af	0.054201778
2	0x3f481eb9	0.7817188
3	0x3e7db068	0.24774325
4	0x3f3c0203	0.7344057
5	0x3f28b466	0.65900266
6	0x3f4782cf	0.77933973
7	0x3f0f4050	0.5595751
