results/max-hiddenunits32-config1-1/3DBall/3DBall-499241.onnx (onnx, 29866 bytes, 6 tensors)

network_body._body_endoder.seq_layers.0.bias f4 [32]
000000 e5 6a f6 3d fa ed 98 3e 37 fe b2 3d db 78 1d 3e
       0.12032107 0.29869062 0.08739894 0.15378134
000010 65 32 4f 3d d1 da a5 3d fd 57 ec 3d 01 83 dc 3b
       0.05058517 0.080983765 0.1154022 0.006729484
000020 46 26 e6 3d 85 2a b1 bc d7 b5 2f 3e 87 ed 36 3e
       0.11237769 -0.02162672 0.1715921 0.17864047
000030 d0 a1 e5 3d 49 7d d5 3a 31 f2 2f 3d 8f f8 0b 3e
       0.11212504 0.0016287948 0.04295558 0.13669036
000040 0f 5a 65 3d 3a 4d 93 3e 38 f0 db bc 48 74 68 3e
       0.05599409 0.28769857 -0.026847944 0.22700608
000050 d3 9d ed 3d 7f 5c e0 3d 7a a1 22 3e 93 81 a4 3d
       0.11602368 0.10955142 0.15881911 0.08032527
000060 7e b1 dd 3d 8f ac fb 3d 74 2e 52 3e 75 55 8e 3d
       0.108248696 0.12288772 0.20525533 0.069498934
000070 7a ef 3d 3e 1a c6 06 3e e3 ed 09 bd 29 3e dd 3c
       0.18548384 0.13161507 -0.033674132 0.02700718

action_model._continuous_distribution.log_sigma f4 [1, 2]
000000 a0 8e 3c be 03 8a 2d be
       -0.18413782 -0.16947179

action_model._continuous_distribution.mu.weight f4 [2, 32]
000000 c5 00 8e bd b0 7c d8 3d d6 c0 03 be c4 d6 52 3e
       -0.069337405 0.10570657 -0.1286653 0.20589739
000010 cc 10 0a 3e 83 ce 89 bc 7c 00 ef 3c be 31 fd 3d
       0.1348297 -0.016822105 0.029175036 0.12363003
000020 d3 b3 8e 3e d7 1b 8a bd c7 49 ae bd da 65 d9 bd
       0.2787157 -0.06743591 -0.08510166 -0.1061513
000030 e2 be d1 bd 96 b7 aa bc 78 8a 10 be bf a5 14 be
       -0.10241486 -0.020839494 -0.14115322 -0.14516352
000040 7f 1f cc bc 6b 04 af 3d aa b9 6c 3c 0c ce 4a be
       -0.024917362 0.085457645 0.014448563 -0.19805163
000050 36 a6 9e 3d 30 91 ba bc fe 92 f6 bd bf d9 62 3e
       0.07746546 -0.022774309 -0.12039755 0.22153376
000060 3d 3c 0f 3e 75 84 54 3e 5d 48 8d be c3 1d 17 3e
       0.13987823 0.20753653 -0.2759427 0.14757447
000070 d8 a1 50 be ac ef 91 3c 3b 94 6d 3d f8 99 73 3d
       -0.20374238 0.01781448 0.05800269 0.059473008
000080 86 e2 32 be 06 b0 78 be b7 2b 9b 3d 2e 4f 4b 3e
       -0.17469224 -0.24285898 0.07576697 0.19854423
000090 1f f0 ed 3d 2e 9e ab bd fd 70 3d be 6c eb 93 bd
       0.11618065 -0.0837978 -0.18500133 -0.072226375
0000a0 1c eb 05 3c 63 d0 17 3d fb eb b4 bd 3a 52 7a 3e
       0.00817373 0.037063967 -0.08834072 0.2444543
0000b0 92 74 ea 3d 45 ad 4e bd 81 22 4c 3c 9c 88 82 bd
       0.11448015 -0.05045821 0.012459398 -0.063737124
0000c0 f3 3b bf bd eb 17 8b 3e 9c 60 61 bd fe eb c0 3d
       -0.09337606 0.27166685 -0.055023775 0.09420012
0000d0 ce 6c 06 be 1d bc 5e 3e b2 b0 5e be ee 69 a1 bd
       -0.13127443 0.21751447 -0.21747091 -0.078815326
0000e0 67 b5 2a be 1c fc 00 3e 2f 4c d8 bd 07 8f bd 3d
       -0.16670762 0.12596172 -0.10561406 0.09255796
0000f0 26 a1 29 be 34 ae 4d 3e e1 8e 7b 3d 57 06 83 bd
       -0.1656538 0.20085984 0.061415557 -0.063976936

action_model._continuous_distribution.mu.bias f4 [2]
000000 64 a9 16 bb 58 19 4a 3c
       -0.0022989148 0.012335144

network_body.processors.0.normalizer.running_mean f4 [8]
000000 88 b2 9c 39 b0 ce 27 ba 41 84 de bd fa 2e 43 40
       0.00029887655 -0.0006401343 -0.10865069 3.0497422
000010 ca 83 e6 bc 8b e0 4c bc 63 22 91 be 73 5f 4f bc
       -0.028139014 -0.012504707 -0.28346547 -0.012657034

sqrt f4 [8]
000000 67 f4 47 3d b8 4c 41 3d 61 88 28 3f 23 4c 4c 3e
       0.048817065 0.047192305 0.658331 0.19950919
000010 17 b1 23 3f ab 9c 04 3f ea d8 29 3f 07 99 fd 3e
       0.6394209 0.51801556 0.6634661 0.49530813
