results/max-hiddenunits64-config1-1/3DBall/3DBall-449239.onnx (onnx, 29803 bytes, 5 tensors)

network_body._body_endoder.seq_layers.0.bias f4 [64]
0.09526554 0.035195194 -0.0903278 0.048304934 0.011125791 -0.09447223 0.08589508 0.005000148
0.04330225 0.19641477 -0.08143329 0.075248495 0.06088228 -0.117158666 -0.018188193 0.022882795
-0.01860756 0.025823897 0.02496357 0.048304155 -0.037264485 0.088913314 0.0063256314 -0.026413634
-0.009842261 -0.049330764 0.08897467 0.14029007 0.1439256 -0.013314078 0.07610759 0.0081073465
0.024102446 -0.03082948 -0.0018253158 -0.12973626 0.11266078 -0.094396584 -0.0342547 0.021498967
0.06377396 0.08234358 0.11947721 -0.087117404 -0.03384079 0.07428705 0.02845827 0.014788186
0.06417571 0.120970584 0.016545108 0.108461045 0.06984758 0.07477494 -0.05970788 0.21151857
0.024437008 0.22774553 0.039357834 -0.05803948 -0.013142204 0.02447052 0.065335885 -0.05246725
00000000: 941a c33d d628 103d c8fd b8bd 65db 453d
00000010: f348 363c a87a c1bd c2e9 af3d 48d8 a33b
00000020: b35d 313d f420 493e 7fc6 a6bd e21b 9a3d
00000030: b35f 793d e2f0 efbd 68ff 94bc b374 bb3c
00000040: e26e 98bc a38c d33c 6780 cc3c 94da 453d
00000050: a5a2 18bd 2f18 b63d 3e47 cf3b 6861 d8bc
00000060: 6f41 21bc 0e0f 4abd 5a38 b63d 33a8 0f3e
00000070: 3c61 133e 4a23 5abc 4cde 9b3d add4 043c
00000080: 7e72 c53c 1b8e fcbc 6f3f efba 95d9 04be
00000090: b2ba e63d ff52 c1bd a84e 0cbd 9a1e b03c
000000a0: ec9b 823d c0a3 a83d 78b0 f43d 9c6a b2bd
000000b0: a49c 0abd cf23 983d 5121 e93c 264a 723c
000000c0: 8e6e 833d 6dbf f73d 9b89 873c d320 de3d
000000d0: 3f0c 8f3d 9b23 993d 4090 74bd 5398 583e
000000e0: 1f30 c83c 2036 693e ae35 213d ceba 6dbd
000000f0: 6652 57bc 6676 c83c d2ce 853d e6e7 56bd

action_model._continuous_distribution.log_sigma f4 [1, 2]
-0.14850555 -0.18997379
00000000: d711 18be 7d88 42be

action_model._continuous_distribution.mu.bias f4 [2]
0.045727696 0.08226008
00000000: f74c 3b3d f977 a83d

network_body.processors.0.normalizer.running_mean f4 [8]
-0.0034272107 -0.0019753536 -0.42579618 3.0591757 0.10469455 0.011442575 -0.33287817 -0.010984562
00000000: 0e9b 60bb ef74 01bb f501 dabe 89c9 4340
00000010: 196a d63d a379 3b3c 026f aabe 98f8 33bc

sqrt f4 [8]
0.04857932 0.0508527 0.6929218 0.20108122 0.6542151 0.51226246 0.6682046 0.52542394
00000000: 1cfb 463d ec4a 503d 5363 313f 3ce8 4d3e
00000010: a47a 273f a223 033f 750f 2b3f 2f82 063f
