results/max-hiddenunits128-config1-0/3DBall/3DBall-499489.onnx (onnx, 29623 bytes, 4 tensors)

action_model._continuous_distribution.log_sigma f4 [1, 2]
-0.1618471 -0.14862402
00000000: 3fbb 25be e530 18be

action_model._continuous_distribution.mu.bias f4 [2]
-0.030089853 0.0063834963
00000000: ff7e f6bc a62c d13b

network_body.processors.0.normalizer.running_mean f4 [8]
0.0018702141 -0.00017876166 0.20510939 3.0544407 0.135532 -0.014867407 -0.28550556 0.0152896
00000000: f921 f53a f871 3bb9 3208 523e f57b 4340
00000010: e7c8 0a3e 6d96 73bc c92d 92be 3b81 7a3c

sqrt f4 [8]
0.049530715 0.046734553 0.6516833 0.19003274 0.6224104 0.5052926 0.6404224 0.4630755
00000000: b8e0 4a3d bb6c 3f3d b7d4 263f f197 423e
00000010: 4a56 1f3f db5a 013f b9f2 233f 3b18 ed3e
