results/max-hiddenunits128-config1-0/3DBall/3DBall-449489.pt (torch, 50138 bytes, 32 tensors)

network_body.observation_encoder.processors.0.normalizer.running_mean f4 [8]
0.001893139 -4.815031e-05 0.18977831 3.0561702 0.12611322 -0.0172475 -0.301103 0.01645908
00000000: 3423 f83a 00f5 49b8 3f55 423e 4b98 4340
00000010: d323 013e a14a 8dbc 2c2a 9abe 31d5 863c

network_body.observation_encoder.processors.0.normalizer.running_variance f4 [8]
1143.0006 1027.672 203953.48 17758.555 189515.52 124329.2 198858.89 105555.62
00000000: 05e0 8e44 8175 8044 5f2c 4748 1cbd 8a46
00000010: e112 3948 9ad4 f247 b932 4248 cf29 ce47

network_body.processors.0.normalizer.running_mean f4 [8]
0.001893139 -4.815031e-05 0.18977831 3.0561702 0.12611322 -0.0172475 -0.301103 0.01645908
00000000: 3423 f83a 00f5 49b8 3f55 423e 4b98 4340
00000010: d323 013e a14a 8dbc 2c2a 9abe 31d5 863c

network_body.processors.0.normalizer.running_variance f4 [8]
1143.0006 1027.672 203953.48 17758.555 189515.52 124329.2 198858.89 105555.62
00000000: 05e0 8e44 8175 8044 5f2c 4748 1cbd 8a46
00000010: e112 3948 9ad4 f247 b932 4248 cf29 ce47

network_body._body_endoder.seq_layers.0.weight f4 [128, 8]
0.2376276 0.051767245 -0.29430452 -0.07678335 0.07516264 0.13473347 -0.42471611 0.053656206
0.5193065 0.17308791 -0.0041472022 0.9553558 0.15804976 -0.5632717 -0.044866607 0.40252516
-0.2629414 0.44649985 0.49314997 0.14931737 0.07751144 -1.1187059 0.19144624 -0.49155462
0.32411784 0.31996685 -0.28425658 0.019753564 0.74266815 -0.06949654 -0.078526445 0.6515478
-0.38319016 0.16263454 -0.056889392 0.08326411 0.1845388 -0.058453877 0.38099438 0.44975275
-0.13330415 -0.25538114 -0.7196768 0.2924447 -0.38408136 0.24391228 0.40154383 0.37026525
-0.008814343 -0.3839771 -0.0121538155 -0.052940063 -0.360352 -0.3721093 -0.0145701775 0.073667474
-0.17090914 0.019957265 0.5622957 0.45241365 -0.03000807 0.1775511 -0.03220656 0.3780531
0.016623233 0.059276793 0.22937909 0.24424233 0.2909652 0.47334903 -0.2752565 -0.22649047
0.29978245 0.12038301 -0.34183592 -0.74265915 0.35534835 0.97068214 -0.093587615 -0.1499919
0.40520495 0.5918158 0.21670772 0.0293942 -0.24682786 -0.2736986 0.18014856 0.2885598
-0.194217 -0.19990008 -0.4876221 0.3792621 0.3808839 0.0634981 0.6917519 -0.31154642
-0.46435305 0.29126024 -0.5407168 0.49443683 0.2387095 0.3961973 -0.2895825 0.1414198
-0.081456766 -0.6384026 0.17181662 0.15744135 -0.4099846 -0.23266163 0.38916528 -0.49529123
0.44076544 0.30860445 -0.4968355 -0.36567736 0.38957316 0.41852388 0.09237764 0.288584
-0.65613365 0.6457086 1.0724032 -0.07967933 -0.07247097 -0.15196666 0.30601293 0.14280497
0.35297483 -0.031304546 -0.02927675 0.31072733 0.38323608 -0.100915715 -0.031491533 0.28830236
-0.103419356 0.024426116 0.25909036 0.5432131 -0.68960774 0.51476413 -0.2428723 0.05612452
-0.2536119 0.40538418 -0.5618031 -0.106394075 -0.5191886 -0.106929526 0.03062281 0.66916585
0.048752833 -0.04801619 0.71137995 0.4036311 0.088664554 0.38227913 0.5054763 0.047169
-0.110278495 -0.43235564 0.29455954 0.034491755 -0.24793565 0.6515773 0.11540467 0.11665039
0.18791617 -0.45776236 -0.32340872 0.5893701 -0.16345312 -0.14260563 -0.058621004 0.13424632
-0.5580741 0.26649538 0.21514958 0.17818734 -0.10604574 1.0028787 0.4383655 0.77191234
-0.032904934 0.18619016 -0.12920904 -0.19705825 0.026583916 -0.72769517 -0.078825854 0.4464713
-0.066035025 -0.25492966 -0.016235542 0.34445798 0.04202936 -0.7651106 0.0992462 0.1317601
0.47296923 -0.036519825 -0.27630788 0.2741258 0.18026903 -0.079792045 -0.009649938 -0.60294414
-0.2660149 -0.33056387 -0.34714004 -0.08296639 0.18824156 -0.10353684 -0.41894904 -0.2986309
0.51691645 0.45605934 0.00058156834 0.60226667 0.13300905 0.2667592 -0.010090847 -0.14497027
0.38624978 -0.10364777 -0.10834991 0.07186437 0.20279881 -0.17927904 0.32681802 0.34536406
-0.24676183 0.38375047 -0.5869247 0.15715778 0.034862686 -0.4362345 0.66923845 0.28221837
0.07854191 0.08708784 -0.009984181 -0.17978892 -0.5068828 -0.37861502 0.870064 -0.30828446
-0.025081594 0.20205376 -0.07420408 0.06737563 -0.11603252 0.24680384 0.25363386 0.9944338
00000000: a654 733e e409 543d 15af 96be 9740 9dbd
00000010: dfee 993d 92f7 093e 6474 d9be 9cc6 5b3d
00000020: 45f1 043f f53d 313e 41e5 87bb 3392 743f
00000030: ccd7 213e 9332 10bf 0cc6 37bd c717 ce3e
00000040: 41a0 86be a19b e43e 277e fc3e a7e6 183e
00000050: 51be 9e3d c131 8fbf 7c0a 443e 0cad fbbe
00000060: c6f2 a53e b2d2 a33e 148a 91be 3ad2 a13c
00000070: 801f 3e3f 3454 8ebd 79d2 a0bd d6cb 263f
00000080: 8031 c4be ab89 263e da04 69bd 6086 aa3d
00000090: bdf7 3c3e 556d 6fbd b211 c33e fe45 e63e
000000a0: e280 08be 51c1 82be bd3c 38bf 50bb 953e
000000b0: 50a6 c4be 24c4 793e 2797 cd3e 6893 bd3e
000000c0: 096a 10bc a598 c4be cc20 47bc aed7 58bd
000000d0: 0f80 b8be 1c85 bebe c1b7 6ebc f9de 963d
000000e0: ce02 2fbe 6b7d a33c 9cf2 0f3f c3a2 e73e
000000f0: 7cd3 f5bc f5cf 353e 07eb 03bd 2d90 c13e
00000100: 722d 883c 39cc 723d 5ae2 6a3e a91a 7a3e
00000110: 64f9 943e ce5a f23e 6cee 8cbe 1eed 67be
00000120: 167d 993e 5e8b f63d 1e05 afbe e91e 3ebf
00000130: 38f0 b53e a07e 783f ddaa bfbd 7a97 19be
00000140: 0677 cf3e 3e81 173f a1e8 5d3e 1bcc f03c
00000150: 71c0 7cbe 3922 8cbe dd78 383e 1cbe 933e
00000160: d2e0 46be 9bb2 4cbe 9ba9 f9be a42e c23e
00000170: 3703 c33e 4b0b 823d a716 313f 0383 9fbe
00000180: afbf edbe 1020 953e 6b6c 0abf d326 fd3e
00000190: 4370 743e 5fda ca3e 2844 94be 5ad0 103e
000001a0: ced2 a6bd 5a6e 23bf b2f0 2f3e 4e38 213e
000001b0: 80e9 d1be da3e 6ebe ac40 c73e d096 fdbe
000001c0: 02ac e13e 6701 9e3e 3961 febe 103a bbbe
000001d0: 2276 c73e c348 d63e 7d30 bd3d 48c1 933e
000001e0: 60f8 27bf 294d 253f 8244 893f eb2e a3bd
000001f0: a96b 94bd 269d 1bbe baad 9c3e 773b 123e
00000200: 1eb9 b43e 3239 00bd cbd5 efbc a717 9f3e
00000210: 8537 c43e e6ac cebd 44fd 00bd 5e9c 933e
00000220: 87cd d3bd 4719 c83c 7ea7 843e 0410 0b3f
00000230: 228a 30bf 95c7 033f 84b3 78be d3e2 653d
00000240: 6bd9 81be 848e cf3e 54d2 0fbf 23e5 d9bd
00000250: 8be9 04bf defd dabd b0dc fa3c 744e 2b3f
00000260: 0db1 473d a0ac 44bd ff1c 363f bca8 ce3e
00000270: c395 b53d 17ba c33e e566 013f 4834 413d
00000280: b1d9 e1bd b85d ddbe 82d0 963e 3a47 0d3d
00000290: d8e2 7dbe c5cd 263f 4959 ec3d 66e6 ee3d
000002a0: 196d 403e d45f eabe d495 a5be f5e0 163f
000002b0: 4160 27be 3607 12be 941c 70bd de77 093e
000002c0: f2dd 0ebf 1572 883e 2c50 5c3e be76 363e
000002d0: 822e d9bd 545e 803f 7171 e03e 0c9c 453f
000002e0: 53c7 06bd a2a8 3e3e 604f 04be a3c9 49be
000002f0: 83c6 d93c 3b4a 3abf 736f a1bd e397 e43e
00000300: 5f3d 87bd 2486 82be 6600 85bc cc5c b03e
00000310: fa26 2c3d 4ade 43bf 9741 cb3d 1fec 063e
00000320: 0629 f23e d095 15bd 3a78 8dbe 385a 8c3e
00000330: 7298 383e 036a a3bd c61a 1ebc 8c5a 1abf
00000340: 1b33 88be ab3f a9be 57bc b1be 48ea a9bd
00000350: 65c2 403e 1f0b d4bd 7d80 d6be 26e6 98be
00000360: a354 043f 9c80 e93e 6474 183a 262e 1a3f
00000370: 8633 083e a994 883e 1454 25bc 1673 14be
00000380: 88c2 c53e 4845 d4bd 8fe6 ddbd a02d 933d
00000390: 7eaa 4f3e ed94 37be b154 a73e 8fd3 b03e
000003a0: 22af 7cbe f17a c43e b240 16bf f8ed 203e
000003b0: 2dcc 0e3d 215a dfbe 3653 2b3f ed7e 903e
000003c0: 95da a03d 1c5b b23d b194 23bc 961a 38be
000003d0: 12c3 01bf d4d9 c1be 84bc 5e3f 76d7 9dbe
000003e0: ea77 cdbc 2ee7 4e3e 4ff8 97bd 3cfc 893d
000003f0: 75a2 edbd 25ba 7c3e 4cdc 813e 3793 7e3f

network_body._body_endoder.seq_layers.0.bias f4 [128]
0.028342826 0.11031316 0.027865551 0.080938034 0.010182128 -0.0077370564 0.060806874 0.0040752795
-0.010998901 -0.006317878 0.033976603 0.009173432 0.030135004 0.080314964 -0.0047797114 -0.025338033
0.06557173 0.02823884 -0.06091281 -0.018566873 0.023011528 0.041668307 0.08825005 -0.015714439
0.06969136 0.081068724 -0.008618909 0.026620883 0.008175156 0.06263277 0.05205232 0.052587528
0.023873752 -0.061414808 -0.05261164 0.05493837 -0.030209664 0.09370017 -0.0020569994 -0.019434564
-0.06751513 0.032227926 -0.064752154 0.13781106 -0.06328003 -0.04504483 0.04875414 -0.035588
0.10532733 -0.027741339 -0.0335444 0.039519984 -0.035023794 0.041472413 -0.01073611 -0.0036829954
-0.020341748 0.0032937268 -0.048435513 0.02327554 0.022721399 0.017933741 0.02020678 0.04261986
-0.012368266 -0.03481824 -0.115485266 -0.025253702 0.0017936531 0.042918924 0.036674567 0.014615906
0.06947712 0.03696174 -0.008139121 0.038616933 -0.08127732 0.09530126 0.0061900956 0.029925974
-0.012441539 0.050505146 0.031475946 0.0814187 0.036033154 0.03861429 -0.08091913 -0.012968185
-0.049634106 -0.0048823473 0.022164118 6.104591e-05 -0.014611107 0.02690915 0.01616631 0.068225764
-0.06581926 0.015763035 -0.009868796 -0.030573284 -0.009820249 -0.050675515 -0.015193537 -0.044878926
0.056348175 -0.0002962209 0.054871704 -0.051363543 0.05993412 -0.019368438 -0.026308116 0.032149926
-0.0343846 0.015665852 -0.024078786 0.046260443 -0.064293616 -0.08574195 0.04878944 0.08672891
-0.0432717 0.018833026 0.10042872 -0.032451563 -0.02788762 0.07468247 0.10076149 -0.00984758
00000000: 372f e83c deeb e13d 4c46 e43c d7c2 a53d
00000010: f1d2 263c 2287 fdbb a110 793d ec89 853b
00000020: bc34 34bc 3406 cfbb 0d2b 0b3d 2a4c 163c
00000030: afdd f63c 2c7c a43d 209f 9cbb b591 cfbc
00000040: 794a 863d 2455 e73c b67f 79bd 8e19 98bc
00000050: ac82 bc3c 63ac 2a3d 71bc b43d 91bb 80bc
00000060: 58ba 8e3d 5c07 a63d 5336 0dbc 0a14 da3c
00000070: 17f1 053c 9c45 803d d034 553d 0566 573d
00000080: e392 c33c 188e 7bbd 4e7f 57bd 0e07 613d
00000090: 427a f7bc e0e5 bf3d b9ce 06bb 3c35 9fbc
000000a0: 5f45 8abd 6e01 043d c79c 84bd 581e 0d3e
000000b0: f698 81bd ed80 38bd 6cb2 473d b9c4 11bd
000000c0: dbb5 d73d ce41 e3bc da65 09bd b5df 213d
000000d0: 1c75 0fbd fade 293d 82e6 2fbc 695e 71bb
000000e0: bda3 a6bc 91db 573b 5164 46bd 58ac be3c
000000f0: 3a22 ba3c c8e9 923c b088 a53c 2a92 2e3d
00000100: 44a4 4abc 929d 0ebd 8a83 ecbd dae0 cebc
00000110: 0319 eb3a c1cb 2f3d 1238 163d 8e77 6f3c
00000120: 054a 8e3d 3265 173d f359 05bc ca2c 1e3d
00000130: b974 a6bd 4f2d c33d 49d6 ca3b 5127 f53c
00000140: 99d7 4bbc 7cde 4e3d ecec 003d d9be a63d
00000150: 8097 133d 052a 1e3d eeb8 a5bd 8378 54bc
00000160: 224d 4bbd 19fc 9fbb 8691 b53c c605 8038
00000170: 6d63 6fbc 9470 dc3c 366f 843c f3b9 8b3d
00000180: 40cc 86bd 7b21 813c bbb0 21bc d374 fabc
00000190: 1ce5 20bc 2191 4fbd 50ee 78bc f7d2 37bd
000001a0: 58cd 663d 194e 9bb9 27c1 603d 9462 52bd
000001b0: 7b7d 753d 8faa 9ebc 1e84 d7bc a4af 033d
000001c0: ded6 0cbd ac55 803c e040 c5bc 977b 3d3d
000001d0: 5fac 83bd 7a99 afbd 70d7 473d ed9e b13d
000001e0: ab3d 31bd b847 9a3c 93ad cd3d eeeb 04bd
000001f0: 9474 e4bc 1ff3 983d 0a5c ce3d bf57 21bc

action_model._continuous_distribution.log_sigma f4 [1, 2]
-0.16202042 -0.14846218
00000000: aee8 25be 7806 18be

action_model._continuous_distribution.mu.weight f4 [2, 128]
-0.029445091 -0.08384272 -0.017923774 -0.051452927 0.008744909 -0.02001003 -0.014777473 0.07665461
0.07612219 -0.006362816 -0.0038712854 0.014022384 0.009642743 0.03381335 -0.050211422 -3.380491e-05
-0.07772977 0.042521864 -0.00033958856 0.05495158 0.0632197 -0.038179036 0.08980023 -0.039327297
-0.06275795 -0.03216032 0.03125144 -0.027314195 -0.046666786 -0.056662068 -0.04566084 -0.0043154913
0.02983174 0.014636302 -0.0031827937 0.0104773445 0.07232656 -0.05823553 0.012095799 0.024198834
0.0029696408 -0.035193738 0.03684532 -0.02189304 -0.017376378 -0.006177452 -0.035430122 -0.056007482
-0.035660528 -0.019637082 0.045716453 -0.058276348 0.023054106 0.01600104 0.04700297 0.021489494
0.044108 -0.058881164 -0.024151431 -0.012382577 0.052611884 -0.03258683 -0.0124409655 -0.033594675
0.045593403 -0.0047700503 0.011972569 0.026020238 0.075421676 0.05002074 0.0040018745 -0.036474682
0.05155225 0.071465075 -0.0036265051 -0.05697464 -0.0020839805 -0.078228354 -0.018035768 0.015160222
0.014541884 -0.03421641 0.041163154 -0.025628703 -0.008423123 0.004449105 0.0177323 -0.060912553
0.012297986 -0.018341424 0.0014393649 -0.008883991 -0.023594653 0.01722925 -0.011953212 -0.05900579
0.0044916566 -0.042683914 0.08450284 0.052926913 0.016510267 0.031615816 -0.007770573 0.0038628522
-0.03505151 0.034897417 -0.07733711 -0.007009815 -0.03431241 0.11394466 0.051901385 -0.047827873
-0.041722927 0.044541366 0.047588985 -0.01827581 0.0065357233 0.042643722 -0.07077232 0.039662957
0.014080534 0.095505744 -0.058669567 0.012389937 -0.001660385 -0.028924292 -0.030162515 -0.019011147
-0.049662802 -0.07040304 0.038122963 -0.073042355 -0.07751571 -0.0074842707 0.0321891 -0.026388295
-0.016441606 -0.030591968 -0.04853256 0.0106902355 -0.06621338 0.11075519 -0.029098162 -0.027455293
-0.075208224 0.0823902 -0.040053796 -0.015157317 0.06463791 0.059738304 -0.07486549 -0.051671106
0.015158093 0.036984485 0.03912137 -0.05318218 -0.024214959 -0.034280144 0.042323608 -0.093157835
-0.07868097 -0.0011691747 -0.027001755 -0.11501524 -0.031230545 0.024979265 -0.036937866 0.012531535
0.0035947624 -0.017809158 -0.0058562206 0.025268942 -0.017508479 -0.004014512 -0.029533688 -0.012899353
-0.07914537 -0.027971236 0.022025486 -0.025823137 0.020618824 -0.062804624 0.044483703 0.05941691
-0.039016236 -0.03916719 -0.017755749 -0.059765134 0.07669377 0.028269932 0.031871572 -0.014737131
-0.004867836 -0.031229876 -0.037885666 -0.061619613 -0.010059668 0.06916079 0.0258943 -0.023506168
0.0768014 0.0660115 0.043941922 -0.0023898287 -0.009477975 -0.09838365 -0.032997712 0.04419853
0.025202425 -0.050155863 0.07494646 0.0144581245 0.04918078 0.04978813 -0.0061214794 -0.033631194
-0.025309902 -0.004512498 -0.07322828 0.034087293 -0.042731408 0.08754467 -0.08739422 0.011529272
-0.015453298 -0.017275184 0.0097223325 -0.03765243 0.024189714 0.01927592 0.019118696 0.030939134
-0.009130335 0.018901264 -0.09906232 -0.029569928 0.063362285 0.0091412915 -0.018910505 -0.023888292
-0.015933009 -0.0628861 0.056555398 0.102685526 -0.01404984 0.00017670412 -0.021984646 0.08282377
0.019218765 0.007978456 0.024014235 -0.06051478 -0.014626656 0.07092329 0.028588872 -0.006709479
00000000: d536 f1bc bbb5 abbd e1d4 92bc 4ec0 52bd
00000010: cf46 0f3c 13ec a3bc 371d 72bc 18fd 9c3d
00000020: f3e5 9b3d 2b7f d0bb 64b5 7dbb 24be 653c
00000030: 98fc 1d3c de7f 0a3d 7eaa 4dbd bfc9 0db8
00000040: c930 9fbd 682b 2e3d ce0a b2b9 e814 613d
00000050: 5479 813d 9f61 1cbd 2fe9 b73d a915 21bd
00000060: 3d87 80bd 8aba 03bd 8301 003d 05c2 dfbc
00000070: ac25 3fbd 7c16 68bd dc06 3bbd f768 8dbb
00000080: b161 f43c 1acd 6f3c 6b96 50bb 2ba9 2b3c
00000090: f31f 943d 6188 6ebd 752d 463c a23c c63c
000000a0: 4e9e 423b 4f27 10bd 1eeb 163d 0859 b3bc
000000b0: e858 8ebc 396c cabb 2d1f 11bd 1a68 65bd
000000c0: c610 12bd f2dd a0bc 2d41 3b3d 2eb3 6ebd
000000d0: f7db bc3c 9d14 833c 3086 403d bc0a b03c
000000e0: 97aa 343d 602d 71bd 39d9 c5bc 4be0 4abc
000000f0: 8f7f 573d c579 05bd 31d5 4bbc 929a 09bd
00000100: 26c0 3a3d 154e 9cbb 9828 443c 6528 d53c
00000110: ae76 9a3d 8ce2 4c3d 2822 833b 7a66 15bd
00000120: 7428 533d 485c 923d a9aa 6dbb 3d5e 69bd
00000130: 6493 08bb 3036 a0bd bfbf 93bc 9462 783c
00000140: 1541 6e3c 8226 0cbd b29a 283d 49f3 d1bc
00000150: 2301 0abc ccc9 913b 5443 913c 717f 79bd
00000160: 7e7d 493c c140 96bc 12a9 bc3a 298e 11bc
00000170: 9349 c1bc 5b24 8d3c 68d7 43bc 0eb0 71bd
00000180: bf2e 933b 54d5 2ebd d30f ad3d e4c9 583d
00000190: 8a40 873c 967f 013d 4aa0 febb e827 7d3b
000001a0: 2c92 0fbd 98f0 0e3d eb62 9ebd 97b2 e5bb
000001b0: 2b8b 0cbd d15b e93d 8c96 543d 29e7 43bd
000001c0: a9e5 2abd 0271 363d abec 423d 27b7 95bc
000001d0: 9f29 d63b 2fab 2e3d 14f1 90bd a075 223d
000001e0: 0ab2 663c 8498 c33d 804f 70bd 2aff 4a3c
000001f0: 47a1 d9ba a3f2 ecbc 6117 f7bc 44bd 9bbc
00000200: 396b 4bbd 782f 90bd d326 1c3d 3b97 95bd
00000210: 8ec0 9ebd 9d3e f5bb b8d8 033d 442c d8bc
00000220: 8cb0 86bc 029c fabc 14ca 46bd 1926 2f3c
00000230: e19a 87bd 9ed3 e23d 455f eebc ece9 e0bc
00000240: c506 9abd 31bc a83d 730f 24bd 6556 78bc
00000250: e160 843d 27b0 743d 1453 99bd 15a5 53bd
00000260: a659 783c 0b7d 173d bb3d 203d 8fd5 59bd
00000270: 735e c6bc 5669 0cbd 855b 2d3d 89c9 bebd
00000280: 7d23 a1bd fe3e 99ba c932 ddbc 1c8d ebbd
00000290: 33d7 ffbc 51a1 cc3c 294c 17bd 1151 4d3c
000002a0: 1b96 6b3b 83e4 91bc 8ae5 bfbb d000 cf3c
000002b0: f16d 8fbc 2b8c 83bb a2f0 f1bc cf57 53bc
000002c0: f816 a2bd ef23 e5bc cb6e b43c 0b8b d3bc
000002d0: cfe8 a83c b69f 80bd 8b34 363d 255f 733d
000002e0: 7dcf 1fbd c76d 20bd 8174 91bc 49cc 74bd
000002f0: a011 9d3d 5896 e73c c48b 023d 0274 71bc
00000300: 5e82 9fbb ccd5 ffbc 002e 1bbd d964 7cbd
00000310: 4ed1 24bc 2ca4 8d3d 4820 d43c 0290 c0bc
00000320: 0d4a 9d3d 0a31 873d 72fc 333d ac9e 1cbb
00000330: 8249 1bbc 5e7d c9bd 9c28 07bd 8509 353d
00000340: 5175 ce3c 3c70 4dbd 887d 993d c5e1 6c3c
00000350: c971 493d a3ee 4b3d b196 c8bb ddc0 09bd
00000360: b656 cfbc 94dd 93bb b5f8 95bd 1e9f 0b3d
00000370: 2107 2fbd 9f4a b33d befb b2bd 46e5 3c3c
00000380: d42f 7dbc b084 8dbc 6b4a 1f3c 6f39 1abd
00000390: 8229 c63c 89e8 9d3c d09e 9c3c 1174 fd3c
000003a0: 6797 15bc d3d6 9a3c 30e1 cabd a23c f2bc
000003b0: 16c4 813d 5bc5 153c 34ea 9abc 61b1 c3bc
000003c0: f185 82bc 6dca 80bd a2a6 673d ca4c d23d
000003d0: 4d31 66bc a749 3939 2519 b4bc 829f a93d
000003e0: ac70 9d3c 12b8 023c 80b9 c43c 59de 77bd
000003f0: a4a4 6fbc 3b40 913d 3633 ea3c 30db dbbb

action_model._continuous_distribution.mu.bias f4 [2]
-0.030851284 0.0059412844
00000000: d5bb fcbc 1baf c23b

exp_avg f4 [128, 8]
-0.00031585217 0.00021840163 0.00048126988 -0.0011434632 0.00050425756 9.397391e-06 -0.0004993732 -0.00018564395
-0.0010041989 -0.0006585096 -0.0002906362 -0.0013943403 0.00012147074 -5.1375562e-05 -0.0020126065 9.9784236e-05
0.00076923985 0.0005499588 -2.497584e-05 -0.00010912243 -6.137953e-05 -0.00029181704 0.00024940431 0.00020059152
-0.0008568668 0.00031719694 0.00021490069 -0.0014447987 0.0005412156 0.00014789948 -0.0008803447 -0.00011615623
-0.0009123301 0.00015302804 -0.00034467736 -0.00015859486 -7.1852264e-05 0.00020748029 -1.9232264e-05 -0.00029625595
0.00044938264 -1.602854e-05 -0.00011126741 2.0417735e-06 6.156104e-05 -7.177493e-05 -0.0005087909 -6.7466455e-05
0.0005860763 0.000106436164 -0.0006463321 0.0007638865 -0.00033996088 1.2187931e-05 -0.001057289 0.00018225987
-0.0015059912 -3.7818227e-05 0.0010611688 -0.00038312364 0.00018547024 0.000366962 0.0021057224 -0.00019704462
-0.000587861 -0.00017584757 0.0017181803 -0.00077548873 0.0007244586 0.00019546499 0.0031925007 -7.818983e-05
-0.00029725232 0.00034425175 -7.1070834e-05 -0.00011924595 8.762805e-05 -3.917508e-05 -0.00041838337 -0.00012711922
-0.00072466594 -0.00031346627 1.7184875e-05 -0.000409233 0.0002852126 0.00036176364 -0.00018117983 -5.2584786e-05
-0.00017647988 -6.0754624e-06 -5.852411e-05 0.00025068558 -0.0001548866 4.600742e-05 -5.2454525e-05 7.096154e-05
-0.00062763196 0.0006286349 0.0012102507 -0.0018946726 0.0008929525 0.00020962866 0.0021181563 -0.00026433493
0.0006335271 0.00027763686 -0.00041949505 0.0011133787 -0.0004445069 0.00059746724 -9.423686e-05 0.00074861216
-0.00027909334 0.00021704237 -0.00020224242 -0.000449861 0.0003186446 -5.969312e-05 -0.00067881035 -6.105586e-05
-0.00018220181 -0.0001728951 3.9938408e-05 -1.0023102e-05 0.00016242519 0.00016081541 -0.0002497259 -9.643019e-05
-0.0010099798 0.00020048309 4.243132e-05 -0.0016323642 0.00031310623 -0.0002338002 -0.0013925992 -0.00011391757
-1.8826659e-05 -0.00026777183 -0.0010077041 0.0021413798 -0.0010492695 0.00017718007 0.00011687068 0.00043851856
-0.00025569735 5.295993e-05 0.00049286906 -0.0009490767 0.0005394111 0.00018406528 0.0011545853 -8.527383e-05
-0.00065079605 -0.00015633677 0.00029811964 0.0003323551 -0.00022133671 0.0002788379 -0.00019788933 -0.00018118208
-0.00051243923 -0.0006757837 -4.914915e-06 0.0006999332 -0.00048021032 0.0007258321 0.00088782416 0.0004654161
0.0012978557 -0.00020366046 -0.0017081836 0.0021025802 -0.00082860305 2.0635774e-05 -0.003292851 0.0003955258
-0.0032414126 0.0009575156 -0.001018375 0.0006712246 -0.0012909636 0.00040972073 0.00036701837 -0.00014754309
0.00033670384 -0.00043579037 0.00014367339 -0.0004854749 0.00046794105 0.00024638182 -0.00071473955 -5.4420598e-05
0.0013867099 2.6063105e-06 -0.00087308977 0.0005880737 -0.0003070624 -9.988979e-05 -0.0020405627 0.00024118993
0.00065849087 2.75634e-05 -0.0012578494 0.001249055 -0.00068829546 -0.00011122025 -0.0019842787 0.00026623523
-0.0004546274 -0.00020699373 -0.00034018073 0.0006639498 -0.00034741964 7.404556e-05 0.0007071786 0.0002843593
-0.0010068831 4.92976e-05 0.0004225888 -0.0013726874 0.0005775898 0.00020300127 -6.704562e-05 -0.00016058578
-0.00020979652 -1.664887e-05 -0.00010682475 -0.00053947774 0.00018914025 -0.00018895957 -0.00012544348 5.4864555e-05
0.0012186305 -0.00034290188 0.00038461873 -0.00079630234 0.0009021747 7.575133e-05 -2.4448562e-05 -0.00012231446
0.0016252402 0.00015194855 0.0006580089 -0.00041279427 0.00071026955 -0.000315117 0.00015653778 0.00024722476
-0.0008973594 0.00051314174 0.00010840032 -0.0010749801 0.00039497062 0.00012332179 0.0005428689 -0.00026819462
00000000: f698 a5b9 be02 6539 f352 fc39 42e0 95ba
00000010: 2730 043a 7da9 1d37 5ee8 02ba 6ba9 42b9
00000020: 539f 83ba d59f 2cba 8860 98b9 4cc2 b6ba
00000030: 1bbe fe38 177c 57b8 efe5 03bb 4143 d138
00000040: d0a6 493a 1c2b 103a 3583 d1b7 a9d8 e4b8
00000050: e2b8 80b8 05ff 98b9 7bc2 8239 e055 5239
00000060: 5c9f 60ba 744d a639 f756 6139 665f bdba
00000070: 5de0 0d3a 7715 1b39 efc6 66ba e798 f3b8
00000080: 7029 6fba 2776 2039 d0b5 b4b9 7c4c 26b9
00000090: 64af 96b8 118f 5939 f954 a1b7 cd52 9bb9
000000a0: 1e9b eb39 0775 86b7 3c58 e9b8 6705 0936
000000b0: 551a 8138 df85 96b8 6160 05ba c77c 8db8
000000c0: eaa2 193a 7b36 df38 9d6e 29ba 8e3f 483a
000000d0: c73c b2b9 c47a 4c37 bb94 8aba 031d 3f39
000000e0: ae64 c5ba 039f 1eb8 eb16 8b3a fcdd c8b9
000000f0: ca7a 4239 ce64 c039 2900 0a3b c39d 4eb9
00000100: af1a 1aba b963 38b9 9034 e13a 2b4a 4bba
00000110: 98e9 3d3a bcf5 4c39 4639 513b d8f9 a3b8
00000120: 88d8 9bb9 b07c b439 dd0b 95b8 af13 fab8
00000130: f3c4 b738 ec4f 24b8 775a dbb9 4e4b 05b9
00000140: 82f7 3dba bb58 a4b9 3d28 9037 538e d6b9
00000150: 9688 9539 18ab bd39 17fb 3db9 7c8e 5cb8
00000160: 750d 39b9 d3db cbb6 c977 75b8 736e 8339
00000170: 0e69 22b9 17f8 4038 9e02 5cb8 30d1 9438
00000180: ab87 24ba f9ca 243a 46a1 9e3a aa56 f8ba
00000190: 0715 6a3a c4cf 5b39 c4d0 0a3b 6f96 8ab9
000001a0: 4913 263a ca8f 9139 acef dbb9 caee 913a
000001b0: b50c e9b9 599f 1c3a 07a1 c5b8 833e 443a
000001c0: 4653 92b9 de95 6339 0911 54b9 52db ebb9
000001d0: c10f a739 005f 7ab8 31f2 31ba 1e0b 80b8
000001e0: 6d0d 3fb9 2d4b 35b9 8a83 2738 e528 28b7
000001f0: ae50 2a39 8fa0 2839 a5ed 82b9 903a cab8
00000200: 4c61 84ba c538 5239 48f8 3138 0ef5 d5ba
00000210: 6828 a439 4328 75b9 e087 b6ba 08e7 eeb8
00000220: f1ed 9db7 ba63 8cb9 f014 84ba 6456 0c3b
00000230: a487 89ba 6ac9 3939 7818 f538 f7e8 e539
00000240: 1e0f 86b9 4b21 5e38 e233 013a 76cb 78ba
00000250: 4467 0d3a a601 4139 7455 973a 0ad5 b2b8
00000260: 2f9a 2aba 55ee 23b9 f14c 9c39 f23f ae39
00000270: 9f16 68b9 fd30 9239 8380 4fb9 b2fb 3db9
00000280: 3755 06ba 1427 31ba ccea a4b6 b97b 373a
00000290: bdc4 fbb9 c545 3e3a dfbc 683a 1703 f439
000002a0: d01c aa3a b08d 55b9 21e5 dfba 71cb 093b
000002b0: 9c36 59ba fd1a ad37 dfcc 57bb 935e cf39
000002c0: e16d 54bb c901 7b3a ff7a 85ba 1ff5 2f3a
000002d0: 8d35 a9ba c9cf d639 5f6c c039 ccb5 1ab9
000002e0: a087 b039 cb7a e4b9 08a7 1639 5787 feb9
000002f0: fc55 f539 cf2c 8139 5c5d 3bba ac41 64b8
00000300: 43c2 b53a 13e8 2e36 10e0 64ba f528 1a3a
00000310: 38fd a0b9 ec7b d1b8 f6ba 05bb eee7 7c39
00000320: 939e 2c3a f337 e737 6cde a4ba 55b7 a33a
00000330: ba6e 34ba eb3e e9b8 ac0a 02bb 7d95 8b39
00000340: 0f5b eeb9 750c 59b9 495a b2b9 eb0c 2e3a
00000350: e025 b6b9 e848 9b38 f461 393a 0f16 9539
00000360: 64f9 83ba e5c4 4e38 e98e dd39 bfeb b3ba
00000370: 6569 173a bddc 5439 d89a 8cb8 eb62 28b9
00000380: d3fc 5bb9 2da9 8bb7 1a07 e0b8 bd6b 0dba
00000390: f353 4639 7323 46b9 7a89 03b9 5e1e 6638
000003a0: 74ba 9f3a 83c7 b3b9 a7a6 c939 f2be 50ba
000003b0: eb7f 6c3a b0dc 9e38 e316 cdb7 8a41 00b9
000003c0: 0306 d53a 6154 1f39 3b7e 2c3a 4f6c d8b9
000003d0: 6231 3a3a 4a36 a5b9 4a24 2439 f29d 8139
000003e0: c53c 6bba 5c84 063a fb54 e338 59e6 8cba
000003f0: 0f14 cf39 f14f 0139 514f 0e3a 799c 8cb9

exp_avg_sq f4 [128, 8]
5.241629e-06 4.451499e-06 1.2252945e-05 2.6451942e-05 4.9149467e-06 1.9205627e-06 3.7472546e-05 8.695706e-07
2.6278809e-05 2.510335e-05 4.9688933e-05 0.00015705793 2.296072e-05 5.87559e-06 0.00012062185 3.4181564e-06
3.2187522e-06 3.455805e-06 2.603205e-06 5.1815114e-06 1.2721431e-06 1.1479636e-06 2.976871e-06 6.031242e-07
1.1974768e-05 1.1630878e-05 1.7602953e-05 3.888424e-05 7.265832e-06 4.4022586e-06 4.4623877e-05 2.056468e-06
1.2588721e-05 9.275633e-06 7.844632e-06 1.3412061e-05 4.82845e-06 3.8085973e-06 4.02088e-06 1.7599399e-06
1.0689059e-06 7.8988575e-07 1.7299448e-06 4.5203938e-06 8.7523256e-07 4.1218485e-07 2.3917532e-06 1.4842901e-07
1.882984e-06 1.6113764e-06 2.1154876e-06 5.510084e-06 1.6400082e-06 6.696566e-07 4.7619747e-06 3.2323362e-07
1.3273577e-05 1.1993199e-05 1.6855325e-05 6.8652414e-05 1.2724442e-05 3.1343457e-06 4.9696697e-05 1.801678e-06
1.24455755e-05 9.926277e-06 1.9716535e-05 6.243662e-05 1.1821188e-05 4.302993e-06 6.1196246e-05 1.8866322e-06
1.5647746e-06 1.0444852e-06 1.3540927e-06 3.5995694e-07 8.644942e-07 9.0887477e-07 2.2187448e-06 3.360187e-07
3.9050665e-06 4.818221e-06 3.0175556e-06 7.5362523e-06 2.452718e-06 1.3462918e-06 2.8801878e-06 7.526363e-07
6.654971e-07 5.177063e-07 7.294257e-07 2.021498e-06 3.2066527e-07 2.4273086e-07 5.726698e-07 9.455394e-08
1.366957e-05 1.22115225e-05 1.9869516e-05 5.8106198e-05 1.156956e-05 4.604721e-06 5.3538155e-05 1.7678932e-06
2.4904139e-05 2.1059654e-05 2.1828146e-05 7.532263e-05 1.4602478e-05 7.0998053e-06 1.31720035e-05 4.0333152e-06
4.1100816e-06 3.543192e-06 3.4622383e-06 1.6922444e-06 2.1792434e-06 2.0767447e-06 3.0452786e-06 8.6455907e-07
1.7386117e-06 1.5937785e-06 1.0829433e-06 1.0884855e-06 6.511068e-07 5.1627285e-07 1.1830127e-06 2.9552766e-07
2.0051295e-05 1.8077753e-05 3.5602643e-05 0.000118165844 1.4575183e-05 5.088548e-06 7.7440876e-05 2.7434457e-06
2.153224e-05 1.7933418e-05 3.894738e-05 0.00011799332 1.9652874e-05 5.3396734e-06 9.7732154e-05 2.803099e-06
3.5010473e-06 3.3174776e-06 4.7823e-06 7.4154696e-06 2.8058564e-06 1.2597817e-06 8.354319e-06 5.656411e-07
6.1374376e-06 5.3200747e-06 4.992221e-06 1.3403641e-05 3.4473696e-06 1.7042469e-06 4.448641e-06 1.0153378e-06
1.5191073e-05 1.1689969e-05 1.3230738e-05 3.0709933e-05 1.0293108e-05 5.5075257e-06 1.3823176e-05 2.4932526e-06
1.1435428e-05 1.0690027e-05 1.7412382e-05 6.5053e-05 1.1987777e-05 3.6922816e-06 4.7250065e-05 1.4526959e-06
4.0145427e-05 2.6769187e-05 2.6191516e-05 4.809826e-05 1.8774343e-05 1.4748267e-05 1.4885686e-05 5.5420046e-06
4.7622684e-06 4.968182e-06 5.008104e-06 4.693448e-06 2.6559912e-06 1.9964368e-06 1.2819959e-05 9.444486e-07
7.2376183e-06 6.982527e-06 1.0201476e-05 4.0277333e-05 6.020829e-06 2.1616943e-06 2.195598e-05 9.4656826e-07
4.92128e-06 4.914835e-06 7.0526753e-06 2.5675414e-05 4.205863e-06 1.8220288e-06 1.5133997e-05 8.8955574e-07
4.8397233e-06 3.5727105e-06 1.0131533e-05 2.2102762e-05 3.6038778e-06 1.7214899e-06 2.8620476e-05 7.124812e-07
8.136229e-06 8.265249e-06 1.3986772e-05 4.6908808e-05 6.7902643e-06 2.0152324e-06 3.0398385e-05 1.1524148e-06
3.5205692e-06 2.8225745e-06 2.446377e-06 4.9686005e-06 1.5016936e-06 1.1173918e-06 1.4593206e-06 5.782917e-07
8.892019e-06 8.043398e-06 8.111549e-06 1.5086891e-05 4.5027355e-06 3.259449e-06 4.6776972e-06 1.3137443e-06
7.106457e-06 6.298765e-06 4.206247e-06 1.98411e-06 3.0236297e-06 2.8236896e-06 1.3609039e-06 1.2189826e-06
1.50343085e-05 1.3476713e-05 1.2478896e-05 2.7282786e-05 1.0065073e-05 5.432154e-06 8.627483e-06 2.933879e-06
00000000: 40e1 af36 165e 9536 0092 4d37 1de5 dd37
00000010: 12eb a436 04e3 0036 d72b 1d38 706c 6935
00000020: 5071 dc37 0995 d237 1669 5038 ebaf 2439
00000030: c59b c037 ef26 c536 5df6 fc38 7b63 6536
00000040: be01 5836 47ea 6736 b9b2 2e36 d8dc ad36
00000050: 81be aa35 bb13 9a35 41c6 4736 61e6 2135
00000060: 3de7 4837 3e22 4337 0eaa 9337 a317 2338
00000070: 06cd f336 1db7 9336 862a 3b38 da01 0a36
00000080: 2534 5337 8a9e 1b37 709c 0337 5d04 6137
00000090: 1204 a236 3497 7f36 19eb 8636 1337 ec35
000000a0: 5477 8f35 8908 5435 7330 e835 e3ad 9736
000000b0: 86f1 6a35 414a dd34 0282 2036 db5f 1f34
000000c0: d6ba fc35 7946 d835 cdf7 0d36 43e3 b836
000000d0: 411e dc35 73c2 3335 0dc9 9f36 e488 ad34
000000e0: 94b1 5e37 6636 4937 8964 8d37 7cf9 8f38
000000f0: 107b 5537 a657 5236 6c71 5038 2fd1 f135
00000100: 57cd 5037 0989 2637 f064 a537 68f0 8238
00000110: 9e53 4637 6e62 9036 7c56 8038 3038 fd35
00000120: 3f05 d235 3d30 8c35 45be b535 1b40 c134
00000130: 970f 6835 66f9 7335 bfe5 1436 0f66 b434
00000140: 4408 8336 34ac a136 3681 4a36 eadf fc36
00000150: 6099 2436 3cb2 b435 4049 4136 c608 4a35
00000160: 9da4 3235 82f8 0a35 c1cd 4335 12a9 0736
00000170: e627 ac34 ad50 8234 92b9 1935 940d cb33
00000180: 5b56 6537 17e0 4c37 76ad a637 0eb7 7338
00000190: e21a 4237 4182 9a36 288e 6038 5948 ed35
000001a0: 3be9 d037 43a9 b037 961b b737 87f6 9d38
000001b0: 2afd 7437 dd3a ee36 53fd 5c37 ea55 8736
000001c0: 55e9 8936 93c7 6d36 cd58 6836 1321 e335
000001d0: 1e3f 1236 345e 0b36 7d5d 4c36 0c14 6835
000001e0: 3e5a e935 d0e9 d535 a659 9135 1418 9235
000001f0: b8c7 2e35 0096 0a35 02c8 9e35 03a9 9e34
00000200: d433 a837 aea5 9737 0c54 1538 cecf f738
00000210: ef87 7437 4bbe aa36 c167 a238 0a1c 3836
00000220: 22a0 b437 b96f 9637 6e5b 2338 2e73 f738
00000230: 3adc a437 722b b336 8df5 cc38 e01c 3c36
00000240: 89f3 6a36 d5a1 5e36 a577 a036 66d2 f836
00000250: 3f4c 3c36 c515 a935 8729 0c37 8fd6 1735
00000260: 30f0 cd36 1883 b236 da82 a736 33e0 6037
00000270: 5c59 6736 7abd e435 8945 9536 be46 8835
00000280: 29dd 7e37 0920 4437 96f9 5d37 8ace 0038
00000290: 90b0 2c37 49cd b836 17ea 6737 c151 2736
000002a0: cada 3f37 5159 3337 ce10 9237 106d 8838
000002b0: 1c1f 4937 eac8 7736 5f2e 4638 40fa c235
000002c0: d361 2838 648e e037 dab5 db37 1dbd 4938
000002d0: 987d 9d37 536f 7737 89bd 7937 75f5 b936
000002e0: 93cb 9f36 5cb4 a636 490b a836 697c 9d36
000002f0: 953d 3236 86fa 0536 4e15 5737 0386 7d35
00000300: abda f236 734b ea36 0127 2b37 75ef 2838
00000310: 8706 ca36 a011 1136 1c2e b837 ad17 7e35
00000320: 7921 a536 1cea a436 05a6 ec36 8861 d737
00000330: 1720 8d36 6f8c f435 06e8 7d37 cec9 6e35
00000340: e864 a236 b3c2 6f36 9afa 2937 5269 b937
00000350: 26da 7136 f10d e735 0116 f037 5641 3f35
00000360: d680 0837 f9aa 0a37 baa8 6a37 f3bf 4438
00000370: edd7 e336 6e3d 0736 0900 ff37 acac 9a35
00000380: eb42 6c36 766b 3d36 702c 2436 f4b7 a636
00000390: cd8d c935 4af9 9535 e0dd c335 e73b 1b35
000003a0: ee2e 1537 22f2 0637 d616 0837 b41d 7d37
000003b0: 3416 9736 e8bc 5a36 1df5 9c36 e953 b035
000003c0: 0074 ee36 fb59 d336 6323 8d36 c026 0536
000003d0: 90e9 4a36 9e7e 3d36 4da8 b635 ec9b a335
000003e0: dd3b 7c37 0b1a 6237 735c 5137 56dd e437
000003f0: 29dd 2837 d945 b636 c2be 1037 a8e3 4436

exp_avg f4 [128]
-0.00016874654 -0.0006003981 -0.00011386852 -0.0002729481 -8.649297e-05 -0.00014372182 0.0002973156 0.00024569128
-0.00043484505 2.4146906e-05 -0.00049340876 0.00020366024 -0.00045958484 0.00085702934 0.00014870107 5.579215e-05
-0.0004026917 0.0010393152 -0.00048455465 0.00043191502 0.0007511184 0.0009882908 0.00089384295 -0.00020316987
9.894691e-05 0.0006978812 -5.6251134e-05 -0.00052479893 -0.00023474317 -0.0006884602 -0.0003065874 -0.0009564049
-0.0008996237 -7.258586e-05 -0.00018012304 -0.0011022931 0.00044702276 0.0010291116 -0.00037753856 3.4218149e-06
9.877636e-06 -2.307439e-05 0.000121857745 0.00047663262 -4.667322e-06 7.581909e-06 -0.00033879295 -9.783369e-06
-0.0009932222 -0.00022209994 0.0003560774 -0.00019328055 8.578625e-05 -0.00041443037 0.0005565879 0.00042210153
0.00026800894 0.00014834128 -0.0001695873 -0.00044938715 0.00066655356 0.00022728127 0.0004156454 0.00018174498
7.5193835e-05 -9.210045e-05 -5.739838e-05 0.00019852376 0.00037877227 0.0009012203 -9.741078e-06 -4.8187926e-06
0.00017267517 0.00055804563 0.00046315521 -7.161001e-06 -1.7136617e-05 -0.0003207482 -8.766511e-05 0.00032512617
0.00018847252 -3.9236555e-05 0.000737041 0.0005487899 6.178747e-05 0.00022816604 -0.00023178983 -0.000105208106
-0.0001845106 0.00016952018 -0.00067111984 0.00020890274 -0.00031169562 0.00058577355 -5.5731856e-05 0.00031065234
-8.175439e-05 0.00032913638 0.0011384189 -0.00024843917 4.042144e-05 9.093867e-05 0.00039074916 0.00019326153
7.854114e-06 8.191424e-06 -0.001387989 -3.1386964e-05 0.0010384979 0.001048223 0.0004581846 7.5460295e-05
-6.6643726e-05 0.00031109215 0.00018956995 0.0011496644 -8.510046e-06 -0.00020581501 0.00019703282 1.5339196e-05
9.968675e-05 0.0006026236 -0.00030540646 -0.0008454847 -4.807511e-05 0.00084948016 0.00041424084 5.1492032e-05
00000000: 8ef1 30b9 0964 1dba b2cc eeb8 791a 8fb9
00000010: 8f63 b5b8 08b4 16b9 06e1 9b39 20d0 8039
00000020: eafb e3b9 168f ca37 1a58 01ba a18d 5539
00000030: 6ff4 f0b9 44aa 603a a4ec 1b39 5d02 6a38
00000040: 5d20 d3b9 a239 883a d30b feb9 a772 e239
00000050: b4e6 443a 8989 813a c950 6a3a ff09 55b9
00000060: b881 cf38 04f2 363a 32ef 6bb8 a992 09ba
00000070: 6425 76b9 c879 34ba 77bd a0b9 3fb7 7aba
00000080: b9d4 6bba 3d39 98b8 69df 3cb9 d27a 90ba
00000090: 615e ea39 41e3 863a 5ef0 c5b9 55a2 6536
000000a0: 20b8 2537 e08f c1b7 e18d ff38 8ce4 f939
000000b0: fe9b 9cb6 1a68 fe36 05a0 b1b9 4023 24b7
000000c0: 022f 82ba 80e3 68b9 e6af ba39 5aab 4ab9
000000d0: 24e8 b338 e747 d9b9 fbe7 113a 824d dd39
000000e0: 8d83 8c39 0f8c 1b39 3fd3 31b9 b99b ebb9
000000f0: a7bb 2e3a 5a52 6e39 fbea d939 cc92 3e39
00000100: 62b1 9d38 0d26 c1b8 0bbf 70b8 d12a 5039
00000110: f495 c639 df3f 6c3a 9d6d 23b7 1db1 a1b6
00000120: 2310 3539 cf49 123a a4d3 f239 8848 f0b6
00000130: 9bc0 8fb7 182a a8b9 d9d8 b7b8 b275 aa39
00000140: b5a0 4539 ee91 24b8 fc35 413a abdc 0f3a
00000150: e593 8138 db3f 6f39 9c0c 73b9 2ca3 dcb8
00000160: 3079 41b9 3ac1 3139 17ee 2fba e70c 5b39
00000170: 146b a3b9 998e 193a a0c1 69b8 0ddf a239
00000180: 8e73 abb8 f08f ac39 0037 953a f140 82b9
00000190: 318a 2938 54b6 be38 77dd cc39 3fa6 4a39
000001a0: 2ac5 0337 e66d 0937 2fed b5ba 7fa5 03b8
000001b0: 351e 883a 8764 893a 7f38 f039 7040 9e38
000001c0: 14c3 8bb8 151a a339 4cc7 4639 56b0 963a
000001d0: 5fc6 0eb7 0cd0 57b9 989a 4e39 acac 8037
000001e0: eb0e d138 63f9 1d3a f61e a0b9 85a3 5dba
000001f0: 42a4 49b8 a6af 5e3a 772e d939 26f9 5738

exp_avg_sq f4 [128]
6.635505e-06 2.8242483e-05 2.86321e-06 1.3757187e-05 8.748995e-06 9.512649e-07 1.9104064e-06 1.4127002e-05
1.4178655e-05 1.5073662e-06 3.7180548e-06 5.264721e-07 1.2727218e-05 2.1240397e-05 4.008592e-06 1.4707726e-06
2.2351816e-05 2.1058622e-05 3.0529488e-06 5.218414e-06 1.2848012e-05 1.1824719e-05 2.8913028e-05 4.9110363e-06
7.4756026e-06 5.1945212e-06 5.304272e-06 8.532811e-06 2.9370888e-06 6.8235254e-06 5.2879354e-06 1.3092935e-05
1.5655167e-05 3.4083925e-07 1.2629091e-06 3.9361017e-05 1.3838485e-05 9.5505375e-06 3.0134295e-06 1.1816422e-06
3.1290277e-08 3.603332e-06 1.6247232e-06 3.0057931e-06 7.4468136e-07 6.54908e-08 4.547987e-06 6.097757e-06
1.9567027e-05 2.2815602e-06 3.5017988e-06 8.3970945e-06 1.7242487e-06 7.4898644e-06 6.428751e-06 7.1926547e-06
5.2301e-06 1.09707935e-05 1.542793e-06 5.303052e-06 1.9341416e-05 2.38784e-06 2.50817e-06 2.2838096e-06
5.089296e-06 1.217782e-06 1.5430944e-06 6.652928e-06 1.4067138e-05 1.7695478e-05 8.6230784e-07 4.545805e-06
1.2951799e-05 2.3089433e-05 3.5979458e-06 3.838954e-06 2.8247825e-07 2.3218301e-05 2.6794505e-06 5.8855285e-06
1.1414519e-06 5.5878572e-06 1.2278683e-05 1.7574358e-06 3.8936264e-06 3.9802344e-06 5.1016457e-07 5.9565086e-06
1.0792529e-06 6.305941e-07 8.792694e-06 1.5164288e-06 2.9532425e-06 1.9394747e-05 1.2223989e-05 6.6245707e-06
1.952883e-07 4.2243246e-06 1.2409656e-05 1.1431649e-05 1.6624151e-06 3.1375928e-06 9.844105e-07 2.366629e-06
1.471251e-06 2.4044957e-06 2.1346108e-05 1.2953385e-06 1.0205832e-05 2.1923663e-05 6.643879e-06 6.350953e-06
2.839464e-06 9.847219e-06 1.1568144e-05 2.1815678e-05 3.7685052e-07 1.4580736e-06 1.1629437e-05 1.1999969e-05
8.2172477e-07 2.4275165e-05 6.6149705e-06 9.2637065e-06 2.7771668e-07 1.5943486e-05 3.5320038e-06 9.3099203e-07
00000000: 8ea6 de36 45ea ec37 9325 4036 abce 6637
00000010: a6c8 1237 6d5a 7f35 8834 0036 0303 6d37
00000020: dce0 6d37 b550 ca35 b283 7936 e352 0d35
00000030: fc86 5537 682d b237 8b81 8636 5d67 c535
00000040: 2980 bb37 0ca7 b037 43e1 4c36 d619 af36
00000050: cb8d 5737 c862 4637 418a f237 7bc9 a436
00000060: f0d6 fa36 994c ae36 59fb b136 2528 0f37
00000070: cd1a 4536 a3f5 e436 056f b136 baa9 5b37
00000080: 3753 8337 97fc b634 3a81 a935 9217 2538
00000090: d72b 6837 3f3b 2037 533a 4a36 eb98 9e35
000000a0: 0664 0633 c6d0 7136 1011 da35 22b7 4936
000000b0: 1de6 4735 f3a3 8c33 e99a 9836 559b cc36
000000c0: df23 a437 e81c 1936 7200 6b36 3fe1 0c37
000000d0: bc6c e735 7251 fb36 8db6 d736 6f58 f136
000000e0: 387e af36 330f 3837 f711 cf35 dff0 b136
000000f0: 603f a237 c73e 2036 0852 2836 8d43 1936
00000100: b8c4 aa36 ac72 a335 521c cf35 373c df36
00000110: e601 6c37 c070 9437 5879 6735 2b88 9836
00000120: 8e4b 5937 2eb0 c137 3d74 7136 5dd0 8036
00000130: 84a7 9734 ecc4 c237 9cd0 3336 4e7c c536
00000140: fd33 9935 547f bb36 8b00 4e37 09e1 eb35
00000150: ffa5 8236 f48d 8536 3ef2 0835 05de c736
00000160: d9da 9035 1946 2935 5584 1337 1988 cb35
00000170: 5230 4636 e7b1 a237 a215 4d37 a148 de36
00000180: 70b0 5134 acbe 8d36 1133 5037 8fca 3f37
00000190: 2620 df35 6f8f 5236 1620 8435 60d2 1e36
000001a0: cd77 c535 ec5c 2136 6b10 b337 7edb ad35
000001b0: b739 2b37 b5e8 b737 7cee de36 451a d536
000001c0: 9f8d 3e36 7c35 2537 cd14 4237 d000 b737
000001d0: f151 ca34 07b3 c335 0d1c 4337 7953 4937
000001e0: 7f94 5c35 85a2 cb37 2af6 dd36 516b 1b37
000001f0: 1719 9534 60be 8537 5d07 6d36 49e9 7935

exp_avg f4 [1, 2]
-0.00030630268 -0.010007895
00000000: 4097 a0b9 27f8 23bc

exp_avg_sq f4 [1, 2]
0.006337172 0.0064849183
00000000: 0da8 cf3b 707f d43b

exp_avg f4 [2, 128]
-0.02350689 -0.013733626 0.008718289 -0.008455285 0.012266393 0.009403671 -0.0015380668 0.0070416215
-0.005002354 -0.0062785833 0.0013712551 0.00991858 -0.0102912 0.011250501 -0.0054289717 0.017406171
-0.0045324466 -0.007972242 0.005321832 0.009073905 0.010825715 -0.015705427 0.027288567 -0.003014216
0.00084315974 -0.007242341 -0.015803268 -0.003924448 -0.0015948081 0.016793426 0.007923427 0.0076643205
-0.0010178606 -0.0054924446 -0.029557297 -0.0062578344 0.00975734 -0.0139504885 0.011373993 0.000650745
0.002145615 -0.0065544373 0.0035106908 -0.036049854 -0.003394899 -0.0036139025 -0.00085537625 0.007501316
-0.019926263 0.016155535 0.005621686 -0.006456824 -0.0050146217 -0.0068066204 0.008222863 0.0016094288
0.0023936077 -0.05047753 0.015559839 0.00048359952 0.020325989 0.0019620296 0.00010784702 -0.018779146
0.009018479 0.011938849 -0.004060563 0.015092734 0.01573243 0.001777586 -0.00089478097 -0.010786394
0.008493088 0.00740168 0.002012545 -0.0035355065 0.01040567 -0.0029021716 -0.023704978 -0.01172153
0.010981832 -0.0096383495 0.011083805 -0.023131544 0.009930737 0.00052058446 -0.017500281 -0.0027899682
-0.0039072386 -0.010937417 0.003848025 0.00033989866 0.0011757148 -0.008386353 0.01658996 0.00026171317
-0.00030534103 -0.014681111 0.02475857 -0.013419022 -0.0012011171 -0.02136406 -0.024132831 -0.01963852
-0.0023148526 0.0021147376 -0.0003581122 0.0019890002 -0.0021752468 0.01320168 0.009609515 -0.006856829
0.00445183 0.009211323 0.0075569656 0.0050726263 0.0044863974 -0.00295461 -0.010334957 0.009191617
0.004679643 0.009354993 0.014788667 -0.007473667 0.0004295272 -0.029201334 -0.002870294 -0.028759172
0.011247741 0.03670436 0.0032784834 0.003910065 -0.0027276136 0.009405409 0.002435607 0.0013104964
-0.00055210973 -0.0051420922 0.010441387 -0.003536956 0.018934958 -0.004662518 -0.00021151183 -0.0011745776
0.010013228 0.021911528 0.008090413 0.0029710727 0.0019864321 0.02741418 -0.002476181 0.0026922666
0.0053310012 0.013066143 0.006073758 0.018968994 0.0065478045 -0.0026394632 0.0022857436 0.0027851579
0.0075987 -0.008126477 0.009831372 0.012658125 -9.909934e-05 0.02916604 0.0034050716 -0.006759443
-0.003122314 0.014106262 -0.0031205432 0.04867208 0.0036623217 0.0025027988 0.017307509 -0.0027747822
0.036007456 0.00040247763 0.0023596785 0.015066794 0.004529181 -0.0029752473 0.0001188533 0.0056062783
-0.005945832 0.023550445 -2.149815e-05 0.009031622 -0.0008496965 0.00784529 0.012827219 0.007689084
0.011673706 -0.0020415122 -0.0056912126 -0.0015121676 0.0014128577 0.017727729 -0.004304066 0.021873027
-0.0061530513 0.0043275477 0.005210238 0.004353722 0.00093980087 0.00090253074 0.008277384 0.027193477
-0.0040225433 0.00029632633 -0.005115187 0.009320392 -0.0031908327 0.0056396965 -0.0034119468 0.0028677136
-6.952767e-05 -0.003890321 0.005998615 0.0014660243 0.0065047434 0.0036674116 -0.0023962243 0.013586076
4.9082217e-05 0.0018463572 -0.0075100013 0.014591354 -0.0019883448 0.022008467 0.022656972 0.0128737185
0.006168632 -0.011491263 0.007906693 -0.0023060315 0.012737962 -0.004445692 -0.0047102203 0.010328359
-0.007342181 -0.0020553388 -0.0063702352 0.009447507 -0.0030845755 -0.0008176098 0.025079003 -0.008958617
0.00032621817 -0.0039676 0.0034042045 0.016742328 -0.001904813 0.038029242 0.007878009 0.02120077
00000000: 8591 c0bc 0103 61bc 28d7 0e3c 0988 0abc
00000010: fbf8 483c db11 1a3c f598 c9ba 67bd e63b
00000020: c9ea a3bb 93bc cdbb b0bb b33a 8a81 223c
00000030: 6c9c 28bc 0554 383c 84e5 b1bb 6397 8e3c
00000040: eb84 94bb 029e 02bc c362 ae3b b7aa 143c
00000050: 575e 313c aba8 80bc 468c df3c 278a 45bb
00000060: 7e07 5d3a 2951 edbb db75 81bc a898 80bb
00000070: e108 d1ba 5e92 893c 43d1 013c fb24 fb3b
00000080: bc69 85ba f7f9 b3bb 2522 f2bc 850e cdbb
00000090: 40dd 1f3c 9790 64bc fc59 3a3c c296 2a3a
000000a0: 729d 0c3b 9bc6 d6bb 9e13 663b 03a9 13bd
000000b0: f47c 5ebb 39d7 6cbb 543b 60ba 99cd f53b
000000c0: 673c a3bc 9d58 843c 1f36 b83b c493 d3bb
000000d0: b251 a4bb 120a dfbb 30b9 063c 78f3 d23a
000000e0: 13de 1c3b 87c1 4ebd b2ee 7e3c a18b fd39
000000f0: b082 a63c 6595 003b ee2b e238 b9d6 99bc
00000100: 3ec2 133c 2a9b 433c 790e 85bb 8447 773c
00000110: 4ce1 803c e3fd e83a bc8f 6aba 6ab9 30bc
00000120: 9826 0b3c cb89 f23b e7e4 033b f5b3 67bb
00000130: 8b7c 2a3c 5c32 3ebb f130 c2bc a90b 40bc
00000140: 24ed 333c 2bea 1dbc d998 353c 5d7e bdbc
00000150: 88b4 223c d577 083a c05c 8fbc e6d7 36bb
00000160: 4b08 80bb da32 33bc 262f 7c3b 6d34 b239
00000170: 711a 9a3a ea66 09bc abe7 873c 8c36 8939
00000180: 2e16 a0b9 0b89 70bc 7cd2 ca3c 75db 5bbc
00000190: cd6e 9dba ae03 afbc 37b2 c5bc f6e0 a0bc
000001a0: c8b4 17bb 6997 0a3b 01c1 bbb9 e359 023b
000001b0: 968e 0ebb dc4b 583c 3a71 1d3c 40af e0bb
000001c0: a8e0 913b 17eb 163c 6ca0 f73b 4638 a63b
000001d0: a102 933b 21a2 41bb f453 29bc 7098 163c
000001e0: b157 993b af45 193c 2a4c 723c aae5 f4bb
000001f0: 2a32 e139 a337 efbc 8b1b 3cbb 5b98 ebbc
00000200: 7248 383c 5057 163d d3db 563b 0120 803b
00000210: c3c1 32bb 2519 1a3c b49e 1f3b f6c4 ab3a
00000220: 75bb 10ba ff7e a8bb 5a12 2b3c 46cc 67bb
00000230: 7c1d 9b3c 09c8 98bb 46c9 5db9 49f4 99ba
00000240: 860e 243c ce7f b33c a78d 043c 54b6 423b
00000250: cd2e 023b b493 e03c 6c47 22bb bd70 303b
00000260: aeaf ae3b 6013 563c 6006 c73b dd64 9b3c
00000270: f78e d63b d8fa 2cbb 6acc 153b 3287 363b
00000280: 84fe f83b ea24 05bc c313 213c 0664 4f3c
00000290: 8ed3 cfb8 9eed ee3c 9f27 5f3b 517e ddbb
000002a0: bd9f 4cbb f31d 673c 0782 4cbb 605c 473d
000002b0: 9003 703b ff05 243b 7ac8 8d3c 1fd9 35bb
000002c0: 8e7c 133d a203 d339 d6a4 1a3b b7da 763c
000002d0: 8669 943b 5efc 42bb e140 f938 dfb4 b73b
000002e0: 41d5 c2bb ddec c03c ed56 b4b7 5ef9 133c
000002f0: 2bbe 5eba 8889 003c 4229 523c b6f4 fb3b
00000300: 1243 3f3c e4ca 05bb 5a7d babb ed33 c6ba
00000310: a32f b93a be39 913c 1f09 8dbb 102f b33c
00000320: 899f c9bb 1ace 8d3b a5ba aa3b aba9 8e3b
00000330: f85c 763a d097 6c3a dd9d 073c dbc4 de3c
00000340: 8acf 83bb 3f5c 9b39 4c9d a7bb 8fb4 183c
00000350: 4a1d 51bb 34cd b83b f89a 5fbb 40f0 3b3b
00000360: 62cf 91b8 c1f4 7ebb 0890 c43b 9d27 c03a
00000370: be25 d53b f558 703b f909 1dbb 2298 5e3c
00000380: a1dd 4d38 7801 f23a 7516 f6bb 9310 6f3c
00000390: e44e 02bb 1a4b b43c 1d9b b93c 4aec 523c
000003a0: 3c22 ca3b da45 3cbc 138b 013c ca20 17bb
000003b0: e3b2 503c 2bad 91bb 3158 9abb 4738 293c
000003c0: ae96 f0bb ddb2 06bb 68bd d0bb b7c9 1a3c
000003d0: 9726 4abb dd54 56ba 7b72 cd3c 2ac7 12bc
000003e0: 4308 ab39 a402 82bb 1319 5f3b 3527 893c
000003f0: ebaa f9ba 8dc4 1b3d c412 013c 3dad ad3c

exp_avg_sq f4 [2, 128]
0.0013715976 0.010655407 0.0014845978 0.0006369518 0.00043722734 0.0025229394 0.0002884274 0.0014830714
0.0015002418 0.00089626596 0.00092627516 0.0012498036 0.010476518 0.0009094379 0.0004666581 0.0023008883
0.0010162798 0.006706763 0.0018244231 0.0010554928 0.00056546455 0.006137825 0.0023227537 0.000301373
0.0010038042 0.0014779018 0.0022758998 0.003871073 0.00028478223 0.0014671464 0.0006200599 0.0005085551
0.0011956757 0.0011019515 0.0013527701 0.0072184224 0.0017463955 0.0037974876 0.0018172053 0.0013216347
0.00017810272 0.0037524553 0.00027160093 0.01871877 0.0005243811 0.00026775416 0.0026611572 0.0022065502
0.007206167 0.0015262279 0.00023306315 0.0018129527 0.0011037062 0.0006925173 0.00032246945 0.0020865302
0.00045586316 0.010029098 0.0010667 0.0007716237 0.0038077366 0.00057328737 0.002423613 0.0006420421
0.00787625 0.00042818536 0.00035797802 0.0006579284 0.002100428 0.0043010362 0.0003253724 0.009137304
0.0004462782 0.0027192878 0.0015117467 0.0004499193 0.004350655 0.0008081596 0.0018579384 0.010285817
0.0004663084 0.0008197228 0.00096869847 0.0014680149 0.0013520204 0.000857797 0.0013492686 0.0003350512
0.00044415257 0.0010052578 0.0005723993 0.00014071728 0.0006213235 0.0046302117 0.0010306775 0.0017876017
0.00031592976 0.0013959735 0.0012756173 0.005843476 0.0011931338 0.007737854 0.002416654 0.004339538
0.0004321053 0.0008884567 0.00057541847 0.0013323268 0.0020666115 0.0008136114 0.0016213328 0.0031040327
0.001138768 0.0007302252 0.002090931 0.002363184 0.0004813755 0.00033274456 0.002984563 0.00039643448
0.0010689992 0.002649804 0.0019683703 0.0033087004 0.00024450597 0.01162208 0.0025426361 0.0044566207
0.0014957804 0.010983621 0.0016425734 0.00058606616 0.00047912923 0.0029257208 0.00027723686 0.0016342789
0.0015122375 0.0009669506 0.0010232981 0.001534069 0.009777256 0.0009954593 0.0005145575 0.002191773
0.0010078324 0.0064995233 0.0021749486 0.0013022813 0.0006258642 0.0063907304 0.0024879102 0.00033421197
0.0011124457 0.0015594339 0.0023377493 0.0040792427 0.0002841569 0.0016862679 0.0006722417 0.0005953602
0.0011915157 0.0014771017 0.0017515479 0.007189574 0.0019992138 0.0042394064 0.0019159411 0.0016439774
0.0001772084 0.0039105755 0.00027570405 0.018612629 0.0004966426 0.000282851 0.0030393621 0.0026067463
0.0073074135 0.0016832232 0.00026504503 0.0018788327 0.0010721824 0.00063649705 0.00034256993 0.0022479254
0.0004824555 0.010784274 0.0011558324 0.0008052753 0.0040152017 0.000601828 0.0027734933 0.0007610795
0.008826503 0.00044542408 0.0004189654 0.00072608463 0.0023162994 0.004230381 0.0003241415 0.008712262
0.00042408655 0.002503618 0.0017108872 0.0004563511 0.0043576146 0.0008224302 0.0021981853 0.009815463
0.00046667538 0.00087464234 0.001195847 0.0016313145 0.0012474272 0.000906476 0.0018015406 0.00039380282
0.00052152434 0.0013128585 0.0007759943 0.00014279138 0.00062129565 0.004741591 0.0010451238 0.0022268437
0.00030194162 0.0016539803 0.0012187237 0.0060805823 0.0011847783 0.0073829275 0.0024263782 0.004235956
0.0004385215 0.0009540451 0.0005664385 0.0011542398 0.0025031068 0.00076209946 0.0016959525 0.0030572447
0.001141926 0.00077367097 0.0021969215 0.0030713358 0.0005060487 0.00037506022 0.003329208 0.00041145377
0.0010755805 0.0026722539 0.0023593756 0.003481793 0.000275625 0.01174577 0.0024888963 0.0049242955
00000000: 2ec7 b33a 0494 2e3c d696 c23a 1df9 263a
00000010: a93b e539 e657 253b 1238 9739 9e63 c23a
00000020: c3a3 c43a 64f3 6a3a 46d1 723a 73d0 a33a
00000030: b4a5 2b3c 5867 6e3a caa9 f439 80ca 163b
00000040: b134 853a 68c4 db3b 7b21 ef3a 7658 8a3a
00000050: af3b 143a cf1f c93b 5739 183b 9901 9e39
00000060: 1492 833a 28b6 c13a 4327 153b d4b1 7d3b
00000070: d34e 9539 444d c03a 848b 223a 8e50 053a
00000080: 38b8 9c3a 5b6f 903a 6f4f b13a 8488 ec3b
00000090: 4fe7 e43a 45df 783b 4b2f ee3a b43a ad3a
000000a0: 16c1 3a39 c1eb 753b a965 8e39 1b58 993c
000000b0: 9f76 093a 5b61 8c39 cf66 2e3b c59b 103b
000000c0: b621 ec3b b60b c83a 6a62 7439 99a0 ed3a
000000d0: 3caa 903a 0d8a 353a 1e11 a939 2bbe 083b
000000e0: eb00 ef39 1651 243c 83d0 8b3a ca46 4a3a
000000f0: 388b 793b aa48 163a 7bd5 1e3b b74e 283a
00000100: 630b 013c 117e e039 ffae bb39 d478 2c3a
00000110: 56a7 093b b5ef 8c3b bf96 aa39 a1b4 153c
00000120: 72fa e939 1436 323b cd25 c63a 25e3 eb39
00000130: f08f 8e3b acda 533a 1186 f33a d885 283c
00000140: db7a f439 aae2 563a 41f0 7d3a 686a c03a
00000150: 4736 b13a c8dd 603a f1d9 b03a d0a9 af39
00000160: 26dd e839 dbc2 833a 110d 163a 828d 1339
00000170: 50e0 223a 08b9 973b cc17 873a f64d ea3a
00000180: 60a3 a539 19f9 b63a 9d32 a73a a17a bf3b
00000190: ed62 9c3a d38d fd3b ba60 1e3b af32 8e3b
000001a0: 318c e239 52e7 683a aed7 163a 78a1 ae3a
000001b0: fd6f 073b 8948 553a e782 d43a 076d 4b3b
000001c0: b742 953a 956c 3f3a 0008 093b a6df 1a3b
000001d0: 2061 fc39 3874 ae39 a898 433b 89d8 cf39
000001e0: a91d 8c3a 56a8 2d3b c6ff 003b c8d6 583b
000001f0: 0931 8039 896a 3e3c 5ba2 263b d808 923b
00000200: 100e c43a a5f4 333c 9e4b d73a 3ca2 193a
00000210: a333 fb39 73bd 3f3b 1a5a 9139 4d35 d63a
00000220: 4536 c63a f57a 7d3a 3020 863a d012 c93a
00000230: c930 203c 127a 823a 5fe3 063a d9a3 0f3b
00000240: 3e19 843a f4f9 d43b 9589 0e3b 4fb1 aa3a
00000250: 0911 243a 5569 d13b 350c 233b 2c39 af39
00000260: 7ccf 913a eb65 cc3a ed34 193b 2bab 853b
00000270: e5fa 9439 c305 dd3a 6039 303a f211 1c3a
00000280: a22c 9c3a 4f9b c13a 3294 e53a 8596 eb3b
00000290: 3e05 033b b8ea 8a3b 5120 fb3a ba7a d73a
000002a0: 05d1 3939 4924 803b 5f8c 9039 8379 983c
000002b0: 1f31 023a 9e4b 9439 0930 473b f2d5 2a3b
000002c0: 0773 ef3b 999f dc3a bef5 8a39 2a43 f63a
000002d0: 7988 8c3a 98da 263a f59a b339 ee51 133b
000002e0: 15f2 fc39 86b0 303c 4d7f 973a 1c19 533a
000002f0: f491 833b fec3 1d3a 7fc3 353b 2e83 473a
00000300: 099d 103c cf87 e939 96a8 db39 b756 3e3a
00000310: 0ecd 173b 029f 8a3b 89f1 a939 e0bd 0e3c
00000320: ef57 de39 bd13 243b d93f e03a 6842 ef39
00000330: 52ca 8e3b 5b98 573a 6e0f 103b 09d1 203c
00000340: 1cac f439 4148 653a f8bd 9c3a d5d1 d53a
00000350: b680 a33a 93a0 6d3a ac21 ec3a 5277 ce39
00000360: e8b6 083a 3914 ac3a 196c 4b3a 45ba 1539
00000370: 72de 223a 595f 9b3b 89fc 883a 3df0 113b
00000380: eb4d 9e39 5fca d83a 95bd 9f3a 9f3f c73b
00000390: 904a 9b3a 7cec f13b df03 1f3b c6cd 8a3b
000003a0: 5ce9 e539 e218 7a3a 0b7d 143a dc49 973a
000003b0: 2a0b 243b a1c7 473a b94a de3a 0e5c 483b
000003c0: aeac 953a 2ed0 4a3a 3afa 0f3b 7748 493b
000003d0: 5aa8 043a bba3 c439 d72e 5a3b 64b8 d739
000003e0: 7efa 8c3a fb20 2f3b c19f 1a3b cb2e 643b
000003f0: c381 9039 5571 403c c01c 233b fc5b a13b

exp_avg f4 [2]
4.7227368e-05 0.011632787
00000000: 0016 4638 7297 3e3c

exp_avg_sq f4 [2]
0.0046599633 0.004921668
00000000: 9bb2 983b f245 a13b
