results/max-hiddenunits-config1-2/3DBall/3DBall-449084.onnx (onnx, 29671 bytes, 6 tensors)

network_body._body_endoder.seq_layers.0.bias f4 [16]
0.15589632 0.09577721 0.12481943 0.21538559 0.16332515 0.16510129 0.29644325 0.16680421
0.12054331 0.19205265 0.20946981 0.06815006 -0.09351381 0.29386103 0.11128578 0.06050881
00000000: 49a3 1f3e d826 c43d 54a1 ff3d 0a8e 5c3e
00000010: b53e 273e 5010 293e 69c7 973e b9ce 2a3e
00000020: 69df f63d 73a9 443e 417f 563e 4292 8b3d
00000030: 2b84 bfbd f474 963e cde9 e33d 16d8 773d

action_model._continuous_distribution.log_sigma f4 [1, 2]
-0.19778696 -0.14208108
00000000: aa88 4abe b47d 11be

action_model._continuous_distribution.mu.weight f4 [2, 16]
-0.25720242 0.27496314 0.17181861 -0.1976021 0.1317971 0.14653568 0.10603426 0.25122514
0.24887726 -0.011213624 -0.36084485 -0.05050662 -0.022960028 -0.30718943 0.31453264 -0.0547296
-0.035904333 -0.15132102 0.15890433 0.29988432 -0.179633 0.27796784 0.35517448 0.05975253
0.07963824 -0.3769146 -0.08515837 -0.21650863 -0.011605894 -0.012342369 -0.035555877 0.07573299
00000000: 09b0 83be f8c7 8c3e 38f1 2f3e 3458 4abe
00000010: d2f5 063e 730d 163e 7d28 d93d 95a0 803e
00000020: aed9 7e3e 59b9 37bc a8c0 b8be 08e0 4ebd
00000030: ab16 bcbc ef47 9dbe 6c0a a13e 252c 60bd
00000040: 6c10 13bd e6f3 1abe d1b7 223e 708a 993e
00000050: b7f1 37be cd51 8e3e 6ed9 b53e 12bf 743d
00000060: 6019 a33d f3fa c0be 8367 aebd 70b4 5dbe
00000070: a626 3ebc a637 4abc 0aa3 11bd e619 9b3d

action_model._continuous_distribution.mu.bias f4 [2]
-0.062113944 0.028471045
00000000: 316b 7ebd 1c3c e93c

network_body.processors.0.normalizer.running_mean f4 [8]
0.0013216565 -0.0018271887 0.0635957 3.0594668 0.1885882 -0.015609883 -0.34817657 -0.002729116
00000000: 6f3b ad3a 477e efba 763e 823d 4ece 4340
00000010: 441d 413e 98c0 7fbc 3344 b2be f8da 32bb

sqrt f4 [8]
0.056395795 0.050228637 0.71826065 0.22725713 0.70468926 0.62917495 0.73397416 0.51758033
00000000: 47ff 663d 8bbc 4d3d eedf 373f 18b6 683e
00000010: 8466 343f 9c11 213f bbe5 3b3f 2580 043f
