results/max-hiddenunits64-config2-2/3DBall/3DBall-99618.pt (torch, 243171 bytes, 56 tensors)

network_body.observation_encoder.processors.0.normalizer.running_mean f4 [8]
00000000: 5308 e5b9 0b8d e539 98a9 bbbc c6e6 4640
00000010: 9d5e cb3c b755 b7bc 34fb 3abf 58ce 283c
-0.00043684486 0.0004378337 -0.022908017 3.1078353 0.024825389 -0.02237974 -0.73039556 0.010303102

network_body.observation_encoder.processors.0.normalizer.running_variance f4 [8]
00000000: dbac 0444 f512 0844 9f1f db47 1385 5946
00000010: c194 ed47 e900 9347 a5fa f347 2912 a747
530.70087 544.2962 112191.24 13921.269 121641.51 75265.82 124917.29 85540.32

network_body.processors.0.normalizer.running_mean f4 [8]
00000000: 5308 e5b9 0b8d e539 98a9 bbbc c6e6 4640
00000010: 9d5e cb3c b755 b7bc 34fb 3abf 58ce 283c
-0.00043684486 0.0004378337 -0.022908017 3.1078353 0.024825389 -0.02237974 -0.73039556 0.010303102

network_body.processors.0.normalizer.running_variance f4 [8]
00000000: dbac 0444 f512 0844 9f1f db47 1385 5946
00000010: c194 ed47 e900 9347 a5fa f347 2912 a747
530.70087 544.2962 112191.24 13921.269 121641.51 75265.82 124917.29 85540.32

network_body._body_endoder.seq_layers.0.weight f4 [64, 8]
00000000: 67e0 bb3d 992d 5b3e 4e08 873e 7e3d b83e
00000010: 37e2 e23e 038b 453d 27a2 56bc e885 fbbc
00000020: 0fa3 0e3e afd4 cc3c 8e96 943e f3f2 cfbe
00000030: 7564 c83e d5ea b13e 527d 9fbd 3bb1 96bc
00000040: d8e3 8cbd 69f2 fabe 26b9 33bf 43b8 1e3e
00000050: c3e3 2abe 5d91 ee3c 4533 ac3f 0ba7 013f
00000060: aa19 bf3e dc7b 8fbe 582c 63bd 24f7 49be
00000070: 8c37 5b3f 7ed7 b8be 7594 b23c efb9 12bd
00000080: 0e57 d8be fe4c d6bd c354 bdbc f962 783e
00000090: f2fc 92bc 5f57 2b3e adfc 303e 1701 0c3d
000000a0: 3f27 373e cf83 5c3f 4f33 c8be 0ad3 abbe
000000b0: 4737 9bbe 3317 8d3e 7063 e03d 5350 b5be
000000c0: 6ad7 bb3d ce44 8d3d 0b9e b7be 98b6 29bb
000000d0: a37f c5be c653 90be 6c62 0bbf ebd6 ce3e
000000e0: be41 893e 9985 ee3e 14e1 c53e cef0 b93e
000000f0: 3053 063f d994 5f3e 5c17 40be e106 28be
00000100: 35a9 25be 1364 39be 2d02 253e 1fde 8ebe
00000110: 0435 093f 55ea 02bf d616 e23e 08c8 2d3f
00000120: 5c8d 0c3f add5 4c3e 41b1 34bf 2e2a e4bd
00000130: e98c 783e 2c43 1bbf 874a 423e 42b4 563d
00000140: 61ea 9f3e 2a75 d7be abb5 013f 7ca6 e6bd
00000150: 3cf3 38bf 9aa7 3d3d bfc7 a0bd 4704 c1bd
00000160: 2635 21be ab49 be3d ae3b acbe ccbe 043f
00000170: 9231 a33e 8b30 5f3e 7fc8 80bf 2cd7 94bd
00000180: 22a4 9ebd 50ff 973e 4a4e 4cbf 3dcd 8bbe
00000190: a481 ff3e 3b55 adbe 589e 32bd fb12 7e3e
000001a0: 6839 43bf 2202 bbbe 0891 9bbe 8504 f33e
000001b0: c701 96be 888a fc3d 6816 e9be cecd 0dbf
000001c0: 6c7c f1be a7f1 eebe 1d98 723d 1f81 f5bd
000001d0: c485 b0be e620 a6be 0e01 b23c b847 1bbd
000001e0: b97f e2bd 71b4 9bbe 13d2 b83e d293 33bb
000001f0: 2ef2 e8be eb74 623e b27d 493d a1f2 133e
00000200: 80c1 2d3f 54fe 9c3e 8a07 103e e8b6 513f
00000210: 903a 093e 52f9 693e 1dd8 84be b403 933e
00000220: 01ff f1bd 26df eebe d149 cabe b8fe a1bd
00000230: 4dab 09bf 3236 1abe ba1f 32be ffda 343d
00000240: 4d8d cb3e 1350 543f 063f d73e 7438 333f
00000250: 5008 02be cd79 803e 0584 8bbe 0190 d63e
00000260: a527 fcbe d81f 453f 4f56 393d 5596 95be
00000270: 1e78 0fbe 5491 7d39 b63f 93be 7bca 1b3f
00000280: 4bc8 7a3e 0cfa 803b 347f e53e f7fe 37bd
00000290: d730 18bd 17aa 9c3d eef0 f33e f4d8 b63e
000002a0: 6087 6b3e 586d 3d3d c1f5 ecbd 7cc6 96bd
000002b0: 053f 193e 3da9 d6be 440d 1f3e 8d59 c6bd
000002c0: d749 ccbd ed9b afbd 3cb9 3fbe 6122 c1be
000002d0: 6f82 673d 4fd4 10bd 9ec6 813d 4600 b63e
000002e0: 6ef2 b53e 2509 6bbe 20c8 9d3e d51a 093e
000002f0: 59f9 6b3d 14cd b43e 645e 5dbe 46cf fbbc
00000300: f67d b4bc 8f0d f73e d12f 413e e211 99bc
00000310: 3421 013f d5dd a73e 2fec 9f3e dc90 31be
00000320: 4003 77be 6195 463d 7355 61bf 5478 493f
00000330: a49b 053e 2d58 02bf 92e5 013f 46cc 023e
00000340: ae98 ec3e 41db 4fbe 92d9 5ebe e9c4 253e
00000350: 7513 ce3e 3d24 04be 622c f9be afad 6bbe
00000360: e0aa d33e 0953 103f 9cb5 953d 894e 413d
00000370: 137d 2e3f 2343 a33e 1361 a93e c237 633e
00000380: 7cd6 0bbd a93b 973e 9f23 aabe abe1 d4be
00000390: 3254 713a c899 8cbd 17f0 293e 3508 4abd
000003a0: 09b1 13be e561 963d 4972 1b3f f6ac c5be
000003b0: 7cdb 4c3e c1fe b13d f29d 62be 2249 00bf
000003c0: 1f0a 283d 8512 aa3e 4189 f0be 4669 ed3d
000003d0: e729 babe c19f 2dbf 8b97 e0be ef32 843b
000003e0: e005 13bf 6bf5 533e f1fd e9be 8002 7e3d
000003f0: 5939 cfbd afb8 4c3d b422 853e 8a98 2f3e
0.09173661 0.21404113 0.26373523 0.35984415 0.44313213 0.048228275 -0.013100184 -0.0307035
0.1392939 0.02500376 0.29021114 -0.40615043 0.39139143 0.34749475 -0.07787575 -0.018395057
-0.06879395 -0.4901307 -0.7020439 0.15499978 -0.16688447 0.029122049 1.3453146 0.5064551
0.37324268 -0.28024185 -0.05546221 -0.19723183 0.8563163 -0.36101907 0.021799305 -0.03582185
-0.42253917 -0.10463904 -0.023111707 0.24256505 -0.01794288 0.16732548 0.17283888 0.034180727
0.17886065 0.86138624 -0.39101645 -0.33559448 -0.3031561 0.27556762 0.10956466 -0.35412845
0.09171946 0.06897889 -0.35862765 -0.0025896188 -0.38573942 -0.28188914 -0.54447055 0.40398344
0.2680797 0.46586302 0.38648283 0.36316532 0.52470684 0.21834125 -0.18758911 -0.16408874
-0.16177829 -0.18104582 0.16114111 -0.2790384 0.5359652 -0.5113881 0.44158047 0.6788335
0.549032 0.20003386 -0.7058297 -0.11140858 0.24272503 -0.6064937 0.18973742 0.052418
0.31233504 -0.42081577 0.5066783 -0.11262223 -0.72246146 0.046302415 -0.078505985 -0.09424644
-0.15742931 0.09291395 -0.33639282 0.5185363 0.31873757 0.21795861 -1.0061187 -0.07267603
-0.077461496 0.29686975 -0.7980696 -0.27305022 0.49903595 -0.33854088 -0.04360804 0.24811928
-0.7625947 -0.36525065 -0.30384088 0.47464386 -0.2929823 0.1233111 -0.45524907 -0.5539216
-0.4716524 -0.4666874 0.059227098 -0.119875185 -0.34477055 -0.32446975 0.021729019 -0.037910193
-0.110595174 -0.30411103 0.36097774 -0.002740134 -0.45497268 0.22114913 0.049192138 0.14448024
0.6787338 0.30662787 0.14065376 0.8191972 0.13401246 0.22849014 -0.2594613 0.28713763
-0.11816216 -0.46654624 -0.39509442 -0.07909912 -0.5377701 -0.15059736 -0.17394915 0.044154163
0.3975624 0.82934684 0.4204027 0.70008016 -0.12698483 0.25092927 -0.2724916 0.4190674
-0.49248996 0.77001715 0.045248326 -0.29216257 -0.14010665 0.00024182099 -0.28759545 0.60855836
0.24490468 0.003936058 0.4482361 -0.044920888 -0.037155952 0.076496296 0.47644752 0.35712397
0.2300086 0.046246856 -0.11570311 -0.07362077 0.14965446 -0.41925994 0.15532404 -0.09685049
-0.09975021 -0.08574662 -0.18723005 -0.37721542 0.056520876 -0.035358723 0.06336711 0.35547084
0.35536522 -0.22952707 0.30816746 0.13389142 0.057610843 0.35312712 -0.21618038 -0.030738484
-0.02203272 0.48252532 0.18865897 -0.018685285 0.5044129 0.32786432 0.3123488 -0.17340416
-0.24122334 0.048482303 -0.8802101 0.7869923 0.13047653 -0.50915796 0.5074092 0.12773237
0.46210235 -0.20298482 -0.21762684 0.16188397 0.4024922 -0.12904449 -0.48666674 -0.23015474
0.41341305 0.563767 0.0731003 0.047194038 0.681596 0.3188716 0.33081874 0.22189239
-0.034140095 0.29537705 -0.33230302 -0.4157842 0.00092059665 -0.06865269 0.16595493 -0.049324233
-0.14423002 0.07342891 0.6072126 -0.3860852 0.20005602 0.086911686 -0.22130564 -0.5011159
0.041025277 0.33217254 -0.46979716 0.11592345 -0.36360094 -0.6782189 -0.43865618 0.004034392
-0.5743084 0.20699088 -0.45701554 0.062014103 -0.1011836 0.049980816 0.2600304 0.17148033

network_body._body_endoder.seq_layers.0.bias f4 [64]
00000000: 5b8a 763c 7678 50ba a5ed ae3d e744 2b3c
00000010: 1eea 3c3d d80a bf39 4d70 183d 04db 823c
00000020: 202d af3c c3d1 823d fba8 843d 76a2 033d
00000030: 1ccd e83c a5bf 213d c392 543d 1439 4f3c
00000040: 873c 93bc 683a 88bc f328 6e3c 095f 603d
00000050: 71e2 e03c d854 433c cf12 88bc 652d 18bc
00000060: fe2f 4c3d 666a 993b 2d36 d43c edfd 1f3d
00000070: 5f88 0c3b b9bf f1ba 05ea a03c 57d7 fc3c
00000080: 7707 1f3d d3b5 553d a274 243d bd6d babc
00000090: b3a2 51bd dd34 1f3b e5c2 31bd 95dc 363d
000000a0: e4bf a23c be3d a73c 22f3 063d 0302 b6bc
000000b0: 9022 793d 14e4 62bc f784 0a3d 03f7 583c
000000c0: ae4a 75bc 920d 253d f0a9 473d 22ab 1f3d
000000d0: 29f4 38bd 9e2a 67bc 6580 853d 6dd3 1a3d
000000e0: a1f8 c9bc b75f d83c 8911 6e3b 7461 bcbc
000000f0: d3da b5bc 2f04 173c 1d90 663d 7308 243d
0.015047635 -0.00079525204 0.08541421 0.010453439 0.04612171 0.00036438438 0.037216473 0.015973575
0.021383822 0.06387665 0.06477543 0.032137357 0.028418116 0.039489407 0.051897775 0.012647886
-0.017973198 -0.016629413 0.01453613 0.054778133 0.027451726 0.011922084 -0.016610531 -0.009288167
0.049850456 0.004681873 0.02590474 0.039060522 0.0021443588 -0.0018443979 0.01964284 0.0308644
0.03882548 0.052175354 0.040150292 -0.022757405 -0.051180553 0.0024292984 -0.043398757 0.044643957
0.019866891 0.020415183 0.032946713 -0.022217756 0.060823977 -0.013848323 0.03381821 0.013242486
-0.014971418 0.040296145 0.04874605 0.038981564 -0.045154724 -0.014109282 0.0651863 0.037799288
-0.024654688 0.026412828 0.003632637 -0.022995688 -0.02219907 0.009217306 0.05628978 0.04004712

network_body._body_endoder.seq_layers.2.weight f4 [64, 64]
00000000: ec69 5bbd fc75 243d 4c79 75bc 7b20 4d3e
00000010: a25f 2d3e 13d0 3b3c 2dec 6b3e 745e b5bc
00000020: 5a0e 01bd 0c33 59bc 0d11 f8bd 9127 8ebc
00000030: 2575 c7bd 4260 023d 4987 18bc 4227 2a3d
00000040: 4a67 f4bd 1feb 1abe 8c68 593e 33f7 f0bc
00000050: 5057 8b3e 1b57 45be 0d1a 76bd e6fa 8ebd
00000060: ea65 9ebc ec34 e4bd e7fc 2cbd 5824 dcbd
00000070: 7bd9 d0bd 0935 22be 08ae a4be 00f7 edbc
00000080: 4832 a23d 0e4a 9d3d 3cc9 7cbd d38e 0ebd
00000090: 2251 343e 8896 b6bc 8e62 543e d1e6 a8bd
000000a0: 5819 95bd c43a eebd 8a77 9cbd 46a6 d43c
000000b0: 2599 e93d f905 163e 80d5 0f3e b0d7 c4bd
000000c0: 5efe 043e 124e bebb 88ff 2a3e ee91 853e
000000d0: c8b2 60bd 2612 6e3b 4c2a 353e 8609 77bd
000000e0: d583 85bc 6ea4 d53c 4f18 233e bcd9 aabd
000000f0: 4c1f 4e3d f604 b53d fd3f 0abe c4be fbbd
00000100: 15bf f63c ef73 5a3e b816 a5bd 15df 45bd
00000110: 274a adbd 61db 513d 8780 02bd 96dd 83be
00000120: 6263 bdbd 3998 93be a680 0d3e b670 9a3c
00000130: 1313 96be c4a5 cb3d 7bda b5bd b034 79bd
00000140: 3cb2 babb b4a0 343e a4c1 8b3e 420e c2bd
00000150: 92b8 7e3e 3214 6d3e 066a 983d 7220 263e
00000160: eba0 d3bd 5fd9 163e 4c7b cf3d a1a8 0c3e
00000170: ff88 333e c952 1e3e a29c 3fbe a406 bebd
00000180: 5038 f53c ef2d bd3d a735 a7bd 6070 17be
00000190: ea2c 8bbd 899c c9bd 5f73 7e3d 9cec 94bb
000001a0: 4c24 343d 1858 b4ba 6632 0e3d 1df1 48b9
000001b0: 8326 1e3d ae21 e83e c9c6 fdbb a0af c0bd
000001c0: af23 c43d d05f 33bb 361f 1d3e 2f32 9d3e
000001d0: 1787 3ebd 99cd 463e 65ad 81be 9821 123d
000001e0: f6d8 dfbd 4f68 03bd 76bf 22be 39dc b43d
000001f0: a6f2 60be f7d8 dd3d 18c1 30be 945e 30be
00000200: 25e3 14bd 188a e03d 7380 bebc 70ab f4bd
00000210: 8fd0 d63d d105 013d e6fb b5bd 1537 283e
00000220: aee6 d8bc 58cf 21be 9094 d23d ccb0 933b
00000230: 5673 42be 3a2a 3b3e ecde 8d3d b499 ae3c
00000240: a5ce 173c 7c96 54be fb09 c7bc a4a2 283e
00000250: 26d8 803d 608b d83d 16f5 ad3d 5a3e 01bd
00000260: dede 2a3e d3de 34be 64d6 2cbe 5f20 c43d
00000270: 6fcd babd 47cd ffbd 3b04 8dbe d839 a5ba
00000280: b6c8 e73c bba8 48be 9b64 4bbe cdb2 9dbd
00000290: 8409 d0bd 697c 24be 5d70 e9bd 7d6c 8fbc
000002a0: 23f6 5c3d c74d e63c c152 a2bd 7dea eebd
000002b0: 5968 033e 1eb4 dc3c d5cb 8b3d 6930 ad3d
000002c0: daf8 1c3d e62e 1d3e 184c 99ba f0b5 febd
000002d0: dc21 eabc 1c18 083e 5819 1abd 5583 56be
000002e0: 5779 06bd e880 0f3e 129d 7d3d 0a93 bdbd
000002f0: a4f0 613d 4a96 53bd 8af4 88be 0248 063d
00000300: c2e0 bcbd da0f ddbd f49d a43d 8b5f a8bc
00000310: 771c 2e3e 176e 273e f300 97bd 91b2 8abc
00000320: a817 5fbe d106 593d 5afe a63d c697 0d3e
00000330: b30e f8bd a6cf 403d 11d2 5f3e 4c15 5ebe
00000340: 09c3 233b 6daa 1bbe 3cd1 25be a363 5abe
00000350: 76a9 b63d 88f6 893d 6d94 d23d 6821 d0bd
00000360: 5a2c 7e3a 4bb1 87be d161 503e 30db 8abe
00000370: 7837 a3be 7677 c93c ca6e 103e d93b 0fbe
00000380: 92b8 ff3d fca1 443b 17e3 b4bd b13b 44bc
00000390: 0b3c 3ebe d78c 69bc be92 7bbe a377 b73e
000003a0: 4456 3b3c a971 133e f6bf 003e a786 55be
000003b0: 7ddd 8b3e a908 a6be e866 123d 148d 9bbb
000003c0: a8ce acbb f8ec 093e 56ff 143e 67b3 693e
000003d0: 01a9 633e e5d1 de3b 57db 5dbd 240c 9f3e
000003e0: 6ede 58be e701 9a3d 2c0f ccbd db71 29be
000003f0: 7889 0c3d 6690 23bb 860a b53d 13f4 493c
-0.05356781 0.04015158 -0.014982533 0.20031922 0.16931012 0.011463183 0.23039313 -0.022139765
-0.031507827 -0.013256799 -0.12112627 -0.017352851 -0.097391404 0.03183008 -0.009309598 0.041541345
-0.11933763 -0.15128754 0.21231288 -0.029414749 0.27215052 -0.1927151 -0.060083438 -0.06981449
-0.019335706 -0.111429065 -0.042233374 -0.107491195 -0.10197731 -0.15840544 -0.32164025 -0.029048443
0.07919747 0.076801404 -0.06171535 -0.034804177 0.17609075 -0.022288576 0.2074072 -0.0824715
-0.072802246 -0.116323024 -0.07639988 0.025958192 0.11406163 0.14650716 0.14046288 -0.096114516
0.12987658 -0.0058076466 0.1669904 0.26087898 -0.054858 0.0036326735 0.17691916 -0.060311817
-0.016298214 0.026079383 0.15927242 -0.08342311 0.050322816 0.08838837 -0.13500972 -0.12292245
0.030120412 0.21333288 -0.08060974 -0.04830845 -0.08461409 0.051234607 -0.031860854 -0.25754994
-0.092474714 -0.28827074 0.13818607 0.018852573 -0.29311427 0.09943727 -0.088795625 -0.060841262
-0.0056975167 0.17639428 0.27296174 -0.09475376 0.24875095 0.23152235 0.07442097 0.16223314
-0.10333427 0.14731358 0.10130939 0.13736202 0.17532729 0.15461268 -0.18712094 -0.0927861
0.029934078 0.09237277 -0.0816453 -0.14788961 -0.06795676 -0.0984431 0.062121745 -0.0045448076
0.043979928 -0.0013759164 0.034716032 -0.00019163308 0.038610946 0.45338196 -0.0077446443 -0.09408498
0.095771186 -0.002737034 0.15343937 0.3070235 -0.04651555 0.19414367 -0.25327602 0.03567657
-0.10930054 -0.0320819 -0.15893349 0.08831067 -0.21967563 0.108323984 -0.1726116 -0.17223579
-0.036349434 0.10963839 -0.023254609 -0.119467616 0.10488998 0.031499688 -0.088859364 0.16427262
-0.026477184 -0.15801752 0.10282242 0.00450716 -0.1898931 0.18277827 0.069272846 0.021313526
0.0092655765 -0.2076053 -0.024296751 0.16468292 0.06291227 0.10573459 0.08494012 -0.031553604
0.1668658 -0.17663126 -0.16878659 0.09576487 -0.091212146 -0.124903254 -0.2754229 -0.001260574
0.028293949 -0.19595616 -0.19862597 -0.07700119 -0.10158065 -0.16063084 -0.11398385 -0.017507786
0.05394567 0.028113259 -0.0792594 -0.11665819 0.12832774 0.026941355 0.06825987 0.08456499
0.03832326 0.15349922 -0.0011695651 -0.124370456 -0.028580599 0.13290447 -0.037621826 -0.20948537
-0.032830562 0.14014018 0.061917372 -0.09256561 0.055161133 -0.051657 -0.26749068 0.032783516
-0.09222557 -0.10794039 0.0803794 -0.020553371 0.17003046 0.1635059 -0.07373228 -0.01693085
-0.21786368 0.052985016 0.081539825 0.13827428 -0.12112179 0.04707303 0.21857478 -0.21687812
0.0024988076 -0.15201731 -0.16193098 -0.21327071 0.08919041 0.06736475 0.10282216 -0.10162622
0.000969594 -0.2650245 0.20349814 -0.27120352 -0.31878257 0.024593096 0.14104763 -0.13987674
0.12486376 0.0030003777 -0.088323765 -0.011977122 -0.18577592 -0.01425477 -0.24567696 0.35833463
0.011434142 0.14398827 0.12573227 -0.20852147 0.2731742 -0.32428482 0.03574267 -0.0047470424
-0.005273659 0.13469303 0.14550528 0.22822343 0.22232439 0.0067999237 -0.054164257 0.3106395
-0.211786 0.07519894 -0.09963831 -0.16547339 0.034310788 -0.0024957894 0.08839898 0.012326258

network_body._body_endoder.seq_layers.2.bias f4 [64]
00000000: 781e c13c 869a e23b 2615 2a3d 476c 553d
00000010: 9216 373d 332c 403c b58f 613d 3544 323d
00000020: 591b bbbc 6500 fb3c 7eb0 1b3b 10a9 4d3d
00000030: 9f40 8b3c 4856 143c 2c95 98bc f135 fb3c
00000040: 7596 203d aa01 2dbc 20b6 1cb9 b86f 323d
00000050: 9b2f cebc b3f3 033d a0c4 3dbc af0a e9bc
00000060: ee47 3d3d fd6b 9f3a b665 003d d9af 053d
00000070: 2720 bd3c 3364 e93c f9e5 243d d2a8 33bd
00000080: fa79 0dbb 2c49 383d 2b8b 0c3c c85c b3bc
00000090: 391f 363d 5d81 843c 8dc1 5f3a 8d2a d93a
000000a0: 1848 1bbd e211 803b dd78 6a3c cb2e 033c
000000b0: 792c c83c 3e57 9f3c 7653 4abd 4eea 4c3c
000000c0: ede6 6a3d 5efd be3c 560e 023d 8f18 0dbd
000000d0: 6c8d 8e3c 26c2 a23c bb52 ec3c 3fd0 0bbb
000000e0: 3e01 9bbc 0f33 b93b 4db0 7c3c c8fc 253d
000000f0: e9f9 ab3d bebd a6bd 5c52 663c 8b6c ffbc
0.023574099 0.0069153933 0.041524075 0.052105214 0.04469926 0.011729288 0.05506869 0.04352208
-0.022840189 0.030639837 0.002375632 0.05021006 0.016998587 0.009053774 -0.018625818 0.03066537
0.039205987 -0.010559479 -0.00014945166 0.043563575 -0.025169184 0.03221483 -0.011582524 -0.028447477
0.046211176 0.001216292 0.031347 0.032638405 0.02308662 0.028490162 0.04025838 -0.04386217
-0.0021587596 0.044991657 0.008578102 -0.021894827 0.04446337 0.016174966 0.0008535616 0.0016568467
-0.03791055 0.003908382 0.014311043 0.008006762 0.024435269 0.01945078 -0.049396 0.0125070345
0.057349134 0.023314174 0.031751953 -0.03444725 0.01740142 0.019867968 0.028848043 -0.002133384
-0.01892149 0.0056518386 0.015422893 0.040524274 0.08397276 -0.08141659 0.014057722 -0.031179687

network_body._body_endoder.seq_layers.4.weight f4 [64, 64]
00000000: c367 d1bc 987a 5bbe 83da 2e3c 5a52 043e
00000010: ae95 053d 9733 893e 66fa e3bd f446 7b3e
00000020: 47d8 4ebc 0bc7 6fbe 77cd 8ebd 1966 943d
00000030: b4b8 cebc d006 d1bd c236 943e e28f 11be
00000040: 7226 14bd 549e 8b3d a313 4e3e 96e1 9f3d
00000050: 6716 2f3d d5ed 6abd fc3a 05be 5dc3 a0bc
00000060: 307a dabd 310f 94bd 73b6 3dbe 0ea4 81be
00000070: f071 27be 5f22 0abe 42eb 193e 0ace 25bd
00000080: 4651 60be 20a1 e73d ff65 193e 3e6d d6bc
00000090: 8ee1 ad3c 3894 e93c 51bd 4cbe e0fe 06be
000000a0: e4dd 72be b0cf 3abe 4f26 dcbb 35da 8a3c
000000b0: 648b 6fbe 6787 88bd 7db4 22be c312 8cbe
000000c0: bf52 7f3d 4288 e5bc eb38 11be 5269 9abd
000000d0: 556f 0d3d e955 dfbc 2170 eb39 9836 34be
000000e0: dfa8 b7bd 91fe 0cbe 10b6 d9bc d814 f73d
000000f0: e4e6 ed3d 1e3e 633d c6cf 493e 2abe 9a3d
00000100: 9f73 ad3d 9b96 e1bd f545 86bc 6780 113d
00000110: 83dd 44bd 2c82 42bc 7845 803e fc85 623d
00000120: 6f3c 84bd f9ad 1e3e ddab d33c fc70 7abd
00000130: b529 1e3e d9f2 2ebd 8420 fc3d af16 25be
00000140: bf8e 7cbd 1137 7fbd f37e bc3d aac9 673d
00000150: 8fc0 cf3d 8dde f5bd 3f59 2cbc edd0 4cbe
00000160: 5568 f3bd b309 ddbc adb6 abbd e101 933e
00000170: d6d0 acbd 04ee 2c3d a8ad 993e c64f 41be
00000180: 6220 14be a4b0 31be 4106 fdbd 5e87 2c3e
00000190: b8f2 1abb 12ce 1e3e cc05 32bc a763 14be
000001a0: 4c59 aebd 3fbe 09bd 0059 ebbc 0820 46bd
000001b0: d177 64bd ebc2 603e 26eb d9bd 71da 77bd
000001c0: bab6 a73d a12c 47be 2557 653c 23a2 90bc
000001d0: c36b d43d fba2 c6bd 390d 5d3e 166a 423e
000001e0: d8da 98bd 8f0a 97bb 1eb7 98bd 28e1 253e
000001f0: 918c 333e aa34 e33d adb5 b4bc 10d2 4d3d
00000200: 17e9 33be d3f1 763c 140c 3dbe 747a e2bd
00000210: 0ce0 66bd a810 36be d9c6 12bd cb53 f73d
00000220: 8206 25bd 5f45 51be 33ba b5bc fd9d 383e
00000230: 326d efbd 989e dd3d 9255 9c3c d53d e83c
00000240: 232c 34be da76 3e3e a717 373e 166f d0be
00000250: d5ca 0b3e 8587 9f3d 33d1 dcbd a427 ac3d
00000260: 437e 823d 0152 00be 9091 313c dd5c 0e3e
00000270: 3fa2 df3d fe61 00be ec3f fcbc 6c0c 123e
00000280: ab28 4bbd c48d 2e3e e7d3 623d 6d95 48be
00000290: a226 c2bd 6cf3 033d ba62 88bd d46c ac3d
000002a0: 93ba 923d cf67 483e b3fa 4ebe b1d8 87bd
000002b0: 916c 103e 8f3d 113e 0850 a13c f1e9 703c
000002c0: c1d6 5fbe 6d55 393e 8d9e 99bd 7e0c 603d
000002d0: 68a5 cdbd 7077 bc3c ee65 cfbd 480d dc3c
000002e0: 73ce a43e 2125 89bd 3750 ae3d c2c3 7abd
000002f0: 2fa3 eb3d a2ef aabc 81ad 6fbd dcdc 403d
00000300: 1c77 0e3e c420 04bc d047 80bd 370a aa3b
00000310: 6bd6 83bd 7a01 4dbe 66c0 58be 9f74 aabc
00000320: 2358 c63c c347 c5bb 4604 a9be fd78 363d
00000330: 273a c3bd 0a5f 9fbd df0b b8bc 8df2 813c
00000340: 61e2 0dbe 0798 d5bd fa1f a0bb 6d12 86bc
00000350: 7dcb edbc a982 273e bd3d f33c a22e 613d
00000360: ff34 d53c 42f6 c8bd c839 5a3e 8ec0 373e
00000370: 28f3 d33d 15b5 aabd bbd3 d93d 4268 0f3e
00000380: 3b02 1abc 585d b23d f94d d8bd 228e 383c
00000390: 0451 b13d 3f65 bebd 6201 fe3d 45d6 dd3d
000003a0: 21a6 713c 7bda 4bbd 71dc 43bc 8535 3f39
000003b0: bc9b 65bd 6c0f 9b3d e1b5 28be 45c7 93be
000003c0: 08c3 4a3d ffee f5bc dcce 673d e638 6d3d
000003d0: c966 73bb a5b2 e03d 108d c2bd 1846 bbbd
000003e0: c070 163e f2fc b1bd d37d 32be 20fe 5dbe
000003f0: 58b4 c6bc 3734 083e ad57 f43d 7d27 713e
-0.025562173 -0.21433485 0.010672214 0.1292204 0.03261345 0.26797172 -0.11131744 0.24538785
-0.012624807 -0.23415773 -0.06972783 0.07246036 -0.025234558 -0.102063775 0.28948027 -0.14215043
-0.036169477 0.06817308 0.20124678 0.07806699 0.042745974 -0.05735572 -0.13010782 -0.019624406
-0.10667837 -0.0722946 -0.1852663 -0.25320476 -0.16352057 -0.13489674 0.1503115 -0.040479697
-0.21906003 0.11310029 0.14980315 -0.026175138 0.021225717 0.028513059 -0.19994093 -0.13183165
-0.23717457 -0.18243289 -0.006718434 0.016949752 -0.23393017 -0.06666451 -0.15889163 -0.27358064
0.062334772 -0.028019074 -0.14181869 -0.075396195 0.034530003 -0.027262645 0.00044906235 -0.17598951
-0.089677565 -0.13768984 -0.026576072 0.120645225 0.116163045 0.05547916 0.19708166 0.07555802
0.084693186 -0.11015054 -0.01639078 0.035522845 -0.048062813 -0.011871856 0.25053 0.05530356
-0.06456839 0.15496053 0.025838787 -0.061142907 0.15445597 -0.042712066 0.12310889 -0.16121934
-0.06165957 -0.062308375 0.09203901 0.056588806 0.101441495 -0.12005339 -0.010519325 -0.20001574
-0.11885134 -0.026982164 -0.08384452 0.2871237 -0.0843827 0.042219177 0.30015302 -0.18878087
-0.14465478 -0.1735254 -0.123547085 0.16848513 -0.0023643207 0.15508297 -0.01086564 -0.1449114
-0.08513126 -0.0336287 -0.028728962 -0.04837039 -0.05577833 0.21949355 -0.10640554 -0.060511056
0.08189149 -0.19450618 0.013997828 -0.017655438 0.103721164 -0.09699055 0.21587075 0.18985781
-0.07463616 -0.004609413 -0.07456802 0.16199172 0.1753409 0.11094029 -0.022059286 0.05024916
-0.17569385 0.015072304 -0.18461639 -0.11058512 -0.05636601 -0.17779791 -0.035834167 0.12076529
-0.04028941 -0.20436619 -0.022183513 0.18029018 -0.11690749 0.10821265 0.019083772 0.028349796
-0.17594962 0.18600026 0.17880116 -0.40709752 0.13651593 0.0778952 -0.10782089 0.08405998
0.06371739 -0.12531282 0.010837927 0.13902612 0.10919618 -0.12537381 -0.0307922 0.14262551
-0.04959933 0.17046267 0.055377867 -0.19588251 -0.09480025 0.032214567 -0.066594556 0.08419195
0.071644925 0.1957085 -0.20212822 -0.066331275 0.14103915 0.14183639 0.019691482 0.0147042135
-0.21859266 0.18098994 -0.07500944 0.054699413 -0.10041314 0.023006171 -0.101268634 0.026861802
0.32188758 -0.06696535 0.085113935 -0.061221845 0.11505734 -0.020866219 -0.058515076 0.047085628
0.13912624 -0.008064453 -0.06263697 0.005189206 -0.06437381 -0.20020095 -0.21167144 -0.020807562
0.024211949 -0.0060205176 -0.33011073 0.044548977 -0.09532576 -0.07781799 -0.022466598 0.015862728
-0.13855888 -0.104293875 -0.0048866244 -0.016366208 -0.029027695 0.16358437 0.029692525 0.054976113
0.026026247 -0.09812595 0.21311104 0.17944548 0.10349113 -0.0833532 0.106360875 0.14004615
-0.009399946 0.0870921 -0.10561747 0.011264356 0.08658031 -0.09296655 0.124026075 0.10831884
0.014749081 -0.049768906 -0.011954413 0.00018235117 -0.056056723 0.07571301 -0.16475631 -0.28862968
0.049502403 -0.030021189 0.05659376 0.05791559 -0.0037140122 0.10971574 -0.09499562 -0.09144229
0.14691448 -0.086908236 -0.1743081 -0.21678972 -0.024255916 0.13301168 0.11930785 0.2355022

network_body._body_endoder.seq_layers.4.bias f4 [64]
00000000: 4785 0c3d 544f c8ba 3e92 193c 4ba2 5c3b
00000010: bd14 7c3c 3fda c33c b3da 2e3c 6bb5 4b3b
00000020: 1e2f 4e3c a4cb f03c 3ba8 6db9 9a11 8f3c
00000030: d9de 013d 5502 d13c c351 b23c 5acd 813c
00000040: bab0 fa3b 7f17 443c 7e41 493d a47a 203d
00000050: 76bb 873c 7473 243c 9298 563b 58be fc3b
00000060: ff80 653b 634b 033c 6764 243c 5f97 e33c
00000070: 94c1 a3ba 7e93 633c 71fa 2c3c 66c7 e83b
00000080: a1b9 583d 6658 ca3b e54c db3b baa9 dd3b
00000090: 918a 073d e424 5a3b aa74 b33c bd18 84bb
000000a0: a776 ff3c 43bc 243d 83f2 c63a 8090 5c3c
000000b0: 6945 553a 54ac 343a 24da 3d3d 73c7 c53c
000000c0: a648 873b 2c85 dc3b aff1 353d 8825 1b3d
000000d0: 5ea3 c63c a77e c73c f41a b23c 7275 693c
000000e0: 0437 ab3c 5268 72bc 2514 bf3c 3c10 613c
000000f0: e5e4 3c3c dad0 bd3c fa0f 9e3c 528c 213c
0.03430679 -0.0015282431 0.009373246 0.003366607 0.015385804 0.023907779 0.010672259 0.0031083475
0.012584476 0.029393978 -0.00022664752 0.017464448 0.031706665 0.025513807 0.021767503 0.01584499
0.007650462 0.0119684925 0.049134724 0.03917946 0.01656888 0.010037292 0.0032744748 0.0077131204
0.0035019515 0.008013579 0.010033703 0.02778214 -0.0012493604 0.013890145 0.010557757 0.0071038483
0.052911405 0.0061750887 0.006692516 0.0067646177 0.03309113 0.0033286149 0.021906216 -0.0040312693
0.031184508 0.040218603 0.0015178475 0.013462186 0.0008135648 0.0006892134 0.046350613 0.024142956
0.0041285334 0.0067297425 0.04441994 0.03787759 0.024247821 0.024352385 0.021741368 0.014249193
0.020900257 -0.01479538 0.023325035 0.013736781 0.011529182 0.023170877 0.019294728 0.009860115

action_model._continuous_distribution.log_sigma f4 [1, 2]
00000000: 86b5 1dbd 8d5e 79bd
-0.038503192 -0.060881186

action_model._continuous_distribution.mu.weight f4 [2, 64]
00000000: 4072 a73d 9ffd e63c a5e2 4cbd 0dcf 30bd
00000010: 5374 39bd 2321 aabd f7cd e1bc cbfe 3a3d
00000020: 4359 5bbd 90f8 aebd 8438 69bc 6509 653b
00000030: 90ee 7abc e462 7abd eeb2 a5bd 7de6 1a3d
00000040: f662 8d3d 2406 3d3c 8ca6 d93d 4f06 18be
00000050: 8e57 11bd 7146 e03c 38fb b53c a7ef ef3c
00000060: bced 4b3d c8f9 303d 8290 cb3b b6f6 aa3d
00000070: 74cf 003d dcfb 853c c867 78bd 3459 5f3d
00000080: bd4b 283c 73f9 cebc c93f ddbc ad98 283d
00000090: 1e3d dc3b 7b9e 10bd 72b2 6bbd 8aac ad3c
000000a0: 91a0 29bd 8621 6ebd 616b 953c 51c5 a03d
000000b0: 62e1 463d 160c 083c 4c0b 7f3d 08a4 df3d
000000c0: aeb8 a53d 9d80 a83d a305 9e3d 9136 a83d
000000d0: fff6 b5bd 82d7 b1bd a93d 963d 4515 273d
000000e0: bb67 a23d f80b 29bb 5851 87bb 45ad 93bd
000000f0: 99a6 8ebd 3132 40bd 4c80 afbd 35c9 29bd
00000100: 18dd b43d bdd3 17bd b060 8dbc 079c afbc
00000110: 0e3e 893d e304 223d 7838 903d a2bc d13a
00000120: 1c53 30bd d8cf 503d 0b47 183d d7e6 9d3d
00000130: 6c89 95bd 6b81 28bd fac7 d13b b7ad 2f3d
00000140: c454 7d3c 88db 633d 2573 c23c a3d5 7bbb
00000150: f6af 903c 6851 aabd b64e 463d 7085 7abd
00000160: f4a5 d73c 284a 8fbd b87c 0d3d d979 32bd
00000170: 6c11 dbbc b5e6 9cbd ef6c bdbc 8bb9 6dbd
00000180: 68a1 c43d 1b4e 6e3d ab71 ea3c cfb5 60bd
00000190: 381e 043e 05f6 34bd 9cc3 663d 76c7 103b
000001a0: fce5 cf3d 83ef d4bd 770c c8bc 1660 ca3c
000001b0: 6ca7 d9bb 47cb 8f3c 44b6 453d 3ab0 80bc
000001c0: e8fd 063d 4fa2 15bd f5fe cfbd 744e 673d
000001d0: 72ea 27bd dd86 923c 66e1 793d b246 1f3d
000001e0: ad88 dabd ad23 c5bb 2d25 a8bd a136 84bc
000001f0: 93af 3a3c fedd a0bd a708 763d e090 453d
0.08176088 0.028197108 -0.050020833 -0.04316621 -0.04527695 -0.083071016 -0.027564032 0.045653146
-0.053551923 -0.08543503 -0.014234666 0.0034948227 -0.015315667 -0.061129466 -0.08090769 0.037817467
0.06903641 0.011537109 0.106274694 -0.14846157 -0.03548389 0.02737734 0.022214517 0.02928908
0.049787268 0.04320696 0.006212295 0.083478376 0.031447843 0.016355447 -0.06064585 0.05452843
0.010271964 -0.025265431 -0.027007954 0.041161228 0.006721153 -0.03530739 -0.057543226 0.021200437
-0.041412894 -0.05813744 0.018239679 0.07850135 0.048554786 0.008303663 0.062266633 0.10919958
0.080918655 0.08227656 0.07715919 0.08213533 -0.088850014 -0.08683683 0.073359795 0.04079177
0.07929941 -0.0025794487 -0.00412957 -0.07210783 -0.0696537 -0.046922866 -0.085693926 -0.04145165
0.08831233 -0.037067164 -0.017258018 -0.021436704 0.06701289 0.03955544 0.070420206 0.0016001652
-0.04304801 0.050979465 0.037177127 0.07710045 -0.07301602 -0.041139048 0.006402013 0.042890277
0.015462104 0.055629283 0.023736546 -0.0038426898 0.01766203 -0.08316308 0.04841491 -0.061162412
0.02632425 -0.06996566 0.03454277 -0.043573234 -0.026741706 -0.076611914 -0.023123233 -0.058038276
0.09601098 0.058179956 0.028618654 -0.054860886 0.12902153 -0.044179935 0.05633889 0.0022091544
0.10151288 -0.10397246 -0.024420006 0.02470402 -0.0066422727 0.017552985 0.048269525 -0.015709031
0.032956988 -0.036531743 -0.10156051 0.056471303 -0.04099507 0.017886573 0.061005972 0.03888578
-0.106706 -0.006016216 -0.08210216 -0.01613933 0.011394399 -0.07854842 0.060066845 0.048233867

action_model._continuous_distribution.mu.bias f4 [2]
00000000: 0f06 05bb e444 293b
-0.00202978 0.0025828416

exp_avg f4 [64, 8]
00000000: 5ff1 a5ba 016c f639 3db1 e7ba 0153 a6ba
00000010: e71a 95ba 9b97 3a39 5916 b5ba f7dd c439
00000020: 11fc 86ba 544c a339 99ba a4ba 3566 44ba
00000030: 0367 5eb9 a06b 1937 705c 66ba efce 9839
00000040: ccf2 5c3a e173 bbb6 9de7 1739 4991 da39
00000050: b2f3 abb9 92ac 7b39 57ab abb9 c39b a2b9
00000060: b9d4 763a 5999 07ba f1e0 933a 90b4 3f3a
00000070: d8cc 013a e097 c8b9 fcca 033a 203a b2b9
00000080: 6e52 9d39 d4cc 2c39 66b2 88b9 e05a 0938
00000090: 02d9 a038 0280 50b8 e1a4 eab8 9bd6 3c39
000000a0: 810b b438 aaf5 2939 b90b ab38 edd0 6f39
000000b0: 2791 c9b9 a3c7 b637 295f a4b8 4a7c 15b9
000000c0: 4e08 a5b9 aa7f 673a 2bbe 0a3a a231 813a
000000d0: 640f 6fba 15c5 7439 6df5 783a 9506 a5b9
000000e0: d18a e2ba 72ae 8a3a ac0f cfba b4ed e2b9
000000f0: 31ec ddba 981d 5a38 7543 76ba 68ab 9439
00000100: 77cd 80ba 91db 9a3a 65e8 36ba d177 12ba
00000110: 1cd1 0dbb 07c1 a639 53ac b7ba b9d2 a6b9
00000120: 3ac2 f739 0029 753a 0434 6e3a 98fd 603a
00000130: 9e08 6dba 7326 b238 4cee 1fb8 a67e 29ba
00000140: 0adb 9d3a acce 83ba 8366 4b39 bd80 5db8
00000150: 0596 853a b6b5 d4b9 0a9a 6bb9 f1d2 0739
00000160: 07ad 3039 80fe ca37 e8af 9536 0b15 ecb8
00000170: 9290 4b38 74b6 9a38 5200 e8b9 53e9 7a38
00000180: fdf6 01ba 8bd6 323a 9505 de38 8e08 1c39
00000190: 7347 68ba f032 2039 9d17 21ba 77a1 d9b9
000001a0: d902 5e3a 806f 5dba 1251 18b9 a6cd 11b9
000001b0: 92ad 873a 7533 8cb9 1537 fb38 f153 8939
000001c0: 1a03 2a3a 75d7 49ba 1126 84b9 e531 2b39
000001d0: c79d 6e3a 1a1d 03ba 32db 183a 8d1d 1e3a
000001e0: ec7f 293a 4174 e9ba 4a88 83ba 6d5e 9dba
000001f0: 470c e73a b1cd 0cba 01e7 0fba 2c78 6a39
00000200: feab b439 d604 ca3a d1d5 183a 1797 c83a
00000210: 53f3 dfba a027 13b7 05ab 8d3a 9e8e 1dba
00000220: 3e62 1fb9 8a12 cab9 90d4 c538 4735 9939
00000230: 4902 9938 fc4b ecb9 c7ce ad3a 9c8a da38
00000240: f311 10bb ab86 b83a a480 d5ba a139 3aba
00000250: a35d e9ba 5078 4839 957a 6bba 0da2 bf39
00000260: adc6 7c38 a9a5 843a 0e14 6e39 8a44 9e39
00000270: d688 9fba 149e 3b3a aed4 a0ba 2e11 41b9
00000280: 536a 2038 0e34 48ba eba3 55ba 894f 38ba
00000290: baba e639 163d 8db9 c5ce 69b9 faba cf39
000002a0: 0b94 303a c085 083a 82b0 b03a 1f54 ac3a
000002b0: b020 c6b9 89ad 0e36 3298 b039 b379 fab9
000002c0: a5e3 c8b9 88c0 6039 c754 00b8 d86d 3db9
000002d0: 92b5 bab8 0600 a937 e324 9139 dd5f ac38
000002e0: 5e3e a13a b2ba af35 a6d4 a23a c68f 643a
000002f0: 9c7b 06b7 5bd1 fbb7 0dca 753a b893 a7b9
00000300: 6ab0 12ba a834 1639 0c78 adba cdba 40ba
00000310: 98aa 45ba 298b 5cb8 e2e0 43ba afb7 ca38
00000320: f9a1 97b8 ebea 0c3a 37a4 5539 fefc 2d3a
00000330: 3480 3bba c1a3 9039 d1c1 98b9 2e24 22ba
00000340: 8bec d33a 0d5f 5cba 077c 953a a440 543a
00000350: 0f13 303a 04da acb9 5f3a c23a 45e2 43b9
00000360: 3e17 0cbb 64e2 db39 c9d6 07bb 1ec2 afba
00000370: 6931 9cba 03c2 b6b8 b776 3bba 62d3 083a
00000380: c85b 4fba e7cc 383a e395 18b8 5668 bd39
00000390: dfe8 7fba 66e9 e739 d716 4fb9 b91b d4b9
000003a0: a2f8 4e3a f19d 46ba bbf5 2c3a 7dbe 2db8
000003b0: d72e 013b 3d51 0539 d4c4 fd39 816d 7d39
000003c0: 5703 eeb9 798c d33a 59df 7b3a d90a 953a
000003d0: d2b6 a8ba 66c1 ad39 be96 903a d096 07ba
000003e0: 57a2 683a 9f95 b138 fcb3 a7b7 72fe a9b9
000003f0: e71b d9b9 1745 0c3a 211c 31ba 1071 edb9
-0.0012660435 0.00047001246 -0.0017676722 -0.0012689532 -0.0011375815 0.0001779482 -0.0013815864 0.0003754941
-0.001029851 0.00031146652 -0.0012567817 -0.00074920367 -0.00021209945 9.144569e-06 -0.0008787578 0.00029145877
0.00084285135 -5.5865244e-06 0.00014486765 0.00041688446 -0.0003279723 0.00024001513 -0.0003274332 -0.000310151
0.00094158534 -0.0005172692 0.0011282248 0.00073129777 0.00049514836 -0.00038260128 0.00050275004 -0.00033994112
0.00030006788 0.00016479503 -0.0002607286 3.274798e-05 7.6698154e-05 -4.971028e-05 -0.000111887006 0.00018009024
8.5852116e-05 0.00016208613 8.156099e-05 0.00022870647 -0.00038445854 2.1789054e-05 -7.837854e-05 -0.00014256049
-0.0003147744 0.0008830974 0.00052926195 0.0009856711 -0.000911942 0.00023343072 0.00094970205 -0.00031476156
-0.0017283802 0.0010580553 -0.0015797517 -0.00043283182 -0.0016931352 5.200281e-05 -0.0009394207 0.00028356467
-0.0009826858 0.0011814703 -0.00069773785 -0.0005587312 -0.0021639531 0.00031805804 -0.0014013149 -0.00031818988
0.0004725622 0.0009352118 0.00090867304 0.000858271 -0.00090421166 8.494863e-05 -3.8130485e-05 -0.00064657105
0.0012043428 -0.00100561 0.00019397777 -5.2810403e-05 0.0010191804 -0.00040571176 -0.0002246873 0.00012953185
0.00016849126 2.4198787e-05 4.461024e-06 -0.000112572765 4.8533613e-05 7.377277e-05 -0.00044250727 5.9821945e-05
-0.00049577636 0.00068221305 0.00010586825 0.00014880506 -0.00088607444 0.00015277765 -0.0006145181 -0.00041509766
0.0008469052 -0.0008447096 -0.0001452605 -0.00013904888 0.0010351411 -0.0002674122 0.000119788725 0.00026193217
0.00064854475 -0.0007699647 -0.00025205364 0.00016326418 0.000910249 -0.000500159 0.00058310025 0.0006031625
0.00064659 -0.0017811136 -0.0010035124 -0.001200629 0.001762756 -0.00053712266 -0.00054894394 0.00022360747
0.0003446042 0.0015412818 0.0005830201 0.0015303817 -0.0017086066 -8.771109e-06 0.0010808414 -0.00060103263
-0.0001520002 -0.00038542255 9.433285e-05 0.0002922213 7.296034e-05 -0.0004507004 0.0013260477 0.00010420868
-0.0021983355 0.001407822 -0.0016288948 -0.0007103924 -0.0017804395 0.00019118306 -0.0008982805 0.00036551096
6.0266513e-05 0.0010120171 0.0002270492 0.00030187174 -0.0012171518 0.00071570394 -0.0012270415 -0.00018412314
3.8245995e-05 -0.0007637151 -0.0008149731 -0.00070308946 0.0004400814 -0.00026939128 -0.00022297639 0.00039621425
0.00067359273 0.00052079186 0.0013480338 0.0013147629 -0.00037789857 2.126066e-06 0.0003368273 -0.0004777439
-0.0003831658 0.00021434028 -3.0596533e-05 -0.00018065365 -8.902991e-05 2.014638e-05 0.00027684038 8.219455e-05
0.0012301912 1.3092852e-06 0.0012422993 0.00087189337 -8.015802e-06 -3.001902e-05 0.0009376116 -0.0003196278
-0.0005595746 0.00014324731 -0.0013234629 -0.0007352054 -0.0007540374 -5.258169e-05 -0.000747217 9.666324e-05
-7.230411e-05 0.00053755817 0.00020374438 0.0006637125 -0.00071525876 0.00027587826 -0.00029136104 -0.0006185201
0.0016168518 -0.00084064977 0.0011404761 0.00080967904 0.0006716707 -0.0003296883 0.0014818421 -0.00018680941
-0.0021376158 0.0004193961 -0.0020727387 -0.0013409292 -0.0011916581 -8.714574e-05 -0.0007151174 0.0005219487
-0.00079101 0.0007049576 -3.6379217e-05 0.00036126625 -0.00097621785 0.0004423365 -0.00019749567 -0.00040456446
0.00078953255 -0.00075766357 0.0006597896 -4.142382e-05 0.0019711757 0.00012714132 0.0004840257 0.00024168754
-0.00045397386 0.0016139887 0.00096081715 0.0011371031 -0.0012871868 0.00033141224 0.0011031253 -0.0005172314
0.0008874288 8.467887e-05 -1.9991763e-05 -0.00032423768 -0.00041410254 0.00053508714 -0.00067562057 -0.000452884

exp_avg_sq f4 [64, 8]
00000000: 123e 6837 3d57 4237 f79a 4c37 1248 2f37
00000010: fd5f 7337 ebf8 d836 b3ab 1e37 70f8 a536
00000020: efa0 c536 c508 8936 2bf1 e036 6f56 2436
00000030: 7547 9436 4274 8d36 5d09 da36 32ed 2436
00000040: 787f 3c36 f5ef df35 96bb bc35 2cd4 3535
00000050: 7845 d535 766f 0336 2fb1 a135 f50c c235
00000060: 391f d436 6b08 d336 3d71 b636 cfff 7e36
00000070: bd0f de36 df60 4336 9454 9536 0851 2536
00000080: 801e 0a36 9d14 f635 8b7a 8d35 3d99 5b35
00000090: 655c ac35 8efc 9635 c3ec 7e35 e4fb 4035
000000a0: fd83 e734 b5b1 cd34 8d59 a134 4528 8534
000000b0: 398a e934 d20e 8234 cd25 ba34 fdf7 5234
000000c0: d86d 9b36 32bb 8b36 2ba3 9136 8511 8536
000000d0: b4af ad36 08d9 1036 d4d2 0537 5b16 1836
000000e0: 51ce 2e37 8b64 fa36 c203 1a37 d02c 0837
000000f0: 11fb 1637 9a04 9936 10ad 2337 b033 6236
00000100: 204f b737 2cec ac37 ad7f 7f37 80bf 0d37
00000110: 763a 9837 8699 4c37 ba07 5e37 66bc 1937
00000120: 58fe 3037 49be 1037 43fa e236 75ed 8d36
00000130: c036 1737 0714 8e36 ce72 ee36 0706 bf36
00000140: 5609 9d36 61f5 6f36 427c 8a36 afb4 3d36
00000150: c0de 8f36 5e0c 2436 d7b9 7036 95be 0e36
00000160: bb36 0735 5b08 fb34 b990 cf34 743d 0835
00000170: 1cad 0f35 5683 4b34 e5bc 5a35 3700 2234
00000180: 158d d636 d9b8 9336 adaf 9836 d6b8 2d36
00000190: 175d 9836 1433 6236 20c1 8c36 882d 3236
000001a0: 23a0 2f37 927b 1637 1858 e536 6b6f 0137
000001b0: aca1 1a37 66d6 8c36 0444 3037 2d2f 8a36
000001c0: c308 e436 56d2 c536 489c a836 48d6 3836
000001d0: 9682 b836 c126 8436 06a1 a736 ca89 7036
000001e0: 9b48 4a37 d904 0537 ebb4 4037 88a8 ba36
000001f0: eb11 0a37 5f4c db36 29bd f136 f479 9e36
00000200: 1aac 6b37 fdcc 1537 dfb6 4e37 ce5e 2937
00000210: 50a3 2437 16f4 c136 0238 1f37 b61e 8036
00000220: e034 c936 3c14 8736 1052 8b36 059d 5936
00000230: 30a1 8f36 a09b 3c36 5a18 c136 0d38 2736
00000240: 4554 8a37 7cb1 2537 f838 8937 6ea5 4837
00000250: 815e 6b37 50de 0537 c99d 3b37 4fed b136
00000260: 581b 7537 0d47 0d37 465c 3837 6f4f e736
00000270: 425c 5937 befd 0737 1ed0 7637 5e80 af36
00000280: 7c5e a436 64cc 8736 a17d a636 21d9 0c36
00000290: 4583 8936 0ed3 5d36 0a53 4136 e910 2136
000002a0: 0152 1d37 717e 0237 90bf fc36 501f 9436
000002b0: c9f2 0637 1a06 9136 cb97 cd36 56c1 9336
000002c0: 7208 8f35 60aa 9735 9e3e 8735 ade9 e534
000002d0: d150 8d35 3d00 6d35 cecd 8535 f483 4435
000002e0: 99fc 9136 300d 8236 c097 ac36 1c14 5136
000002f0: deec 8f36 8bd0 4936 a2b9 9836 6348 e335
00000300: 91fd c936 e63c 7136 daa3 b136 2373 2d36
00000310: 4caf 8d36 ebc5 6a36 e6f6 3d36 30fc 0336
00000320: a626 4b37 6535 3737 a206 e836 8c50 0d37
00000330: c717 3037 11b8 b936 6bed cc36 dc13 9936
00000340: 9077 d336 5baf da36 631f b136 d4a9 a136
00000350: edc0 e636 16ba 3f36 b459 0537 3fe2 1936
00000360: 9b12 7237 ab83 1d37 8716 5837 9e6b f336
00000370: 731d 4537 20c1 0f37 9214 0237 2039 a836
00000380: 166f 5536 22b8 2736 c1f8 1736 b656 7b35
00000390: d316 2d36 2014 2636 d526 0a36 17c9 0936
000003a0: 6a24 c536 b9cc 7f36 0d33 0237 657f 2c36
000003b0: 3590 9836 c444 7d36 9d27 c636 b66c 2536
000003c0: 9303 0937 f9d3 0337 906d c836 350b ca36
000003d0: a096 0e37 d7a4 4a36 6bb3 1e37 4f2c 6036
000003e0: cda8 6e37 9d5f f736 cf95 0337 28f6 c436
000003f0: a444 0737 caa4 ab36 6d9a cb36 bdab 9436
1.38427295e-05 1.1583613e-05 1.2195428e-05 1.0447593e-05 1.4506278e-05 6.4662795e-06 9.457511e-06 4.946305e-06
5.8897926e-06 4.083939e-06 6.703796e-06 2.4488215e-06 4.4190624e-06 4.2156616e-06 6.4979963e-06 2.457597e-06
2.808838e-06 1.6684631e-06 1.4061686e-06 6.7736505e-07 1.5889955e-06 1.95854e-06 1.2047002e-06 1.4457897e-06
6.321727e-06 6.28927e-06 5.4372053e-06 3.799785e-06 6.6179477e-06 2.911365e-06 4.450392e-06 2.4634082e-06
2.0581356e-06 1.8334428e-06 1.0540983e-06 8.180685e-07 1.2841889e-06 1.1249374e-06 9.496691e-07 7.189212e-07
4.3123137e-07 3.8313524e-07 3.0053744e-07 2.480248e-07 4.3500202e-07 2.422517e-07 3.4672703e-07 1.9647992e-07
4.6321475e-06 4.164315e-06 4.340332e-06 3.9657484e-06 5.1762563e-06 2.1584e-06 7.976505e-06 2.2662778e-06
1.0419245e-05 7.4622853e-06 9.17999e-06 8.116665e-06 8.999153e-06 4.560291e-06 9.755851e-06 3.370671e-06
2.1852145e-05 2.0613974e-05 1.5228911e-05 8.448842e-06 1.8147035e-05 1.21950925e-05 1.323403e-05 9.163376e-06
1.05496365e-05 8.627373e-06 6.764459e-06 4.229771e-06 9.013049e-06 4.2342613e-06 7.1063178e-06 5.6929453e-06
4.6800515e-06 3.5756605e-06 4.127186e-06 2.8268366e-06 4.2876636e-06 2.4445103e-06 3.587096e-06 2.1270582e-06
5.037106e-07 4.6758473e-07 3.8662054e-07 5.0753374e-07 5.352356e-07 1.8953628e-07 8.1486206e-07 1.5087504e-07
6.394121e-06 4.4024605e-06 4.5504044e-06 2.5886598e-06 4.54079e-06 3.3706356e-06 4.194808e-06 2.655057e-06
1.0468098e-05 8.969468e-06 6.8349873e-06 7.714941e-06 9.2167575e-06 4.1972844e-06 1.0506254e-05 4.1182125e-06
6.7959495e-06 5.895544e-06 5.0249837e-06 2.7542865e-06 5.4988295e-06 3.938418e-06 4.9957334e-06 3.584299e-06
1.2057043e-05 7.928546e-06 1.1486215e-05 5.5628516e-06 8.229613e-06 6.5355994e-06 7.204381e-06 4.722964e-06
1.4047162e-05 8.92882e-06 1.2321135e-05 1.0095258e-05 9.813186e-06 5.7802636e-06 9.490179e-06 3.8182725e-06
5.9964223e-06 4.025669e-06 4.152076e-06 3.2426917e-06 4.280497e-06 2.8104769e-06 5.754683e-06 2.4917565e-06
1.6490123e-05 9.87609e-06 1.63582e-05 1.1959446e-05 1.4029095e-05 7.979179e-06 1.1182806e-05 5.3026374e-06
1.4609504e-05 8.420798e-06 1.0988739e-05 6.8935838e-06 1.2955688e-05 8.105706e-06 1.4711199e-05 5.2303503e-06
4.8985803e-06 4.0471077e-06 4.9618106e-06 2.0988011e-06 4.0982e-06 3.3054416e-06 2.8807576e-06 2.4000713e-06
9.377022e-06 7.778043e-06 7.532486e-06 4.414389e-06 8.04355e-06 4.322047e-06 6.127147e-06 4.4034487e-06
1.0656788e-06 1.1299962e-06 1.0076508e-06 4.2824595e-07 1.0528839e-06 8.8289727e-07 9.969169e-07 7.3207707e-07
4.350743e-06 3.875837e-06 5.1436655e-06 3.1155132e-06 4.289307e-06 3.0072722e-06 4.5515635e-06 1.6933885e-06
6.019786e-06 3.5947246e-06 5.294086e-06 2.5846027e-06 4.2225347e-06 3.498392e-06 2.8306908e-06 1.9667314e-06
1.2108741e-05 1.0920082e-05 6.914911e-06 8.423009e-06 1.0495954e-05 5.534858e-06 6.107313e-06 4.5620673e-06
6.302209e-06 6.5173203e-06 5.278665e-06 4.8179445e-06 6.8769937e-06 2.8569534e-06 7.948303e-06 2.293047e-06
1.4428656e-05 9.388586e-06 1.2879848e-05 7.2544926e-06 1.1748972e-05 8.56843e-06 7.753393e-06 5.0134404e-06
3.1804134e-06 2.4992119e-06 2.2645547e-06 9.363097e-07 2.5792294e-06 2.4747642e-06 2.0586206e-06 2.053164e-06
5.8752967e-06 3.8117125e-06 7.76049e-06 2.570415e-06 4.546741e-06 3.7739965e-06 5.9054714e-06 2.4650194e-06
8.1666685e-06 7.857562e-06 5.9732192e-06 6.021374e-06 8.49893e-06 3.0196295e-06 9.459308e-06 3.3404392e-06
1.4225207e-05 7.3723045e-06 7.8430885e-06 5.8699115e-06 8.062609e-06 5.115381e-06 6.067849e-06 4.4307367e-06

exp_avg f4 [64]
00000000: 1d15 02bb 667f 8fba 4882 02ba f985 773a
00000010: 53b0 8db9 0109 9438 d4a8 f539 b8a0 a6ba
00000020: ea82 44bb 18c1 a7b8 4908 4038 460a ad38
00000030: 800e fdb9 5446 22ba e0fd 8339 c12c 6eba
00000040: fe6d e539 1c23 2c3a b9b0 8cba 42eb 1e3a
00000050: 8653 78ba f65c a83a 0424 65b9 c0a9 963a
00000060: 4fb5 c4ba 3e7f 1539 f85c b43a a7d7 24bb
00000070: 40da 8bb9 85bd 513a e0ea 3b3a 7285 4fba
00000080: f565 97ba c9de 06ba cb6f ca3a 2ee4 09b9
00000090: f6fc 1738 be3d 9139 68eb f339 8d81 34ba
000000a0: a5f5 fa3a 7cfe 083a 4de9 3f3b f85e c537
000000b0: f17d 593a 69ef 40ba b3e7 8bba 3e81 9fba
000000c0: d3dc 4a39 f8be 79ba 7c42 14bb fddc bb38
000000d0: c6d3 84b8 3739 f9b9 3827 f338 66fb ca3a
000000e0: 291e bf39 21e3 b1ba 9a06 aeba f71f cc3a
000000f0: f920 f1b6 204c 22ba 55f2 013b 3c0f ef39
-0.001984901 -0.0010948002 -0.000497852 0.0009442266 -0.00027024988 7.058867e-05 0.00046855828 -0.0012712693
-0.0029985257 -7.999147e-05 4.5784083e-05 8.2511964e-05 -0.00048266724 -0.0006190289 0.0002517542 -0.00090856483
0.00043760234 0.0006566511 -0.001073382 0.0006062278 -0.0009472895 0.0012845087 -0.00021852559 0.0011494681
-0.0015007647 0.00014257149 0.0013760617 -0.0025152953 -0.00026674755 0.0008000958 0.0007168483 -0.0007916308
-0.0011550771 -0.0005144892 0.0015444694 -0.00013150342 3.6236794e-05 0.00027702557 0.00046523963 -0.00068857596
0.0019146694 0.00052259094 0.0029283345 2.3528453e-05 0.000829666 -0.00073598936 -0.001067391 -0.0012169254
0.00019346485 -0.0009527053 -0.0022622636 8.958017e-05 -6.3336964e-05 -0.0004753561 0.00011594448 0.00154863
0.0003645283 -0.0013571718 -0.0013277114 0.0015573491 -7.186198e-06 -0.0006191153 0.001982828 0.00045596983

exp_avg_sq f4 [64]
00000000: e0e9 8837 ae88 0637 21ac 6736 dde9 0837
00000010: 3d7e 0f36 8861 1235 42fc f436 ed82 5137
00000020: c087 0438 0306 8937 28b8 d836 4b4a 1835
00000030: 3df8 0b37 c579 5137 99e5 2b37 c462 6f37
00000040: 4150 5b37 726d f336 3658 9c37 808e a137
00000050: 863b ee36 e8d5 5e37 e294 fb35 3053 c036
00000060: 6eff e636 d384 6837 7bf2 0337 3202 9637
00000070: f5ff b436 06aa 0f37 166c 3637 2bf5 6437
00000080: deaf e036 d3e1 0738 df4e ae37 551f 8f36
00000090: 81fd 4636 308c ed36 0841 4636 a320 e837
000000a0: a963 a637 232c 0136 c01f 1538 3c60 0137
000000b0: 7a14 5437 ce82 5237 a094 8836 ba80 ff36
000000c0: b108 ea36 5779 5337 607f ac37 3f82 5038
000000d0: 35f3 3635 2d7b 0b36 8f08 7137 9951 4b37
000000e0: 1c61 2b36 9654 0737 ba80 4737 ce57 f836
000000f0: d0a1 7f36 9ce7 eb36 e6f3 df37 5231 1637
1.632137e-05 8.018846e-06 3.4521875e-06 8.160682e-06 2.138214e-06 5.4531165e-07 7.3011333e-06 1.2487854e-05
3.159768e-05 1.6334472e-05 6.4587402e-06 5.6732523e-07 8.342843e-06 1.2485722e-05 1.0245852e-05 1.4268506e-05
1.3072103e-05 7.2547055e-06 1.8637726e-05 1.9259052e-05 7.099882e-06 1.3282035e-05 1.8744288e-06 5.73173e-06
6.88427e-06 1.3859203e-05 7.864665e-06 1.7882416e-05 5.3942153e-06 8.563051e-06 1.0873211e-05 1.3646942e-05
6.696194e-06 3.2396823e-05 2.0779144e-05 4.2653796e-06 2.9651858e-06 7.0794704e-06 2.9542152e-06 2.7671753e-05
1.983515e-05 1.924819e-06 3.5553938e-05 7.7114055e-06 1.2640952e-05 1.2547431e-05 4.070418e-06 7.614578e-06
6.9747553e-06 1.2604832e-05 2.0563311e-05 4.9712366e-05 6.8154196e-07 2.0784312e-06 1.4366712e-05 1.2118741e-05
2.553751e-06 8.066321e-06 1.1891296e-05 7.4011978e-06 3.8092148e-06 7.0305086e-06 2.6697246e-05 8.95218e-06
