results/max-hiddenunits128-config1-1/3DBall/3DBall-349309.pt (torch, 50138 bytes, 32 tensors)

network_body.observation_encoder.processors.0.normalizer.running_mean f4 [8]
00000000: bfe6 96b9 3531 743b 510e 353d d9e3 4440
00000010: bb70 8dbe 88bb e8bb 4f89 b6be d295 583c
-0.0002878215 0.0037260775 0.044203106 3.0764067 -0.2762507 -0.0071024336 -0.35651633 0.013219314

network_body.observation_encoder.processors.0.normalizer.running_variance f4 [8]
00000000: 074c 8844 5a36 8144 2a31 3048 757c 8946
00000010: 5061 2d48 c5a3 df47 8e91 3948 7e56 d447
1090.3759 1033.6985 180420.66 17598.229 177541.25 114503.54 190022.22 108716.984

network_body.processors.0.normalizer.running_mean f4 [8]
00000000: bfe6 96b9 3531 743b 510e 353d d9e3 4440
00000010: bb70 8dbe 88bb e8bb 4f89 b6be d295 583c
-0.0002878215 0.0037260775 0.044203106 3.0764067 -0.2762507 -0.0071024336 -0.35651633 0.013219314

network_body.processors.0.normalizer.running_variance f4 [8]
00000000: 074c 8844 5a36 8144 2a31 3048 757c 8946
00000010: 5061 2d48 c5a3 df47 8e91 3948 7e56 d447
1090.3759 1033.6985 180420.66 17598.229 177541.25 114503.54 190022.22 108716.984

network_body._body_endoder.seq_layers.0.weight f4 [128, 8]
00000000: f7d6 dbbe 5a42 08be 6451 583c 29b2 c7bd
00000010: 9fc7 cfbe c40d 3cbf 4e87 a8be eb0b 473d
00000020: d348 86bf 7f91 6c3e 6de5 ab3e b1d0 89be
00000030: 9bd4 72be e3bc fcbe ade3 b53e e979 06bf
00000040: b6d9 98be 9042 bcbe efb7 58bd 7648 a53e
00000050: e454 78be 01d7 bd3c bf3c 863d beaa 80be
00000060: db64 df3e 0f13 0abf 1085 17bd 09d0 a1bc
00000070: 1128 14be c524 c2bb 22f5 67bd db4c 0f3e
00000080: dbe0 e9be 3aa0 16bd e0f7 22bf cca9 573d
00000090: f110 b1be bafd cc3e 4007 af3c 08e3 5bbd
000000a0: 138c 92be 55b8 323e edf4 133e 04f0 063f
000000b0: 5d80 58bc 8ae8 783f c616 77bf 06b9 a3be
000000c0: bb37 2fbd 00e2 323e 1791 6ebd ef3e 8f3e
000000d0: 0c78 253f 4b54 703e 13f0 80be ebf0 9d3e
000000e0: c8a0 5b3e 6c41 6abd 9251 f6bd 6c7a 13be
000000f0: b675 9c3e 4ec4 d7bd 577f 943b 98c8 143e
00000100: 25a0 67be 80a1 2ebf 7443 d8be 3640 40bf
00000110: 466a da3d 1f7b 063e 4a34 893d 37fd 08be
00000120: 60da 9fbd f071 ba3e f8b0 aabd fda3 9f3e
00000130: 6a80 a33e 0ec3 c5be e572 b6be b246 123e
00000140: 835d 02bf 0888 833e 4f81 adbe 39e7 22be
00000150: 5a2d c4bd f292 af3d aac4 18be 03f8 0fbd
00000160: 20a0 2c3f 13f9 6f3f d78b e0bd 2624 28bf
00000170: aad5 c53e 3345 c43e ef7c 2cbd d11c 61bf
00000180: a6bb a03e f527 d1be 94b0 41bf 3926 70bd
00000190: 4d81 1cbf ed0d 30be 245d da3e 7b1e f5bd
000001a0: 82df 2fbe c7ea 1fbe c76c 9f3d 4ab8 683c
000001b0: 7b49 d53e 3034 573e 7103 a03e 634b abbe
000001c0: ca21 4c3f c615 f0bd 5be3 52bf dbae a0be
000001d0: ba7c 123b 89e4 a1be 2b97 cd3d 7514 2e3e
000001e0: 023a 13be 0bb1 aabe 213c c5ba 61b8 1abc
000001f0: b492 2cbe 71ec c53d d903 523e 20ee a7be
00000200: 9610 753e 3f13 54bf 793b 823d a8d1 1d3f
00000210: 92e5 d1be 96ce bb3e 19a4 efbc 67ee f5be
00000220: e18e b6be 992d 2cbf c526 af3e 60ed 033e
00000230: 37e1 59bd dd85 103d f247 313e 8746 ddbe
00000240: 9ff1 e1be b00f 5d3e 9be4 e5be 6db3 adbd
00000250: bc42 8e3d a019 36bd 930b 01bf 7d22 bebc
00000260: b39e 6f3e 666f 903e 33e6 f93e e0e6 c63d
00000270: a5a9 9cbc 82ab 00be 0d5e 013f 4b6b 123f
00000280: c566 103e 0e68 423d dfa5 3bbe 786e 883e
00000290: ac25 6f3d b456 b5be 199f e3be 793b 23be
000002a0: fc7c 0bbc b281 04bf 3c5c 4bbd ba79 b6bb
000002b0: 4064 92bd a9a3 093f 3d42 41bf 799b 2dbe
000002c0: 4ab7 d73e 6b97 e2be 41d9 95be 0c00 edbd
000002d0: 5993 a3be c8e2 9b3e 9205 e53e 77f6 8ebe
000002e0: a956 e1be 77ac d9be 009d 10bf cb0e dc3e
000002f0: 0c6e 2a3e 4eda b53e bc04 febd b0f2 9cbe
00000300: b0b0 103f a4d8 e33d bec1 99bc 1184 153e
00000310: 326f 123f 172e e6be b3f2 21bd c5d3 d23b
00000320: 057b 3abe e30a 98be 98ab 9c3e e343 8e3d
00000330: 1bde 08bf f0c5 f03e 8546 a03e 100a 433e
00000340: 9989 bebe 13f5 073f a6b7 223e d698 9cbd
00000350: 5334 3bbe c479 853e 7703 ba3e 499b afbe
00000360: cfb9 013f 8e59 ef3e 2d19 223f 459d 3ebf
00000370: 59e3 1abf 907f 193f bf75 a63e d399 b3bd
00000380: 956c b5be 6703 3c3e e122 733e ac23 093f
00000390: 0da0 d1be 77b9 0f3f 37a7 073f 0cf5 2a3e
000003a0: 7138 26bf ea71 18bd 67ea 9d3e 2113 d9bd
000003b0: 95a1 3d3f eaff 20bb d4c0 343f 2259 023e
000003c0: fe27 2d3e 9208 92be 9a2b 98be 28c5 243f
000003d0: 0853 8bbe 9d3b bbbd b20a b6bd 5970 8a3e
000003e0: 72ab af3e 786d f93e f640 923d d4af 543d
000003f0: 9d4b a93e 39c9 4abe 209d 673e 09f3 f33e
-0.42937443 -0.13306561 0.013202999 -0.09750778 -0.40581986 -0.73458505 -0.3291573 0.04859535
-1.0490974 0.23102377 0.33573475 -0.2691703 -0.23713915 -0.4936286 0.35525265 -0.5252977
-0.298536 -0.36769533 -0.052909788 0.32281846 -0.24251133 0.02317381 0.06554555 -0.25130266
0.43631634 -0.5393533 -0.036992133 -0.01975252 -0.14468409 -0.0059247934 -0.05663026 0.13994162
-0.45679364 -0.036773898 -0.6365948 0.052652165 -0.34583238 0.40037328 0.021365762 -0.05368331
-0.28622493 0.1745313 0.144489 0.52709985 -0.013214198 0.97229826 -0.96519125 -0.319771
-0.042777758 0.17469025 -0.058243837 0.27977702 0.646363 0.23469655 -0.25183162 0.30847868
0.21448052 -0.057191297 -0.12027277 -0.14402169 0.30558556 -0.10535489 0.0045317817 0.14529645
-0.22619684 -0.6821518 -0.42238963 -0.7509798 0.10664801 0.13132904 0.066994265 -0.13377844
-0.078053236 0.36415052 -0.08334535 0.311798 0.3193391 -0.38625377 -0.35634533 0.1428478
-0.5092394 0.2568972 -0.33887717 -0.15908517 -0.095789626 0.085729495 -0.14918771 -0.03514863
0.6743183 0.9373943 -0.10964172 -0.6568016 0.38639575 0.38334045 -0.042111333 -0.87934595
0.31393164 -0.40850797 -0.7566006 -0.058630202 -0.611348 -0.17192812 0.42649186 -0.11968704
-0.17175105 -0.15616904 0.077844195 0.014204094 0.41657624 0.21016002 0.31252626 -0.33455953
0.7973906 -0.11722903 -0.82378167 -0.31383404 0.0022352175 -0.3161967 0.100385986 0.16999991
-0.14377597 -0.33338198 -0.0015047827 -0.009443373 -0.16852838 0.09664238 0.2050928 -0.32798862
0.23932108 -0.8284187 0.06359 0.61648035 -0.4099546 0.3668105 -0.029253053 -0.4803345
-0.35655883 -0.67257077 0.34209266 0.1288352 -0.053193297 0.035283912 0.17312601 -0.4321787
-0.44129655 0.21588016 -0.44900975 -0.084814884 0.06946322 -0.04445803 -0.50408286 -0.023209805
0.23400383 0.2820999 0.4880844 0.09712005 -0.019123862 -0.12565425 0.50534135 0.57194966
0.14101703 0.047462516 -0.18324994 0.2664678 0.058385536 -0.35417712 -0.4445732 -0.15940656
-0.008513685 -0.517604 -0.04964851 -0.00556871 -0.071480274 0.5376535 -0.75491697 -0.1695384
0.42132026 -0.44256148 -0.29267314 -0.115722746 -0.31948355 0.30446458 0.44730812 -0.27922413
-0.4401143 -0.42514393 -0.56489563 0.42980036 0.16643542 0.35518116 -0.12403247 -0.30653906
0.56519604 0.11125305 -0.018769141 0.1460116 0.5720092 -0.4495704 -0.039538097 0.0064339363
-0.1821099 -0.29695806 0.30599666 0.06946542 -0.53463906 0.47026014 0.31303802 0.19046807
-0.37214354 0.5310833 0.15890369 -0.07646339 -0.18281679 0.26069462 0.36330768 -0.3429816
0.50674146 0.46748012 0.63319665 -0.74458724 -0.60503155 0.5996027 0.32511708 -0.08769574
-0.35434404 0.18360673 0.23743774 0.53570056 -0.40942422 0.5614237 0.52989525 0.1669504
-0.6492987 -0.037218012 0.30842897 -0.10599352 0.7407468 -0.00245666 0.7060673 0.12729314
0.16909787 -0.28522164 -0.29720765 0.64363337 -0.27211785 -0.0914223 -0.08888759 0.2703884
0.3431049 0.4871633 0.071412966 0.051925495 0.330655 -0.19803323 0.22618532 0.4764636

network_body._body_endoder.seq_layers.0.bias f4 [128]
00000000: 8e4d 78bc 50cd 7bbc c099 0dbd 65ca 233d
00000010: fd2e 06bd f7ec 193d d18e eb3c 28ce 96bd
00000020: 493a d9bc 9e4c 3bbd 3c1c 1cbc a100 8ebd
00000030: b173 69bc b729 59bc 68c7 383c c13d 32bd
00000040: 9a3d a83c ef27 5abc ba32 8ebd 2f8d a53d
00000050: d581 c83c 7a20 3abd 00a4 39bd 78e4 82bd
00000060: a147 cc3d e293 23bd 9c7c 233d cbeb 8abd
00000070: 4019 3b3d 9eea e73d 6d48 783c 0357 2d3d
00000080: 9dd6 91bc 8c6b 9e3d d9ed a43a 2a2b 643d
00000090: b632 11bd 02cf 013d fde6 203d 1b19 5a3d
000000a0: 39fa 143c c2e6 f2bc 0fa0 1e3d 1ce1 ae3c
000000b0: f7d8 b4bd 83f0 c83d e3c3 583d c078 94bd
000000c0: 6351 dc3d 3a39 153d 48d7 953d f8da 7e3d
000000d0: f5dd 003d d911 aabd aa42 1e3d 072e a0bb
000000e0: 066b c5bc 2064 0fbc 7422 c93b ed63 a13d
000000f0: c0ee dc3d 0790 793b 742c 9d3d 016b 273d
00000100: ccc2 d23d 9b77 583d 88d1 abbc 25be cbbc
00000110: c14c d03d 5740 ca3c 8daf 823d 6c18 82bd
00000120: 713d 3abe 9105 ccbb 960e 65bc 9140 153d
00000130: a342 053d f66f 193c bab1 743d c10f d13b
00000140: 0a7f b0bc f611 2cbc c9cd 173d 5802 263d
00000150: 2623 543d 7cf0 3f3d 58b7 1fbc c7e8 80bd
00000160: c1e7 3d3d ba4d a33c 783d a63b 6583 c03d
00000170: b3f0 acbc 11af 68bd f8c6 98bc b011 33bc
00000180: 3cb2 993d a656 b9bc 1ecd 833d 790d 44bc
00000190: 867c 2a3c c101 aebd 55f9 25bd 03b8 df3c
000001a0: d7e9 c73d c1f5 933c ee9a afbd 43aa d8bc
000001b0: bda4 0cbd 8b94 423d c6c5 bb3d 5004 5abc
000001c0: 04ce 01bc eb4e ca3c 7d30 353d 1ba6 35bd
000001d0: ed75 fabc 686a 8fbc 8f28 9dbd cae6 5fbc
000001e0: 0953 8e3d f43c 0b3b 9d6b a2bc 8f73 d9bc
000001f0: 2603 883d 800e 4d3c d6b1 1e3d 304f 843d
-0.015155209 -0.0153687745 -0.034570456 0.03998794 -0.032759655 0.037579503 0.028754624 -0.0736354
-0.02651705 -0.045727365 -0.009528216 -0.06933714 -0.014248774 -0.0132545745 0.011278011 -0.043515924
0.020537186 -0.013315185 -0.06943269 0.08083569 0.024475971 -0.04544113 -0.04532242 -0.06391233
0.099746 -0.039935954 0.03991376 -0.06783255 0.045678377 0.113240466 0.015153986 0.04231931
-0.01780253 0.07735357 0.0012583091 0.055705227 -0.035448752 0.03169156 0.039282788 0.0532466
0.009092861 -0.02965105 0.038726863 0.021347575 -0.08830445 0.09811499 0.052921187 -0.07249594
0.10757711 0.03643153 0.07316452 0.062220544 0.031461675 -0.083041854 0.038637795 -0.0048882994
-0.024098884 -0.008751899 0.0061381403 0.078803875 0.107877254 0.0038080232 0.076744944 0.04087353
0.10291061 0.05284844 -0.020973936 -0.024870941 0.1017089 0.024688883 0.0638114 -0.06352314
-0.181875 -0.0062262495 -0.013980528 0.03643853 0.032534253 0.0093650725 0.059739806 0.006380052
-0.021544952 -0.010502329 0.037061486 0.04052958 0.051791333 0.046860203 -0.009748302 -0.06294399
0.046363596 0.019934524 0.0050732456 0.094000615 -0.021110868 -0.05680758 -0.018649563 -0.01092951
0.07504699 -0.022624325 0.064356074 -0.011966103 0.010405665 -0.08496428 -0.040520985 0.027309423
0.09761398 0.01806152 -0.08574472 -0.026448375 -0.034336794 0.047504943 0.09168582 -0.013306692
-0.007922653 0.024695834 0.044235695 -0.044347864 -0.03057381 -0.017506793 -0.076737516 -0.013665864
0.069494314 0.0021246048 -0.019826705 -0.02654436 0.066412255 0.012515664 0.038743816 0.06460416

action_model._continuous_distribution.log_sigma f4 [1, 2]
00000000: ff83 0bbe 20be 05be
-0.13624571 -0.13060808

action_model._continuous_distribution.mu.weight f4 [2, 128]
00000000: ee3f 77bc 5962 723c 52bb 513d eacb 01bd
00000010: 5d4e 3e3d a0c1 053d 8777 78bc 4396 253b
00000020: fa48 82bb 8f39 873c 7574 afbb 22f4 cb3c
00000030: ce1d e5bc 961c 403d c16c 68bd 73cd 833c
00000040: 327f 60bc 0616 ac3c 54c5 18bb 9d06 863b
00000050: 2969 86bc ac96 00bc 19b1 94bb f21e f43c
00000060: 7eac 0bbd 5194 443d 75c6 073d 0fe0 c83c
00000070: 8808 a53d 2b08 bd3c 3d24 89bd 8b30 54bc
00000080: 6402 553d f43f 86bd 66e0 2e3d d2eb 263b
00000090: c439 053d 1be7 7b3c 2077 68bd 2fd1 5cbd
000000a0: 0489 983d e8d1 10bd e108 61bd 3880 8c3c
000000b0: 1325 21bd 86b7 8f3b a0f3 9fbc a038 973c
000000c0: 15dd 23bd 7979 65bd d419 2bbd f43f b93c
000000d0: 7418 c93d c907 82bb 817b 183d b540 cd3c
000000e0: 2af8 16bd 1f9c 413d 3de9 e43c 3611 95bd
000000f0: ed09 87bd cd6f 12bd 15e4 ea3c 0576 c53c
00000100: f903 20bd 31c0 a9bd ecd6 1abd 1cb9 21bc
00000110: eca6 cebc 7659 6dbd 7273 a33b c01a a0bc
00000120: abd6 a0bc d293 d8bc 60dd 40bb 8eb0 71bc
00000130: 4f29 6ebd b7c9 1a3d e155 b0bd 1f45 68bc
00000140: 0883 023d ae0c 22bd d086 4dbb fb7c df3d
00000150: 7d4f 993d 1802 e2bc 831e 7f3c efd0 003d
00000160: 9364 5d3d abc9 0a3d 3239 c33c 9a02 3b3d
00000170: fffe eb3a cbfc aa3c b760 223c f379 323d
00000180: f0de ccbd 5b34 473c fac3 07bd b606 5e3d
00000190: a548 f9bc bb19 183d 109a be3c c3a8 36bd
000001a0: 8364 cfbc d0da 063d c4bd 34bb cb45 16bc
000001b0: 08bd 883c 4841 12bd ea41 01bd a9bd 093d
000001c0: 1221 823c 1e70 4dbd 57f5 843b c2ac d0bc
000001d0: 9321 513d 85de 123d f42a d43c 5949 8c3d
000001e0: 21ac e5bc d37e 4f3c bb55 6a3c 2f99 203d
000001f0: eee3 99bd 12ce b2bc 9f98 ecbc 20dc 2dbd
00000200: 5af8 5c3d 1991 203d fd8e e63d 127d 583a
00000210: 4acd 073c a126 7abc d9ec 17bd 563d c3bb
00000220: a5f7 0bbc fb5e 04bc f132 15bc 3570 02bc
00000230: b93b 813d 2d1e 483c 5165 523b 17b4 023e
00000240: 33e7 e43d 71a8 003e 7928 333c de1e 88bd
00000250: b750 ec3b 6d43 1f3d 9b12 6e3d 108a f83c
00000260: ba0f c7bc aed7 b93c 92aa dcbc 3724 833b
00000270: 9e41 e6bc 0ddd 56bd e5dc 1d3d 6ca2 30bd
00000280: e8a8 e03c e0cc b5bc 1f11 373d 505a 61bd
00000290: 6a53 3dbc d426 ddbc 477f 9c3d 5fe4 be3d
000002a0: d1c9 cfbc 0e97 d43c 3107 e0bb d414 75bd
000002b0: fdca 643c 8736 bdbd 0538 babc b807 2dbc
000002c0: fefa 90bd 830f 0c3d 9eda a7bd a554 61bc
000002d0: bdb3 1d3d 77e3 a73c 2bd8 dfbc 2cfc eb3c
000002e0: d437 9a3c 50cb 9bbc e8af 16bd 919a 83bc
000002f0: 46a2 61bd 600c 0e3c 562e 80bd 9f2b e3bc
00000300: f4d0 2cbd 22e0 3ebd c934 17bd 2c48 7c3c
00000310: d904 aabd ebb4 da3c b9c2 f6bc 01b4 823d
00000320: 0113 2abb aa4d 713c 5fe9 eb3b 2c2f bfbb
00000330: 7dd2 be3c 8336 253d 177d 13bd fd49 883c
00000340: b7c6 25bd 3415 df3c fe5a a1bc d0df 99bc
00000350: 0a2b 33bc c914 cd3d 5f73 513d b4b8 a13c
00000360: bff8 abbc ec92 4b3d aff8 c4bc ff1a 72bd
00000370: 6a6c 623c 1fa4 8c3d 42b9 bebc 10a6 d2bc
00000380: f0b7 02bd 63de da3d c46e 88bc aa25 64bc
00000390: f8da 4f3d 9720 aebc 3cb3 38bb d886 6c3b
000003a0: 38c3 8dbd 0148 a33c 1431 303d ae91 9f3d
000003b0: 0663 373c ce31 393d 33e6 40bd 3fb2 1b3c
000003c0: ced2 c83c 30cc afbc 3265 d6bc 4dab ec3c
000003d0: 6558 e73c bb72 3ebc 7a39 f8bb a8ae 3e3c
000003e0: b237 8bbc f712 793d cead 4ebb 1ad3 14bc
000003f0: 7f5f 803d 9f3d d9bc 3ee8 04bd cb4e 25bd
-0.015090926 0.014793956 0.051204033 -0.03168861 0.04646145 0.03265536 -0.015165216 0.0025266565
-0.0039759846 0.016506938 -0.005354459 0.024896685 -0.027968314 0.04690226 -0.05674434 0.016089177
-0.013702201 0.021006595 -0.0023310976 0.004090144 -0.016407566 -0.007848423 -0.0045377132 0.029799912
-0.03410005 0.047993008 0.033148248 0.024520902 0.08058268 0.023075184 -0.06696365 -0.012951027
0.052004233 -0.06555167 0.04269447 0.002547015 0.032525793 0.015374924 -0.05675423 -0.05391043
0.07448009 -0.035356432 -0.05494011 0.017150983 -0.039341997 0.0043858914 -0.01952535 0.018459618
-0.040005762 -0.05602405 -0.04177268 0.022613503 0.09819117 -0.003968213 0.037227158 0.025055269
-0.03685776 0.04726803 0.027943248 -0.07278673 -0.0659369 -0.035751153 0.028673211 0.024104128
-0.03906629 -0.08288611 -0.03780262 -0.009870794 -0.025226079 -0.057946645 0.0049881274 -0.019544005
-0.019633612 -0.026437674 -0.0029428825 -0.014751567 -0.058144864 0.037790027 -0.0861013 -0.014176636
0.031863242 -0.039562874 -0.0031360872 0.1091251 0.07485864 -0.027588889 0.015571239 0.031449255
0.054050993 0.03388373 0.023830984 0.045656778 0.0018005072 0.020872494 0.009910754 0.04357333
-0.100034595 0.012158479 -0.033145882 0.05420562 -0.030430147 0.037133913 0.023266822 -0.044594537
-0.025316482 0.03292352 -0.002757893 -0.009171913 0.0166917 -0.03570679 -0.031557 0.03362814
0.01588491 -0.05015575 0.004057567 -0.025473002 0.05105741 0.035856742 0.025899388 0.068499275
-0.028036179 0.012664515 0.014302666 0.039208587 -0.07514177 -0.021826778 -0.02888137 -0.042446256
0.053947784 0.039200876 0.112577416 0.0008258383 0.008288691 -0.015267999 -0.03709111 -0.0059582395
-0.00854293 -0.008079286 -0.009106384 -0.007961323 0.06310219 0.012214226 0.0032103846 0.12764011
0.1117691 0.12564255 0.010934942 -0.066465124 0.0072117704 0.03888266 0.058123212 0.03033927
-0.024299491 0.022685852 -0.026936803 0.00400212 -0.02810746 -0.052456904 0.03854074 -0.043123648
0.02742429 -0.022192419 0.044694062 -0.05501777 -0.011555532 -0.026996054 0.07641464 0.09320902
-0.025364788 0.025950935 -0.006836795 -0.059834316 0.013964412 -0.09238916 -0.02273179 -0.010560922
-0.07079123 0.03419448 -0.08195995 -0.013753091 0.03850149 0.020494206 -0.027324757 0.028806768
0.018825449 -0.019017845 -0.03678885 -0.016064914 -0.055086397 0.008669943 -0.06258838 -0.027730761
-0.04219146 -0.04660047 -0.036915574 0.0153980665 -0.08301706 0.026697597 -0.030122148 0.06381989
-0.0025951269 0.014727989 0.007199451 -0.0058344807 0.023293728 0.04033519 -0.036007967 0.016636843
-0.040472712 0.02723179 -0.019696709 -0.01878348 -0.010935554 0.1001373 0.051135417 0.019741394
-0.020992635 0.049700662 -0.024044363 -0.059107777 0.013819793 0.06867241 -0.023281697 -0.02571395
-0.031913698 0.10686948 -0.01665438 -0.013924995 0.050745934 -0.021255774 -0.0028183004 0.0036091115
-0.06922001 0.019931795 0.043015555 0.07791458 0.011193043 0.045213513 -0.047094535 0.009502946
0.024514582 -0.021459669 -0.0261713 0.028890276 0.028240392 -0.011624034 -0.007575211 0.011638321
-0.016994331 0.060809102 -0.00315367 -0.009083534 0.062682144 -0.026518641 -0.032448046 -0.040358346

action_model._continuous_distribution.mu.bias f4 [2]
00000000: d63d 94bc 4fa4 91bd
-0.018095892 -0.071114175

exp_avg f4 [128, 8]
00000000: 5021 9039 b0e8 c1b9 a540 0739 a669 7f38
00000010: c707 6239 8d1b 9338 c22c 3db8 107d 5eb9
00000020: d8fe 3b3a d052 0a39 b549 9a39 a307 66b8
00000030: 276f 99b8 c122 07b8 8ca4 2739 28b7 7eb8
00000040: 18db 173a 76bb 1b3a c6c7 f139 44f0 7a37
00000050: 8aef 5cb7 d730 9638 e55a eab9 6ff1 45b9
00000060: 67a8 8a39 257f c2b9 5755 57b6 e465 7938
00000070: 11d6 da36 170b 8238 fca0 1838 6e2d 8938
00000080: 614d 7a39 1843 8439 94b3 b438 2fc8 24b7
00000090: 3a70 6eb8 a0ea 22b8 90c6 9ab7 36c3 0238
000000a0: a128 0bb9 0b2d e039 d853 bf38 a932 c836
000000b0: 604f 1ab9 1f83 43b8 92b5 b138 1445 9638
000000c0: d478 11b9 c5a2 55b9 2779 3cb9 f0b6 f8b8
000000d0: 0be9 acb8 e911 23b8 97ff 5039 98fe 2f36
000000e0: d3a3 1436 0786 7837 063b 5cb3 2e9e 2637
000000f0: d11b eeb6 f286 a5b7 5fd8 3f36 9918 0f36
00000100: 0714 57b8 8b70 78b8 555a 55b6 95d7 ca37
00000110: 053d 0f38 c435 b1b7 c36a 5236 68a2 0bb7
00000120: 0b8c b736 1088 9b39 d817 5538 4692 2438
00000130: 3b94 b5b8 a4b3 a2b8 425f 0438 9aef 9038
00000140: bc2c 0fb9 1ded 7637 b682 91b8 65ec 49b7
00000150: a419 e9b7 0f45 a637 c599 5cb7 b844 82b4
00000160: 1d23 8fb8 696f bf39 5e20 0a39 6356 cc38
00000170: 4a8b afb7 1fc9 87b8 6162 9d38 882a 9838
00000180: 20c3 ec37 56de 57b9 5700 7a39 d0b6 aeb9
00000190: 65fc 08b8 cda4 0339 d583 a139 45ba 8237
000001a0: a780 9639 10e2 1f3a 1297 e038 b93f 9cb7
000001b0: e126 71b9 cba0 d638 98c8 dab8 454d 2137
000001c0: 101b 143a 33b9 0eba 244b c0b7 5508 1d38
000001d0: cfa9 32b8 9d53 3439 eb2b 3fb7 90a3 4438
000001e0: 1bdd b439 5a51 e639 62cb 8e39 bb38 aab9
000001f0: a50e 08b9 e2d3 a638 ad84 7c39 98fb 1eb9
00000200: 95bd feb9 a374 033a 58a5 5a38 b4e0 8039
00000210: fac0 f838 61fe 4838 49f3 22ba 7721 17b9
00000220: 8221 c039 082c 603a bb5d ea38 0d34 6938
00000230: d8c0 9db9 f1de 6b39 b96d afb9 0b77 4ab9
00000240: bd15 be38 7d68 e3b8 5288 7338 c55a 0f38
00000250: fc91 9b38 6953 0bb7 0fd3 29b8 139b 71b7
00000260: 362c 7538 e090 81b8 bc1d 1137 ae5a 9739
00000270: f362 c6b8 0b39 2fb9 eede aeb9 a06a 8839
00000280: 3956 5f38 941e 73b9 3e5b feb7 41f5 e9b6
00000290: 537e 6238 25fe 8438 600a f6b7 5032 43b8
000002a0: 6761 4c38 03eb 98b8 4dbe 1238 451d 3339
000002b0: 2b2a 5839 4a68 27b8 a2a0 2bb9 3f07 8ab7
000002c0: 0b36 60b9 1143 2639 7b75 ad38 7181 aab9
000002d0: e4e6 6bb8 614b 6b38 13bc 8a39 7506 a7b6
000002e0: 7f53 bf39 d796 1039 b685 3939 5ca9 8338
000002f0: 397e 5fb8 29ef b838 0d1e 8fb9 f543 3338
00000300: 9e7a bd39 6e6d 4fba 8072 5bb9 c8eb 55b8
00000310: 4deb ad38 ab49 63b7 790e 0939 3e21 afb6
00000320: 9492 b2b7 2209 273a cba4 fe37 9c72 a7b8
00000330: 11af 9d38 529e 9db8 5232 9736 0b9e 50b9
00000340: 3a14 4cb8 6ba0 303a 2302 3e37 6170 4a39
00000350: 87c1 3cb9 cdb3 0035 ce20 46b9 82fe 0d39
00000360: b8ba 74b9 b186 d439 f2ba e138 5d57 d137
00000370: e3b6 af38 584f dbb8 6c57 d538 e630 52b8
00000380: b7e2 a138 1202 da3a b314 4a39 d2f7 bf39
00000390: 2a12 89b9 03aa f1b8 2f10 48b9 349b 7e38
000003a0: dcbe 4db9 1b25 5739 6ea4 90b8 4cb8 0039
000003b0: 4458 1cb7 076f 26b9 7e2d beb8 eba7 3b38
000003c0: 3ed8 d139 b35c 83ba 7185 aeb6 c2f6 9138
000003d0: 2187 3b39 9752 8739 7f4c 8bb8 54f0 aeb7
000003e0: b28a f238 ab57 85b9 be99 37b9 85cf f438
000003f0: 3f91 8fb8 a449 93b8 e432 ccb8 3e18 d138
0.0002749064 -0.00036985194 0.00012898685 6.089513e-05 0.00021555937 7.014638e-05 -4.5102795e-05 -0.00021218159
0.00071714586 0.00013191556 0.00029428085 -5.4843385e-05 -7.316312e-05 -3.2218875e-05 0.0001598766 -6.0728897e-05
0.00057928404 0.00059407146 0.00046115945 1.4957102e-05 -1.3168794e-05 7.1616545e-05 -0.0004469968 -0.00018877325
0.0002644688 -0.00037097294 -3.208717e-06 5.946112e-05 6.521827e-06 6.200949e-05 3.6389552e-05 6.541131e-05
0.00023870684 0.0002522699 8.616518e-05 -9.821771e-06 -5.684814e-05 -3.884232e-05 -1.8450693e-05 3.117622e-05
-0.00013271208 0.0004275817 9.123207e-05 5.966362e-06 -0.00014716154 -4.661374e-05 8.473838e-05 7.165424e-05
-0.0001387329 -0.000203739 -0.0001797421 -0.00011859636 -8.245007e-05 -3.887891e-05 0.0001993164 2.6225225e-06
2.2149077e-06 1.4813158e-05 -5.1276423e-08 9.9312e-06 -7.096191e-06 -1.9732372e-05 2.8587162e-06 2.1322978e-06
-5.1278646e-05 -5.923262e-05 -3.1792054e-06 2.4180665e-05 3.4150686e-05 -2.112508e-05 3.1354582e-06 -8.322859e-06
5.470128e-06 0.00029665278 5.0805364e-05 3.9236875e-05 -8.658363e-05 -7.758223e-05 3.155997e-05 6.911084e-05
-0.00013654208 1.471795e-05 -6.9384856e-05 -1.20355735e-05 -2.7787704e-05 1.98209e-05 -1.3148824e-05 -2.4264386e-07
-6.825312e-05 0.00036513366 0.00013172763 9.743569e-05 -2.0926487e-05 -6.474763e-05 7.504668e-05 7.255847e-05
2.8224254e-05 -0.00020586824 0.00023841985 -0.00033324072 -3.2659987e-05 0.00012554527 0.00030806536 1.5583946e-05
0.00028706083 0.00060990546 0.000107092914 -1.8626322e-05 -0.00022998035 0.00010234265 -0.000104324135 9.6143385e-06
0.00056497846 -0.0005444467 -2.2923174e-05 3.7439477e-05 -4.2596654e-05 0.00017197286 -1.1394713e-05 4.688237e-05
0.00034497012 0.0004392963 0.00027235883 -0.00032467194 -0.00012975426 7.954963e-05 0.00024082018 -0.0001516178
-0.00048587905 0.00050146336 5.212924e-05 0.0002458148 0.00011861506 4.7920625e-05 -0.0006216062 -0.00014412949
0.0003664606 0.0008551483 0.00011175448 5.5600005e-05 -0.00030089053 0.00022494399 -0.0003346035 -0.00019308568
9.063955e-05 -0.00010843666 5.8062673e-05 3.4178393e-05 7.418168e-05 -8.304466e-06 -4.0489304e-05 -1.4400825e-05
5.8453727e-05 -6.1781844e-05 8.649597e-06 0.00028868526 -9.4598065e-05 -0.0001671055 -0.00033353962 0.00026019383
5.3247644e-05 -0.00023185677 -3.0321648e-05 -6.9724924e-06 5.4000247e-05 6.3415886e-05 -2.9330316e-05 -4.653848e-05
4.8728103e-05 -7.291699e-05 3.4986344e-05 0.00017081674 0.00020615074 -3.991303e-05 -0.00016367671 -1.6454256e-05
-0.00021382437 0.00015855978 8.271165e-05 -0.00032521368 -5.62434e-05 5.6098568e-05 0.00026461537 -4.9777395e-06
0.00036492568 0.00013789102 0.00017692786 6.2781124e-05 -5.3284897e-05 8.818351e-05 -0.00027297475 4.2740216e-05
0.00036140246 -0.00079127296 -0.00020928122 -5.1002746e-05 8.293111e-05 -1.35474065e-05 0.0001307073 -5.2192763e-06
-2.128751e-05 0.00063719053 3.0355897e-05 -7.984528e-05 7.518952e-05 -7.515833e-05 4.5060087e-06 -0.00019895301
-4.8656228e-05 0.00067377713 1.132538e-05 0.00019306086 -0.00018001172 4.794536e-07 -0.00018894972 0.0001354162
-0.00023339211 0.00040536144 0.00010763657 2.4955423e-05 8.3787156e-05 -0.00010457513 0.00010172915 -5.0113442e-05
7.719307e-05 0.0016632697 0.00019271932 0.00036615 -0.0002614421 -0.00011523443 -0.00019079515 6.0702863e-05
-0.00019621424 0.0002051782 -6.8970825e-05 0.00012275687 -9.3188755e-06 -0.00015872355 -9.0683796e-05 4.474066e-05
0.000400247 -0.0010022133 -5.2011387e-06 6.960101e-05 0.00017884049 0.0002581074 -6.642285e-05 -2.0854328e-05
0.00011565293 -0.00025433055 -0.00017509513 0.0001167348 -6.8458256e-05 -7.023223e-05 -9.736957e-05 9.970412e-05

exp_avg_sq f4 [128, 8]
00000000: e598 9d36 e298 8436 c882 6f36 86c8 8736
00000010: 6d88 2436 e55d fd35 e519 6337 a01a 9435
00000020: 4a4b 8a36 d71a 3536 5cbd b335 0519 7535
00000030: 4419 9d35 2cec b135 95bb 8235 6e9f 5b35
00000040: 40df e937 3057 d637 fff5 9837 b0ff 2138
00000050: eb4c 6637 914e 1a37 294d b737 e359 9636
00000060: c94c e435 eba1 0536 d5f3 b135 d354 b935
00000070: 98b9 7335 a049 5535 4fbf 4b36 4ff6 d834
00000080: 42f3 9136 656c 6436 477d 2636 ff3d 8036
00000090: 3b05 f635 fc0e be35 3648 9a36 8866 4e35
000000a0: 8ac6 2236 e136 2a36 aeb4 2136 f00f bb36
000000b0: 7349 0136 29a4 7835 ae6a 2837 dfed 0e35
000000c0: 5fe6 4136 5125 2236 ecd9 1f36 391d ce36
000000d0: 6f6f 1836 63b5 4935 4a80 c636 5cad 3e35
000000e0: e382 8433 a126 5c33 55a1 1233 36b7 0333
000000f0: ef6c 0f33 cea8 ce32 d12f 9033 c438 8432
00000100: efad 6b33 4f8b a733 2f09 2033 1c70 2632
00000110: 43e2 d332 852d 0733 899d e832 4d7f 7d32
00000120: 17c2 0735 42ce 0e35 20b3 0135 1390 a235
00000130: 60d5 e634 2f57 2c34 fff0 2a36 a4e6 fe33
00000140: 1815 a134 4d5f 4634 44f6 2734 5ea0 2234
00000150: ac49 f333 da05 bc33 bd1a ca34 feb6 6d33
00000160: 2341 7035 8122 5b35 00a6 0d35 d73b 9434
00000170: c800 e634 90aa 9734 c909 9f35 fdae 4534
00000180: 1e17 1a37 4ada de36 3973 a236 66b3 d236
00000190: c244 8136 4ed6 3f36 dab1 3a36 9cbc a835
000001a0: d839 6836 af48 8236 59a9 eb35 c3eb 3f36
000001b0: 8093 0d36 ad63 cc35 0cde 9735 96bc 5a35
000001c0: 2196 8a36 2980 4d36 6e34 1f36 585a be35
000001d0: 5eea ff35 73c2 e135 67e3 6636 0912 6435
000001e0: 8c94 c237 f44f c237 51d8 5937 4a07 4137
000001f0: 1d53 1b37 a750 1e37 21c9 e736 2087 9a36
00000200: b30b 1938 4f75 fd37 6dd6 c837 4db7 3738
00000210: 5995 9037 a6be 2737 d5a1 2138 7291 9b36
00000220: 5f53 0238 c2fc 0c38 42fc 9837 3789 b637
00000230: 7146 6437 3197 5137 0869 6437 4e23 da36
00000240: 4305 4e34 9bf5 0f34 68a2 3134 d42c 5334
00000250: a348 e333 7e0c 6733 efbd 1a35 fb65 3733
00000260: 8097 4737 3bfb 0837 397d ba36 1266 0f37
00000270: 32a2 9436 5d41 5736 9c43 2b36 c1fc 2636
00000280: a32a f934 53c7 f034 15ed fb34 5abc 9635
00000290: 3e2e db34 3c9f 2134 c5ea 1d36 6969 ba33
000002a0: b7eb 2b36 b134 3f36 a2e7 3b36 4f9e 6f36
000002b0: ae72 ea35 f515 9135 c8e1 1d37 276a 1c35
000002c0: 2eb3 dc36 0963 a636 56d5 4b36 910f 1b36
000002d0: a250 1136 1487 0f36 4b95 a035 0f05 7535
000002e0: 9e2b 8436 5b61 8036 74e1 3c36 8b72 e736
000002f0: acb2 2c36 0774 b035 4aaa bb36 2c29 3435
00000300: 2746 8736 1508 7336 b2b6 4236 240d e236
00000310: 2963 4836 41b4 bc35 4f66 bf36 73bd 6a35
00000320: fe24 a736 72c9 9736 2437 2536 d1f8 6f36
00000330: a62a eb35 e693 0836 90ab c035 3032 9035
00000340: aebe 5136 a216 4436 f900 b835 4dca cb35
00000350: 5a34 aa35 3b93 8335 18e1 8835 7772 3435
00000360: 5b75 9135 0ce0 7135 414b 1a35 3f11 9434
00000370: 68a2 cf34 7cfd d534 e9b5 0335 7362 6f34
00000380: 6f1d 8c37 6490 8237 b893 0937 baa1 be37
00000390: 2109 f636 a572 aa36 fbe8 b836 0d06 5336
000003a0: 1309 f636 1856 df36 0d6f 4f36 93ad 7936
000003b0: f267 5f36 08d5 4036 de8d e135 6a65 0b36
000003c0: 56ec 5137 322b 3837 2b3d 1937 b374 cc37
000003d0: f709 0337 fdfe 5336 c3b2 e737 49b1 0136
000003e0: 7c27 9036 d637 5736 81e5 0a36 54a9 a836
000003f0: 66d0 0e36 a7bb 9c35 4ee6 b335 4e66 7635
4.696764e-06 3.9517045e-06 3.56899e-06 4.0466575e-06 2.4517315e-06 1.8877296e-06 1.3536283e-05 1.1034608e-06
4.1214853e-06 2.6986725e-06 1.339165e-06 9.130602e-07 1.1704765e-06 1.3256263e-06 9.740348e-07 8.181586e-07
2.7879723e-05 2.5551388e-05 1.8234363e-05 3.862352e-05 1.3726977e-05 9.197408e-06 2.185123e-05 4.4808125e-06
1.7009671e-06 1.9912793e-06 1.3258492e-06 1.3808261e-06 9.079463e-07 7.945582e-07 3.0360713e-06 4.0412348e-07
4.3496557e-06 3.4037741e-06 2.4808849e-06 3.8219146e-06 1.832995e-06 1.4160464e-06 4.597964e-06 7.689018e-07
2.4255446e-06 2.5363918e-06 2.409604e-06 5.5748897e-06 1.926525e-06 9.2626084e-07 1.0038419e-05 5.324527e-07
2.8893335e-06 2.4161602e-06 2.3819694e-06 6.1426804e-06 2.2714628e-06 7.514229e-07 5.9157946e-06 7.1032787e-07
6.170537e-08 5.1257874e-08 3.4140005e-08 3.0667444e-08 3.3393857e-08 2.405832e-08 6.71422e-08 1.5392636e-08
5.4873393e-08 7.8018836e-08 3.7261255e-08 9.687962e-09 2.4666525e-08 3.1473537e-08 2.7079993e-08 1.4755483e-08
5.0573857e-07 5.3199267e-07 4.8316906e-07 1.2111872e-06 4.299609e-07 1.6050465e-07 2.5472252e-06 1.186975e-07
3.0003935e-07 1.8474857e-07 1.5642678e-07 1.5145767e-07 1.132897e-07 8.7554966e-08 3.7644887e-07 5.5347293e-08
8.9501754e-07 8.163407e-07 5.2768155e-07 2.7610687e-07 4.2841407e-07 2.8250042e-07 1.1849271e-06 1.8410715e-07
9.184498e-06 6.6415278e-06 4.84139e-06 6.2793724e-06 3.852504e-06 2.858596e-06 2.7819683e-06 1.2571868e-06
3.4604363e-06 3.8827634e-06 1.7558151e-06 2.859845e-06 2.1096494e-06 1.5228194e-06 1.1315001e-06 8.148576e-07
4.130198e-06 3.062198e-06 2.3723364e-06 1.4182397e-06 1.906719e-06 1.6820399e-06 3.4405036e-06 8.4962863e-07
2.3195775e-05 2.3163833e-05 1.2984573e-05 1.1505394e-05 9.258071e-06 9.436312e-06 6.907751e-06 4.6052883e-06
3.648894e-05 3.0214576e-05 2.3941708e-05 4.3801312e-05 1.7235683e-05 9.9983645e-06 3.853611e-05 4.636292e-06
3.107206e-05 3.3614e-05 1.8237279e-05 2.1759986e-05 1.360626e-05 1.2492573e-05 1.36143135e-05 6.5010163e-06
1.9187159e-07 1.3407264e-07 1.6543493e-07 1.9667215e-07 1.0583724e-07 5.379524e-08 5.764586e-07 4.270076e-08
1.1896598e-05 8.164726e-06 5.55781e-06 8.547229e-06 4.4296257e-06 3.2075543e-06 2.552034e-06 2.488305e-06
4.6410887e-07 4.484851e-07 4.6924893e-07 1.1230688e-06 4.0825574e-07 1.5052223e-07 2.3531477e-06 8.680474e-08
2.561819e-06 2.8491888e-06 2.8e-06 3.5705923e-06 1.7467735e-06 1.0809732e-06 9.410498e-06 5.8269e-07
6.57737e-06 4.9587147e-06 3.0373535e-06 2.310586e-06 2.1653618e-06 2.1387286e-06 1.1964379e-06 9.1276974e-07
3.9389843e-06 3.826031e-06 2.8145414e-06 6.897671e-06 2.5733998e-06 1.314679e-06 5.5928585e-06 6.711514e-07
4.0314803e-06 3.6214526e-06 2.9014595e-06 6.7368546e-06 2.9860041e-06 1.4059552e-06 5.704154e-06 8.744748e-07
4.9812943e-06 4.523602e-06 2.4619012e-06 3.5758605e-06 1.7521277e-06 2.0351667e-06 1.4355046e-06 1.0743443e-06
3.1254417e-06 2.921945e-06 1.3709351e-06 1.5183556e-06 1.2681223e-06 9.80311e-07 1.01983e-06 6.7221794e-07
1.0837497e-06 9.010553e-07 5.747898e-07 2.7579696e-07 3.867492e-07 3.9858776e-07 4.9066017e-07 2.2294425e-07
1.6703007e-05 1.5564445e-05 8.20023e-06 2.2725075e-05 7.332434e-06 5.079741e-06 5.51075e-06 3.1444972e-06
7.3324277e-06 6.6559405e-06 3.0910044e-06 3.7204925e-06 3.3290094e-06 2.873423e-06 1.6805095e-06 2.0771645e-06
1.2512397e-05 1.0977312e-05 9.133752e-06 2.4373037e-05 7.810529e-06 3.1589873e-06 2.7620588e-05 1.9325691e-06
4.296131e-06 3.2069997e-06 2.0697191e-06 5.0265025e-06 2.1280953e-06 1.167752e-06 1.3403567e-06 9.1791014e-07

exp_avg f4 [128]
00000000: 495f feb9 5069 8db9 2308 84ba f43c 3339
00000010: 9287 37b9 d373 4d39 344f 8339 b8fe e337
00000020: a02b b738 0a66 0d39 01b0 9f38 99c9 3939
00000030: 4bbe a3b9 1610 6fb9 98cb 3939 4ef2 5fba
00000040: 499e 06ba 2d97 49ba d7e5 c5b8 62a2 d939
00000050: f498 86b8 6603 68b9 e6e9 8eb9 848d c8b9
00000060: bcd8 e138 136b acb9 ae6c ad39 616d ad38
00000070: 4e1f d439 9858 9639 4e75 b5b8 9113 7239
00000080: 193e 95b9 04f6 0738 c456 2eb9 b0f7 c639
00000090: edcf 7839 8df6 b338 bfdc b2b9 5edd 58b7
000000a0: 162a c736 9582 03b8 ef2a c739 efbd d039
000000b0: 899b 01b9 9165 293a 5020 1139 fb37 1c39
000000c0: b9b2 9a39 4809 bab8 c034 013a 6baf 6e38
000000d0: 286c 12ba 8061 07b9 de87 8e39 9e91 6cb9
000000e0: 725f 71b9 1be1 f738 9df7 2e39 8aeb bb39
000000f0: 6ac9 41b7 ed22 ce38 f907 d139 3793 7539
00000100: 33c3 8739 332b 9bb8 6a36 5c39 c57c 1036
00000110: 5567 1d3a 2a9b e638 0fb1 0d39 665f b0b9
00000120: 4008 27b8 545b 47b9 97c6 adb7 4884 e738
00000130: 2a5d 5eb9 fdbe c2b9 d671 88b9 6f25 60b8
00000140: eaea b039 ff05 68b9 c4a1 1439 d26c fd39
00000150: 7554 8438 09cb beb9 11da aeb9 e851 0e37
00000160: abc9 5eb9 b013 94b9 c1e5 ba38 3fbb 0839
00000170: 201f 5eb8 80d7 09ba 027e 4139 b320 ccb6
00000180: 337e 86b7 c3bd 6aba 5d35 5b38 d978 d538
00000190: 5cae 95b9 83c9 5639 93e2 e738 6f35 0839
000001a0: f6cd 273a a3c2 b3b8 b1d8 a1b9 ac84 d1b9
000001b0: 3dc0 abb8 5315 a6b8 ad8e bd39 6013 11b8
000001c0: 3ba4 41b9 ce56 e239 01ba 4a39 02c2 81b9
000001d0: 5e69 7c38 a6c5 9a38 0a9f 78b7 9339 b138
000001e0: af6d 8539 36a9 e0b9 5856 c438 ed0e c5b8
000001f0: d1b0 86b9 e211 4938 cd85 ad39 7f64 5b39
-0.00048517648 -0.0002697208 -0.0010073226 0.00017093477 -0.00017502744 0.00019593471 0.00025045278 2.7179121e-05
8.734246e-05 0.0001348482 7.614494e-05 0.00017718076 -0.00031231562 -0.00022798809 0.0001771882 -0.0008542881
-0.00051352807 -0.00076900685 -9.436503e-05 0.0004151045 -6.418108e-05 -0.0002212651 -0.00027258619 -0.0003825241
0.00010769206 -0.00032886173 0.00033078104 8.269656e-05 0.00040459115 0.00028676237 -8.652602e-05 0.00023086208
-0.0002846576 3.2415628e-05 -0.00016626256 0.00037950044 0.00023728581 8.581309e-05 -0.00034115274 -1.2926144e-05
5.9355616e-06 -3.1354448e-05 0.00037988226 0.00039814363 -0.0001236034 0.0006461973 0.00013840315 0.00014898174
0.00029506328 -8.8709e-05 0.000492882 5.6906993e-05 -0.00055855745 -0.00012910925 0.0002718558 -0.0002256096
-0.00023019107 0.00011819807 0.00016686176 0.0003584291 -1.1550592e-05 9.829351e-05 0.00039869527 0.00023419863
0.0002589464 -7.3990224e-05 0.00021001106 2.1530298e-06 0.00060044724 0.00010996156 0.00013512767 -0.00033640413
-3.9823586e-05 -0.00019012141 -2.0715683e-05 0.00011039578 -0.00021206276 -0.0003714486 -0.00026024756 -5.3440624e-05
0.0003374436 -0.00022127478 0.00014174642 0.00048336998 6.309982e-05 -0.00036390897 -0.00033350338 8.48293e-06
-0.00021246697 -0.00028243428 8.911966e-05 0.00013039725 -5.2957912e-05 -0.0005258247 0.00018452856 -6.0834805e-06
-1.603281e-05 -0.00089546683 5.2263367e-05 0.00010179141 -0.00028549402 0.000204837 0.00011057141 0.00012989876
0.0006401235 -8.571639e-05 -0.0003086976 -0.00039962435 -8.1897226e-05 -7.919469e-05 0.0003615519 -3.458874e-05
-0.00018467095 0.00043170754 0.00019333513 -0.00024749344 6.0179613e-05 7.380107e-05 -1.4818981e-05 8.450742e-05
0.00025449457 -0.0004285068 9.362091e-05 -9.396472e-05 -0.0002569021 4.793879e-05 0.0003309682 0.00020922905

exp_avg_sq f4 [128]
00000000: 7584 a636 f8ba 4936 8c14 b537 16ca e235
00000010: facd 5d36 b8fe 3c36 ebb9 2036 26a5 6b33
00000020: 93ea 7833 e7f5 1c35 f4e9 7534 b905 6d35
00000030: a3d0 eb36 a98b 4a36 18e0 7136 dafc a037
00000040: 1d3c d337 e1b3 d637 23fa 3b34 004a 0c37
00000050: a141 1235 2da3 3d36 cc42 9136 7e3d 5336
00000060: e9f2 6b36 ce97 8236 f825 3b36 f9f8 7d35
00000070: ad2d 5a37 b2e0 ce36 23bf 3037 930e 4f36
00000080: 90d9 ce36 fcd1 bf36 1a88 ec36 040a 9f36
00000090: cf52 e335 a95c 9735 721a 9537 9c52 ba37
000000a0: 380f 0637 f876 5e36 fd77 9b36 2fa8 8936
000000b0: 429e 6136 c010 4137 61fa 9435 13ba 2635
000000c0: 3a39 2137 7917 e736 43fa 6637 a5b5 8035
000000d0: 3f8f aa37 1795 fe34 5ae5 7236 4e5b 1736
000000e0: a663 6236 36c6 9336 e2e5 2d36 b99f 0f37
000000f0: 4495 6f37 8d1e 1036 d3b3 e036 c1b4 0636
00000100: 42ec a736 a246 8337 a70e 6836 6d8e 0435
00000110: 4da9 2737 0cbc f936 8d8d 6735 668b 9236
00000120: f0ee 1335 3168 be35 0242 c333 ab9d 0a35
00000130: 0697 9d36 faa1 a636 6524 8737 4459 5c35
00000140: 5a45 6f36 a0bf 5a36 71d0 3535 e7e5 c437
00000150: 3d8c 3b37 9441 9337 c6d5 9c36 47b6 0536
00000160: ac11 bd36 7629 cf36 ab0a c335 3686 2037
00000170: 5d1b a034 b59c 1137 0130 8135 8577 8836
00000180: 4faf 9e37 ef15 a437 81e4 0536 aa33 bb36
00000190: 4e0c 9a36 8e48 ff35 a213 4e35 b997 6136
000001a0: 99a6 1437 b8ab 1e36 3e6c 3436 a77a 2737
000001b0: a58d 1e35 ac14 9036 173c e236 4263 1136
000001c0: 4f25 b135 e4e5 9036 6837 ad35 8a45 2236
000001d0: f9cc bb36 d014 2136 71f0 8a35 6baf 1e37
000001e0: 3a31 fd35 5ce8 bf36 87ea fd34 9490 3136
000001f0: fe49 9a37 666f e535 4cc5 2636 b25c c236
4.9626055e-06 3.0060164e-06 2.158645e-05 1.6897127e-06 3.305146e-06 2.816245e-06 2.3950076e-06 5.4865403e-08
5.7955344e-08 5.8472364e-07 2.2902515e-07 8.829771e-07 7.0278343e-06 3.0181639e-06 3.6042238e-06 1.919123e-05
2.5181153e-05 2.559455e-05 1.7506731e-07 8.36188e-06 5.448474e-07 2.8258175e-06 4.329113e-06 3.1477243e-06
3.515912e-06 3.8919743e-06 2.7887272e-06 9.461215e-07 1.3004447e-05 6.1654364e-06 1.053492e-05 3.0853887e-06
6.164606e-06 5.716689e-06 7.0491924e-06 4.7397352e-06 1.6936918e-06 1.1277344e-06 1.7774499e-05 2.2211396e-05
7.990566e-06 3.3149827e-06 4.6333284e-06 4.1024973e-06 3.361973e-06 1.1507596e-05 1.1099729e-06 6.211059e-07
9.609672e-06 6.887069e-06 1.3767337e-05 9.589609e-07 2.0332283e-05 4.7419664e-07 3.619431e-06 2.25539e-06
3.3734627e-06 4.404016e-06 2.5912818e-06 8.5606525e-06 1.4280264e-05 2.1475455e-06 6.6966545e-06 2.0072769e-06
5.004492e-06 1.5649308e-05 3.4579223e-06 4.938109e-07 9.993394e-06 7.44267e-06 8.626019e-07 4.367367e-06
5.510947e-07 1.4186427e-06 9.092402e-08 5.1638443e-07 4.696546e-06 4.966042e-06 1.6110202e-05 8.2086285e-07
3.5654143e-06 3.2596072e-06 6.7731077e-07 2.3472077e-05 1.117872e-05 1.7554303e-05 4.674049e-06 1.9924644e-06
5.634696e-06 6.1739074e-06 1.4531737e-06 9.567992e-06 2.9822232e-07 8.67916e-06 9.62522e-07 4.0670297e-06
1.8916702e-05 1.9560537e-05 1.9951551e-06 5.579049e-06 4.59099e-06 1.9020097e-06 7.676955e-07 3.3615927e-06
8.8602765e-06 2.3643788e-06 2.6885095e-06 9.982533e-06 5.9065707e-07 4.293941e-06 6.7423202e-06 2.166446e-06
1.3198386e-06 4.318297e-06 1.290563e-06 2.4180358e-06 5.5968962e-06 2.4002984e-06 1.0351779e-06 9.458377e-06
1.8864296e-06 5.7192938e-06 4.7295563e-07 2.645921e-06 1.8392686e-05 1.7094251e-06 2.485077e-06 5.7924417e-06

exp_avg f4 [1, 2]
00000000: 05a7 43bb e572 4ebc
-0.002985419 -0.012600635

exp_avg_sq f4 [1, 2]
00000000: 97a1 d03b 82e1 c33b
0.0063669193 0.0059778104

exp_avg f4 [2, 128]
00000000: 0f64 333a 4278 88bb 2627 8ebb 305f 19bc
00000010: f3e1 01bb 8465 03b9 ece0 af3a b1ad ecba
00000020: 588d aebb ee3c d63b 8425 a839 5ddb b43b
00000030: e8db cebb 1586 88bb b8fb e4bb 42bc 7dbb
00000040: 7c00 33bc c509 0cbc f7c0 4bb8 7c0c dd3b
00000050: f72b 723a 960c 92bb 74d2 e7bb 5a42 c3bb
00000060: 8dbd 9fb9 1364 85bb 50fb d13b 3fc5 663b
00000070: 6424 703b 9215 14bc e89d 9cbb d144 0c3c
00000080: 4f2e 7aba 7665 de39 472f cd3b ba9b aab5
00000090: 274a e93b 19c0 87bb 7714 7fbb 535b 88bc
000000a0: 59c3 07bb f7a0 76bb f747 9bbb fbc6 26bb
000000b0: 1ee1 9739 6093 803a 219a ecba ab2e b23b
000000c0: a1e5 2b3c 6b23 3cbb 2312 e83b 0176 ebb8
000000d0: 9ff1 dbbb 6d96 ae36 8a09 813b a240 d7bb
000000e0: 7cd9 6aba 4400 cbba 73cf 1bbb c165 cfbb
000000f0: 0146 6e3c 3d66 bcbb b5e1 ee3a b976 74bb
00000100: 8d95 8c3b fc94 0d3c c2ac 943a 4634 f9bb
00000110: 2d0d 463b de78 f6bb 2381 56bb b1c6 93ba
00000120: 999a 383b 68af 4f3b 42ea ccbb 88c2 ebbb
00000130: 4b74 813a 0039 c4bb f722 873c f276 19ba
00000140: 1d8e 003c e61c ba3a 56cb 55bb 1a12 963b
00000150: 2a26 adba 5859 1dbc 22b3 a23b 7101 ac3b
00000160: ab56 c4bb c9d9 0fbb 52ac 9abb eb7d 35bc
00000170: f4e6 9cba 2d07 b63a 162b 0d3c e2b3 4cbb
00000180: 34b1 b53b 1bbc 05bc 51fc 813a 2b4f ddbb
00000190: 8257 47bb e939 e33a 2a00 b03b ba21 cbbb
000001a0: ef99 103b 7f3d 6c3a fd57 cc3b a22b 61bc
000001b0: 421e 86ba 2776 4abb a537 11bc ae30 f3b9
000001c0: 67fc 8dba a2ca 9cbb e6a1 a13a 65af c33b
000001d0: 3f74 a63b c78b 02ba 9ded 02bc 932e 7b3b
000001e0: 9ed2 bcbb e597 62bb 7fc4 683c 4969 47bb
000001f0: 9b7a 8fbb cf4a 493c b255 5abb 09fd bc3b
00000200: c4cc 45bb 3fd6 c1bb d9b3 7cba 38fb 51bb
00000210: 24f5 e3bb a32c 06ba 5264 303b ff5a e639
00000220: 0f67 35ba a1c1 8c3a 7875 ddbb 40cb 823a
00000230: 3aa9 b6ba d6ce fb38 0f1a 7ebb 6e3e 9539
00000240: 1d86 0dbb aef9 bcba a520 88bb 0e5d 6538
00000250: 8e38 743a 5e1d 273b 3f8e f639 0b32 e3ba
00000260: adea 1bbb b4a2 85ba d1fc 01bb 1114 013b
00000270: e513 4abb e5a5 62bb 47bd 06bb ab56 bbb9
00000280: 8ce6 1e3a 1890 89ba 0e28 8b38 324e d5ba
00000290: 4a71 56b8 0f99 b9b9 a0a3 dfba 5f1b 0abc
000002a0: ef8f 9737 60d6 1a3a b30e 1ebb 704f a9b9
000002b0: e223 483b b018 42ba 4c4a 293b f48e b83a
000002c0: 7745 03bb 9275 edba 385f 35ba 75d2 913a
000002d0: b794 f9ba f8df 1cba 49a1 303b 6cd9 1bbb
000002e0: 6691 f1bb c0a3 41bb 149a 4639 00c0 73bb
000002f0: 1968 19bb 386d 2bbb dd72 c739 27bb d7bb
00000300: 24fb 72bb 71a6 d4bb e49a 9aba 7b5e 2abb
00000310: b2ca 5cbb 1c64 84bb a8ed 18ba 6b07 893a
00000320: a0e7 53ba e9f3 ebb9 dc60 0bbb 05b2 e2ba
00000330: f2c7 cbb9 e6d7 eaba 28ad bfbb 4de0 673a
00000340: 7432 4f3b 5ddb 7f3a 928d 763a 945e a0ba
00000350: c359 ecbb ef85 30bb dddb 89bb 6d4b b03a
00000360: 36c1 28ba 4b48 843a bda3 1dbb 2b51 71bb
00000370: 091e ee3a 0316 23b7 0fae 0b3b f257 813a
00000380: aef6 5fbb f5dc 06bb 4181 b7ba 890a 12bc
00000390: ae96 f5ba cfe3 10ba 1f3f 703b 77a6 6bbb
000003a0: 01e5 a0bb d765 363a 8a9d a839 8eb1 fcbb
000003b0: ffb0 933b 98e6 b4b9 abdd 94bb 483d e13a
000003c0: d872 c237 8620 01bb 734b 983a 81b6 133b
000003d0: b578 893a 392a 47bb d394 6bbb 403b c4bb
000003e0: 6dda 7dbb f925 a6ba 91b5 a93b 8316 bcb9
000003f0: 7dd3 3ebb 0526 68bb 6647 90b8 4aa8 6abb
0.0006843218 -0.0041647265 -0.004338163 -0.009361073 -0.0019818514 -0.00012530951 0.0013418472 -0.0018057135
-0.005326908 0.006538025 0.00032071408 0.005519314 -0.006312836 -0.0041663744 -0.006988015 -0.0038716947
-0.010925408 -0.008547251 -4.8578684e-05 0.006745873 0.00092381187 -0.0044570668 -0.0070746485 -0.0059588375
-0.0003046807 -0.0040707677 0.0064081326 0.0035212783 0.0036642784 -0.009038346 -0.004779566 0.008561329
-0.00095436437 0.00042418734 0.0062617394 -1.2711309e-06 0.0071194354 -0.004142773 -0.003892211 -0.01664511
-0.0020715802 -0.0037632564 -0.0047388035 -0.0025448191 0.0002896869 0.0009809546 -0.0018051305 0.005437692
0.0104917595 -0.0028707634 0.00708224 -0.00011227653 -0.006712153 5.203116e-06 0.0039379047 -0.006568984
-0.00089587993 -0.001548775 -0.0023774772 -0.0063292687 0.014543057 -0.0057494924 0.0018225225 -0.003730221
0.004290289 0.008641478 0.001134299 -0.0076051084 0.0030220256 -0.0075217327 -0.003273078 -0.0011274425
0.002816832 0.0031690244 -0.0062535116 -0.007194821 0.0009876577 -0.0059882402 0.016496165 -0.0005854211
0.007846382 0.0014199286 -0.0032622418 0.0045797946 -0.0013210226 -0.009603821 0.004965202 0.0052491953
-0.005991777 -0.0021949878 -0.004720249 -0.011077384 -0.0011970685 0.0013887637 0.0086162295 -0.0031235148
0.005544806 -0.008162524 0.0009917115 -0.0067538223 -0.003041715 0.0017335984 0.0053711133 -0.006199089
0.0022064408 0.0009011849 0.006236075 -0.013743313 -0.0010232406 -0.0030893178 -0.008863364 -0.0004638484
-0.0010832668 -0.004784898 0.0012331575 0.0059718364 0.0050797756 -0.0004979935 -0.007991222 0.003832732
-0.005762412 -0.00345754 0.014207005 -0.0030427745 -0.0043786294 0.012285902 -0.0033315239 0.005767469
-0.0030181864 -0.0059154327 -0.00096398365 -0.0032040607 -0.0069567133 -0.0005118346 0.0026915264 0.00043936816
-0.0006919959 0.0010738858 -0.006758388 0.0009978786 -0.0013935931 0.00012007139 -0.0038772856 0.00028466008
-0.002159483 -0.0014417672 -0.004154282 5.468452e-05 0.00093162886 0.0025499682 0.00047026758 -0.001733364
-0.0023791 -0.0010195584 -0.0019834528 0.0019695798 -0.0030834612 -0.0034583744 -0.0020559595 -0.00035731992
0.0006061576 -0.0010495214 6.635497e-05 -0.0016273914 -5.1127085e-05 -0.00035399987 -0.0017062314 -0.008429377
1.8067627e-05 0.0005906578 -0.0024117648 -0.00032293377 0.0030538966 -0.00074041914 0.0025831638 0.0014080689
-0.0020030418 -0.0018116704 -0.0006918791 0.0011125343 -0.0019041513 -0.00059843017 0.0026951602 -0.0023780717
-0.007372069 -0.0029547065 0.0001894015 -0.0037193298 -0.0023407994 -0.0026157629 0.00038041818 -0.0065835896
-0.003707596 -0.006489568 -0.0011795429 -0.0025996256 -0.0033690152 -0.0040402543 -0.00058337534 0.0010454481
-0.0008083526 -0.0004500442 -0.002126745 -0.0017295486 -0.00038868148 -0.0017917126 -0.0058494993 0.0008845374
0.0031615766 0.00097601657 0.0009405251 -0.0012235218 -0.007212849 -0.00269353 -0.004207118 0.0013450213
-0.0006437482 0.0010092346 -0.0024053894 -0.0036822062 0.001816691 -9.720682e-06 0.0021313464 0.0009868129
-0.0034174132 -0.0020578478 -0.0014000313 -0.008913645 -0.0018736923 -0.000552711 0.0036658717 -0.0035957375
-0.004910112 0.00069579243 0.00032160833 -0.007711596 0.0045071836 -0.0003450408 -0.0045430264 0.0017184401
2.318008e-05 -0.0019703223 0.0011619165 0.00225392 0.0010488244 -0.0030390157 -0.003594686 -0.0059885085
-0.0038734928 -0.0012676112 0.005179115 -0.00035874927 -0.0029117756 -0.0035423052 -6.879754e-05 -0.0035805875
