results/max-hiddenunits128-config1-1/3DBall/3DBall-399309.onnx (onnx, 29623 bytes, 4 tensors)

action_model._continuous_distribution.log_sigma f4 [1, 2]
000000 1c e8 09 be 05 cb 00 be
       -0.13467449 -0.12577446

action_model._continuous_distribution.mu.bias f4 [2]
000000 25 2d b7 bc c8 ff 8e bd
       -0.022360394 -0.0698238

network_body.processors.0.normalizer.running_mean f4 [8]
000000 1b 38 fc b8 3e fa 65 3b 19 02 8d 3d f6 b2 44 40
       -0.00012026747 0.0035091783 0.06885166 3.073423
000010 42 d4 95 be b9 d8 ad bb b0 f0 aa be 82 19 2c 3c
       -0.29263502 -0.0053053764 -0.33386755 0.010504128

sqrt f4 [8]
000000 50 05 5f 3d 49 a7 58 3d d0 30 30 3f 6f 50 59 3e
       0.054448426 0.05289391 0.6882448 0.21222089
000010 3b ee 2d 3f 33 93 0b 3f 1e 08 34 3f 51 9f 07 3f
       0.67941636 0.54521483 0.70324886 0.5297747
