results/max-hiddenunits128-config1-1/3DBall/3DBall-449309.onnx (onnx, 29623 bytes, 4 tensors)

action_model._continuous_distribution.log_sigma f4 [1, 2]
0	0xbe0b320a	-0.13593307
1	0xbdf8fe1a	-0.12157841

action_model._continuous_distribution.mu.bias f4 [2]
0	0xbcb0e7d2	-0.021594916
1	0xbd8fc8c9	-0.070207186

network_body.processors.0.normalizer.running_mean f4 [8]
0	0x383dcd0e	4.5252084e-05
1	0x3b5bd692	0.0033544642
2	0x3dbd9fd2	0.09258999
3	0x4044868c	3.070712
4	0xbe9bfc9a	-0.30466157
5	0xbb80011d	-0.0039063827
6	0xbea1acdd	-0.31577197
7	0x3c081d72	0.008307802

sqrt f4 [8]
0	0x3d59d5f2	0.05318255
1	0x3d53d5b8	0.05171749
2	0x3f296f39	0.6618534
3	0x3e4eed5f	0.20207737
4	0x3f266100	0.6499176
5	0x3f058211	0.5215159
6	0x3f2cb5a7	0.6746468
7	0x3f01a213	0.5063793
