results/max-hiddenunits128-config1-1/3DBall/checkpoint.pt (torch, 49973 bytes, 32 tensors)

network_body.observation_encoder.processors.0.normalizer.running_mean f4 [8]
0	0x393080b0	0.00016832608
1	0x3b5418d5	0.0032363434
2	0x3de3bf4d	0.11120472
3	0x404463a7	3.0685823
4	0xbea1a278	-0.31569266
5	0xbb3d2473	-0.0028860837
6	0xbe9a413b	-0.30127892
7	0x3bd88e24	0.0066087414

network_body.observation_encoder.processors.0.normalizer.running_variance f4 [8]
0	0x44aa24d6	1361.1511
1	0x44a11f5f	1288.9803
2	0x4846fedf	203771.48
3	0x469228aa	18708.332
4	0x483f2e87	195770.11
5	0x47f5c0e3	125825.77
6	0x484e7b11	211436.27
7	0x47e77b22	118518.266

network_body.processors.0.normalizer.running_mean f4 [8]
0	0x393080b0	0.00016832608
1	0x3b5418d5	0.0032363434
2	0x3de3bf4d	0.11120472
3	0x404463a7	3.0685823
4	0xbea1a278	-0.31569266
5	0xbb3d2473	-0.0028860837
6	0xbe9a413b	-0.30127892
7	0x3bd88e24	0.0066087414

network_body.processors.0.normalizer.running_variance f4 [8]
0	0x44aa24d6	1361.1511
1	0x44a11f5f	1288.9803
2	0x4846fedf	203771.48
3	0x469228aa	18708.332
4	0x483f2e87	195770.11
5	0x47f5c0e3	125825.77
6	0x484e7b11	211436.27
7	0x47e77b22	118518.266

network_body._body_endoder.seq_layers.0.weight f4 [128, 8]
0	0xbee0ffe9	-0.43945244
1	0xbe0603b1	-0.13087346
2	0x3bb67d8a	0.0055691646
3	0xbdc9da55	-0.09856097
4	0xbecc1769	-0.3986161
5	0xbf3d0a57	-0.738439
6	0xbea6eade	-0.32601064
7	0x3d57c912	0.05268199
8	0xbf8689fd	-1.0510861
9	0x3e709eab	0.23498027
10	0x3eabee18	0.3358009
11	0xbe89800c	-0.26855505
12	0xbe67c128	-0.22632277
13	0xbf00012d	-0.50001794
14	0x3eb1541b	0.3463448
15	0xbf03e723	-0.5152456
16	0xbe994d89	-0.29941967
17	0xbebbaefa	-0.36656934
18	0xbd759846	-0.059959672
19	0x3ea4e513	0.3220602
20	0xbe76d969	-0.24106373
21	0x3c94dcb1	0.01817164
22	0x3d7cacad	0.061688114
23	0xbe785c91	-0.24254061
24	0x3ede5ffe	0.4343261
25	0xbf089322	-0.53349507
26	0xbd202af2	-0.039103456
27	0xbca9a6a9	-0.020709353
28	0xbe0c75d4	-0.13716823
29	0xbbbd8025	-0.0057830983
30	0xbd646a10	-0.05576521
31	0x3e06922c	0.13141698
32	0xbee7435e	-0.45168585
33	0xbd062feb	-0.032760542
34	0xbf243c23	-0.6415426
35	0x3d59c19c	0.053163156
36	0xbeb45588	-0.35221505
37	0x3ec864c7	0.39139387
38	0x3cb5c488	0.02218844
39	0xbd5a7382	-0.053332813
40	0xbe8f75dc	-0.28019607
41	0x3e305dc3	0.17223267
42	0x3e196feb	0.149841
43	0x3f07b5a5	0.5301154
44	0xbc624c31	-0.013812111
45	0x3f769a8d	0.96329576
46	0xbf776037	-0.9663119
47	0xbea1c19d	-0.31593028
48	0xbd0626b9	-0.032751773
49	0x3e2c33a0	0.16816568
50	0xbd5dbc75	-0.054134805
51	0x3e8ef0ef	0.27918193
52	0x3f25eb87	0.6481251
53	0x3e710fab	0.23541133
54	0xbe820a44	-0.25398457
55	0x3e992cc6	0.29916972
56	0x3e61d94f	0.22055553
57	0xbd720961	-0.059090976
58	0xbded2a94	-0.11580387
59	0xbe12c1ef	-0.14331792
60	0x3e9d81b4	0.30763018
61	0xbdd1ade2	-0.10238244
62	0xbb2895dd	-0.002572409
63	0x3e188a2a	0.14896455
64	0xbe6a7c13	-0.22898893
65	0xbf2e939f	-0.68194
66	0xbed6524b	-0.4185966
67	0xbf3dd26f	-0.7414922
68	0x3de33777	0.110945635
69	0x3e0f9bec	0.14024323
70	0x3d80c832	0.06288184
71	0xbe0d9268	-0.13825381
72	0xbd9f15a0	-0.077677965
73	0x3eb772b0	0.35829687
74	0xbda39840	-0.07988024
75	0x3ea0e17d	0.31422034
76	0x3ea44553	0.3208414
77	0xbec53e80	-0.38524246
78	0xbeb7f988	-0.35932565
79	0x3e1a36a3	0.15059905
80	0xbf015df5	-0.5053399
81	0x3e81e867	0.2537262
82	0xbeaa76fd	-0.33293906
83	0xbe252939	-0.16129006
84	0xbdc31077	-0.09524625
85	0x3dbae3b6	0.09125464
86	0xbe15d5b4	-0.14632303
87	0xbd1d80aa	-0.03845278
88	0x3f2aa999	0.66665035
89	0x3f6c9c26	0.92425764
90	0xbdf2d5ed	-0.11857209
91	0xbf2a8650	-0.66611195
92	0x3ec9b359	0.39394644
93	0x3ec5f48f	0.38663146
94	0xbd36ec7e	-0.04465913
95	0xbf616a37	-0.88052696
96	0x3ea226cb	0.31670222
97	0xbed14ed1	-0.40880445
98	0xbf442c8a	-0.7663046
99	0xbd7845fe	-0.060613625
100	0xbf1a1106	-0.60182226
101	0xbe311570	-0.17293334
102	0x3ed6290b	0.41828188
103	0xbded822c	-0.11597094
104	0xbe2a0421	-0.16603138
105	0xbe1afec6	-0.15136251
106	0x3d9a2a98	0.07527655
107	0x3c6e2c6d	0.014536959
108	0x3ed35603	0.4127656
109	0x3e5690da	0.20953694
110	0x3ea081c8	0.31349015
111	0xbea422cc	-0.32057798
112	0x3f4d5036	0.8020052
113	0xbddc58a4	-0.10759094
114	0xbf5151ed	-0.81765634
115	0xbe9fae10	-0.31187487
116	0x3b69878c	0.003563377
117	0xbea2a872	-0.3176914
118	0x3dc4ee7a	0.09615798
119	0x3e303036	0.17205891
120	0xbe13c123	-0.14429145
121	0xbeaa5d62	-0.3327437
122	0xbc0f1dad	-0.008735103
123	0xbc7f48eb	-0.01558135
124	0xbe2874a4	-0.16450745
125	0x3dc3ea31	0.09566153
126	0x3e4b973b	0.19881909
127	0xbea3b4fc	-0.31974018
128	0x3e733d3d	0.2375383
129	0xbf542796	-0.82872903
130	0x3d69f738	0.05712053
131	0x3f1ca520	0.6118946
132	0xbed1d45b	-0.40982327
133	0x3ebe8c8b	0.372166
134	0xbcf0e81c	-0.029407553
135	0xbef2dcb7	-0.47434017
136	0xbeb8946a	-0.3605073
137	0xbf2c41f8	-0.6728816
138	0x3eac8816	0.33697575
139	0x3dfd8aee	0.12380014
140	0xbd4249a6	-0.047433518
141	0x3d05e7b7	0.032691684
142	0x3e2ad1a3	0.16681533
143	0xbed8c1fd	-0.423355
144	0xbee74f3f	-0.45177647
145	0x3e5fd947	0.21860228
146	0xbee8b3b6	-0.4544961
147	0xbdad4ef6	-0.08462326
148	0x3d91be5c	0.07116386
149	0xbd4a5729	-0.04939953
150	0xbf001bd0	-0.5004244
151	0xbc8d3b5c	-0.017240219
152	0x3e7294cf	0.23689578
153	0x3e8b869a	0.2725113
154	0x3efa1a85	0.48848358
155	0x3dd3034f	0.103033654
156	0xbca36869	-0.019947248
157	0xbe045ab2	-0.12925223
158	0x3f00f078	0.50366926
159	0x3f118487	0.56842846
160	0x3e1016b5	0.14071162
161	0x3d5e9cab	0.05434863
162	0xbe3d7a79	-0.18503751
163	0x3e85e8df	0.2615423
164	0x3d70cb98	0.058787912
165	0xbeb3c5a6	-0.3511173
166	0xbee1af8a	-0.44079238
167	0xbe279225	-0.16364343
168	0xbc834a3b	-0.016026607
169	0xbf048655	-0.51767474
170	0xbd648c9c	-0.055798158
171	0xbbcec6dd	-0.0063103274
172	0xbd951480	-0.07279301
173	0x3f0af950	0.5428667
174	0xbf40b113	-0.75270194
175	0xbe295308	-0.1653558
176	0x3ed9fd0f	0.4257588
177	0xbee2a2e8	-0.44264913
178	0xbe99e92a	-0.30060703
179	0xbdf80837	-0.12110942
180	0xbea2dc04	-0.31808484
181	0x3e9e0c4f	0.30868766
182	0x3ee2cffd	0.44299307
183	0xbe8c70ba	-0.27429754
184	0xbee00fcf	-0.4376206
185	0xbed7b967	-0.42133638
186	0xbf120823	-0.57043666
187	0x3edc808f	0.43066832
188	0x3e27d791	0.16390826
189	0x3eb009bb	0.34382424
190	0xbdfcad85	-0.12337784
191	0xbe9a6c91	-0.30160955
192	0x3f1314d7	0.57453674
193	0x3debf10b	0.11520585
194	0xbc524a27	-0.012835062
195	0x3e14838e	0.14503309
196	0x3f128a97	0.5724272
197	0xbee799ce	-0.4523453
198	0xbd357a31	-0.044305984
199	0xbbbbb1c0	-0.0057279766
200	0xbe32d464	-0.17463833
201	0xbe996b8d	-0.29964867
202	0x3e9f7845	0.31146446
203	0x3d8d85d3	0.069102906
204	0xbf09b32a	-0.5378901
205	0x3ef0cb17	0.47029945
206	0x3ea12c6a	0.31479198
207	0x3e4f4016	0.2023929
208	0xbebe571d	-0.37175837
209	0x3f05de2e	0.52292144
210	0x3e225ff7	0.1585692
211	0xbd9e4843	-0.077286266
212	0xbe3e67d5	-0.18594296
213	0x3e84f12c	0.2596525
214	0x3ebdb2d4	0.37050498
215	0xbeae9181	-0.34095386
216	0x3f001510	0.5003214
217	0x3ee8d931	0.45478204
218	0x3f22e961	0.6363736
219	0xbf4284f3	-0.75984114
220	0xbf1a5985	-0.60292846
221	0x3f1bee12	0.6091014
222	0x3eaa5bf8	0.33273292
223	0xbd9ad67d	-0.07560442
224	0xbeb38b3d	-0.35067168
225	0x3e366811	0.17813136
226	0x3e761464	0.24031216
227	0x3f0a4eb2	0.5402633
228	0xbed24f4d	-0.41076127
229	0x3f0edeab	0.55808514
230	0x3f0ae38c	0.5425346
231	0x3e350714	0.17678481
232	0xbf23b007	-0.6394047
233	0xbd1a8972	-0.037728734
234	0x3e9f15a0	0.31071186
235	0xbdd60a89	-0.10451228
236	0x3f3b9185	0.7326892
237	0x3b5c1b9e	0.0033585797
238	0x3f361ef2	0.7114097
239	0x3e043aae	0.1291301
240	0x3e29f83c	0.165986
241	0xbe8f0068	-0.27929997
242	0xbe9abe4d	-0.30223313
243	0x3f236b81	0.6383591
244	0xbe8a3c44	-0.26999104
245	0xbdb18a4b	-0.086689554
246	0xbdb33d63	-0.08751943
247	0x3e885c21	0.2663279
248	0x3eb3a961	0.35090163
249	0x3ef6d894	0.4821211
250	0x3d987f9e	0.07446216
251	0x3d55b25a	0.052172042
252	0x3ea8792b	0.32904944
253	0xbe4e7ea7	-0.20165502
254	0x3e5f4302	0.21802905
255	0x3eef7523	0.46769056

network_body._body_endoder.seq_layers.0.bias f4 [128]
0	0xbc720f3c	-0.01477414
1	0xbc555432	-0.013020562
2	0xbd14f251	-0.036363903
3	0x3d263aa8	0.040583283
4	0xbd10523f	-0.035234686
5	0x3d0a661c	0.033788785
6	0x3ce48394	0.027894773
7	0xbd9acb0d	-0.0755826
8	0xbce6408a	-0.028106946
9	0xbd4fdfa1	-0.05075038
10	0xbc1e5b07	-0.009665257
11	0xbda48316	-0.08032815
12	0xbc552241	-0.013008655
13	0xbc97eacf	-0.018544583
14	0x3c5d2066	0.013496494
15	0xbd3a966d	-0.045553613
16	0x3c87f92f	0.016598312
17	0xbc841bfc	-0.016126625
18	0xbd871342	-0.0659547
19	0x3da6c49e	0.081429705
20	0x3cde3dcb	0.027129075
21	0xbd3b5da0	-0.045743585
22	0xbd4111e7	-0.047136214
23	0xbd84739b	-0.064673625
24	0x3dd47e2c	0.10375628
25	0xbd277afa	-0.040888764
26	0x3d08b125	0.033372063
27	0xbd911417	-0.0708391
28	0x3d2de588	0.042455226
29	0x3de19bcc	0.11016044
30	0x3c808180	0.01568675
31	0x3d29f358	0.041491836
32	0xbcb233bf	-0.02175319
33	0x3dabaa5b	0.08382102
34	0xbad0f4c2	-0.0015942084
35	0x3d55fc1d	0.052242387
36	0xbd3482eb	-0.044070166
37	0x3cec232f	0.02882537
38	0x3d1aa734	0.037757114
39	0x3d510a4e	0.051035218
40	0x3be22284	0.0069010872
41	0xbcea21a8	-0.028580502
42	0x3d242ebd	0.040083636
43	0x3c8e17fd	0.017345423
44	0xbdb4e5eb	-0.08832916
45	0x3dc52480	0.096261024
46	0x3d4f639f	0.050632115
47	0xbd9ca7db	-0.076492034
48	0x3de2969b	0.11063882
49	0x3d20b8b5	0.03923865
50	0x3d995ced	0.07488427
51	0x3d6cb7d9	0.05779252
52	0x3cdbe804	0.026844032
53	0xbda3c9e4	-0.07997492
54	0x3d103638	0.035207957
55	0xbc22f426	-0.009945905
56	0xbcaa8e17	-0.020819707
57	0xbc5403be	-0.012940345
58	0x3b662c79	0.0035121723
59	0x3da6a791	0.081374295
60	0x3de2cb1b	0.110738955
61	0x3c0e7445	0.008694713
62	0x3d98ec67	0.07466965
63	0x3d08e797	0.033423986
64	0x3dd335c2	0.10312988
65	0x3d666bff	0.056255337
66	0xbcbc44a4	-0.02298195
67	0xbcc96e21	-0.024588646
68	0x3dcd0eed	0.100126125
69	0x3cc89884	0.024486788
70	0x3d798c92	0.060925074
71	0xbd7c1421	-0.061542634
72	0xbe38fe77	-0.1806582
73	0xbb633535	-0.0034669165
74	0xbc66d204	-0.014088158
75	0x3d229bc6	0.03969934
76	0x3d1e511f	0.03865158
77	0x3bad4e3c	0.0052888673
78	0x3d83051a	0.063974574
79	0x3be8aaaa	0.007100423
80	0xbcdcd6d0	-0.0269579
81	0xbc034a4c	-0.008013319
82	0x3d1f3182	0.038865574
83	0x3d19bafa	0.03753183
84	0x3d3eaa7d	0.04654931
85	0x3d38d500	0.045125008
86	0xbc4b1b55	-0.012396653
87	0xbd884820	-0.06654382
88	0x3d387a97	0.045038786
89	0x3c4e6d4e	0.012599302
90	0x3b8b3c6e	0.004249147
91	0x3dbb5fab	0.091491066
92	0xbcc5db4c	-0.02415242
93	0xbd6e938f	-0.05824619
94	0xbca725a3	-0.020403689
95	0xbc7435db	-0.014905418
96	0x3d9e84b4	0.07740155
97	0xbcc7e7f8	-0.024402604
98	0x3d860717	0.06544321
99	0xbc5d0272	-0.013489353
100	0x3c4a3317	0.012341282
101	0xbdb112c6	-0.08646159
102	0xbd3cfe70	-0.046141088
103	0x3cf4d2d7	0.029885693
104	0x3dc1613f	0.09442376
105	0x3c40df63	0.01177201
106	0xbdb15fc0	-0.08660841
107	0xbce5533e	-0.027993795
108	0xbd1dfbf1	-0.03857035
109	0x3d4a289e	0.04935514
110	0x3dc17031	0.09445227
111	0xbc93c181	-0.018036606
112	0xbc46b781	-0.012128712
113	0x3cc24046	0.023712289
114	0x3d32531d	0.043536294
115	0xbd2f24ad	-0.042759586
116	0xbd140aec	-0.03614323
117	0xbcb58817	-0.02215962
118	0xbd9fa1d7	-0.077945404
119	0xbc9deaf2	-0.01927707
120	0x3d8fdbd0	0.07024348
121	0xbb566d26	-0.0032718866
122	0xbcc6de05	-0.024275789
123	0xbcee4480	-0.029085398
124	0x3d873bb0	0.06603181
125	0x3c76641b	0.015038515
126	0x3d1ad8d1	0.03780443
127	0x3d86ab0e	0.06575595

action_model._continuous_distribution.log_sigma f4 [1, 2]
0	0xbe0bbc8b	-0.13646142
1	0xbdf3e65b	-0.11909171

action_model._continuous_distribution.mu.weight f4 [2, 128]
0	0xbc139c99	-0.009009504
1	0x3c2b6356	0.010460695
2	0x3d53ba17	0.05169114
3	0xbcc87b58	-0.024472877
4	0x3d3934e5	0.04521646
5	0x3d04c8cc	0.032418057
6	0xbc398b76	-0.011324754
7	0x3ba96233	0.005169177
8	0xbb9d9c58	-0.0048098974
9	0x3c9d3c28	0.019193724
10	0xbba65613	-0.005076179
11	0x3c77637a	0.015099401
12	0xbc85f5e3	-0.0163526
13	0x3d1ff3e0	0.039050937
14	0xbd5e8974	-0.054330304
15	0x3c76e363	0.015068862
16	0xbc22b58a	-0.009930978
17	0x3c8a449f	0.016878424
18	0xb88899f8	-6.513664e-05
19	0x3c088e3b	0.008334692
20	0xbc7224bb	-0.014779265
21	0xbbd34a41	-0.0064480607
22	0x3b92ea0b	0.0044834665
23	0x3cd4a2c7	0.025956525
24	0xbd19c5cc	-0.03754215
25	0x3d64b563	0.055837046
26	0x3cf75c3c	0.030195348
27	0x3ccebd3f	0.025236724
28	0x3dae26bf	0.08503484
29	0x3ca106f1	0.01965663
30	0xbd7d70e9	-0.061875258
31	0xbc62f32c	-0.013851922
32	0x3d5ebd0f	0.05437952
33	0xbd8af5d7	-0.067851715
34	0x3d370113	0.04467876
35	0x3bace8f6	0.0052767945
36	0x3cddf48b	0.027094146
37	0x3c6a5f6b	0.014304976
38	0xbd650f96	-0.055923067
39	0xbd4fce08	-0.050733596
40	0x3da66757	0.08125179
41	0xbd10af6d	-0.03532355
42	0xbd55d64d	-0.052206326
43	0x3cabfd54	0.02099482
44	0xbd040c49	-0.03223828
45	0x3b59804c	0.0033188043
46	0xbc1fabb6	-0.009745529
47	0x3ca3c0dd	0.019989425
48	0xbd38c588	-0.045110255
49	0xbd68eb9e	-0.056865327
50	0xbd25cb1f	-0.040476914
51	0x3c9e4adf	0.01932281
52	0x3db85ec2	0.090024486
53	0xbbd5ef7e	-0.006528794
54	0x3d1f8e5b	0.03895412
55	0x3ce6a8b2	0.028156612
56	0xbd0c6244	-0.0342734
57	0x3d420384	0.047366634
58	0x3d01671e	0.03159248
59	0xbd8ffa8f	-0.07030212
60	0xbd87736b	-0.06613811
61	0xbd12015a	-0.03564582
62	0x3ced48d1	0.028965386
63	0x3ca8cae2	0.020604555
64	0xbd168ea5	-0.03675713
65	0xbdad36a3	-0.08457687
66	0xbcf8a5b1	-0.030352445
67	0xbc5cf4e5	-0.013486122
68	0xbcdb8cc7	-0.026800526
69	0xbd5d18ad	-0.05397861
70	0x3b5571f6	0.0032569147
71	0xbc8da312	-0.017289672
72	0xbc3f71a1	-0.011684806
73	0xbcd89502	-0.02643824
74	0x3bd8337e	0.006597935
75	0xbc50b6d8	-0.012738906
76	0xbd843c3c	-0.06456801
77	0x3cdec670	0.027194232
78	0xbdae769e	-0.08518718
79	0xbc9c446e	-0.019075599
80	0x3d14c1bc	0.036317572
81	0xbd35e786	-0.04441025
82	0x3b2a3585	0.0025971842
83	0x3de77cf5	0.113031305
84	0x3d9053c2	0.070472255
85	0xbcec5f18	-0.028853938
86	0x3c89b710	0.016810924
87	0x3d0bef82	0.03416396
88	0x3d5b6c96	0.053570352
89	0x3ce8fc9d	0.028440768
90	0x3cfa7aa9	0.030576067
91	0x3d36e7c7	0.044654634
92	0xbb6d9414	-0.0036251592
93	0x3ced12b3	0.02893958
94	0x3b2066a1	0.0024475234
95	0x3d3dcaf8	0.046336144
96	0xbdc7e823	-0.097610734
97	0x3c88f068	0.016716197
98	0xbcded800	-0.027202606
99	0x3d68ef83	0.05686904
100	0xbcc06284	-0.023484476
101	0x3d4d8019	0.05017099
102	0x3ceacc86	0.028661977
103	0xbd36efab	-0.04466216
104	0xbc9c6c6a	-0.019094665
105	0x3cee1205	0.029061327
106	0x3a456d2c	0.00075312215
107	0xbb9e0962	-0.004822896
108	0x3c9905b0	0.01867947
109	0xbcfcf755	-0.030879656
110	0xbcfb70a2	-0.030693356
111	0x3d0eef39	0.03489611
112	0x3ca0b9c2	0.019619826
113	0xbd42d772	-0.047568746
114	0x3bc6aee4	0.006063329
115	0xbd0eb5be	-0.03484129
116	0x3d471775	0.048606355
117	0x3d0cb37a	0.03435085
118	0x3cf4736d	0.029840196
119	0x3d8f0b40	0.06984568
120	0xbce4a3c9	-0.02791013
121	0x3c5d7729	0.0135171795
122	0x3c1e201f	0.009651213
123	0x3d1b9fef	0.03799432
124	0xbd9b0089	-0.075684614
125	0xbce850bb	-0.028358808
126	0xbccef688	-0.02526404
127	0xbd1d41c4	-0.038392797
128	0x3d6bf80a	0.057609595
129	0x3d2b6b4e	0.04185038
130	0x3de08c54	0.109642655
131	0xbad229da	-0.0016034201
132	0x3c52f350	0.012875393
133	0xbc82ed9d	-0.015982443
134	0xbd172afe	-0.036906235
135	0xbbe7f63e	-0.007078915
136	0xbb96f643	-0.0046069934
137	0xbbe23ff2	-0.0069045955
138	0xba6cdbda	-0.0009035446
139	0xbc2291fa	-0.009922499
140	0x3d8beedf	0.068326704
141	0x3c3570a8	0.011074223
142	0x3c1038f6	0.008802643
143	0x3dfb7a4c	0.12279186
144	0x3ddacfbe	0.10684155
145	0x3df9e8b3	0.12202587
146	0x3c826280	0.01591611
147	0xbd85655f	-0.065134756
148	0x3b856bf7	0.0040717083
149	0x3d1828f2	0.037148423
150	0x3d760c88	0.060070544
151	0x3d06885b	0.032844882
152	0xbcf8978b	-0.030345699
153	0x3c974e4e	0.018469956
154	0xbcbdb892	-0.023159299
155	0x3c30cc5c	0.010790911
156	0xbcfbebd1	-0.030752094
157	0xbd401a88	-0.046900302
158	0x3d15493c	0.036446795
159	0xbd22bfc4	-0.039733663
160	0x3cdf0169	0.027222352
161	0xbc928ef0	-0.017890424
162	0x3d2de06f	0.042450365
163	0xbd440240	-0.04785371
164	0xbbbb91ce	-0.0057241684
165	0xbd0696a9	-0.032858524
166	0x3d85c179	0.065310426
167	0x3db9d10b	0.09073075
168	0xbcbc928a	-0.023019094
169	0x3ca3508f	0.019935874
170	0xbbc00c05	-0.005860808
171	0xbd5946da	-0.053046085
172	0x3c167274	0.009182561
173	0xbdb72d94	-0.0894424
174	0xbca92c39	-0.02065097
175	0xbc0b0cae	-0.00848691
176	0xbd88a259	-0.0667159
177	0x3cece49b	0.028917601
178	0xbda77957	-0.081774406
179	0xbc7bf8a1	-0.015379102
180	0x3d1821bf	0.037141558
181	0x3ce50c33	0.027959919
182	0xbcfb1bbd	-0.030652875
183	0x3ccdb130	0.025108904
184	0x3ca12799	0.019672202
185	0xbc82ca69	-0.015965657
186	0xbd09d8a0	-0.033653855
187	0xbc81568e	-0.015788343
188	0xbd5b5c4f	-0.05355483
189	0x3c76a1ba	0.015053207
190	0xbd80b4ee	-0.062845096
191	0xbcb0cb6c	-0.021581374
192	0xbd043749	-0.032279287
193	0xbd3764b9	-0.04477379
194	0xbcf2efe3	-0.029655403
195	0x3c6fea46	0.0146432575
196	0xbd9c0373	-0.076178454
197	0x3cb4b075	0.022056798
198	0xbcf7a640	-0.030230641
199	0x3d83ff58	0.06445187
200	0x3b336f80	0.0027379692
201	0x3c424923	0.011858257
202	0x3b9db234	0.0048125032
203	0xbc42f8a9	-0.0119001055
204	0x3cb23bc0	0.021757007
205	0x3d1c974c	0.038230225
206	0xbcfa22b9	-0.030534135
207	0x3bf65c7e	0.00751835
208	0xbd0a6444	-0.033787027
209	0x3ca66d5e	0.020315822
210	0xbcc9b681	-0.024623157
211	0xbc88f757	-0.016719503
212	0xbbf395e4	-0.00743364
213	0x3dc52338	0.09625858
214	0x3d3d6bcc	0.04624538
215	0x3c92f0f2	0.017937157
216	0xbc9a59c1	-0.018841626
217	0x3d33a116	0.043854795
218	0xbcb5a1f8	-0.02217196
219	0xbd6761bd	-0.056489695
220	0x3b9d3b8c	0.0047983583
221	0x3d82ea4c	0.06392345
222	0xbc95552b	-0.018229088
223	0xbce061c6	-0.027390372
224	0xbd0a4ada	-0.03376279
225	0x3dd9cac5	0.10634378
226	0xbc3204d0	-0.010865405
227	0xbc0258a9	-0.007955709
228	0x3d69024d	0.05688696
229	0xbc81b64b	-0.015833994
230	0x3bbbfa09	0.0057365936
231	0xb92d5d0f	-0.00016533233
232	0xbd860b9f	-0.06545185
233	0x3c7bc366	0.015366411
234	0x3d27863c	0.0408995
235	0x3d9edc8e	0.07756911
236	0x3be5087e	0.0069895377
237	0x3d37d5a7	0.04488149
238	0xbd4a0272	-0.04931874
239	0x3c239bfc	0.00998592
240	0x3ca9b4da	0.02071612
241	0xbc62a36f	-0.013832911
242	0xbcd83c39	-0.026395904
243	0x3ceb01d4	0.028687395
244	0x3cc75d65	0.024336526
245	0xbc166f15	-0.009181757
246	0xbc4141ab	-0.011795442
247	0x3c3cc932	0.011522578
248	0xbc11a77e	-0.008890031
249	0x3d6ce507	0.057835605
250	0xbb411f2c	-0.0029468043
251	0xbbd21337	-0.006410982
252	0x3d5fd8a9	0.054649983
253	0xbcbd9831	-0.02314386
254	0xbcfdc546	-0.030977856
255	0xbd2542aa	-0.04034678

action_model._continuous_distribution.mu.bias f4 [2]
0	0xbcb584ca	-0.022158045
1	0xbd919453	-0.07108369

exp_avg f4 [128, 8]
0	0x399d5c0b	0.0003001395
1	0xba2c79ed	-0.00065794477
2	0x390d70e3	0.00013488861
3	0x397620df	0.00023472634
4	0x3a127cd0	0.00055880565
5	0x38c1d3ce	9.242409e-05
6	0xbb07467c	-0.0020641377
7	0x383c117b	4.4838973e-05
8	0x3a6e3049	0.00090861745
9	0xba3a991e	-0.0007118153
10	0x39815de4	0.0002467475
11	0xb8696cc6	-5.5652832e-05
12	0x39b21174	0.0003396381
13	0xb8af50d9	-8.359709e-05
14	0xb8e5dd82	-0.0001096083
15	0x38d858d0	0.00010316225
16	0x3b01b928	0.00197942
17	0xba86beff	-0.001028031
18	0x3b0d7f4d	0.002159077
19	0xb7dfbb78	-2.6670969e-05
20	0x3b0187da	0.0019764812
21	0xb97fb038	-0.00024384342
22	0xba3c4a95	-0.00071827444
23	0x39e7a4cf	0.00044182545
24	0xb9cf771a	-0.00039570854
25	0xb8d5b691	-0.00010190637
26	0xba0a5fb7	-0.0005278545
27	0xb807651b	-3.228067e-05
28	0xb9c2b795	-0.00037139343
29	0x38ca9ed0	9.661692e-05
30	0xba470698	-0.000759223
31	0xb98e9d2f	-0.00027201461
32	0x3a68156b	0.0008853289
33	0xb7c9e2d9	-2.4066701e-05
34	0x3a90bde8	0.0011042925
35	0xb8997902	-7.318148e-05
36	0x3a918a48	0.0011103833
37	0xb81c785f	-3.7305403e-05
38	0x3ac04d15	0.001467141
39	0x3912ddbb	0.00014006246
40	0x39e47be9	0.0004357987
41	0x39668c93	0.00021986877
42	0x394b6790	0.00019398169
43	0x3909570c	0.00013097766
44	0x3982e2d6	0.00024964538
45	0x38bb3014	8.92581e-05
46	0x3afb061d	0.0019151602
47	0x38d098b8	9.946659e-05
48	0xba44ff17	-0.0007514818
49	0x3a456e48	0.0007531387
50	0xb958ea1f	-0.00020686582
51	0xb96fc756	-0.00022867075
52	0x382adcdf	4.073686e-05
53	0x39b0f0b0	0.00033748662
54	0x3a0c18bb	0.00053442613
55	0x39785786	0.00023683728
56	0x37e6768f	2.7473345e-05
57	0x387c7ff0	6.0200633e-05
58	0xb7093164	-8.177336e-06
59	0xb6372bee	-2.7294695e-06
60	0xb71d5493	-9.377621e-06
61	0x37866d17	1.6024844e-05
62	0x391a41a1	0.00014711033
63	0x389261fb	6.980073e-05
64	0xb90b97c6	-0.00013312613
65	0xb77aaf8d	-1.4942035e-05
66	0xb8ffaff5	-0.00012192122
67	0xb7f9417d	-2.9713608e-05
68	0xb8b1bd4d	-8.475278e-05
69	0x378ab353	1.6534386e-05
70	0xb896b028	-7.185369e-05
71	0xb8260ecc	-3.9591265e-05
72	0x3997b67b	0.00028936923
73	0xb86ebb93	-5.6918314e-05
74	0x3931e43d	0.00016965061
75	0xb838ad97	-4.4030687e-05
76	0x388c5011	6.690634e-05
77	0x3554b969	7.924596e-07
78	0x3a8dd2d7	0.0010820281
79	0x38b0ef9d	8.4369654e-05
80	0xb903bb34	-0.00012562872
81	0x3800bc62	3.0693023e-05
82	0xb8b02c2f	-8.400564e-05
83	0xb60139d7	-1.9256165e-06
84	0xb8a64215	-7.9278056e-05
85	0x378bfec3	1.6688724e-05
86	0xb9407739	-0.00018354961
87	0xb6b2eca9	-5.3323643e-06
88	0x392e816b	0.00016642145
89	0x37e889ff	2.7720815e-05
90	0xb8c1902c	-9.229811e-05
91	0x38ea1d5c	0.00011163458
92	0xb8d44ef6	-0.000101236554
93	0xb6c56177	-5.882404e-06
94	0x3904d1ce	0.0001266666
95	0xb6d879df	-6.4514893e-06
96	0x39592fe1	0.00020712569
97	0xba0ba87a	-0.0005327534
98	0x3a268eb7	0.00063536636
99	0xb9fcd4e4	-0.000482238
100	0x3a403c77	0.0007333229
101	0x395c263a	0.00020995075
102	0xb91031e5	-0.00013751497
103	0x38a90501	8.05948e-05
104	0x3a680a18	0.0008851602
105	0xb91e45e2	-0.00015094088
106	0xb91dff81	-0.0001506787
107	0x39a73751	0.00031893936
108	0xb8f2504a	-0.00011554414
109	0xb8bcbc5a	-8.999622e-05
110	0xb69fd50a	-4.7633703e-06
111	0x39af5d8f	0.00033448308
112	0xba2e62b0	-0.0006652279
113	0xb92cc55d	-0.00016476722
114	0xbaa36dc0	-0.0012468621
115	0x38c3a864	9.32969e-05
116	0xba8dc2eb	-0.0010815536
117	0x39151484	0.0001421739
118	0xbaba5339	-0.0014215476
119	0xb9ba1b62	-0.00035497086
120	0x3ab2a8f1	0.0013630671
121	0xba9d9897	-0.0012023625
122	0x3ab2e6c4	0.0013649096
123	0xb9785aa1	-0.00023684885
124	0x3ab9681a	0.0014145405
125	0x3874a83d	5.8330817e-05
126	0xb9dcc481	-0.00042108077
127	0x39b02507	0.00033596923
128	0x3912417f	0.00013948044
129	0xbac0abbd	-0.001469962
130	0x3a3969b4	0.0007072941
131	0x3975716f	0.00023407278
132	0x3abae1d3	0.0014257975
133	0x3999675c	0.00029259443
134	0xbb437604	-0.0029824981
135	0x395d3706	0.000210967
136	0x3ab71b30	0.0013969894
137	0xbaaa241b	-0.0012980731
138	0x3a7641c4	0.0009393955
139	0x3986007d	0.00025558835
140	0x3aa0a529	0.0012256253
141	0x38da02a9	0.000103955455
142	0xba3ae960	-0.00071301125
143	0x39f3c198	0.0004649281
144	0x398350c0	0.0002504643
145	0xb95c6baf	-0.0002102095
146	0x392ce582	0.00016488697
147	0x38111e11	3.4598695e-05
148	0x3890583f	6.882892e-05
149	0xb8cad00b	-9.6708616e-05
150	0xb9f84e0c	-0.00047360396
151	0xb8adf893	-8.2955834e-05
152	0xb9f23428	-0.00046196696
153	0x3a8d87f5	0.0010797965
154	0xb8af6307	-8.3630955e-05
155	0x3976bc1e	0.00023530467
156	0xb9e94ed3	-0.00044499952
157	0xb79762b6	-1.8046569e-05
158	0xb7807ec2	-1.5317815e-05
159	0x396bb5f1	0.00022479125
160	0xb970097a	-0.00022891714
161	0xb828b070	-4.021864e-05
162	0xb98f7b3f	-0.0002736691
163	0x382ef347	4.1711402e-05
164	0xb90bcd86	-0.00013332636
165	0x38539d90	5.045306e-05
166	0xba53a7e0	-0.00080740266
167	0xb84c7975	-4.8750506e-05
168	0x39007699	0.00012251212
169	0xb9c8f4f5	-0.0003832948
170	0x39807b8e	0.00024506118
171	0x39032456	0.0001250667
172	0x3852ffbd	5.0306076e-05
173	0xb8c97347	-9.605899e-05
174	0xbaa27527	-0.0012394533
175	0xb8fe6a83	-0.00012131503
176	0x39c965c9	0.00038413543
177	0xb9c85e51	-0.00038217244
178	0x3a62cfd1	0.0008652183
179	0xb999325c	-0.00029219955
180	0x3a586d5a	0.0008256041
181	0x39311314	0.00016887143
182	0x3937a314	0.00017512991
183	0x39554159	0.00020337607
184	0x3a57e15e	0.00082351814
185	0xb919e903	-0.0001467802
186	0x3a82e70c	0.000998707
187	0x3587e537	1.0124994e-06
188	0x3a1f5488	0.0006077965
189	0xb93620fc	-0.0001736916
190	0x39484ce7	0.00019102135
191	0x38bea0e7	9.0898764e-05
192	0xba40072a	-0.0007325286
193	0x3a1eefb1	0.00060629385
194	0xb92c9375	-0.0001645813
195	0xb93b344a	-0.00017853189
196	0xb9642f66	-0.00021761432
197	0x3982db3c	0.00024958875
198	0xb9c7af1f	-0.00038086713
199	0xb95d2f3c	-0.00021093799
200	0x3a99c7dc	0.0011732536
201	0xb99ec851	-0.00030285356
202	0x3a45eadb	0.000754995
203	0x39adbf93	0.00033139865
204	0x3a46934a	0.00075750484
205	0xb8f6fb78	-0.00011777034
206	0x393ce40c	0.00018014031
207	0x3a05eea3	0.0005109107
208	0x39894428	0.00026181457
209	0x39497d58	0.00019215548
210	0xb961340f	-0.00021477065
211	0x39cf8a3e	0.00039585115
212	0xb8dcb990	-0.00010524981
213	0xb85bf6c2	-5.244348e-05
214	0x382bc0bd	4.094908e-05
215	0x383f1e0f	4.5565943e-05
216	0x39f6f678	0.0004710441
217	0xb9caf9b9	-0.000387145
218	0xb811293e	-3.4609104e-05
219	0x391e7a4f	0.00015113618
220	0x38b148d1	8.453581e-05
221	0xb8c30f23	-9.301144e-05
222	0x3913386f	0.00014040036
223	0x38ae8f3d	8.323647e-05
224	0x3a93cd1d	0.0011276338
225	0x364ec03e	3.0808292e-06
226	0x3831e344	4.2411746e-05
227	0x3a9f6508	0.0012160847
228	0x3a084516	0.0005198283
229	0x390025d7	0.00012221128
230	0xb904069e	-0.00012590966
231	0x3a322b39	0.0006796602
232	0xb9e077a3	-0.00042813746
233	0x3a476bec	0.0007607329
234	0xba208173	-0.0006122805
235	0x38c3c2f9	9.334641e-05
236	0xb8c3a22b	-9.328531e-05
237	0x3991741e	0.0002774307
238	0x383a3617	4.439623e-05
239	0x39f37e79	0.000464428
240	0xba44ddec	-0.00075098756
241	0xba138b9a	-0.0005628407
242	0xbaabfa8d	-0.0013120935
243	0x3900d503	0.00012286384
244	0xba74e543	-0.0009342024
245	0xb5c3f491	-1.459981e-06
246	0xbb70a3cc	-0.0036718724
247	0xba10150b	-0.00054963
248	0xba37e3d4	-0.0007014845
249	0x3a6554e6	0.00087483076
250	0xb8e92da3	-0.00011118806
251	0x379057b8	1.7206985e-05
252	0xb9380190	-0.0001754819
253	0x397b55f4	0.00023969245
254	0xb85828f9	-5.1536572e-05
255	0x38dcdff4	0.00010532132

exp_avg_sq f4 [128, 8]
0	0x36dc8810	6.5723507e-06
1	0x36b68acd	5.440181e-06
2	0x36ac9327	5.1431302e-06
3	0x374759b7	1.1882213e-05
4	0x36c6ae89	5.9211784e-06
5	0x366bade5	3.5118949e-06
6	0x37afa5d9	2.0938855e-05
7	0x3618e2e0	2.2781824e-06
8	0x36997732	4.5736315e-06
9	0x36813497	3.850622e-06
10	0x360aa970	2.0662228e-06
11	0x35d11639	1.5578181e-06
12	0x362a1ec4	2.5349882e-06
13	0x361ea9db	2.3642704e-06
14	0x35bf4c98	1.4252901e-06
15	0x35e84cae	1.7307664e-06
16	0x38112a1c	3.460991e-05
17	0x37fd6163	3.02053e-05
18	0x37c52c73	2.3504928e-05
19	0x38ff04e5	0.00012160259
20	0x38373101	4.367624e-05
21	0x3738330f	1.0979143e-05
22	0x384b6b69	4.8499005e-05
23	0x3725d0d6	9.88339e-06
24	0x358e4a24	1.0601402e-06
25	0x35db8261	1.6354717e-06
26	0x356d24ad	8.834275e-07
27	0x35b53260	1.3500212e-06
28	0x35707004	8.956997e-07
29	0x350c2c97	5.221895e-07
30	0x35e627a7	1.7147876e-06
31	0x3515d025	5.5809716e-07
32	0x368c71bd	4.185566e-06
33	0x36805091	3.8240764e-06
34	0x368b53fd	4.1523003e-06
35	0x37028720	7.780065e-06
36	0x3655dd08	3.186813e-06
37	0x35ee02f1	1.7733238e-06
38	0x36bb735c	5.586464e-06
39	0x35cc5ced	1.5226229e-06
40	0x3647bc7c	2.9763023e-06
41	0x3675a15c	3.6601768e-06
42	0x36788e90	3.7037862e-06
43	0x371ec3e2	9.463141e-06
44	0x369aa6f0	4.6089917e-06
45	0x35a7329a	1.2457197e-06
46	0x3735988d	1.0823959e-05
47	0x35deced3	1.6600483e-06
48	0x367927af	3.712699e-06
49	0x366c2360	3.5187331e-06
50	0x365f84ec	3.330696e-06
51	0x3782ee2e	1.5608119e-05
52	0x36f8b441	7.4119603e-06
53	0x35a4769c	1.2253472e-06
54	0x3728cda3	1.0061459e-05
55	0x3600ffb2	1.922232e-06
56	0x339a8b85	7.196562e-08
57	0x33c16ee2	9.007432e-08
58	0x33773d21	5.7564765e-08
59	0x33a3b318	7.622856e-08
60	0x34061113	1.2485934e-07
61	0x332bfc87	4.0043712e-08
62	0x34040e57	1.2298675e-07
63	0x3378dba3	5.7941758e-08
64	0x338f73d1	6.680023e-08
65	0x33f4e506	1.14037945e-07
66	0x338a417e	6.438039e-08
67	0x32bb6984	2.1817648e-08
68	0x339e6b6a	7.376987e-08
69	0x336827a0	5.4052748e-08
70	0x33773168	5.7554104e-08
71	0x33554c46	4.9662297e-08
72	0x353a0bdf	6.9307674e-07
73	0x35659036	8.5519e-07
74	0x356ec211	8.8944313e-07
75	0x364137fe	2.8791833e-06
76	0x35a60571	1.2369547e-06
77	0x34834021	2.444731e-07
78	0x3655cc71	3.1858474e-06
79	0x34bb312d	3.4867244e-07
80	0x337757ff	5.75892e-08
81	0x335449f1	4.9427346e-08
82	0x335b0435	5.0993737e-08
83	0x3385a5d1	6.223457e-08
84	0x3341c403	4.5114586e-08
85	0x32c3b0ec	2.2781443e-08
86	0x33f41f40	1.136782e-07
87	0x32c826d1	2.3300716e-08
88	0x34db0933	4.0798622e-07
89	0x3506e924	5.0258154e-07
90	0x34d2e630	3.9283032e-07
91	0x34384224	1.7160397e-07
92	0x352665bd	6.198787e-07
93	0x345fb646	2.0834804e-07
94	0x354bd585	7.5934105e-07
95	0x34c01701	3.5779524e-07
96	0x36ed1af4	7.066288e-06
97	0x36d7534b	6.417196e-06
98	0x36bbdb97	5.598598e-06
99	0x372ea8b6	1.0410489e-05
100	0x368b9d12	4.160808e-06
101	0x364ea65b	3.0793224e-06
102	0x3683a243	3.922994e-06
103	0x360cc8ab	2.097843e-06
104	0x36439fd6	2.91503e-06
105	0x3671c893	3.6028548e-06
106	0x360efefe	2.1308074e-06
107	0x36aa06de	5.0671943e-06
108	0x369ccb19	4.672806e-06
109	0x35b984ba	1.3822203e-06
110	0x360e9377	2.1245485e-06
111	0x35fec5a8	1.8982e-06
112	0x367f6d85	3.806171e-06
113	0x367b49c4	3.7444852e-06
114	0x3673613e	3.6266424e-06
115	0x364b74f0	3.0317424e-06
116	0x364b247e	3.0270598e-06
117	0x36008143	1.9148727e-06
118	0x367cf1fd	3.7691782e-06
119	0x35fd744b	1.8883815e-06
120	0x37a8faef	2.014401e-05
121	0x37c18ce7	2.3073006e-05
122	0x37574a63	1.2832318e-05
123	0x378c84d4	1.6751153e-05
124	0x3782f4e1	1.5611238e-05
125	0x372dc0bc	1.0356478e-05
126	0x371b46af	9.255177e-06
127	0x37285fc1	1.0035875e-05
128	0x380e809f	3.3975226e-05
129	0x37fe36f6	3.0304753e-05
130	0x37d31cf5	2.5166644e-05
131	0x38e038e2	0.000106917476
132	0x3827168e	3.983691e-05
133	0x3716acd8	8.98094e-06
134	0x388cc5ea	6.7125846e-05
135	0x373ff396	1.1441201e-05
136	0x38066cf8	3.2049575e-05
137	0x381dbf86	3.7610087e-05
138	0x3799d956	1.8340226e-05
139	0x38868b65	6.415582e-05
140	0x38309848	4.2103493e-05
141	0x377fcd42	1.5246975e-05
142	0x37d7ce27	2.5725994e-05
143	0x378ad6a2	1.6550828e-05
144	0x351f40f4	5.9326635e-07
145	0x34bf91b0	3.5682524e-07
146	0x35064ecd	5.003356e-07
147	0x3600811c	1.9148638e-06
148	0x357d7188	9.4415054e-07
149	0x343e2142	1.7707228e-07
150	0x35fd0088	1.8850124e-06
151	0x3440bd55	1.7950272e-07
152	0x371f7c9e	9.506153e-06
153	0x371a3a43	9.19268e-06
154	0x36ad310a	5.1615107e-06
155	0x36f3c459	7.264822e-06
156	0x36a2b31b	4.848827e-06
157	0x367fcb96	3.8116464e-06
158	0x3644deac	2.9335888e-06
159	0x36a8b22b	5.0275316e-06
160	0x34db09e4	4.0799125e-07
161	0x35092bca	5.11002e-07
162	0x3512a79f	5.463316e-07
163	0x35df3896	1.6631263e-06
164	0x35483840	7.458766e-07
165	0x342a8bfc	1.588341e-07
166	0x360340d8	1.9558265e-06
167	0x3473e303	2.2713725e-07
168	0x363a0653	2.771984e-06
169	0x363d46bb	2.8204365e-06
170	0x3646df45	2.963426e-06
171	0x37255633	9.854836e-06
172	0x36a36f60	4.8707443e-06
173	0x3583d8bd	9.82334e-07
174	0x374103d1	1.1504585e-05
175	0x35ba8f0d	1.3899713e-06
176	0x36b116b9	5.2776563e-06
177	0x36adeb7f	5.183217e-06
178	0x365c1539	3.2794908e-06
179	0x368ac003	4.1350736e-06
180	0x3635fa04	2.711663e-06
181	0x360dcb28	2.112889e-06
182	0x35b21d33	1.3270532e-06
183	0x3606068d	1.997137e-06
184	0x36957fd3	4.4554267e-06
185	0x368a662a	4.124614e-06
186	0x367fdc27	3.8126107e-06
187	0x37960073	1.7881603e-05
188	0x3704f3b7	7.924557e-06
189	0x35cdf8da	1.5346116e-06
190	0x370835f8	8.118797e-06
191	0x35e44ffc	1.7010602e-06
192	0x36c9a890	6.00989e-06
193	0x36b80939	5.484701e-06
194	0x369904a1	4.560294e-06
195	0x37a236cf	1.9337427e-05
196	0x37252a60	9.844633e-06
197	0x36133e0a	2.1940818e-06
198	0x3718e5cc	9.11341e-06
199	0x363c0d5a	2.8021955e-06
200	0x36d7838a	6.4228125e-06
201	0x36f47677	7.285558e-06
202	0x36896a48	4.095291e-06
203	0x369ad67a	4.614526e-06
204	0x3650aaf1	3.1093916e-06
205	0x364ca700	3.0495576e-06
206	0x3635136d	2.698241e-06
207	0x3649ea0d	3.008757e-06
208	0x362eda81	2.6055206e-06
209	0x363241b0	2.6562302e-06
210	0x35d128a1	1.5583538e-06
211	0x3605a79e	1.991611e-06
212	0x35aa57bc	1.2691521e-06
213	0x358e42e3	1.0599291e-06
214	0x357fffb1	9.536698e-07
215	0x358edbe2	1.0643819e-06
216	0x35c305c1	1.4530307e-06
217	0x35bf0cd4	1.4234342e-06
218	0x35824a3f	9.707363e-07
219	0x350b5255	5.1901344e-07
220	0x3527f941	6.257506e-07
221	0x352fef91	6.5541195e-07
222	0x3566fe71	8.605194e-07
223	0x353988f7	6.911718e-07
224	0x37aa9ccc	2.0338593e-05
225	0x37a54217	1.9700308e-05
226	0x37691872	1.3893574e-05
227	0x383a5339	4.4423363e-05
228	0x374d7028	1.2245066e-05
229	0x36eb34f0	7.0097085e-06
230	0x374146e6	1.1520204e-05
231	0x36f71e53	7.364704e-06
232	0x36d135a3	6.2349295e-06
233	0x36ddbdf5	6.608427e-06
234	0x364d8d77	3.0629724e-06
235	0x370dd97e	8.454894e-06
236	0x3705f98a	7.985518e-06
237	0x364f62a3	3.0902818e-06
238	0x3623ac68	2.4389246e-06
239	0x367bfafc	3.7548007e-06
240	0x373e5f87	1.1347124e-05
241	0x374804ab	1.1922016e-05
242	0x37376c0a	1.0932805e-05
243	0x382148da	3.845324e-05
244	0x3744327a	1.1694263e-05
245	0x364d3d27	3.0582976e-06
246	0x37fe16e0	3.0289812e-05
247	0x36763dda	3.669286e-06
248	0x36792423	3.7124926e-06
249	0x3661e218	3.3659217e-06
250	0x3610e9bd	2.1593726e-06
251	0x36ed1707	7.065831e-06
252	0x36725939	3.6112745e-06
253	0x35b98f26	1.3825236e-06
254	0x360b6ae9	2.0774844e-06
255	0x35ebcb29	1.7567992e-06

exp_avg f4 [128]
0	0x38ee0bb9	0.00011350908
1	0xba391370	-0.00070600864
2	0xbaa84069	-0.0012836579
3	0x396256b1	0.00021585335
4	0xbaa77448	-0.0012775743
5	0xba5722ad	-0.0008206766
6	0x390aa92e	0.0001322373
7	0xb84b4da2	-4.8471273e-05
8	0x38d66251	0.00010222628
9	0xb9a62736	-0.00031691202
10	0x39250368	0.00015736895
11	0xb91d3663	-0.00014992947
12	0xb989b57d	-0.00026265896
13	0xb9d46d26	-0.00040517113
14	0x39dc6aae	0.00042041152
15	0xba0a737f	-0.00052814925
16	0x3a4d3538	0.00078280596
17	0x390552b1	0.00012714673
18	0xb8dcff74	-0.00010537999
19	0x396a86d0	0.000223662
20	0x398c79b4	0.00026793557
21	0x39b2c262	0.00034095632
22	0xb8f2aa17	-0.00011571141
23	0xba37142e	-0.0006983903
24	0xb8830232	-6.246976e-05
25	0xba3b694c	-0.00071491743
26	0xb9596a78	-0.00020734395
27	0xb98d59a6	-0.0002696041
28	0xba025e4c	-0.0004973158
29	0xb8c2e8b1	-9.293983e-05
30	0x3a4e6066	0.0007872641
31	0x39617b14	0.00021503522
32	0xbab46c90	-0.0013765264
33	0x3a2031f9	0.0006110962
34	0xba75eb47	-0.00093810674
35	0x3938c25a	0.00017620009
36	0xb9bf305d	-0.00036466392
37	0xb9fad274	-0.00047840516
38	0x398c19eb	0.0002672219
39	0x3a991ff4	0.0011682496
40	0xba2aa9e5	-0.00065103016
41	0x39a4e9ae	0.00031454623
42	0x39d52dc3	0.0004066062
43	0xb8b17cd1	-8.4632666e-05
44	0x39b864bb	0.00035170265
45	0x39a579ce	0.00031562004
46	0x3975bdc5	0.00023435715
47	0xb980f964	-0.00024599873
48	0x3a91e668	0.0011131288
49	0x3a0b1889	0.0005306085
50	0x3aa89b8e	0.0012863742
51	0xb938564d	-0.00017579757
52	0xbafd62f8	-0.0019331863
53	0xb8531e72	-5.0334675e-05
54	0xba16c867	-0.0005751908
55	0x38238b51	3.8991977e-05
56	0x3951def1	0.00020014845
57	0xba9d5e66	-0.0012006282
58	0xb9ea6690	-0.00044708373
59	0x3a56dc20	0.00081962533
60	0x3aa1fe56	0.0012359123
61	0x3a409607	0.00073465746
62	0x363f4391	2.8500547e-06
63	0xb932041d	-0.00016976935
64	0x3a49d797	0.0007699667
65	0x3ae108fd	0.0017168816
66	0x3a5fdfa6	0.0008540101
67	0x394110df	0.000184122
68	0x3a868d19	0.0010265439
69	0x39e8e28a	0.00044419273
70	0x3816c118	3.594262e-05
71	0xb94976c2	-0.00019213094
72	0x395fb0c2	0.00021332785
73	0x39f2936d	0.00046267678
74	0xb7a243f8	-1.9343555e-05
75	0xb610cdf6	-2.1577557e-06
76	0x3a5d4ac4	0.0008441622
77	0xba519344	-0.00079946616
78	0x3a212dee	0.00061485067
79	0x397d09c3	0.00024131597
80	0xb8eba43a	-0.00011236263
81	0x3994d351	0.00028386203
82	0xb9933fae	-0.0002808547
83	0xbb14e105	-0.002271713
84	0xbb10eb60	-0.002211295
85	0x3a4ba1c2	0.0007767939
86	0xba79aa91	-0.00095240126
87	0xba27376e	-0.0006378804
88	0xba805f19	-0.0009793966
89	0xba6f56ee	-0.000913008
90	0xb9e2c7ee	-0.00043255038
91	0xba1179de	-0.00055494707
92	0x3873d271	5.8131704e-05
93	0xb9aacf85	-0.0003257954
94	0x38a74d44	7.9775724e-05
95	0xba8afe90	-0.001060443
96	0x3a5a727e	0.00083331007
97	0xb92ba5d1	-0.00016369602
98	0x3a1fb2dd	0.00060920214
99	0xbadf3636	-0.0017029706
100	0x39c95eb7	0.00038408276
101	0xba44ae8a	-0.0007502815
102	0xb98e9015	-0.000271917
103	0xb78f40b0	-1.707705e-05
104	0x3a80b257	0.0009818774
105	0xba3fb6c6	-0.0007313307
106	0xb8efd1a2	-0.00011435455
107	0x38f527e2	0.00011689939
108	0xb9b95a4e	-0.00035353232
109	0x39f4edd8	0.00046716514
110	0xb97badfd	-0.00024002041
111	0xba01d37a	-0.0004952472
112	0xb9c8802f	-0.00038242477
113	0x3a8f4436	0.0010930363
114	0xb8902ebc	-6.87516e-05
115	0x3624834f	2.4514336e-06
116	0xb96808e0	-0.0002212855
117	0xba78c283	-0.0009489434
118	0x37723beb	1.4438275e-05
119	0xbb00944b	-0.001961964
120	0x39e17ce5	0.00043008398
121	0xb9eeb7b9	-0.00045531782
122	0xb889ecb3	-6.576758e-05
123	0xba71e6d5	-0.0009227817
124	0x3a92b1a7	0.001119186
125	0x39fb235d	0.00047900798
126	0x3a128cee	0.0005590458
127	0x3a442fee	0.0007483949

exp_avg_sq f4 [128]
0	0x36d94243	6.474818e-06
1	0x368112c6	3.846685e-06
2	0x37da9f97	2.606194e-05
3	0x3591771a	1.0838005e-06
4	0x366b5937	3.5069659e-06
5	0x365d6882	3.2992398e-06
6	0x3668b994	3.4678715e-06
7	0x33b3bd14	8.36973e-08
8	0x33b0cd52	8.232986e-08
9	0x354ae5b4	7.5585126e-07
10	0x33568c92	4.9953606e-08
11	0x350b8bbe	5.1984887e-07
12	0x36d1b493	6.249707e-06
13	0x363efad8	2.8458217e-06
14	0x367ce1d4	3.7682375e-06
15	0x379defd6	1.882754e-05
16	0x37d757db	2.5670908e-05
17	0x37f6d85b	2.9426234e-05
18	0x3504dd18	4.9495566e-07
19	0x3700c964	7.676284e-06
20	0x34fc0ced	4.6948063e-07
21	0x363f8c43	2.854286e-06
22	0x36909e78	4.3099826e-06
23	0x36741e40	3.637644e-06
24	0x36b3be4c	5.356769e-06
25	0x36bb4998	5.5816017e-06
26	0x361a7904	2.3018229e-06
27	0x35b54c22	1.3507708e-06
28	0x37818475	1.5439678e-05
29	0x36c4c8a5	5.8646133e-06
30	0x37174a63	9.017621e-06
31	0x364ce4f7	3.0531644e-06
32	0x3711f177	8.698894e-06
33	0x36f3b70c	7.263274e-06
34	0x37175c5a	9.021804e-06
35	0x368acee5	4.136806e-06
36	0x3596eb26	1.1244308e-06
37	0x3620cfab	2.3962737e-06
38	0x3771fb8f	1.442329e-05
39	0x37bf916b	2.283669e-05
40	0x3726714d	9.920751e-06
41	0x3646df95	2.963444e-06
42	0x36b016c0	5.247857e-06
43	0x368d23f3	4.2063125e-06
44	0x361506f1	2.220677e-06
45	0x3786626a	1.6019872e-05
46	0x35433394	7.2718217e-07
47	0x354beef3	7.597111e-07
48	0x375306bd	1.2578149e-05
49	0x36f6e32f	7.357819e-06
50	0x37a65d84	1.9832289e-05
51	0x3565af03	8.5563823e-07
52	0x37c1dda1	2.3110597e-05
53	0x359a9a87	1.1518867e-06
54	0x36a5781c	4.9313658e-06
55	0x3654df54	3.1720456e-06
56	0x363c49eb	2.805721e-06
57	0x36a84f4f	5.016023e-06
58	0x36618f55	3.3611043e-06
59	0x371e448a	9.433492e-06
60	0x3796aee2	1.796283e-05
61	0x3636a7b2	2.7217725e-06
62	0x3705337a	7.939403e-06
63	0x35dabc28	1.6297026e-06
64	0x3688796c	4.067251e-06
65	0x37a47e5e	1.9609168e-05
66	0x361cc2db	2.3359232e-06
67	0x3544f2ec	7.336919e-07
68	0x374e22cd	1.22866595e-05
69	0x36d0906a	6.215695e-06
70	0x35ad6d12	1.2921248e-06
71	0x36949f5b	4.429295e-06
72	0x3470bac2	2.2419684e-07
73	0x35c7e410	1.489303e-06
74	0x340217c0	1.2115834e-07
75	0x3526c591	6.2127316e-07
76	0x36e3d23f	6.789603e-06
77	0x368f20d7	4.265555e-06
78	0x3786da76	1.6075774e-05
79	0x355a6619	8.13599e-07
80	0x366bb883	3.5125129e-06
81	0x365743ac	3.2076887e-06
82	0x35c24c4a	1.4476329e-06
83	0x37df9d89	2.665703e-05
84	0x373fe2ea	1.143732e-05
85	0x37a0478e	1.9106807e-05
86	0x3694c465	4.433607e-06
87	0x363aa451	2.7811805e-06
88	0x36d0c6b9	6.2220174e-06
89	0x36ab83a6	5.111523e-06
90	0x360c706c	2.0927064e-06
91	0x3720bc08	9.580523e-06
92	0x33a4fc1a	7.682702e-08
93	0x3740e052	1.149632e-05
94	0x35111d38	5.405923e-07
95	0x36baa939	5.562932e-06
96	0x379a1efe	1.8372662e-05
97	0x37c15fe3	2.3052044e-05
98	0x35ace42f	1.2881409e-06
99	0x36e3bb68	6.786944e-06
100	0x36b22b82	5.3098784e-06
101	0x3663f3df	3.3967588e-06
102	0x35ace8c7	1.2882746e-06
103	0x366c961f	3.5254122e-06
104	0x3706f70d	8.044543e-06
105	0x361514db	2.221487e-06
106	0x3656ab35	3.198814e-06
107	0x373c44aa	1.122166e-05
108	0x35752030	9.131645e-07
109	0x36a3c6e7	4.880934e-06
110	0x370f8f56	8.556837e-06
111	0x365946d7	3.2376754e-06
112	0x35cd9588	1.531721e-06
113	0x368af153	4.1408143e-06
114	0x35e2ccb3	1.6897887e-06
115	0x364244ce	2.8948302e-06
116	0x36c96b91	6.002789e-06
117	0x3624a837	2.4535818e-06
118	0x35e5068d	1.7063736e-06
119	0x3731d600	1.0599848e-05
120	0x35c97bc2	1.5011685e-06
121	0x36c50244	5.8713213e-06
122	0x344bfb96	1.8997375e-07
123	0x363ab11f	2.7819258e-06
124	0x3796011a	1.7881906e-05
125	0x36282394	2.505466e-06
126	0x365fcd6c	3.334916e-06
127	0x36d084e3	6.214353e-06

exp_avg f4 [1, 2]
0	0x3cd9f24d	0.026604796
1	0x3c48e0dd	0.012260643

exp_avg_sq f4 [1, 2]
0	0x3bea7205	0.0071547055
1	0x3c01b5bc	0.007916864

exp_avg f4 [2, 128]
0	0xbca6220b	-0.020279905
1	0xbca3adb8	-0.019980296
2	0xbc0870d6	-0.008327683
3	0x3b6bef7c	0.0036000898
4	0xbcc0ebbf	-0.023549912
5	0xbd433ef2	-0.04766745
6	0xbb9f474d	-0.0048607946
7	0x3bd6b801	0.0065526967
8	0xbc5a8707	-0.013337857
9	0xbc5264aa	-0.012841383
10	0xbcac8db6	-0.021063667
11	0x3af23ef7	0.00184819
12	0xbc703063	-0.014659974
13	0xbb1b475f	-0.0023693664
14	0x3a786c5d	0.00094765966
15	0xbb618689	-0.0034412465
16	0xbc2344b4	-0.009965111
17	0xbbe6bf4f	-0.0070418487
18	0xbd07ef12	-0.03318698
19	0x3c463387	0.012097246
20	0xbc8f2497	-0.017473502
21	0xbd13a63f	-0.036047217
22	0xbab8bdf1	-0.0014094693
23	0xbcae1dbd	-0.021254415
24	0x3c3c533a	0.011494452
25	0x3942a765	0.00018563641
26	0xbc1f9989	-0.0097411955
27	0x3a8950c8	0.0010476345
28	0xba2740d0	-0.0006380202
29	0xbc618354	-0.013764221
30	0xbc17e4dd	-0.009270874
31	0x3c1c8596	0.009553334
32	0xbc9ba443	-0.018999225
33	0x3bc1adb3	0.005910599
34	0xbb76d9c7	-0.0037666427
35	0xbc082a86	-0.00831092
36	0xbc01b3fe	-0.007916449
37	0xbbd1a4f8	-0.0063978396
38	0x3c23760a	0.009976873
39	0xba8c6dd5	-0.0010713885
40	0x3b884204	0.0041582603
41	0x3be81570	0.0070826337
42	0x3baaa4f9	0.0052076546
43	0x3b8f7c0a	0.0043788003
44	0xbb84aac2	-0.004048676
45	0xbab7e310	-0.0014029462
46	0xbb7c081b	-0.003845698
47	0xbc256b5a	-0.010096395
48	0x3b651f71	0.0034961367
49	0x3ba9e9bf	0.0051853354
50	0xbcba4605	-0.022738466
51	0x3b0b97f2	0.0021300283
52	0xbc36016f	-0.01110874
53	0xbb0b1794	-0.002122377
54	0xbb919186	-0.0044423966
55	0x3b56a2e1	0.0032750892
56	0xbc83a172	-0.016068194
57	0xbccca05a	-0.024978805
58	0x3a8a7391	0.0010563006
59	0xbb5bfc35	-0.0033567075
60	0xbbbb4189	-0.0057145995
61	0xbc1a1983	-0.0094054965
62	0x3ba898d3	0.005145171
63	0xbc3fa9b9	-0.01169818
64	0x3a8cbcbb	0.0010737398
65	0xbc95cd74	-0.018286444
66	0xbba8a079	-0.005146083
67	0x39cb45d1	0.00038771195
68	0xbb71b060	-0.003687881
69	0x3c262e11	0.010142819
70	0x3b5cbd0a	0.0033682012
71	0xbab8ae69	-0.0014090064
72	0xbc23ab35	-0.009989549
73	0xbc909a99	-0.017651843
74	0x3b831010	0.0039997175
75	0x3b9d5b98	0.0048021786
76	0x3acbace0	0.0015539192
77	0xbc6695e1	-0.01407382
78	0x3befa183	0.007312955
79	0x3b80eb24	0.003934281
80	0xbbf1d72f	-0.007380388
81	0x3b980dc7	0.0046403143
82	0xbc8a94e6	-0.016916703
83	0xbc3aa345	-0.011391466
84	0xbccde3c6	-0.025133025
85	0xbbd925f8	-0.0066268407
86	0xbc531306	-0.0128829535
87	0xbc2f39f4	-0.010694969
88	0x39cc6284	0.00038983312
89	0xbc7bd460	-0.015370458
90	0xbb4e3b12	-0.0031468314
91	0xbba23a54	-0.004950801
92	0xbb086f34	-0.0020818235
93	0xbaa6e7a5	-0.001273383
94	0x3bbd8e96	0.00578482
95	0xbc99a43b	-0.018755069
96	0x3aee68c9	0.0018189187
97	0xbc8b3cb0	-0.016996711
98	0xbc24ef33	-0.010066795
99	0xbd013b9e	-0.031550996
100	0xbc868577	-0.016421063
101	0xbb8756a1	-0.0041302
102	0xbb8abc59	-0.0042338786
103	0x3c5dd077	0.013538471
104	0x3afada6f	0.0019138585
105	0xbc783e0a	-0.01515151
106	0xbbfc5c83	-0.007701458
107	0x3b83b215	0.0040190318
108	0xbcb7d64c	-0.022441052
109	0xbc9b42bd	-0.018952722
110	0x3c3f1390	0.011662379
111	0xbc683c6f	-0.014174565
112	0xbc7a0e0e	-0.01526214
113	0xbc4d3136	-0.01252394
114	0xbb3f11bb	-0.0029154855
115	0x3c0c0947	0.008547134
116	0x3bcefe99	0.0063169715
117	0xbcfc6bca	-0.030813117
118	0x3c98d472	0.01865599
119	0xbcc2ebcb	-0.023794075
120	0x38eef15a	0.000113936796
121	0xbc8b0577	-0.01697038
122	0xbb2fb509	-0.0026810786
123	0xbcd03fb1	-0.025420995
124	0x39818e14	0.00024710654
125	0xbb1a6665	-0.0023559567
126	0xbce2e69e	-0.027697857
127	0x3b0b80a3	0.002128639
128	0x3af825e9	0.0018932197
129	0xbc9d4b9f	-0.019201098
130	0xbb03d8f9	-0.002011834
131	0x3bf35d98	0.0074269287
132	0xbc859479	-0.016306149
133	0x3c8b5018	0.017005965
134	0x3a88c0bc	0.0010433416
135	0x3b5cba85	0.003368051
136	0xba597e19	-0.0008296683
137	0x3bcd1c59	0.006259483
138	0xbc3746d5	-0.011186321
139	0xbb8c0c5e	-0.004273935
140	0xbc57fb29	-0.01318244
141	0x3aa9c7e1	0.0012953245
142	0xbb0ddf34	-0.0021647932
143	0xba0dcc46	-0.0005409162
144	0x3c051f70	0.008125171
145	0x3baae68d	0.005215472
146	0x3a788784	0.00094806426
147	0xbb5ffa32	-0.0034176228
148	0x3c4b29f2	0.012400137
149	0x3cb5a44d	0.022173071
150	0x392a0fd5	0.00016218361
151	0xbb40ec50	-0.0029437728
152	0x3c117e19	0.008880162
153	0xba604628	-0.0008555376
154	0xbc8184fb	-0.01581048
155	0xbb1d991a	-0.0024047554
156	0xbc89cf2b	-0.016822418
157	0xbbff9b94	-0.007800529
158	0x39cb4ff5	0.0003877875
159	0xbb89d31f	-0.004206076
160	0x3be18032	0.006881737
161	0x3a33a49b	0.0006852836
162	0xbba54278	-0.005043324
163	0xbc082793	-0.0083102165
164	0xbc389372	-0.011265622
165	0x3c59a24e	0.013283325
166	0xbbb73966	-0.005591559
167	0x3bf600b1	0.0075074066
168	0xbac1615c	-0.0014753747
169	0x3bc3ad8f	0.0059716175
170	0x3bd14803	0.0063867583
171	0xbc1aba4a	-0.009443829
172	0x3c519a7f	0.012793182
173	0xbb904249	-0.004402433
174	0xbb382f1a	-0.0028104247
175	0xbc490a94	-0.012270588
176	0xbc314056	-0.010818562
177	0x3acbbd75	0.0015544133
178	0x3b81799b	0.003951264
179	0x3ace8beb	0.0015758252
180	0xbbcfe424	-0.006344335
181	0xbb3e2b17	-0.0029017383
182	0x3bc0c221	0.005882517
183	0x3c21a421	0.009865792
184	0xbcd35808	-0.025798813
185	0xbbb32f32	-0.0054682726
186	0xbab123b3	-0.0013514668
187	0xbab8c1a0	-0.0014095791
188	0xbb9c782c	-0.004775068
189	0x3b2d3272	0.0026427773
190	0xba536dad	-0.0008065354
191	0xbca009ef	-0.019535987
192	0xbc442f93	-0.011974233
193	0xbc19d0fa	-0.009388203
194	0xbc4bfdb9	-0.012450629
195	0x3b947a24	0.004531162
196	0xbc2cf6ac	-0.010556858
197	0x3c145049	0.009052345
198	0xbadcd09e	-0.0016846841
199	0xbb6cedd0	-0.003615249
200	0xbc22153d	-0.009892759
201	0x3bcc5ae6	0.006236422
202	0x3bdbafc5	0.006704303
203	0x3c3ae1e7	0.011406398
204	0xba964d11	-0.0011467059
205	0xbb62edb5	-0.0034626548
206	0xbc77f863	-0.015134904
207	0x3ba6433a	0.005073932
208	0xbc182951	-0.009287194
209	0xbbd57525	-0.006514209
210	0x3cb873de	0.022516187
211	0xbad499c2	-0.001622014
212	0xbc5369c8	-0.012903638
213	0x3b264a89	0.0025374016
214	0xbcc0bbcb	-0.023527047
215	0x3b9279bb	0.004470078
216	0xb91b277a	-0.00014796658
217	0xbbd20a98	-0.0064099543
218	0xba7d525d	-0.0009663457
219	0xbb286614	-0.002569561
220	0x3a34badd	0.00068943
221	0x3bb90784	0.005646648
222	0xbbd44242	-0.006477625
223	0x3c9b9c74	0.018995501
224	0xbc980e95	-0.01856164
225	0x3b4b9743	0.00310655
226	0xbc658313	-0.014008301
227	0xbc0ed8c9	-0.008718678
228	0xbb8d0618	-0.004303705
229	0xbaf0cf65	-0.0018372355
230	0xbbbdfe1f	-0.005798116
231	0x3c06b165	0.008221005
232	0xbca4084c	-0.020023488
233	0x3b2a25ba	0.0025962428
234	0x3ab6c54d	0.0013944298
235	0x3b9af352	0.004728713
236	0x3c4a552d	0.012349409
237	0xbc1186da	-0.008882249
238	0x3c62920d	0.0138287665
239	0x3c0a02ea	0.008423546
240	0x3bf91974	0.007601911
241	0xbc084391	-0.00831689
242	0x3ac962e0	0.001536455
243	0xbc075d55	-0.008261998
244	0x3a98d8a1	0.001166124
245	0x3ad2a045	0.0016069493
246	0x3be81c47	0.007083449
247	0xbc80f13d	-0.015740031
248	0xbc25a421	-0.010109932
249	0xba82805e	-0.0009956469
250	0xbc1c630c	-0.009545099
251	0x3b98e7b7	0.0046662944
252	0x3b7b0d6d	0.0038307563
253	0xbc23e123	-0.010002407
254	0x3c2913d8	0.0103196725
255	0xbc54c3f4	-0.012986172
