results/max-hiddenunits64-config2-0/3DBall/3DBall-49959.onnx (onnx, 46366 bytes, 7 tensors)

network_body._body_endoder.seq_layers.0.bias f4 [64]
00000000: 509a 823c fcf9 ffbc 5c4b e23c 4fe8 483d
00000010: 7662 1bbd 29e8 a6bc 34ed 11bd 8025 823d
00000020: 2b5c 1e3d 1db3 483c 973a 4f3c 238a 663c
00000030: 71f2 12bd 00f3 223d c40c c43c ab46 43bd
00000040: 48a1 c63c 8a2b 89bd 8dd9 89bb 5a43 c5bc
00000050: 116b f6bc 82c6 803c 5d15 c13c 8455 31ba
00000060: 9e16 b7bb d2cf 083d cf17 eb3c e1f2 a43c
00000070: 11f6 36bc 6a51 543c 4e61 183d adb1 2f3d
00000080: 437a 99bb 71dc 123d 8748 0a3b e848 693c
00000090: b9c2 883c 5b11 b03c 80e0 773d e795 003c
000000a0: 289d c1bb beb9 843d 4830 f73c c0ad eb3c
000000b0: 27b5 e63c fa54 b3bc 5ae4 123d 940b bf3c
000000c0: ad3d c73c 3819 47bb 4191 58bc 50ed be3a
000000d0: 2202 393c 7f9e 073b 16ff 8c3d a1d7 9bbc
000000e0: 157d 543c 8344 a53c 76dd 7c3c e409 89bc
000000f0: cc42 9cbb dc90 3bbd 4a19 ad3c 7a6a e33c
0.015942723 -0.031247132 0.027623825 0.04904967 -0.037935697 -0.020374374 -0.035626605 0.06354809
0.038662117 0.012249735 0.012648246 0.01407102 -0.03587574 0.039782524 0.023931868 -0.047674816
0.024246827 -0.066977575 -0.0042068423 -0.024079967 -0.03008035 0.015719656 0.023569757 -0.0006764757
-0.005587413 0.033401318 0.028697876 0.020135345 -0.011167065 0.012958864 0.037202172 0.042894054
-0.004683764 0.03585476 0.0021100359 0.014238574 0.016694413 0.02149265 0.060516834 0.0078482395
-0.005908627 0.0648074 0.03017439 0.028769374 0.028162552 -0.021891106 0.035862304 0.02332095
0.024321401 -0.0030380022 -0.013218225 0.0014566574 0.011292012 0.0020693836 0.06884591 -0.019023718
0.012969275 0.02017427 0.01543366 -0.016728349 -0.004768705 -0.045792446 0.021130223 0.027760733

network_body._body_endoder.seq_layers.2.bias f4 [64]
00000000: d03c 2b3d c1bf f13c ea58 7b3d f2ea 543c
00000010: 27ab 3dbd c796 423c a5d9 6d3d 97fc dd3a
00000020: a824 4c3d e2e0 223d e1f7 27bc 5b9b 553d
00000030: 71f9 063c 9ba2 723c 48d5 b83c bc4e 503c
00000040: a574 ad3c c53b febc 7999 b63c 9dc8 99ba
00000050: ed61 b3bc 889d f03c d944 8cbc 9ed7 483c
00000060: 57f1 adbc a5c4 1b3c 72c0 c13c 287c bbbc
00000070: bfa6 e13c 1a9d 323d bfe1 113c d256 07ba
00000080: c3f6 013d 22b8 c2bc 886b 68bb 8ab4 173d
00000090: c7e0 e33a 8f09 0c3d a9d3 62bc 6627 14bc
000000a0: 5201 b9bc 8387 55bc b1d0 913c 2a98 8d3b
000000b0: bc67 f13c afc8 dbbc 71cd 3bbc b1e3 eb3c
000000c0: aed6 c3bb f25b 183d d321 23bb b912 19bc
000000d0: 4429 ca3c ef0b 89bb cb17 413d f3bc 9d3c
000000e0: 1130 d5bc 2d91 2d3c 1148 813d f43e d639
000000f0: 9303 843d f442 19bb ad32 273d 8965 093a
0.041806042 0.02951038 0.061364092 0.012995468 -0.0463058 0.011876768 0.05806889 0.001693624
0.049839646 0.039765246 -0.01025197 0.05215011 0.008238182 0.014809276 0.022562638 0.012714084
0.021173785 -0.03103436 0.022289978 -0.0011732761 -0.02189728 0.029371992 -0.017122673 0.012258438
-0.021233244 0.009507333 0.023651335 -0.02288635 0.027545331 0.043606855 0.00890392 -0.00051627785
0.03172947 -0.023769442 -0.0035464484 0.03703741 0.0017385714 0.034188803 -0.013844409 -0.009042596
-0.022583637 -0.013032797 0.017799707 0.004321118 0.02946841 -0.026829092 -0.011462555 0.028795095
-0.0059765195 0.03719706 -0.0024891987 -0.009342843 0.02467788 -0.004182331 0.04714183 0.019255137
-0.026023896 0.010593695 0.06312574 0.00040864164 0.06445994 -0.0023385854 0.040819813 0.0005241265

network_body._body_endoder.seq_layers.4.bias f4 [64]
00000000: 2426 6c3d 591c 7f3a 4978 123d 9010 5f3c
00000010: e994 ce3c a27a 243c fb97 2c3c c59a c83c
00000020: 8dee d13c 3a1a 07bb 1992 2f3d 01e2 023c
00000030: caca 333c dc51 50bc 22c2 003d 9f76 65bb
00000040: f9d0 9c3c f0f2 533a bff3 a3bb cafb 0a3d
00000050: b732 a43c 6be2 b43c 0ee6 8939 5f86 ba3c
00000060: cbfe f93c f6d8 bbbb d695 59bb 2432 c1bb
00000070: a052 2e3a 80c1 b23c a593 683d 68f1 623c
00000080: 77d5 5bbb b33d 323c 2edf 3f3c 399a a13a
00000090: 84cb 033b 4296 82bc e9d8 283d cf6b 023c
000000a0: 62a8 9c3b 79cd 8b3c e934 b7ba a35d 973c
000000b0: 4105 573c 737f 943c f4de 573c f258 973c
000000c0: 3dcd ca3c dd74 bf3b 0b6c ae3c 374c 803c
000000d0: 7afa 5a3c 8684 ad3c d6e0 bdbb 3329 173c
000000e0: 8465 be3a c7f7 48bc 3ce1 c93b 5c07 35bb
000000f0: c568 35bb d22e bf3c 5547 afbb f5ee 133c
0.05765356 0.0009731702 0.035759244 0.013614789 0.02521749 0.010039004 0.010534282 0.024487862
0.025626445 -0.0020614997 0.04286394 0.007988454 0.010973642 -0.012714829 0.03143514 -0.003501333
0.019142615 0.0008085212 -0.005003422 0.03393153 0.020043714 0.02208062 0.0002630208 0.022769151
0.030517003 -0.005732651 -0.0033200881 -0.00589587 0.00066498853 0.021820784 0.05678143 0.013851501
-0.0033543983 0.010878968 0.011710925 0.0012329287 0.0020110318 -0.01594079 0.041222487 0.007960274
0.004780815 0.01706575 -0.001397756 0.018477267 0.013123811 0.018127179 0.013175715 0.01847503
0.024756068 0.0058427886 0.021291753 0.015661342 0.013365382 0.021181356 -0.005794625 0.009226131
0.0014526104 -0.012266106 0.0061608832 -0.0027622795 -0.0027680856 0.023337755 -0.0053490796 0.00902914

action_model._continuous_distribution.log_sigma f4 [1, 2]
00000000: 653d 0bbd b9b4 1abd
-0.033994097 -0.037770007

action_model._continuous_distribution.mu.bias f4 [2]
00000000: 241e a8bb e91d 033c
-0.005130546 0.008002737

network_body.processors.0.normalizer.running_mean f4 [8]
00000000: b544 823a 62a3 f4ba 3a93 8e3c 2870 4540
00000010: 64b2 43bd 55ba c83b 382d 73bf 19c3 81bd
0.0009938689 -0.0018664415 0.017404187 3.0849705 -0.04777755 0.006125728 -0.94990873 -0.0633604

sqrt f4 [8]
00000000: e765 b03d 890d ac3d 9fc8 9d3f 4686 df3e
00000010: 26f8 9b3f f287 903f 53ae 943f f2ad 883f
0.08613186 0.08401019 1.232685 0.4365713 1.2185104 1.1291487 1.16157 1.0678084
