results/max-hiddenunits64-config2-0/3DBall/3DBall-49959.pt (torch, 243171 bytes, 56 tensors)

network_body.observation_encoder.processors.0.normalizer.running_mean f4 [8]
00000000: b544 823a 62a3 f4ba 3a93 8e3c 2870 4540
00000010: 64b2 43bd 55ba c83b 382d 73bf 19c3 81bd
0.0009938689 -0.0018664415 0.017404187 3.0849705 -0.04777755 0.006125728 -0.94990873 -0.0633604

network_body.observation_encoder.processors.0.normalizer.running_variance f4 [8]
00000000: ae51 b943 394d b043 6a45 9447 67c8 1446
00000010: 7ee1 9047 d7d1 7847 23a8 8347 2085 5e47
370.63812 352.6033 75914.83 9522.101 74178.984 63697.84 67408.27 56965.125

network_body.processors.0.normalizer.running_mean f4 [8]
00000000: b544 823a 62a3 f4ba 3a93 8e3c 2870 4540
00000010: 64b2 43bd 55ba c83b 382d 73bf 19c3 81bd
0.0009938689 -0.0018664415 0.017404187 3.0849705 -0.04777755 0.006125728 -0.94990873 -0.0633604

network_body.processors.0.normalizer.running_variance f4 [8]
00000000: ae51 b943 394d b043 6a45 9447 67c8 1446
00000010: 7ee1 9047 d7d1 7847 23a8 8347 2085 5e47
370.63812 352.6033 75914.83 9522.101 74178.984 63697.84 67408.27 56965.125

network_body._body_endoder.seq_layers.0.weight f4 [64, 8]
00000000: c2d8 d53e 5ee6 95be d178 13bf 27a1 923e
00000010: b7f1 ae3e 4317 33bf db82 83be 4def b53e
00000020: 6b0c af3c 94fe bebd ca6a 80be 9a7c e93e
00000030: 9abc 30bd 35fe 02bf bdce 5bbe aad0 48be
00000040: ec49 02bf 169c b3be 4a70 943e e2cd 6cbb
00000050: 256b 83be 8198 22bf 6de5 8fbe 8fb9 a93e
00000060: 4bc9 bd3d fbad 893e e17a 833e f6db bfbc
00000070: 02a9 283e 8c77 cdbe b7d4 c93d 214b adbe
00000080: 8326 87bd 3840 2e3e 29eb 553e 74b5 583f
00000090: 2275 573c 1453 49be ce97 13bf 893f e93e
000000a0: d5de b03e 01e2 823d e367 47bd 040e 3ebe
000000b0: 53be 04be 7b97 003d 0e3a 823e a2be fe3e
000000c0: 6c32 9abd 4a46 44be fdec 9abe c183 093e
000000d0: 5cdc cfbe a8cc f13e 0b85 ddbe b7a7 d53e
000000e0: 8ccc 57be 4d32 a9be df39 d7bd 3208 2fbd
000000f0: 64dd 97bd 24d1 b03e 1a91 4e3e 7205 d3be
00000100: 9684 033f 912a 83be 4109 803d e059 fabb
00000110: 3403 54bc 380c d63d 9f79 713d e7f8 82bd
00000120: 75e5 f53e 9360 263f 048a 06bf 1d23 0c3b
00000130: 4ff6 803e 3f05 eaba b3e2 2b3e 3c09 dd3e
00000140: 084a ad3d 7e7c 983e 21e6 0d3f a439 c5be
00000150: c8c4 e5bd e6b2 ad3e 3216 30be 30cb 96be
00000160: abe2 d7be 33ff 3f3e bf4d 04be 77c2 5d3e
00000170: 2a65 bb3e 1270 ba3e d2a9 843e 50b4 e83e
00000180: 84c0 c63d 950c d83e 47af fc3e 2bdb 023d
00000190: ee85 c13e c32c c8bc 8378 87be 3336 9e3e
000001a0: 8bba 30bf a792 fdbe d06b 353f e6fa 633e
000001b0: bfc5 02bd 912e 913e e4da 8dbe 21ba 96be
000001c0: 8d84 0bbe 5916 743e 76cc 6e3f c0a1 a73d
000001d0: a3df 263d 6f86 173d 1a39 3dbe be6f 4f3e
000001e0: da5d 01be 983e 543e d5bc cabd bb65 dd3e
000001f0: b9f9 af3e 87d2 aa3e fcbd 413e 91b3 4b3f
00000200: ba05 783e e070 8cbe 9d8d dc3c b28c 3ebe
00000210: f83f 653e ce89 a53e b35e 10bf c82d 36bf
00000220: 7fbf cd3e 450f bbbd 5c9d 7e3e 2970 bf3e
00000230: 868b 15bd 11a3 e4be 044c 89be 3ea3 8e3e
00000240: e30f a6bd a466 243e 5f25 ba3e 1b05 0bbf
00000250: 436d 53bf 31c2 803e 4d7f ba3e 8d36 a4be
00000260: a251 5a3d dbf5 c03c 9a1b 683e 1e0f bbbe
00000270: 639b 623e 7876 c6be 5596 eabd de38 97be
00000280: e223 a03d ba9a 863e 3c0b 84be 3ff6 d0be
00000290: 482a fbbe c355 0e3f 1e83 c23d 7581 2bbf
000002a0: b77a 30be 662f 1f3f 3898 6f3f 29f2 c53d
000002b0: edc0 2c3f 4a5a febd d0ac 863e 1fb8 843f
000002c0: 7aa6 c0be d582 cb3c 534f 2fbe 97fe 283f
000002d0: 181d 00bf 8c81 6a3e 3cf2 b2be f50b 1a3f
000002e0: ca6e 963e c559 973d 1aab 01bf 76be 673e
000002f0: 9b78 0bbf c59f f93d bbdf babd 1fab 62bf
00000300: 750f 4abe 5d54 03be 85df a7be 5cdf 4c3d
00000310: f61f 4c3f 198a bf3e 50fc ddbe 767c b93e
00000320: bde2 c7be 3e13 383c ef9c 77bd 1b7f a5bd
00000330: f7d3 363f f4e9 103f 79ea 13be d0dc 813e
00000340: 6955 443e 374a 123f 4d67 503d 38af 2a3e
00000350: 734e d83e ca33 8f3d f80b 9f3e 73a4 933e
00000360: a079 b53d e89b 15bf 9b51 04bf 4851 943e
00000370: e3f9 9f3e e281 29bb 7ed0 27be 9e20 05bf
00000380: 5e80 dabe b041 7d3e 8e4d 163f f305 d03e
00000390: 3202 8abe f5aa 23be 698a d8be efca a6be
000003a0: 27e9 c3be aad7 5dbe 8c99 77be 489e 43bd
000003b0: dd2d ba3e deab d3bb 92a6 a53e 73cd 683e
000003c0: 06f3 5dbf 1329 43be 6592 c13e e414 813d
000003d0: a0ad 18bd 62fc 243e 940c 02bf 3d00 23be
000003e0: 3707 f83e 1bee e2bd 9b66 92be ceea 743f
000003f0: a1ab 033f 03ae 21bf 3c82 493e bf3a 17be
0.41766936 -0.2927732 -0.57606226 0.28638574 0.3416879 -0.6995737 -0.25685772 0.35534135
0.021368226 -0.09325901 -0.25081474 0.45602876 -0.043148614 -0.5116914 -0.21465583 -0.19610849
-0.50894046 -0.35080022 0.2899192 -0.0036133458 -0.25667682 -0.6351395 -0.28104725 0.33149382
0.09266909 0.2689055 0.25679687 -0.023420315 0.16470721 -0.4013027 0.09855025 -0.3384638
-0.065991424 0.17016685 0.20890488 0.84651875 0.013150485 -0.19660598 -0.5765351 0.45556286
0.34545007 0.06390763 -0.04868306 -0.18560034 -0.12963228 0.031394463 0.25434917 0.49754816
-0.075291485 -0.19167438 -0.30258933 0.13429166 -0.40597808 0.47226453 -0.43265566 0.4172952
-0.21074122 -0.3304619 -0.10509085 -0.042732425 -0.07415274 0.34534562 0.2017254 -0.41215092
0.51374185 -0.25618413 0.06251765 -0.0076401085 -0.012940217 0.10451549 0.058953878 -0.063951306
0.48026624 0.6499111 -0.52554345 0.0021383234 0.2518792 -0.0017854347 0.16785698 0.43171108
0.08461386 0.2978248 0.55429274 -0.3852054 -0.11219174 0.3392555 -0.17195967 -0.29451895
-0.4216512 0.18749695 -0.12920283 0.21656214 0.3660062 0.36413628 0.25910813 0.45450068
0.09704688 0.421971 0.49352476 0.031947296 0.37797493 -0.024435407 -0.2645913 0.30900726
-0.6903464 -0.4952595 0.70867634 0.22263679 -0.031926867 0.2835584 -0.27706063 -0.2943888
-0.13624783 0.2383665 0.9328073 0.08185148 0.04074062 0.03699344 -0.18478814 0.2025747
-0.12633458 0.20727003 -0.09899298 0.43241677 0.3437021 0.33363745 0.1892013 0.7957087
0.24220935 -0.27429867 0.026922995 -0.18608359 0.22387683 0.323317 -0.563945 -0.71163607
0.40185162 -0.09133772 0.24864715 0.3739026 -0.036510013 -0.4465566 -0.26815808 0.2785892
-0.08108499 0.1605478 0.36356637 -0.54304665 -0.82588595 0.25148156 0.36425248 -0.3207287
0.053300507 0.023554733 0.22666779 -0.3653497 0.22129588 -0.3876226 -0.11454455 -0.29535574
0.07819344 0.26289922 -0.2578982 -0.4081287 -0.49055696 0.5559961 0.09497665 -0.6699441
-0.17234312 0.621817 0.9359164 0.09665329 0.6748188 -0.12419565 0.2630372 1.0368689
-0.37627012 0.024842659 -0.17120104 0.66013473 -0.50044394 0.2290098 -0.34950435 0.60174495
0.293814 0.07390169 -0.50651705 0.22631249 -0.54480904 0.12188677 -0.091247045 -0.8854236
-0.19732459 -0.12825151 -0.3278772 0.0500177 0.7973627 0.37410048 -0.43356562 0.3622777
-0.39040175 0.011235056 -0.060452398 -0.08080884 0.7141718 0.56606984 -0.14444913 0.2536378
0.19173206 0.5714449 0.050879765 0.16668403 0.42247352 0.069923 0.3106382 0.28836402
0.08861089 -0.5844102 -0.5168702 0.28968263 0.31245336 -0.002586477 -0.16388127 -0.52002895
-0.4267606 0.24732089 0.5871209 0.4062954 -0.269548 -0.15983184 -0.422931 -0.325767
-0.3826382 -0.216643 -0.24179667 -0.04775837 0.36363116 -0.006459697 0.32353646 0.22734623
-0.8669895 -0.19058637 0.37807003 0.06302813 -0.037274957 0.16111901 -0.5080044 -0.1591806
0.48443004 -0.11080571 -0.28593907 0.95670784 0.5143376 -0.63156146 0.19678587 -0.14768504

network_body._body_endoder.seq_layers.0.bias f4 [64]
00000000: 509a 823c fcf9 ffbc 5c4b e23c 4fe8 483d
00000010: 7662 1bbd 29e8 a6bc 34ed 11bd 8025 823d
00000020: 2b5c 1e3d 1db3 483c 973a 4f3c 238a 663c
00000030: 71f2 12bd 00f3 223d c40c c43c ab46 43bd
00000040: 48a1 c63c 8a2b 89bd 8dd9 89bb 5a43 c5bc
00000050: 116b f6bc 82c6 803c 5d15 c13c 8455 31ba
00000060: 9e16 b7bb d2cf 083d cf17 eb3c e1f2 a43c
00000070: 11f6 36bc 6a51 543c 4e61 183d adb1 2f3d
00000080: 437a 99bb 71dc 123d 8748 0a3b e848 693c
00000090: b9c2 883c 5b11 b03c 80e0 773d e795 003c
000000a0: 289d c1bb beb9 843d 4830 f73c c0ad eb3c
000000b0: 27b5 e63c fa54 b3bc 5ae4 123d 940b bf3c
000000c0: ad3d c73c 3819 47bb 4191 58bc 50ed be3a
000000d0: 2202 393c 7f9e 073b 16ff 8c3d a1d7 9bbc
000000e0: 157d 543c 8344 a53c 76dd 7c3c e409 89bc
000000f0: cc42 9cbb dc90 3bbd 4a19 ad3c 7a6a e33c
0.015942723 -0.031247132 0.027623825 0.04904967 -0.037935697 -0.020374374 -0.035626605 0.06354809
0.038662117 0.012249735 0.012648246 0.01407102 -0.03587574 0.039782524 0.023931868 -0.047674816
0.024246827 -0.066977575 -0.0042068423 -0.024079967 -0.03008035 0.015719656 0.023569757 -0.0006764757
-0.005587413 0.033401318 0.028697876 0.020135345 -0.011167065 0.012958864 0.037202172 0.042894054
-0.004683764 0.03585476 0.0021100359 0.014238574 0.016694413 0.02149265 0.060516834 0.0078482395
-0.005908627 0.0648074 0.03017439 0.028769374 0.028162552 -0.021891106 0.035862304 0.02332095
0.024321401 -0.0030380022 -0.013218225 0.0014566574 0.011292012 0.0020693836 0.06884591 -0.019023718
0.012969275 0.02017427 0.01543366 -0.016728349 -0.004768705 -0.045792446 0.021130223 0.027760733

network_body._body_endoder.seq_layers.2.weight f4 [64, 64]
00000000: f015 c7bd 0c73 983d ec57 a53d 2beb 393d
00000010: f21d f5bd 4c89 833c 4f6a 163d 2f6e 2c3d
00000020: 754e c73d f28c d8bd a9c6 97be 24e1 f6bd
00000030: 7c87 d5bd 410d 20be 2720 9ebd 9e41 dfbd
00000040: 219d 9fbd 59d2 3e3d f394 703e e9ef 2c3e
00000050: 3926 e03d 7723 a6be 34c4 1f3e c56c 333c
00000060: 19ed bbbc a3ad 86be 47f7 01be 1bbb e7bd
00000070: f330 c9bd 2749 a639 4e71 5abe ad88 253e
00000080: 3dc0 94bd d83a 8a3d 840e 043e bf36 e63d
00000090: ea03 91bd 2400 e73d 566e 7e3e 1614 99be
000000a0: d70f c9bc 2fd5 623d 7d02 01be 9607 5bbd
000000b0: 53c4 60be 3f55 11be 389a 9dbc 754d 7c3e
000000c0: 41c2 3fbe bfa6 10be e258 a6be 7cc1 39bd
000000d0: 42c9 52bd 2a89 09be b974 3c3e 3aba cfbd
000000e0: 8c41 ec3d 1337 313e ccdc 49bd 7f78 62bd
000000f0: 4dff 543d fbe3 20be 0d45 47be 1168 fcbc
00000100: 105f ccbc 2813 98be 6795 c9bc 7ba4 a9bc
00000110: d3e5 e5bd b61a 4cbe 3a87 67bd d119 38be
00000120: 5b72 86bd 66f4 0b3e b38f 9dbe aa21 603e
00000130: 0236 2b3e 866f 8abd b8e2 953d f354 73bd
00000140: 9536 17be b6c3 99bd 40d2 253e 9c31 373b
00000150: 215b b83d 9f70 d3bd 6b26 8b3d 23e9 c33d
00000160: a121 65bd 5595 753d 0c0f 1b3c 7328 20bc
00000170: 67e0 7abe d2bd 873e a9e1 88bd 641b d2bd
00000180: 900d 95bd 52eb 96bb 1059 7fb7 e992 92bd
00000190: 2a58 cebd 4f8e 3f3e fa2b 1ebd bcc6 31be
000001a0: beca 61bd f5fa 54bd 8c7e 4cbe 714e 06be
000001b0: 374d 9b3c aa33 2d3e 2618 343e 06db e43d
000001c0: 2cec 0a3e 4613 42be 0bd1 30be 8246 62bb
000001d0: 4a9c 1d3d 34c9 86be 2e53 8ebe 78c7 3cbb
000001e0: 1055 0f3d a3c4 ecbd c062 d83c 67ed 033e
000001f0: a593 dfbc b1a3 abbd 5870 33be 1977 06be
00000200: 433b a6bd bab5 693e 9154 983d 630d 4c3c
00000210: 0f89 3cbe c852 27bd fc2e 6bbe da46 2b3e
00000220: 2bd9 803d f08b 99be 6214 303e 141a e8bd
00000230: 5ac4 46bc 7bf0 1abe 8ee8 9a3c a014 043c
00000240: d03c 6f3d d309 cdbd 188a a23d d5b5 2fbc
00000250: 0d92 ecbc 5d56 bcbe d3a7 ae3e 712d f6bd
00000260: 4e35 64be 1913 6abe 3b22 553c c38e 19be
00000270: 87d2 6e3d 88df 32bd 0cef ebbd 1c97 1cbe
00000280: 73e1 45bd b635 a9bc c855 c73d cff8 123d
00000290: 7e86 b63d ce67 dcbc f234 ab3c f4e0 22bd
000002a0: a66b ca3c beed 76bd 9a02 a7bd 2d4f 9abd
000002b0: 4852 dcbd 8b7e d1bd cdaa 28bd 36bb 15bd
000002c0: bf6d 8abb e593 c2bc 5c4d e8bc 4692 213e
000002d0: 2c63 52be 4ed6 0fbc e157 d33d b12a 58bd
000002e0: 3fc7 563e c7dc 913d 19f9 93bd e13f d2bd
000002f0: 3e98 283e 7c46 f23d 6958 93bd e1fd a3bc
00000300: 043f a4bd 4596 de3c cbca 183d 0d20 143e
00000310: 3c06 403e 2170 9a3c b7a5 82bd 7a06 8e3e
00000320: 079f 433e 1310 963d ab43 04bd 52d2 933d
00000330: d12d 19be adc5 d7bb 5bd7 3c3a 6532 38be
00000340: 5266 213e 6827 213d 8031 96bc b5dd a0bd
00000350: e4ec c9bc 9b8e 97bd 5997 113d ac29 cc3d
00000360: 7ebd cbbd fd9f a93d 8586 21be 7647 c2bd
00000370: 6607 913d 067c 8bbd 3352 b0bc a725 eebd
00000380: 377a fd3d df7b 41be 094e 353d 0673 d93d
00000390: 17eb 663e ed1b 64bd 8c10 073e fc79 ef3b
000003a0: 8cec 2b3b b982 79bb cb7f 15bd 1f2b d13d
000003b0: 81e1 b73e 27b9 a2bc 874e d8bc 7dbc b0bc
000003c0: b2f2 c6bd c064 38be 551e 06bc 8074 1e3e
000003d0: 39c6 4a3e 9c1b 8abd c7fc f83d 59c3 8e3d
000003e0: 87f4 a83d 387c 713d d55f 6dbe 9d5c 03be
000003f0: 4ae1 ad3b a42c bcbc d73d e83d d426 77bc
-0.09720981 0.074438184 0.080734104 0.04539029 -0.11968602 0.01605668 0.036722478 0.042097267
0.09731761 -0.10573758 -0.29643753 -0.12054661 -0.10426232 -0.15630056 -0.07720976 -0.10901187
-0.07793642 0.046587322 0.2349432 0.16888393 0.109447904 -0.32448933 0.1560219 0.010951226
-0.022940205 -0.2630435 -0.12691985 -0.113149844 -0.098237894 0.0003171649 -0.21332285 0.16165419
-0.07263229 0.06749505 0.12896162 0.11240911 -0.07080825 0.11279324 0.24846777 -0.29898137
-0.024543686 0.05537909 -0.12598605 -0.05347403 -0.21949892 -0.14192675 -0.019238576 0.24638923
-0.18726446 -0.14126109 -0.32489687 -0.045350537 -0.051461466 -0.1343123 0.18403901 -0.10142942
0.115359396 0.17306165 -0.049282834 -0.055290695 0.052001286 -0.15711968 -0.19459935 -0.030811341
-0.024947673 -0.29702115 -0.024607373 -0.020708313 -0.11225476 -0.19932064 -0.056525446 -0.17978598
-0.0656478 0.1366745 -0.30773696 0.21887842 0.16719821 -0.06759553 0.07318634 -0.059407186
-0.14766915 -0.07508032 0.16193485 0.0027953153 0.090017565 -0.10324215 0.06794437 0.09565952
-0.055940274 0.059956867 0.009464037 -0.009775269 -0.24499665 0.2651201 -0.06683666 -0.102591306
-0.072779775 -0.004605689 -1.5219921e-05 -0.07156927 -0.1007541 0.1870663 -0.038616158 -0.17360967
-0.05512499 -0.051997144 -0.19970149 -0.1311586 0.018957717 0.1691424 0.17587337 0.11174588
0.13566655 -0.18952665 -0.17267244 -0.003452689 0.038479127 -0.2632538 -0.27797836 -0.0028805416
0.03499323 -0.11560943 0.026414275 0.1288353 -0.027292082 -0.08380831 -0.17523324 -0.1313137
-0.08116772 0.2282323 0.07438005 0.0124543635 -0.18411659 -0.04085043 -0.22967142 0.16726246
0.062914215 -0.29989576 0.17195275 -0.11333099 -0.012131775 -0.15130799 0.018909719 0.008061558
0.058407605 -0.100116394 0.079364955 -0.0107245045 -0.028878236 -0.3678464 0.34112415 -0.12020386
-0.22285959 -0.22858848 0.013008649 -0.14995866 0.058306243 -0.043670207 -0.11520204 -0.15292019
-0.04831071 -0.020655494 0.09733158 0.035881814 0.08912371 -0.026904967 0.02089927 -0.039765313
0.024709534 -0.060285322 -0.08154793 -0.07534633 -0.107578814 -0.10229214 -0.041178513 -0.03655549
-0.0042245085 -0.023752162 -0.0283572 0.15778455 -0.20545644 -0.008779122 0.10319496 -0.05277509
0.20974444 0.07122188 -0.07225246 -0.1026609 0.16464326 0.1182985 -0.07194597 -0.02001852
-0.08019832 0.027171263 0.037302773 0.14465351 0.18752378 0.018852295 -0.06379264 0.27739316
0.19103633 0.07327285 -0.032291096 0.0721785 -0.14958884 -0.006584844 0.00072037213 -0.17987974
0.15761688 0.03934422 -0.01833415 -0.07854787 -0.024649091 -0.07400247 0.035544727 0.09968886
-0.09948252 0.082824685 -0.15773971 -0.09486286 0.07081489 -0.06810765 -0.02152357 -0.11628275
0.12376826 -0.1889491 0.044263873 0.10617642 0.22550617 -0.055690695 0.13189906 0.007308243
0.0026233522 -0.0038072302 -0.036498826 0.10213303 0.35914233 -0.019863678 -0.026404632 -0.021574253
-0.09714259 -0.18007183 -0.008185943 0.15474129 0.19802178 -0.06743547 0.121575885 0.06970853
0.08249765 0.058956355 -0.23181088 -0.12828298 0.0053063976 -0.022970505 0.1133992 -0.015084941

network_body._body_endoder.seq_layers.2.bias f4 [64]
00000000: d03c 2b3d c1bf f13c ea58 7b3d f2ea 543c
00000010: 27ab 3dbd c796 423c a5d9 6d3d 97fc dd3a
00000020: a824 4c3d e2e0 223d e1f7 27bc 5b9b 553d
00000030: 71f9 063c 9ba2 723c 48d5 b83c bc4e 503c
00000040: a574 ad3c c53b febc 7999 b63c 9dc8 99ba
00000050: ed61 b3bc 889d f03c d944 8cbc 9ed7 483c
00000060: 57f1 adbc a5c4 1b3c 72c0 c13c 287c bbbc
00000070: bfa6 e13c 1a9d 323d bfe1 113c d256 07ba
00000080: c3f6 013d 22b8 c2bc 886b 68bb 8ab4 173d
00000090: c7e0 e33a 8f09 0c3d a9d3 62bc 6627 14bc
000000a0: 5201 b9bc 8387 55bc b1d0 913c 2a98 8d3b
000000b0: bc67 f13c afc8 dbbc 71cd 3bbc b1e3 eb3c
000000c0: aed6 c3bb f25b 183d d321 23bb b912 19bc
000000d0: 4429 ca3c ef0b 89bb cb17 413d f3bc 9d3c
000000e0: 1130 d5bc 2d91 2d3c 1148 813d f43e d639
000000f0: 9303 843d f442 19bb ad32 273d 8965 093a
0.041806042 0.02951038 0.061364092 0.012995468 -0.0463058 0.011876768 0.05806889 0.001693624
0.049839646 0.039765246 -0.01025197 0.05215011 0.008238182 0.014809276 0.022562638 0.012714084
0.021173785 -0.03103436 0.022289978 -0.0011732761 -0.02189728 0.029371992 -0.017122673 0.012258438
-0.021233244 0.009507333 0.023651335 -0.02288635 0.027545331 0.043606855 0.00890392 -0.00051627785
0.03172947 -0.023769442 -0.0035464484 0.03703741 0.0017385714 0.034188803 -0.013844409 -0.009042596
-0.022583637 -0.013032797 0.017799707 0.004321118 0.02946841 -0.026829092 -0.011462555 0.028795095
-0.0059765195 0.03719706 -0.0024891987 -0.009342843 0.02467788 -0.004182331 0.04714183 0.019255137
-0.026023896 0.010593695 0.06312574 0.00040864164 0.06445994 -0.0023385854 0.040819813 0.0005241265

network_body._body_endoder.seq_layers.4.weight f4 [64, 64]
00000000: 8f8c b9bd 48b0 e13d 372d 983e 02d7 37bd
00000010: 2bd4 27be e4f8 a1be e4f3 75be 0a46 41bd
00000020: 7676 d33d f392 9b3e 4c8d 433d 86e7 18be
00000030: 84c6 7c3e d297 3abe b08d 163d 0018 76bd
00000040: f75c d53a 3531 cebd 7955 2bbe da40 56bd
00000050: af51 07be 3959 6dbd ac11 85be 4c12 b5bd
00000060: b918 f43d ec64 40be f861 bebc 8c3d 3dbd
00000070: aa8a 92bc 194d 973c e49c 6a3e fed1 3b3d
00000080: f0ec 273d 175c 2dbe 4879 4bbe 3d9d e7be
00000090: 6635 c83d a5bb 3b3e 96a5 1d3c 7c9d 273b
000000a0: f1e0 c1bd 6b76 cebd 6a6b c63d 9375 123e
000000b0: bb95 85be da45 2fbd 7afc cd3d 701a 06bf
000000c0: ed03 dcbc ca87 b7bc b0eb e9bc 8a01 e2bc
000000d0: 67bb 203e 8b26 403d 57ac 683e 4c48 d43c
000000e0: a487 393d 4ae5 89bd 88c3 0d3d ba86 25bd
000000f0: 17cc 273e 14dd 42be 90d4 933e 1393 04bd
00000100: 1e15 17be 4ecd cf3d 7963 42be 4e63 edbd
00000110: d63a 163d 83b1 583e 7cd9 c1bd f38e 593e
00000120: 9594 a33d 81de 793d 4605 15be 576f a0bd
00000130: 8c70 233e f48e dbbd cfd0 43bd 501a be3d
00000140: d965 e5bd 2e2f c83d 5631 113e 5676 d3be
00000150: 1a4f e93d 2b8f e5bd b3e1 eebd 54b8 febc
00000160: 83ae e2bd 9c9a 363e afda 64bc 7b95 56bd
00000170: 3482 7ebe 3152 bb3d e54e 3fbe 3657 09bd
00000180: 562b cbbd 0592 253a 2078 0d3d a572 c3bd
00000190: 9c36 293d a0f3 63bd 004b 03be b658 58be
000001a0: b0d1 473d 93c6 843d 9de3 f6bc ed62 443a
000001b0: a3ce 59be c266 83bd d8c2 5dbe 04a5 9fbd
000001c0: 3070 8dbc d7d6 05be 17e8 eabb 8dbd 9ebd
000001d0: 730c 81be 5623 8e3d dea4 753c ce03 93bd
000001e0: eb0c 78be 5fad 2c3e b9ca f43d bd2f 1e3e
000001f0: 36e7 f63c acb0 90bc e6ef adbd 45e0 f6bd
00000200: f19b d23d f87d eabd ed79 0a3e 7803 b73d
00000210: a4e0 1e3d 84cb d6bb cdc9 f03d 3aea 783c
00000220: 9afd 5fbe 29b6 3ebc 2ddc 04be 6b51 a53e
00000230: b397 293e 1aff 1b3d e3ce b23b 6f73 fabc
00000240: fb10 67bd 342b 68be 8453 a53b e341 19bd
00000250: e154 83bb 1a03 2dbb b2c6 5fbd 6f23 473a
00000260: 0118 e43d f170 8ebd 0c86 6ebe b9fd 00bd
00000270: 9224 823e fb98 58bb 0976 203e 1494 1e3d
00000280: dd5d f63c a4b2 92bd 0093 1d3e bbcc 6ebd
00000290: f4ae 2ebe 65ac e4bd f58c 3c3d 9c02 96bd
000002a0: fbb7 20bd 59ab 09be a90d a63d 4715 bbbe
000002b0: 4671 343d 49a9 743d fc45 5ebc 049f 573e
000002c0: ccea a8bd 7ad6 c93d 04ad 3e3e 867d e03d
000002d0: 4341 35be 3ce9 e4bd e9cc 91be 48d0 053d
000002e0: 0f99 68be 52f2 e23a 6dac c2bd 95d9 dcbd
000002f0: 0c55 043e a3c4 143e 416e 75bd da05 34be
00000300: 251f 74bd d1da 8dbc cf97 d8be a5ed 4ebc
00000310: 7649 303d af7b 9bbc 0de1 72bd bf6e 8b3d
00000320: 8826 70bd ae69 c33c c64b 2c3d 8626 c0bd
00000330: 0c7a 9f3e 67c5 23bd cbee 70be 01cb 3fbe
00000340: 7828 8abe 527e 8d3d 05f2 85bd 0766 26be
00000350: 9044 6fbe 132a 44bd d6eb 943e 4622 3c3d
00000360: eaca bdbd c779 7e3d 7abb b53d 6937 af3c
00000370: d5b6 223d 31f5 063c 158e 3ebc da90 9d3c
00000380: cf6a a1be 4205 a0bd a0bf 0abc bb2a 063d
00000390: a002 fc3d ed50 90bd a4fd 513d c1e5 e5bd
000003a0: 3aa2 38be ad5b 12be b8c4 d8bd 2a07 eabd
000003b0: b261 d3bb 2c62 50bd c60a eb3c c8a7 16bd
000003c0: a3d3 853b f3fe 1bbe fcaa 18be b963 bebd
000003d0: fae3 87be 77ab 363e de95 a2bd 3e11 aabd
000003e0: 209c 95bd ea3a 183e 6c26 f5be 397b 8dbd
000003f0: b409 093e f255 4ebd 16cf 8a3d 53bb 43bd
-0.090600125 0.11019951 0.29721996 -0.04488278 -0.1638953 -0.316352 -0.24018818 -0.047185935
0.10325329 0.3038555 0.047742173 -0.14932069 0.24685103 -0.18221977 0.036756217 -0.060081482
0.0016278316 -0.10067979 -0.16731824 -0.05230794 -0.13214754 -0.057946417 -0.25990045 -0.088413805
0.11918778 -0.18788499 -0.023240075 -0.046201274 -0.017888386 0.01846938 0.22911412 0.04585456
0.040997446 -0.1692966 -0.19870484 -0.4523715 0.0977581 0.183333 0.009621998 0.0025576046
-0.09466732 -0.1008118 0.09688456 0.14302664 -0.26090798 -0.042791225 0.10057922 -0.5238409
-0.02685734 -0.022403616 -0.028554767 -0.027588625 0.15696488 0.046911757 0.22721992 0.02591338
0.045295373 -0.067331865 0.0346103 -0.04041169 0.16386448 -0.19029647 0.2887311 -0.032366823
-0.1475415 0.10146581 -0.18983258 -0.115912065 0.036677204 0.21161465 -0.0946531 0.21245937
0.07987324 0.061003212 -0.14552793 -0.078337364 0.15960902 -0.107206255 -0.047806557 0.092823625
-0.112010665 0.09774624 0.14178976 -0.4130122 0.113920406 -0.11208948 -0.116641425 -0.031093754
-0.11068442 0.17832416 -0.013968154 -0.05238865 -0.24854356 0.09146536 -0.1868244 -0.033530436
-0.09920375 0.0006316009 0.03453839 -0.09543351 0.041311845 -0.05565226 -0.12821579 -0.2112759
0.048783958 0.064831875 -0.030137831 0.0007491548 -0.21270232 -0.06416084 -0.21656358 -0.07795146
-0.01726541 -0.13070236 -0.0071687805 -0.07750998 -0.2520481 0.069403335 0.014992921 -0.0717846
-0.24223678 0.16863011 0.11952729 0.15447898 0.030139547 -0.017662369 -0.084930226 -0.12054495
0.1028365 -0.11449808 0.13523073 0.089362085 0.038788453 -0.0065550227 0.117572404 0.015192563
-0.21874085 -0.01164011 -0.12974615 0.3228868 0.16561775 0.03808508 0.0054567917 -0.030572621
-0.05641268 -0.2267273 0.005045356 -0.03741635 -0.004007921 -0.0026399554 -0.05463285 0.00075965276
0.11137391 -0.069551356 -0.23293322 -0.03149197 0.25418526 -0.0033050168 0.15670027 0.038715437
0.030074054 -0.07162979 0.15388107 -0.058300715 -0.17058927 -0.11165694 0.046032865 -0.073247164
-0.039237957 -0.1344427 0.08108074 -0.3653967 0.04405334 0.059731755 -0.01356649 0.21056753
-0.08247909 0.09855361 0.18620688 0.10961442 -0.17700677 -0.111772984 -0.28476647 0.032669336
-0.22714637 0.0017314649 -0.09505544 -0.10783688 0.12923068 0.14528136 -0.0599196 -0.17580357
-0.059600014 -0.017316254 -0.4230332 -0.012629901 0.043038808 -0.018979875 -0.059296656 0.068082325
-0.058630496 0.023854103 0.04206445 -0.09382348 0.31147802 -0.03998318 -0.23528592 -0.18729784
-0.26984 0.06908859 -0.06540302 -0.16249858 -0.23365998 -0.047891688 0.2908618 0.045931123
-0.092672184 0.062127855 0.08873649 0.021388726 0.039725143 0.008237169 -0.011630555 0.01923411
-0.315268 -0.07813503 -0.0084685385 0.032755595 0.12305188 -0.07046685 0.05126728 -0.11225463
-0.18030635 -0.14292784 -0.10584396 -0.11427148 -0.006450855 -0.050874874 0.02869166 -0.036781102
0.004084067 -0.15233974 -0.14908975 -0.09296364 -0.2654112 0.17838846 -0.07938741 -0.0830407
-0.07305169 0.14866224 -0.47880876 -0.069082685 0.13382608 -0.050374933 0.0677778 -0.04778607

network_body._body_endoder.seq_layers.4.bias f4 [64]
00000000: 2426 6c3d 591c 7f3a 4978 123d 9010 5f3c
00000010: e994 ce3c a27a 243c fb97 2c3c c59a c83c
00000020: 8dee d13c 3a1a 07bb 1992 2f3d 01e2 023c
00000030: caca 333c dc51 50bc 22c2 003d 9f76 65bb
00000040: f9d0 9c3c f0f2 533a bff3 a3bb cafb 0a3d
00000050: b732 a43c 6be2 b43c 0ee6 8939 5f86 ba3c
00000060: cbfe f93c f6d8 bbbb d695 59bb 2432 c1bb
00000070: a052 2e3a 80c1 b23c a593 683d 68f1 623c
00000080: 77d5 5bbb b33d 323c 2edf 3f3c 399a a13a
00000090: 84cb 033b 4296 82bc e9d8 283d cf6b 023c
000000a0: 62a8 9c3b 79cd 8b3c e934 b7ba a35d 973c
000000b0: 4105 573c 737f 943c f4de 573c f258 973c
000000c0: 3dcd ca3c dd74 bf3b 0b6c ae3c 374c 803c
000000d0: 7afa 5a3c 8684 ad3c d6e0 bdbb 3329 173c
000000e0: 8465 be3a c7f7 48bc 3ce1 c93b 5c07 35bb
000000f0: c568 35bb d22e bf3c 5547 afbb f5ee 133c
0.05765356 0.0009731702 0.035759244 0.013614789 0.02521749 0.010039004 0.010534282 0.024487862
0.025626445 -0.0020614997 0.04286394 0.007988454 0.010973642 -0.012714829 0.03143514 -0.003501333
0.019142615 0.0008085212 -0.005003422 0.03393153 0.020043714 0.02208062 0.0002630208 0.022769151
0.030517003 -0.005732651 -0.0033200881 -0.00589587 0.00066498853 0.021820784 0.05678143 0.013851501
-0.0033543983 0.010878968 0.011710925 0.0012329287 0.0020110318 -0.01594079 0.041222487 0.007960274
0.004780815 0.01706575 -0.001397756 0.018477267 0.013123811 0.018127179 0.013175715 0.01847503
0.024756068 0.0058427886 0.021291753 0.015661342 0.013365382 0.021181356 -0.005794625 0.009226131
0.0014526104 -0.012266106 0.0061608832 -0.0027622795 -0.0027680856 0.023337755 -0.0053490796 0.00902914

action_model._continuous_distribution.log_sigma f4 [1, 2]
00000000: 653d 0bbd b9b4 1abd
-0.033994097 -0.037770007

action_model._continuous_distribution.mu.weight f4 [2, 64]
00000000: 7f1b 013e ec4b 4e3b fa2b 7cbd 1101 8bbd
00000010: f541 8cbd f4c1 fbbc 4611 acbc 83f0 9c3c
00000020: c2d9 e5bc ee58 a8bc 34c4 793d 5f8d 30bc
00000030: e2d7 23bd 8d83 90bb bdab a9bd 8af3 c63c
00000040: 9380 e93c 4540 1cbd a471 d5bb 9ad2 adbd
00000050: 7f9d 34bc 3317 b83d 836d 56bc 5639 c3bc
00000060: 4dc9 5e3d 9e36 193d bf72 ac3c f592 06bb
00000070: 6d9b 053d 8dd5 eebc 0b4c b63d 91cc 42bc
00000080: 4c5d af3c 24f4 a93d 6853 51bd 6f42 a23c
00000090: e993 5c3c 0afe 3fbb 1f51 5dbd 2718 6a3d
000000a0: 1aff 33bd 1424 9d3c ad4b af3d 3f90 80bd
000000b0: 908c 56bc 75cf 8dbb 6f6f 8a3d f0b4 b4bd
000000c0: f8a4 873d 7b47 39bd cb2d 9c3b 8d0e 8c3d
000000d0: 418b f33c 9fcd 86bd 641b 03bc f07a 3e3c
000000e0: b953 b63c ca78 62bb 1300 11bd 38d1 0cbc
000000f0: e438 6cbc f95a c33c 38c5 383d 6a73 86bd
00000100: fe50 e4bc 28bf b7bd b506 6a3d aebd dbbd
00000110: b5bd 593c 8e4f 1e3d 4bd8 073d 5284 6f3d
00000120: 6b55 d93c bbae aabd ec25 b73d 011f b9bd
00000130: 4ea5 f6bc 478a 29bc 0af7 1b3d 8ab4 15bd
00000140: 9b9d 653d 54a2 54bc 00cb b6bd 7934 743c
00000150: dcd4 8d3d e41a b33a 6c1c 7abd ca57 993d
00000160: 8eff b33d 353c 34bd 6bbf 85bd 43cb 79bc
00000170: c3ea a6bd b06f 8a3d 3625 813c 1da4 833d
00000180: b77a d4bb 3e14 99bc 37b4 28bc 934d ec3c
00000190: b476 babd d6a6 0cbc e85d a33d c8c3 803c
000001a0: 2b24 853c 9996 483d fc18 8bbb c1b0 223d
000001b0: 580a 783c 4956 933c d620 dfbc c399 84bd
000001c0: ae01 383d e334 92b9 c3ae 563d 3931 d23c
000001d0: e8d3 b73d 3012 593d 7651 f7bc 8bb8 343d
000001e0: be7a dcbd 11ed e9bc 3f7d cdba ec4c 5cbd
000001f0: cf79 c4bc 809b 1d3d 6ea4 96bc 3f10 bcbc
0.12608145 0.0031478358 -0.061565377 -0.06787313 -0.06848518 -0.030732132 -0.02100433 0.019157654
-0.028057937 -0.020550217 0.06097813 -0.010775893 -0.040000804 -0.0044102133 -0.082847096 0.02428605
0.028503692 -0.03814723 -0.006513791 -0.08487435 -0.011023878 0.089888 -0.013087633 -0.02383105
0.054391194 0.037405603 0.021050809 -0.002053437 0.03261893 -0.029154563 0.08901223 -0.011889593
0.021406792 0.08298519 -0.051104933 0.019807069 0.013462999 -0.0029295706 -0.05403244 0.05715194
-0.043944456 0.019182242 0.08559356 -0.06277513 -0.013095036 -0.0043277093 0.067595355 -0.088235736
0.06623262 -0.045234185 0.004766201 0.06838713 0.029729487 -0.06582188 -0.008002136 0.01162599
0.022256719 -0.003455686 -0.03540046 -0.0085948035 -0.014417861 0.02384709 0.045109957 -0.06564982
-0.027870651 -0.08972007 0.057135303 -0.10729538 0.013289859 0.038650088 0.033165257 0.0584758
0.026529988 -0.083341084 0.0894278 -0.09039117 -0.03010812 -0.010347909 0.03807739 -0.03654913
0.056058507 -0.012978155 -0.08925438 0.014905089 0.06925365 0.001366463 -0.06106226 0.074874476
0.087889776 -0.04400273 -0.06530651 -0.015246215 -0.08150246 0.06759584 0.015764814 0.064277865
-0.0064843553 -0.01868641 -0.010296873 0.028845584 -0.09104672 -0.008584699 0.079768956 0.015718356
0.016252598 0.048971746 -0.0042449217 0.039719347 0.015139185 0.01798548 -0.027237337 -0.0647464
0.044923477 -0.00027886694 0.05241276 0.025658237 0.08975965 0.05299586 -0.03019021 0.044121306
-0.10765599 -0.028555425 -0.0015677585 -0.053784296 -0.023983864 0.038478374 -0.018388953 -0.022956965

action_model._continuous_distribution.mu.bias f4 [2]
00000000: 241e a8bb e91d 033c
-0.005130546 0.008002737

exp_avg f4 [64, 8]
00000000: c424 013a b72f 52ba 68d8 0a3a f70a 7f39
00000010: 3257 bf39 25ac 1a3a 17bf 18ba 8fe5 9bb9
00000020: f45c 3239 7e9b 14b9 8622 3639 cc3c edb8
00000030: 7093 1d38 824d 5d39 7619 2039 da46 37b9
00000040: fc41 8aba 2372 2939 f4b3 eeb9 9788 8ab9
00000050: 9195 3539 30f3 93b9 6c16 443a ee9e 8839
00000060: 892f 0538 86bd 9bb9 3345 0339 9a58 5a38
00000070: eaf0 8439 ea61 1239 a760 d9b8 d403 c7b8
00000080: 7de0 f138 fcca f438 d24c 0b39 77c3 8e39
00000090: 8a2a 75b7 eb65 16b8 d696 c0b9 920e b939
000000a0: c183 5cb9 ee45 39b9 5d41 4138 c406 02b9
000000b0: 266c 81b8 c376 6739 2f4a d238 10a8 8bb9
000000c0: 5206 e5b8 2f64 7b39 7f1f 00b9 2733 c538
000000d0: 515f 76b8 ad37 f4b8 072a 06b9 4254 6139
000000e0: a49c dfb9 4cd1 a139 3202 6db9 f699 2db9
000000f0: ae19 dab9 1b48 5739 ba35 993a c8ef ffb9
00000100: 33bb 0fb9 5c5d 0bba 4134 c239 30a3 33b9
00000110: 75bc 9739 b73d 133a 4106 2a3a fd61 1eba
00000120: d60d 123a 21cc 8fba 9d65 8c3a f2e7 8f38
00000130: e5ec cc39 d283 d039 5cd6 43ba 0069 96b8
00000140: b5e8 86b9 171b a0b8 f161 c0b8 b0f9 edb8
00000150: 3b4b bc39 6995 0c39 0626 a839 a85b 6539
00000160: 7065 1d3a 01d9 613a 1068 0fba 5203 163a
00000170: a93d 1fb9 abaf 42ba c8fa 9eba a1a8 7d3a
00000180: f0dc 6d39 4e47 5c38 b29b 9b38 b478 b039
00000190: a56b 18b9 2782 c938 fdb9 62ba 6ca1 ed39
000001a0: eef8 70b9 0bdc 163a 3346 8bba 7ac3 bab9
000001b0: 4734 1eb7 3b59 25ba 36cf 15ba 0d50 133a
000001c0: 1fc2 31b7 d3e9 9b39 6af9 0db9 a1da 2138
000001d0: 9b3b 0c37 5197 1fb9 e043 edb8 4f0b 9139
000001e0: dc4c ee39 4618 93b8 4abd 0d3a f6bc a039
000001f0: eece 8737 6d66 9739 84f5 f4b9 598b 8f39
00000200: 81c4 99b9 ac4f ab39 5fae 5eb9 9555 e7b8
00000210: 282e 9db8 5e67 cbb6 01f5 9e39 4715 0139
00000220: fead b2b8 7a53 e7b6 b551 9138 1dfb edb8
00000230: 1f02 4b38 e468 ec38 068c 9db8 5e38 8438
00000240: 23e2 5f38 3665 d038 e9e6 c3b9 4dfc 1138
00000250: ce01 2f39 380b 72b9 a616 f739 88e2 9c38
00000260: 4f46 4db7 77a0 3137 e6dd 6a38 78a4 8c37
00000270: 555c 1ab8 b767 a838 ed03 53b9 f852 31b7
00000280: 52d0 1d39 83e3 b738 bc9d 25b9 228b b238
00000290: 0599 fd38 09b4 c9b8 492d 6fb9 f588 6738
000002a0: ddbf 183a 7eb3 0e3a 2039 f337 3f40 ce39
000002b0: 223b 19b9 92f2 5239 e534 40ba 6211 613a
000002c0: 9b6f 72ba 768b 4d3a bc68 eab9 626e aeb8
000002d0: 8288 22b9 f5d9 0839 eb4c 863a f53d ed38
000002e0: f84e ee38 9f10 3db8 5383 2d37 b10a 8eb7
000002f0: a512 37b9 6505 72b8 b4a7 8e39 12e2 edb9
00000300: 310d 5e39 b00e b138 da2a 53b9 03ac 1239
00000310: cad3 02b9 6dc0 12b9 fefe 60ba e220 3139
00000320: daef 5f39 86a1 293a 9d10 fdb9 563d 9738
00000330: 44b8 b0b9 1298 08ba ceb0 8bba 7e04 0e3a
00000340: f4af 2d3a 7f86 e1b9 249a 2239 e86a cf39
00000350: 4056 fb39 a613 b0b9 7f59 8aba 9031 313a
00000360: 3508 5638 cf1c 9bb9 bdd3 a439 4d5f 9b37
00000370: d75c 2638 462e b639 8ef8 d539 82f2 fbb9
00000380: 0b3e 1e39 0cee 17b8 42f2 7fb7 4797 cb39
00000390: 0979 9039 2503 26b9 9826 16ba 97e0 de39
000003a0: 4139 e3b9 dd5e 163a 367f 07ba ffad 7337
000003b0: 8999 76b9 2672 dbb9 212d 15b9 9c92 ea39
000003c0: a635 3438 3c20 6639 456e cfb9 a23b 2839
000003d0: e215 9137 a049 a2b9 ea15 1bba 48f5 cf39
000003e0: 0ea3 3e3a a9af 9aba de04 2b3a 87dd 4739
000003f0: f6ff 003a f3dc b839 7b23 293a cb80 7cba
0.0004926438 -0.00080179743 0.0005296529 0.0002432278 0.00036495324 0.00059002853 -0.00058268144 -0.00029734938
0.0001701003 -0.00014172305 0.00017369734 -0.00011312365 3.756903e-05 0.00021105076 0.00015268274 -0.00017478634
-0.0010548229 0.00016159615 -0.00045528973 -0.00026423178 0.00017317223 -0.00028219214 0.0007480148 0.00026058353
3.175394e-05 -0.0002970511 0.00012518912 5.2057767e-05 0.00025356497 0.00013960121 -0.00010365369 -9.4897725e-05
0.0001153359 0.000116726354 0.00013284691 0.00027229983 -1.4613042e-05 -3.5857705e-05 -0.00036733475 0.00035296805
-0.00021029917 -0.00017669026 4.607566e-05 -0.00012400287 -6.1713436e-05 0.00022074119 0.00010027398 -0.00026637362
-0.00010920748 0.00023974547 -0.00012218764 9.40322e-05 -5.873974e-05 -0.00011645197 -0.00012794892 0.0002148906
-0.0004265058 0.0003086425 -0.00022602899 -0.0001655592 -0.00041599333 0.00020530859 0.0011688985 -0.0004881604
-0.0001370728 -0.0005316341 0.00037041496 -0.00017131562 0.00028941376 0.0005616801 0.0006485917 -0.0006041823
0.000557152 -0.0010970869 0.0010711435 6.8619745e-05 0.00039086412 0.00039771065 -0.00074706017 -7.172115e-05
-0.00025731852 -7.6344404e-05 -9.1735164e-05 -0.000113475486 0.00035914205 0.000134071 0.00032071787 0.00021873286
0.000600419 0.0008615405 -0.00054705236 0.00057225407 -0.00015186392 -0.0007426689 -0.0012129182 0.0009676312
0.00022684387 5.2518495e-05 7.4199765e-05 0.00033659267 -0.0001453595 9.60867e-05 -0.000864893 0.0004532443
-0.00022980917 0.0005754835 -0.0010625779 -0.00035622326 -9.429706e-06 -0.0006307547 -0.0005714776 0.00056195335
-1.05952195e-05 0.00029738116 -0.00013539722 3.8589005e-05 8.358528e-06 -0.00015219791 -0.00011313683 0.0002766498
0.00045452162 -7.0140275e-05 0.00054069294 0.00030658365 1.6189613e-05 0.00028877278 -0.0004672223 0.00027378908
-0.0002932884 0.00032675022 -0.00021236528 -0.00011030879 -7.494941e-05 -6.061905e-06 0.0003031865 0.00012310325
-8.52011e-05 -6.8940544e-06 6.929358e-05 -0.00011347814 4.8400947e-05 0.00011272894 -7.512425e-05 6.30475e-05
5.337795e-05 9.937065e-05 -0.0003736534 3.4805667e-05 0.00016689973 -0.00023083098 0.00047128386 7.4808544e-05
-1.2235322e-05 1.0587383e-05 5.5996607e-05 1.6765887e-05 -3.6802452e-05 8.030183e-05 -0.0002012399 -1.056934e-05
0.00015050292 8.768497e-05 -0.00015794387 8.513617e-05 0.00012092482 -9.617961e-05 -0.00022809686 5.5202243e-05
0.00058269297 0.00054436165 2.8994458e-05 0.0003933925 -0.00014613246 0.00020117525 -0.00073321006 0.0008585659
-0.0009248198 0.00078409107 -0.0004470999 -8.317527e-05 -0.00015500377 0.00013051166 0.0010246312 0.00011312581
0.000113634334 -4.507659e-05 1.034218e-05 -1.6932698e-05 -0.00017459186 -5.770232e-05 0.000272093 -0.00045372598
0.00021176484 8.4427535e-05 -0.00020138492 0.00013987724 -0.00012476664 -0.00013995329 -0.00085829187 0.00016892285
0.00021356289 0.0006470907 -0.00048268298 7.211666e-05 -0.00033706625 -0.00052106485 -0.001065755 0.00054175395
0.00066256453 -0.00043015552 0.00015506946 0.00039561768 0.00047938712 -0.00033583975 -0.0010555236 0.00067593995
5.102922e-05 -0.00029585368 0.00031438275 1.8521818e-05 3.9663948e-05 0.00034748222 0.00040811714 -0.00048055133
0.00015091167 -3.6222904e-05 -1.52555895e-05 0.00038831888 0.00027555999 -0.00015832165 -0.0005727797 0.00042510472
-0.0004333947 0.00057361816 -0.0005168797 1.452444e-05 -0.00023517584 -0.00041855982 -0.00014226559 0.0004474119
4.296531e-05 0.00021946518 -0.00039564274 0.00016043943 1.7295537e-05 -0.00030953903 -0.0005916046 0.00039664865
0.0007272222 -0.0011801618 0.00065238576 0.00019060644 0.00049209537 0.00035259835 0.00064521254 -0.0009632229

exp_avg_sq f4 [64, 8]
00000000: f7a2 0a36 b761 2d36 c24c 2e36 dd4a 8d36
00000010: 106a 5636 306c b035 7b9f be36 6841 9335
00000020: 2015 a034 85de 8b34 68c7 bc34 58d0 b534
00000030: 402f a934 7f13 6d34 b350 f734 35ce 1a34
00000040: 440a 1836 a373 0e36 aaed 2836 cf2b 8436
00000050: f2ba 2f36 d011 9935 f2b8 e036 06d1 9535
00000060: d922 a634 5296 d334 e6e3 bb34 3702 9534
00000070: b24e a834 0eba 8e34 540e df34 0a31 7e34
00000080: fa15 8535 1e33 8235 8c21 a635 567e 3036
00000090: b78f a835 1f84 ce34 c9ec 4036 e04a 9d34
000000a0: e559 be34 8224 1935 62e2 f834 a0d8 cb34
000000b0: 9bf8 2035 8f64 b834 3fa5 fd34 52ac f534
000000c0: 5d01 cc34 b066 e934 b1e6 eb34 299c 2935
000000d0: 296c 3035 ac55 8d34 cefb 9a35 fb31 c634
000000e0: 297e 4736 d679 5e36 272a 5836 3415 5a36
000000f0: d487 7a36 5cd7 0b36 cca2 7336 0212 1b36
00000100: ca1a 0236 54c8 e535 e632 2736 0289 2536
00000110: 0d95 2136 0799 9b35 4ff9 3136 5f35 9035
00000120: 58d3 8836 7349 9e36 9812 a136 7c24 9c36
00000130: fd01 d236 87e5 2b36 1719 fa36 d387 3436
00000140: 69f6 2035 033c 2235 4da9 8435 142c 2835
00000150: 47ce 5f35 5723 0635 91d2 0036 b23a 0735
00000160: aa77 e536 ebad e836 98b5 e136 f7da 1037
00000170: 7c81 fd36 aba3 9336 debf ed36 6466 8036
00000180: e7d7 bb35 1554 8b35 77cb b635 8fd3 ef35
00000190: 5231 c935 7387 2f35 faec 2636 2d57 1f35
000001a0: b504 2a36 e898 2e36 de19 5136 e0ff a636
000001b0: 6236 6f36 0397 9c35 e1f1 b036 62b5 d335
000001c0: b9cc 6434 75fe 9234 c730 9434 86a6 e434
000001d0: 912d c034 2153 f633 9762 4c35 549f 3634
000001e0: 2491 ac35 6774 b535 86c6 b735 1dde 1e36
000001f0: 6738 d635 3667 5235 590b bf35 cba7 4335
00000200: 95ff 6c35 5aad 7435 e0c7 9b35 6b70 ab35
00000210: fc0b 9e35 edda 2735 b4f6 8336 0517 1535
00000220: 024f f833 242b d633 940e dd33 329f fe33
00000230: 0f16 d633 114a cc33 e57b 1c34 02e3 8333
00000240: f272 5835 c385 8a35 1ea6 7635 4ba7 1c35
00000250: 8769 8d35 59fb 2535 c528 8a35 66bc 2f35
00000260: 48af 6a34 53cc 6a34 2c91 9c34 f1fa 6534
00000270: c196 8a34 6012 5734 c9b0 2635 ac0c 4e34
00000280: 7dba 0735 8293 1435 5eba 3335 3372 1b35
00000290: 1157 5f35 2dff 0c35 5ea8 8035 6b98 1c35
000002a0: fa37 7936 381f 7d36 5dd1 9e36 24ea a736
000002b0: d497 a536 0dc7 2836 7eda 9936 b801 0436
000002c0: 35b6 5d36 dffb 6f36 5da5 8736 2456 0e37
000002d0: 9353 9b36 b33a b935 fcb3 0837 2293 a235
000002e0: 3913 4835 6a46 5035 c8ba 6a35 6fa3 b035
000002f0: 2f3d 6235 a432 e134 61c5 b635 c9ac 0635
00000300: 45f6 3b35 c10c 2535 3c26 5635 8ec0 8835
00000310: be7f 4735 6760 ce34 01e9 ee35 6ef5 b334
00000320: cb34 d635 bb19 d535 9da5 de35 f576 e735
00000330: b3b4 0736 228c 9135 f3fc 2336 5f5f 6b35
00000340: 0cb6 9c36 3d5b 9e36 f5fb 9836 6076 d636
00000350: 016b bf36 542c 4336 3fa9 9d36 c252 1836
00000360: 9920 a135 16f2 a735 2012 9e35 a18b b435
00000370: d866 ed35 ec1d 3535 954b b535 8885 4535
00000380: 44d3 8a35 309c 6335 2573 a335 d042 1536
00000390: c7d9 a835 ff7a fa34 020d 3c36 5b55 e234
000003a0: b29e ab35 b76b 9235 48e2 9535 46fe a335
000003b0: 41c5 c435 508f 3035 bc4e af35 94f8 6535
000003c0: a505 9735 37cf 9235 9c57 9635 8d7a 0136
000003d0: a3d8 a835 6f95 1a35 a59b 0d36 1a59 2635
000003e0: 70ba d636 9820 ef36 6962 e236 4da9 4737
000003f0: a616 fe36 ebc1 3636 0f66 0237 037e 5936
2.065846e-06 2.5835886e-06 2.59727e-06 4.2108427e-06 3.1950221e-06 1.3144509e-06 5.681007e-06 1.0971389e-06
2.9817693e-07 2.6052672e-07 3.5162816e-07 3.3865467e-07 3.1513082e-07 2.2079438e-07 4.6066052e-07 1.4417385e-07
2.265574e-06 2.1226958e-06 2.517229e-06 3.9390065e-06 2.6185849e-06 1.1404572e-06 6.6972507e-06 1.1162199e-06
3.0945264e-07 3.9411185e-07 3.4997282e-07 2.7755024e-07 3.1349697e-07 2.6584934e-07 4.1547412e-07 2.3673434e-07
9.915668e-07 9.700632e-07 1.2377727e-06 2.629958e-06 1.2558802e-06 3.846662e-07 2.8748057e-06 2.9298008e-07
3.5455665e-07 5.705007e-07 4.6358315e-07 3.7969312e-07 5.9966413e-07 3.4345837e-07 4.7245155e-07 4.5760186e-07
3.7998953e-07 4.3474347e-07 4.394001e-07 6.318465e-07 6.5722503e-07 2.632563e-07 1.1547179e-06 3.691674e-07
2.9726746e-06 3.3151496e-06 3.2211044e-06 3.2496873e-06 3.7331965e-06 2.083797e-06 3.6304582e-06 2.3107282e-06
1.9387103e-06 1.7120133e-06 2.4914566e-06 2.4666665e-06 2.4077628e-06 1.1592937e-06 2.6520172e-06 1.0744369e-06
4.0777195e-06 4.7173176e-06 4.8003385e-06 4.6534096e-06 6.258719e-06 2.5614588e-06 7.4535014e-06 2.690115e-06
5.996322e-07 6.043703e-07 9.884039e-07 6.264902e-07 8.3374147e-07 4.9970316e-07 1.9196052e-06 5.037683e-07
6.8386626e-06 6.9343855e-06 6.726663e-06 8.634051e-06 7.5550615e-06 4.399995e-06 7.0854867e-06 3.826617e-06
1.3995422e-06 1.0380778e-06 1.3619273e-06 1.7868459e-06 1.4990021e-06 6.5389685e-07 2.4873866e-06 5.9358973e-07
2.5334714e-06 2.6017024e-06 3.1158484e-06 4.9769733e-06 3.564543e-06 1.1666856e-06 5.273367e-06 1.5773514e-06
2.1308632e-07 2.737976e-07 2.7602638e-07 4.258947e-07 3.579594e-07 1.1470389e-07 7.613939e-07 1.7008034e-07
1.285724e-06 1.3519428e-06 1.369234e-06 2.3673122e-06 1.5960658e-06 7.838129e-07 1.4233912e-06 7.288733e-07
8.828877e-07 9.1149343e-07 1.1606571e-06 1.2773211e-06 1.1775405e-06 6.2530927e-07 3.9328243e-06 5.5540323e-07
1.15627714e-07 9.972999e-08 1.0293766e-07 1.1856754e-07 9.969164e-08 9.512963e-08 1.4573705e-07 6.141455e-08
8.063354e-07 1.0320731e-06 9.1883874e-07 5.835797e-07 1.0536031e-06 6.183305e-07 1.0293667e-06 6.5466736e-07
2.1856715e-07 2.1867281e-07 2.916289e-07 2.1418579e-07 2.581419e-07 2.003012e-07 6.2097075e-07 1.9189855e-07
5.0562795e-07 5.534895e-07 6.6953896e-07 5.790818e-07 8.320067e-07 5.2525394e-07 9.585744e-07 5.8336326e-07
3.7136474e-06 3.771811e-06 4.73314e-06 5.0042454e-06 4.9350583e-06 2.5149814e-06 4.585191e-06 1.9670533e-06
3.3037625e-06 3.5760384e-06 4.0425643e-06 8.483916e-06 4.6290893e-06 1.3800658e-06 8.148138e-06 1.2112762e-06
7.453378e-07 7.7588504e-07 8.7443595e-07 1.3160587e-06 8.4280595e-07 4.1946362e-07 1.3617502e-06 5.0170325e-07
7.00213e-07 6.148585e-07 7.977685e-07 1.018883e-06 7.4319166e-07 3.8440632e-07 1.7800195e-06 3.3519922e-07
1.5959607e-06 1.5877225e-06 1.6588489e-06 1.7245462e-06 2.0221748e-06 1.0844126e-06 2.4436129e-06 8.7683105e-07
4.6703553e-06 4.7193885e-06 4.5592847e-06 6.3914777e-06 5.7047005e-06 2.9083067e-06 4.6986675e-06 2.2697936e-06
1.2004922e-06 1.2512926e-06 1.1777192e-06 1.3451682e-06 1.7687807e-06 6.7471296e-07 1.3507548e-06 7.358253e-07
1.0343288e-06 8.479137e-07 1.2177958e-06 2.224162e-06 1.2580357e-06 4.665562e-07 2.8021755e-06 4.2157885e-07
1.2786679e-06 1.0909197e-06 1.1167222e-06 1.221845e-06 1.4660546e-06 6.5773656e-07 1.3061431e-06 8.5670877e-07
1.125202e-06 1.0938155e-06 1.1201369e-06 1.9293832e-06 1.2580025e-06 5.7586925e-07 2.1101234e-06 6.196948e-07
6.399401e-06 7.1265495e-06 6.7467813e-06 1.1900743e-05 7.5724265e-06 2.7232988e-06 7.772366e-06 3.2408868e-06

exp_avg f4 [64]
00000000: 0938 6db9 47ad 0cb9 544c 9bb7 5fb8 01b9
00000010: bb17 c439 8b9f 3639 4a4b 4d37 dbda 643a
00000020: f941 5939 696a e5b9 1518 84b9 675b 76ba
00000030: dadd 6039 a829 97ba 8f18 91b8 2658 50b8
00000040: 9fe7 eeb9 ac32 ebb8 c9e1 ce39 7607 9638
00000050: 6145 7a38 f5b5 13b9 4a1c ad39 57cb dc39
00000060: f335 d2b6 1f40 d2b9 201c 39ba 8ee3 0f3a
00000070: 6845 cdb8 7a05 a1b8 79d3 a9b9 c209 c139
00000080: 7e94 abb9 d91e 1939 6e1a 2fb8 0be6 c137
00000090: aed8 a6b8 9439 3439 1b3e 843a 6b59 0ab9
000000a0: 9322 fcb7 df57 ed39 7b37 f4b5 8551 9139
000000b0: 55dc f1b9 6baf 25ba 55c4 25b9 febe 0b3a
000000c0: 5f71 5bb9 f394 07ba bf62 5fb9 6225 d938
000000d0: 1f99 aa38 5f70 8039 1d86 bbb8 be3c b638
000000e0: d66d a837 ed81 f038 d7f8 9139 74dc 1c3a
000000f0: 6969 b0b8 3da6 3539 f08f 11b9 ea9f 1938
-0.00022622956 -0.00013415991 -1.8512983e-05 -0.00012371082 0.00037401714 0.00017416307 1.2236482e-05 0.0008730122
0.0002071931 -0.00043757565 -0.00025194944 -0.0009397775 0.00021444951 -0.00115328 -6.918713e-05 -4.967316e-05
-0.0004556747 -0.000112151116 0.00039459605 7.153947e-05 5.966926e-05 -0.00014086797 0.00033018208 0.0004211317
-6.264768e-06 -0.00040102095 -0.0007061381 0.00054889254 -9.78809e-05 -7.678098e-05 -0.0003239175 0.000368191
-0.00032726297 0.00014602709 -4.1747866e-05 2.3114515e-05 -7.9558566e-05 0.00017187587 0.001008931 -0.00013194016
-3.005684e-05 0.00045269632 -1.8195564e-06 0.00027717292 -0.00046131262 -0.000632039 -0.00015808766 0.0005330889
-0.00020927702 -0.00051720365 -0.00021303723 0.000103543294 8.134753e-05 0.00024497785 -8.9418354e-05 8.6897504e-05
2.0078307e-05 0.00011468292 0.00027841955 0.0005983778 -8.411968e-05 0.00017323434 -0.00013881898 3.6626974e-05

exp_avg_sq f4 [64]
00000000: 59d4 9136 38cc c534 4448 8436 de91 1635
00000010: 901d d735 31cb 5935 058d 4a35 53ec be36
00000020: 34fc 5436 79b2 1737 32d5 9735 ced8 4a37
00000030: c102 0336 27e3 a336 3e65 0235 6d2e 1536
00000040: 854a e335 11a4 1934 4de8 cf35 20aa 8e34
00000050: e7bc 5035 f06e dd36 c04e d136 b7a1 cf35
00000060: ceca a535 7bda 4e36 ea6a fc36 68d3 1236
00000070: 7101 db35 5af3 1636 2d2f 0136 f7ec 4837
00000080: a95e 4836 fa74 8736 8e1e 5935 c04d 4236
00000090: 160a 7f35 2e02 d135 266d ab36 7ebb 0137
000000a0: 2e80 7735 83ab fc36 376b 8935 f6c2 e936
000000b0: 912d 8036 e59f de36 c5dc 8736 bbdb c735
000000c0: 56c7 9a35 e755 2d36 14d1 0c36 e536 3636
000000d0: f7e0 4f36 5263 f734 1e0a 0037 f6af 1136
000000e0: 30b7 c934 2d83 b336 080a a036 c611 5236
000000f0: fe9a c134 78fd 9434 6b41 9b34 c5b8 1f36
4.3460573e-06 3.6842698e-07 3.9423194e-06 5.609162e-07 1.6027352e-06 8.113448e-07 7.5456074e-07 5.689953e-06
3.1737263e-06 9.041855e-06 1.1312425e-06 1.2090617e-05 1.9522124e-06 4.8842226e-06 4.85761e-07 2.2229754e-06
1.6934506e-06 1.4308922e-07 1.549031e-06 2.6573343e-07 7.776093e-07 6.599228e-06 6.237853e-06 1.5469767e-06
1.2352482e-06 3.0823564e-06 7.5226317e-06 2.187875e-06 1.6317191e-06 2.249339e-06 1.9249958e-06 1.1976102e-05
2.9857422e-06 4.0369314e-06 8.088326e-07 2.895351e-06 9.500958e-07 1.5572348e-06 5.1089037e-06 7.732653e-06
9.2201196e-07 7.530152e-06 1.0238499e-06 6.9666376e-06 3.820002e-06 6.6347297e-06 4.0490145e-06 1.4890605e-06
1.1531909e-06 2.582901e-06 2.0983325e-06 2.7152066e-06 3.097635e-06 4.60796e-07 7.63175e-06 2.1709106e-06
3.7572454e-07 5.3498866e-06 4.7695394e-06 3.1302784e-06 3.6061823e-07 2.775157e-07 2.8918598e-07 2.3800396e-06
