results/max-hiddenunits256-config1-1/3DBall/3DBall-500115.pt (torch, 82458 bytes, 32 tensors)

network_body.observation_encoder.processors.0.normalizer.running_mean f4 [8]
0	0xba85cf40	-0.001020886
1	0xbb17d11f	-0.0023165417
2	0xbc471611	-0.012151257
3	0x4043c64a	3.0589776
4	0x3e74c53a	0.23903361
5	0x3c360d90	0.011111632
6	0xbe90fba3	-0.28316984
7	0xbb77f268	-0.0037833694

network_body.observation_encoder.processors.0.normalizer.running_variance f4 [8]
0	0x44810f36	1032.4753
1	0x44a05b88	1282.8604
2	0x4849a7b7	206494.86
3	0x4681c9a8	16612.828
4	0x48456d34	202164.81
5	0x47c75cf6	102073.92
6	0x483a90dd	191043.45
7	0x47fb6444	128712.53

network_body.processors.0.normalizer.running_mean f4 [8]
0	0xba85cf40	-0.001020886
1	0xbb17d11f	-0.0023165417
2	0xbc471611	-0.012151257
3	0x4043c64a	3.0589776
4	0x3e74c53a	0.23903361
5	0x3c360d90	0.011111632
6	0xbe90fba3	-0.28316984
7	0xbb77f268	-0.0037833694

network_body.processors.0.normalizer.running_variance f4 [8]
0	0x44810f36	1032.4753
1	0x44a05b88	1282.8604
2	0x4849a7b7	206494.86
3	0x4681c9a8	16612.828
4	0x48456d34	202164.81
5	0x47c75cf6	102073.92
6	0x483a90dd	191043.45
7	0x47fb6444	128712.53

network_body._body_endoder.seq_layers.0.weight f4 [256, 8]
0	0x3e8e5103	0.27796182
1	0x3eff87e9	0.4990838
2	0x3ee1ba7d	0.44087592
3	0xbd82aeae	-0.06380974
4	0xbe3a755a	-0.18208829
5	0x3e4c6bac	0.19962949
6	0x3ead6d13	0.3387228
7	0x3ea04cf5	0.31308714
8	0x3e5fca1a	0.2185444
9	0x3e627f6d	0.22118922
10	0xbd0b986f	-0.03408092
11	0x3e92f47b	0.2870215
12	0xbda609af	-0.08107316
13	0x3d9071a9	0.07052929
14	0xbdfe0bea	-0.12404616
15	0xbe1ba9ec	-0.15201539
16	0x3ce5012e	0.027954664
17	0x3e6e60d5	0.23279126
18	0xbde6eb31	-0.11275328
19	0xbf219820	-0.6312275
20	0x3ea66e57	0.32506058
21	0x3d843e0b	0.06457146
22	0x3e07d02e	0.13263008
23	0x3f17100b	0.59008855
24	0xbda0f227	-0.07858687
25	0xbdb6199d	-0.08891604
26	0xbdd22205	-0.10260395
27	0x3f05d266	0.5227417
28	0xbe9cd7bd	-0.30633345
29	0x3f1f3d80	0.62203217
30	0x3e42e811	0.19033839
31	0x3cc7dea8	0.024398163
32	0x3f36e7ee	0.71447647
33	0x3f2e8e6d	0.68186074
34	0xbeb21db7	-0.34788296
35	0xbd613f46	-0.054991983
36	0xbeb899bf	-0.360548
37	0xbe64454d	-0.22292061
38	0x3ec73667	0.38908693
39	0x3dbd067b	0.09229752
40	0xbe55bd9f	-0.20873116
41	0xbea7321e	-0.32655424
42	0x3d08b3e1	0.03337467
43	0xbe5d94b1	-0.21638753
44	0x3ebdba89	0.37056378
45	0x3e398e54	0.181207
46	0x3f6fb1c4	0.93630624
47	0x3e34f16b	0.17670219
48	0x3d960f0a	0.07327087
49	0x3e57e7db	0.2108454
50	0x3d66efb4	0.056380942
51	0x3ecc5b0c	0.39913213
52	0xbe7136cc	-0.2355606
53	0xbed92411	-0.4241033
54	0x3f1b295b	0.6060998
55	0x3f6ea5b2	0.9322158
56	0xbeaa6a7b	-0.33284363
57	0x3ea5f8fd	0.32416525
58	0x3f3cd783	0.73766345
59	0xbc54e8e1	-0.012994976
60	0x3eaba3c1	0.33523372
61	0x3d8944c4	0.06702569
62	0x3e89a6eb	0.2688516
63	0x3e9493ed	0.29019108
64	0x3eca5161	0.39515212
65	0xbef9fdbd	-0.488264
66	0x3ba03c2a	0.0048899846
67	0xbeec8f74	-0.46203196
68	0xbd8640c4	-0.06555322
69	0xbeb219cb	-0.34785303
70	0x3c8b4715	0.017001668
71	0x3ea2f62d	0.31828442
72	0x3ec5097c	0.38483799
73	0xbdaaee65	-0.083462514
74	0xbe9c494c	-0.3052467
75	0xbd68aa6e	-0.05680316
76	0x3e4fabad	0.20280333
77	0x3e5e7654	0.21724826
78	0x3ef4a030	0.47778463
79	0x3e8337e7	0.25628588
80	0xbf4448f9	-0.7667385
81	0xbf1ccb41	-0.6124764
82	0xbee4f05a	-0.44714624
83	0xbc060b7e	-0.008181451
84	0x3eb8291f	0.35968873
85	0xbd93232e	-0.07184444
86	0x3f03ad8c	0.51436687
87	0xbebf4902	-0.37360388
88	0x3e60b977	0.21945749
89	0xbd3e9a89	-0.046534095
90	0x3df4fa64	0.11961821
91	0x3f2813ce	0.6565522
92	0x3e744391	0.238539
93	0xbd67b9ef	-0.056573804
94	0x3e3d1b96	0.18467554
95	0xbeaaa200	-0.3332672
96	0xbe4dcf70	-0.20098662
97	0x3e8b286d	0.2717928
98	0x3df46b43	0.11934521
99	0xbe52ff7d	-0.20605274
100	0xbc2a24bb	-0.010384734
101	0xbed286e6	-0.41118544
102	0x3ea3426e	0.3188662
103	0xbf0c803c	-0.5488317
104	0x3e58cb0f	0.2117121
105	0xbeddf81d	-0.43353358
106	0x3e49c7b5	0.19705088
107	0xbd3f9eb2	-0.046782203
108	0x3cce6fd8	0.025199816
109	0xbec21bbf	-0.37911794
110	0xbf0b5259	-0.5442253
111	0xbf342de1	-0.70382506
112	0x3dcccf7e	0.100005135
113	0xbf58d940	-0.847065
114	0xbf41ed49	-0.75752693
115	0xbee666b7	-0.4500024
116	0x3ec555de	0.38542074
117	0xbedeceb7	-0.43517086
118	0xbed91813	-0.4240118
119	0xbd75b79b	-0.059989553
120	0xbed13559	-0.40861014
121	0x3ec9eade	0.39437002
122	0x3eabf932	0.33588558
123	0xbdb444d9	-0.08802194
124	0x3f04a68f	0.5181665
125	0x3f1231f8	0.57107496
126	0x3e8151bc	0.2525767
127	0x3d2197c9	0.039451394
128	0x3f2996fe	0.6624602
129	0x3cecf172	0.028923724
130	0xbe929725	-0.2863094
131	0xbe342626	-0.17592677
132	0x3f15061d	0.58212453
133	0xbeb15391	-0.3463407
134	0xbebea767	-0.37237093
135	0xbdad9ce8	-0.08477193
136	0x3ed12799	0.40850523
137	0x3f62eee8	0.8864579
138	0xbe371ca6	-0.17882022
139	0x3e27cdfa	0.16387168
140	0x3e45f821	0.19332935
141	0xbd023775	-0.03179117
142	0xbefc38ad	-0.4926199
143	0xbf2846fc	-0.65733314
144	0x3ee9132e	0.45522445
145	0x3eabaf7f	0.3353233
146	0x3e85b1d1	0.26112226
147	0x3e91342e	0.28360122
148	0x3e8b7b56	0.27242535
149	0x3f134bcc	0.5753753
150	0xbd48d2a3	-0.049029004
151	0xbf09096d	-0.5353001
152	0xbed1ec2d	-0.410005
153	0x3daf3dc7	0.08556705
154	0xbeac5e26	-0.3366558
155	0x3d8ffe1e	0.07030891
156	0x3cab3bea	0.020902593
157	0xbde3f800	-0.111312866
158	0xbf07f577	-0.53108925
159	0x3f201af4	0.6254113
160	0x3bfa66fc	0.007641671
161	0xbdd862d0	-0.10565722
162	0x3f24abcd	0.6432465
163	0xbdbdca18	-0.09267062
164	0x3effcb5d	0.4995984
165	0x3ddac25b	0.106816016
166	0x3eae4e64	0.34044182
167	0x3f173072	0.59058297
168	0x3ea34f64	0.31896508
169	0x3e30dc25	0.17271478
170	0x3e9bd313	0.30434474
171	0x3eb74902	0.35797888
172	0xbdd8d7eb	-0.10588058
173	0x3f292bb6	0.6608232
174	0x3e07fd85	0.13280304
175	0xbf1ed93a	-0.6205021
176	0x3ee8b6b4	0.4545189
177	0x3ecf9b37	0.40548107
178	0x3e81c2ea	0.2534402
179	0xbee3b3d4	-0.44473135
180	0xbdef1015	-0.11672989
181	0xbe007a45	-0.12546642
182	0xbec1e2e4	-0.37868416
183	0xbdd7fc22	-0.105461374
184	0x3f463789	0.7742849
185	0x3e8ae0a3	0.2712451
186	0x3ebac774	0.36480296
187	0xbc53c287	-0.012924797
188	0xbf9925fd	-1.1964718
189	0xbdfdf40b	-0.12400063
190	0xbf108a4f	-0.5646104
191	0x3eda6e64	0.42662346
192	0xbcc51918	-0.024059817
193	0xbd5521dd	-0.052034248
194	0xbe2d878a	-0.16946235
195	0xbec5f369	-0.3866227
196	0xbe3da400	-0.18519592
197	0x3eb41676	0.35173386
198	0x3df0aa5b	0.11751243
199	0xbd8ade0c	-0.06780633
200	0x3e767628	0.2406851
201	0x3d9ddd5e	0.07708238
202	0x3d27f2ca	0.041003026
203	0x3f6ab730	0.9168577
204	0xbee5ec10	-0.44906664
205	0xbe7cb870	-0.24679732
206	0xbcd7d4a7	-0.026346518
207	0x3bf2079e	0.007386162
208	0xbe1fb8c0	-0.1559782
209	0xbea9aed5	-0.331412
210	0xbdb87f05	-0.09008602
211	0xbf1104d0	-0.5664797
212	0xbd235bb1	-0.039882366
213	0x3edbbcdf	0.42917535
214	0x3df67af9	0.12035174
215	0x3e9e9a6b	0.30977187
216	0xbc46cc2d	-0.01213364
217	0xbe742298	-0.23841321
218	0xbdee188d	-0.116257764
219	0x3bf9a915	0.007619033
220	0xbe840b39	-0.25789812
221	0xbe2c0f6f	-0.16802762
222	0x3e947161	0.2899275
223	0xbe3044ac	-0.17213696
224	0xbf037ce6	-0.51362455
225	0x3ee62f6f	0.44958064
226	0x3e42edb5	0.1903599
227	0x3f3bf6b1	0.73423296
228	0x3decebc8	0.11568409
229	0x3e89e31c	0.26931083
230	0x3ebdcbfa	0.37069684
231	0x3e8b80e4	0.27246773
232	0xbecdb717	-0.4017875
233	0x3f161d72	0.5863868
234	0xbe3bdf02	-0.1834679
235	0x3e300fa1	0.17193462
236	0xbf3252ad	-0.69657403
237	0xbde379cd	-0.11107216
238	0xbe350854	-0.17678958
239	0x3dff878b	0.12477025
240	0xbd1daea1	-0.038496617
241	0xbe948641	-0.29008678
242	0xbe78d64a	-0.24300495
243	0xbf09374c	-0.536
244	0xbda3846d	-0.079842426
245	0x3e239dbb	0.15978138
246	0x3edd70e1	0.43250182
247	0xbf02a2f8	-0.5102992
248	0xbd4744e6	-0.04864969
249	0x3e6e7be7	0.23289452
250	0xbe40ee17	-0.18840824
251	0x3e905d2a	0.2819608
252	0xbd5f6350	-0.05453807
253	0x3f423928	0.75868464
254	0x3e7d479c	0.24734348
255	0xbeb056c2	-0.3444119

network_body._body_endoder.seq_layers.0.bias f4 [256]
0	0xbcef12d5	-0.029183784
1	0xbd44aa0b	-0.048013728
2	0x3c893044	0.016746648
3	0x3d925760	0.07145572
4	0x3bf23fd6	0.0073928637
5	0xbca5ee74	-0.020255305
6	0xbbdccd07	-0.0067383084
7	0x3cab929e	0.020943936
8	0xbda7a349	-0.08185441
9	0xbc4cd40b	-0.012501727
10	0x3c9925db	0.018694809
11	0xbbde7ae6	-0.006789553
12	0xbd2714a2	-0.04079116
13	0xbd7a04d3	-0.061039757
14	0x3cb76712	0.022388015
15	0x3cd98bca	0.026555914
16	0x3c6b2719	0.014352583
17	0xbd691261	-0.056902293
18	0xbcbec635	-0.023287872
19	0xbca2b20c	-0.01986029
20	0xbbc04763	-0.005867885
21	0x3d4997b2	0.049216934
22	0xbcc6a6c0	-0.024249434
23	0x3a18001b	0.00057983556
24	0xbc817fd8	-0.015808031
25	0x3bb06311	0.0053829034
26	0xbc3163f8	-0.010827057
27	0xbcc3a58d	-0.023882652
28	0x3d0d9fa9	0.034576092
29	0xbc93ba39	-0.018033134
30	0x3b0718fe	0.0020614262
31	0x3d08703c	0.03331016
32	0xbd5b8fdb	-0.05360399
33	0x3ca4b5cd	0.02010622
34	0xbc81931f	-0.015817223
35	0xbc9da651	-0.019244345
36	0xbd2995a3	-0.04140247
37	0xbd3a9dc7	-0.045560624
38	0xbda0df17	-0.07855051
39	0xbd396122	-0.04525865
40	0xbd6deeb3	-0.05808897
41	0xbc8c1698	-0.017100617
42	0x3d146ff2	0.036239572
43	0xbc913cdb	-0.017729213
44	0xbd05f5a0	-0.03270495
45	0x3d23cbb1	0.039989177
46	0x3d877898	0.06614798
47	0xbcab9eb8	-0.020949706
48	0xbd0d6b02	-0.03452588
49	0xbc27ddb6	-0.010245731
50	0xbce3a0d4	-0.02778665
51	0xbc211ede	-0.0098340195
52	0xbca2605a	-0.019821335
53	0x3bfd5493	0.0077310293
54	0x3d2783b9	0.040897105
55	0xbcb0058a	-0.021487016
56	0x3c7d5c6f	0.015463932
57	0xbccad7c8	-0.024761096
58	0xbc345269	-0.011005976
59	0xbc456509	-0.012048014
60	0xbe141d03	-0.14464192
61	0xbd11890a	-0.03553108
62	0xbd1ea4e1	-0.03873146
63	0xbd4c355c	-0.049855575
64	0xbdba54bf	-0.09098195
65	0x3b2ca0b7	0.002634091
66	0x3c9461c2	0.01811302
67	0x3cb3f64f	0.021968035
68	0xbd33f8ed	-0.043938566
69	0xbb9541e9	-0.0045549762
70	0xbbb2e01f	-0.005458846
71	0xbc62ea34	-0.013849784
72	0x3d2d611c	0.04232894
73	0xbaae7407	-0.0013309725
74	0x3c9480f6	0.0181279
75	0x3d565341	0.05232549
76	0xbd52d35a	-0.05147109
77	0xbafa573a	-0.0019099482
78	0x3c151381	0.009098888
79	0xbcd5e6ba	-0.026110996
80	0xbd13d1ea	-0.03608886
81	0x3d089637	0.03334638
82	0xbcd9523f	-0.026528476
83	0xbd11f5e0	-0.035634875
84	0xbb197eb4	-0.0023421468
85	0xbbfdf664	-0.0077503193
86	0xbd0b2f45	-0.033980627
87	0xbc0629b3	-0.008188653
88	0xbc910fa2	-0.01770765
89	0xbd686881	-0.056740288
90	0xbb659fd0	-0.0035037883
91	0x3c0b2061	0.008491606
92	0xbd48a788	-0.048987895
93	0xbd85fab8	-0.065419614
94	0xbd85d9c5	-0.06535677
95	0xbce537d2	-0.027980719
96	0xbd117fa1	-0.035522107
97	0xbcf36611	-0.029711755
98	0x3dabd7f2	0.08390798
99	0xbce35692	-0.02775124
100	0x3c412c1c	0.011790302
101	0x3d1af9f0	0.037836015
102	0x3d156526	0.036473416
103	0xbc7ec60d	-0.015550149
104	0x3d0994d9	0.033589218
105	0xbd2e0dc9	-0.042493615
106	0x3cbb29d6	0.022847097
107	0xbd04b8b9	-0.032402728
108	0xbcf4d636	-0.0298873
109	0xbc13828f	-0.009003296
110	0xbcc0e2a2	-0.023545567
111	0xbd209eaf	-0.039213832
112	0xbd2e5567	-0.042561915
113	0x3ca8cde0	0.020605981
114	0x3dba2655	0.090893425
115	0xbcd279d0	-0.02569285
116	0xbdad372a	-0.08457787
117	0x3d4ef1a0	0.0505234
118	0xbd9163ef	-0.07099139
119	0xbc258274	-0.010101903
120	0x3c38f176	0.0112880375
121	0x3c51f0f8	0.012813799
122	0x3c2fadca	0.010722587
123	0x3c0013f0	0.0078172535
124	0xbc1efd91	-0.00970401
125	0x3d44bdcd	0.04803257
126	0x3ccaa813	0.024738347
127	0xbb29b899	-0.0025897382
128	0xbd12bea6	-0.035826348
129	0xbc6e6488	-0.014550336
130	0xbd82c845	-0.06385855
131	0x3ccde139	0.025131809
132	0xbca59525	-0.02021272
133	0xbcb56b8e	-0.022146013
134	0xbd4ce159	-0.050019596
135	0x3c97018e	0.018433359
136	0x3bea2974	0.007146055
137	0x3c4ab12f	0.012371345
138	0x3d65fb7a	0.05614803
139	0xbd66b74a	-0.05632714
140	0xbd1f563f	-0.03890061
141	0x3d480fd9	0.04884324
142	0x3c45a629	0.012063541
143	0xbd1a5eeb	-0.037688177
144	0xbca8391d	-0.020535046
145	0xbccbae29	-0.02486332
146	0x3c33daf3	0.0109774945
147	0xbc84a10d	-0.016190076
148	0xbd9b9412	-0.075966015
149	0xbd03fe96	-0.032225214
150	0xbd0101c1	-0.031495813
151	0x3d6043a9	0.054752026
152	0x3c5d0344	0.013489548
153	0xbc595fae	-0.013267441
154	0xbde1833d	-0.1101136
155	0xbc5a813e	-0.013336478
156	0xbd6088c9	-0.05481795
157	0xbd579827	-0.05263534
158	0xbb6963c9	-0.0035612455
159	0xbce44886	-0.027866613
160	0xbd01564f	-0.03157645
161	0x3c7188db	0.014742102
162	0xba13884c	-0.0005627915
163	0xbd52cb03	-0.05146314
164	0x3cc32c24	0.023824759
165	0xbd770859	-0.060310695
166	0xbda4760c	-0.08030328
167	0x39dfaea5	0.00042663995
168	0x3b160d61	0.0022896158
169	0x3d26f7b4	0.04076357
170	0xbc7cadde	-0.015422313
171	0xbd2f4740	-0.04279256
172	0xbd6d1650	-0.057882607
173	0xbcec1b4b	-0.028821608
174	0x3d8abcca	0.0677429
175	0xbcbd0e07	-0.023077978
176	0x3bc13738	0.005896475
177	0xb9172ad6	-0.0001441644
178	0xbc72c3a8	-0.014817156
179	0xbc0b6af0	-0.008509383
180	0xbcea7905	-0.02862216
181	0x3ca3959d	0.019968802
182	0x3ce8f75c	0.028438263
183	0xbc9c2f23	-0.019065445
184	0xbd427e5a	-0.04748378
185	0x3c31b1c0	0.010845602
186	0x3d24eff1	0.04026789
187	0xbca2e400	-0.01988411
188	0xbc8a5ac8	-0.016888991
189	0xbd30a662	-0.043127425
190	0x3d6132f9	0.054980252
191	0x3d434dbf	0.047681566
192	0xbbee0a7b	-0.007264433
193	0x3b1fe485	0.0024397683
194	0x3d5df011	0.054184023
195	0xbc41b1ae	-0.011822147
196	0xbd27405e	-0.04083287
197	0xbcabdeee	-0.020980325
198	0xbb9418d6	-0.0045195622
199	0xbc8dc4f0	-0.017305821
200	0x3bd97010	0.0066356733
201	0x3c138859	0.009004676
202	0x3ca49dd6	0.020094793
203	0x3d0f787d	0.035027016
204	0xbd0f4523	-0.034978043
205	0xbc67134c	-0.014103722
206	0xbd1401ca	-0.03613452
207	0x3a838b9c	0.0010036114
208	0x3cbc60b2	0.022995327
209	0xbd692b77	-0.056926217
210	0xbc97f1b4	-0.01854787
211	0x3ce7b2ae	0.028283443
212	0x3c85a8a9	0.016315775
213	0x3b8f522c	0.0043738093
214	0x3c6c3aab	0.014418284
215	0x3c9b56f3	0.018962359
216	0x3d60a5c6	0.054845594
217	0x3ccf77c3	0.025325662
218	0xbbbdd4a8	-0.005793173
219	0xbcf1e102	-0.029526237
220	0xbbcdb79c	-0.0062779915
221	0xbcaaa6d0	-0.020831496
222	0xbc5c66ce	-0.013452245
223	0xbd8d5227	-0.06900435
224	0xbdca9282	-0.098912254
225	0xbbb15f49	-0.00541297
226	0x3d1c52d5	0.038164932
227	0xbd6e2e51	-0.05814964
228	0xbd69aca9	-0.057049427
229	0x3c0833a3	0.008313092
230	0x3cebc3d2	0.028779898
231	0x3be6ab1c	0.007039441
232	0xbd993290	-0.07480347
233	0xbd2cc7e7	-0.04218283
234	0xbc96901a	-0.01837926
235	0xbd66e802	-0.056373604
236	0x3bc0eb3b	0.0058874167
237	0xbd9e10ba	-0.07718034
238	0xbc8551a6	-0.016274285
239	0xba875e3a	-0.0010327764
240	0xbd8d1836	-0.068893835
241	0xbce8954c	-0.028391503
242	0xbd6b22b4	-0.057406142
243	0x3d7f45f8	0.062322587
244	0x3daf2c2f	0.08553349
245	0xbdd4c44c	-0.10389003
246	0x3c9ee65b	0.019396951
247	0xbc12cffe	-0.008960722
248	0xbd080770	-0.033210218
249	0xbcec3d9e	-0.028837975
250	0xbd6bc357	-0.057559337
251	0x39d4d058	0.0004059102
252	0xbd8d1ca6	-0.0689023
253	0xbcab8d46	-0.020941388
254	0xbd04c9a9	-0.03241888
255	0x397192aa	0.00023038188

action_model._continuous_distribution.log_sigma f4 [1, 2]
0	0xbe1d7d91	-0.15379931
1	0xbe2e9a9f	-0.17051171

action_model._continuous_distribution.mu.weight f4 [2, 256]
0	0x3c7d859e	0.015473751
1	0xbbc46557	-0.005993526
2	0xbce34247	-0.027741564
3	0x3d8586a0	0.06519818
4	0xbd254eca	-0.040358342
5	0x3c844232	0.016144846
6	0xbd2bdc0c	-0.0419579
7	0x3d363fa4	0.044494286
8	0xbb289825	-0.002572545
9	0xbc88dd46	-0.016707074
10	0x3c95c51c	0.018282466
11	0xbcb5060f	-0.022097616
12	0xbd055cd9	-0.03255925
13	0xbc2c4787	-0.0105151
14	0xbba8cf3d	-0.005151658
15	0x3d39be86	0.045347713
16	0xbce9cc76	-0.028539877
17	0xbc747228	-0.014919795
18	0x3c9636d7	0.018336697
19	0x3c25909b	0.010105277
20	0x3c7782a5	0.015106832
21	0x3ce4c74f	0.027927069
22	0xbc696970	-0.01424633
23	0xbba07b87	-0.004897538
24	0x3bd76e26	0.00657441
25	0xbd0cdaa5	-0.034388203
26	0x3c188a78	0.009310357
27	0xbd057f67	-0.032592203
28	0x3d2efce1	0.042721633
29	0x3cb63096	0.022239964
30	0xbce83f05	-0.028350363
31	0x3d8f249c	0.069894046
32	0xbd37e3ab	-0.044894855
33	0xbd6a5e12	-0.05721862
34	0xbce1e4f3	-0.027574992
35	0xbd02b6ca	-0.031912602
36	0x3c4ececf	0.012622549
37	0xbc44487a	-0.01198017
38	0x3a3c8f77	0.0007193009
39	0xbc4702e0	-0.012146682
40	0x3a9c0f0e	0.0011906342
41	0xbbf078c7	-0.0073386165
42	0x3ca5ccf1	0.020239325
43	0xbca8f50c	-0.02062466
44	0x3c989409	0.018625276
45	0xbd0eb67c	-0.034842
46	0x3c809d66	0.015700053
47	0xbd4e702d	-0.050399948
48	0x3c6dc0f9	0.01451134
49	0x3c955376	0.018228274
50	0x3ac90c31	0.0015338716
51	0xbd43b834	-0.04778309
52	0x3cbe91ad	0.023262823
53	0x3b5ad370	0.0033390187
54	0x3d85ca58	0.06532735
55	0x3bed4acd	0.007241583
56	0x3ac82846	0.0015270791
57	0xbd103003	-0.035202038
58	0xbd0511cd	-0.03248768
59	0xbbb96694	-0.00565798
60	0x3c9ce8f8	0.019154057
61	0x3b07442c	0.002064
62	0xbc243bba	-0.010024006
63	0x3c6bfdc3	0.014403763
64	0x3c0300ee	0.007995827
65	0xbd52e575	-0.05148836
66	0x3d4fc517	0.05072507
67	0x3b92489f	0.0044642235
68	0xbbd92a01	-0.0066273217
69	0xbd0212c3	-0.031756174
70	0x3d623c33	0.05523319
71	0x3c0bb70e	0.00852753
72	0x3ce8f68c	0.028437875
73	0xbc09e146	-0.008415526
74	0x3cd7bb28	0.02633436
75	0x3c1372c9	0.008999535
76	0x3c1ba2cb	0.009499262
77	0x3d66e794	0.056373194
78	0x3cb3ef5b	0.02196472
79	0x3c1781b6	0.009247234
80	0xbd4e5558	-0.05037436
81	0x3c552bab	0.0130109
82	0xbd22aa77	-0.03971335
83	0xbba54bd4	-0.00504444
84	0x3ae8638f	0.0017729866
85	0xbc9129dc	-0.017720155
86	0x3c11f2a1	0.008907945
87	0x3c06a870	0.00821887
88	0xbd0ecfe6	-0.034866236
89	0xbcf325ca	-0.029681105
90	0xbc96e7ff	-0.018421171
91	0x3c10c256	0.008835396
92	0xbc98e11e	-0.018662032
93	0x3c160378	0.0091561
94	0x3c026780	0.007959247
95	0xbcef201f	-0.029190121
96	0x3ca17225	0.019707749
97	0xbc18a53b	-0.009316738
98	0x3cf9b983	0.030483967
99	0xbc77e232	-0.015129613
100	0x3cc0e8cf	0.023548512
101	0x3d35a12e	0.044343166
102	0xbd47e7c6	-0.04880502
103	0x3c50ad7b	0.0127366735
104	0x3cc26aa4	0.02373249
105	0xbcc44515	-0.023958722
106	0x3cf097c6	0.029369246
107	0xbd5b7055	-0.053573925
108	0x3a0206b2	0.0004960104
109	0xbcf82086	-0.030288946
110	0x3cc67ba4	0.024228878
111	0xbce285de	-0.027651723
112	0xbc0741b3	-0.00825541
113	0x3d4f8d17	0.050671663
114	0x3c4acc03	0.012377742
115	0xbb17824a	-0.002311843
116	0x3c1703a7	0.009217179
117	0x3ba726c0	0.005101055
118	0x3c742153	0.014900523
119	0x3ce9bd21	0.028532567
120	0xbcf0455e	-0.029329952
121	0x3cfb9b89	0.030713813
122	0xbd1cf050	-0.038315117
123	0x3c988e14	0.018622436
124	0x3c040ec7	0.008060164
125	0x3cb92932	0.022602651
126	0x3cfa1e0a	0.030531902
127	0xbb982775	-0.0046433755
128	0xbccac1d7	-0.024750633
129	0x3c438749	0.01193411
130	0x3b5be43a	0.0033552782
131	0xbce837ae	-0.028346863
132	0x3c8b2be7	0.016988708
133	0x3c6bba14	0.014387626
134	0xbc62763f	-0.013822137
135	0x3d0c5318	0.034258932
136	0x3d3c816d	0.046021868
137	0x3c9651a6	0.01834948
138	0x3cb63df0	0.022246331
139	0x3a8b6050	0.0010633562
140	0xbd25ab3a	-0.040446497
141	0x3cd9d49f	0.026590643
142	0xbc9a3955	-0.018826166
143	0x3c0acb13	0.008471268
144	0xbc18a3e2	-0.009316416
145	0xbcb81f74	-0.022475936
146	0xbd5ee93a	-0.05442164
147	0xbc0d9d7c	-0.008643504
148	0xbb3f23bb	-0.0029165584
149	0x3c340761	0.010988087
150	0x3c26eea9	0.010188737
151	0x3d13094c	0.035897538
152	0xbd131a2d	-0.035913635
153	0xbd410192	-0.04712064
154	0x3c24969b	0.010045673
155	0xbc0e61b3	-0.0086902855
156	0x3c735807	0.01485253
157	0x3b5fe0ed	0.0034161166
158	0x3c0c5430	0.008564994
159	0xbb11bd62	-0.0022238125
160	0x3bfbd068	0.007684756
161	0x3c0e3463	0.008679482
162	0xbb96c550	-0.004601158
163	0x3c1bab15	0.009501238
164	0xbb1f2bfc	-0.0024287691
165	0xbaf0785e	-0.0018346419
166	0x38e5291c	0.00010927228
167	0x3c9da5aa	0.019244034
168	0x3bddee2f	0.0067727785
169	0x3cb0a5a5	0.02156336
170	0xbd497fce	-0.04919415
171	0x3c2868f3	0.010278928
172	0xbcc22401	-0.023698809
173	0xbbc81686	-0.0061062006
174	0x3d6633db	0.056201797
175	0xbb68a669	-0.0035499579
176	0xbd796b9d	-0.060893644
177	0x3a8f2f18	0.0010924069
178	0xbaa1c5f7	-0.0012342323
179	0x3c3fda33	0.011709738
180	0x3cc58dcd	0.024115467
181	0xbccb219f	-0.024796305
182	0x3cf993ac	0.030465923
183	0xbc987efa	-0.018615235
184	0x3c82e911	0.015980275
185	0x3d45ea1b	0.048318963
186	0x3d19d582	0.037557133
187	0xbc8145df	-0.015780387
188	0xbd4ad54c	-0.049519822
189	0xbc32d487	-0.010914928
190	0xbd10787c	-0.035271153
191	0x3c877700	0.016536236
192	0x3c12ee8f	0.00896801
193	0x3c774f54	0.015094597
194	0xbd003345	-0.031298894
195	0x3ced00ea	0.0289311
196	0x3ac8c8e6	0.0015318661
197	0x3d094c4e	0.033520035
198	0x3c4246c6	0.011857694
199	0x3b28edb7	0.0025776455
200	0xbc91059b	-0.017702868
201	0xbcce0b0d	-0.025151754
202	0x3c7814a9	0.0151416445
203	0x3c02584b	0.007955621
204	0xbba4df4d	-0.0050315023
205	0x3aa13918	0.001230034
206	0xbb3cdd02	-0.0028818254
207	0x3c1a85a3	0.009431276
208	0x3b9b9018	0.004747402
209	0xbc31af52	-0.010845022
210	0x3cf51892	0.029918943
211	0x3d1324fa	0.035923935
212	0x3c797cc7	0.015227503
213	0xbcd77d29	-0.026304798
214	0xbd39175f	-0.045188304
215	0x3d30c883	0.043159973
216	0x3cc33269	0.023827748
217	0x3ce7027a	0.028199423
218	0x3ce8ecc4	0.028433211
219	0xbc86f310	-0.016473323
220	0x3d073047	0.033005025
221	0x3b3ba365	0.0028631326
222	0xbcc608de	-0.02417415
223	0xbc42e199	-0.011894607
224	0xbd38e07d	-0.045135964
225	0xbbca23fe	-0.0061688414
226	0xbcf8b7f5	-0.030361155
227	0x3c6ce163	0.014458033
228	0xba80b30d	-0.0009818986
229	0xbcce549a	-0.025186826
230	0xbcee0ccd	-0.029058838
231	0x3cb7335a	0.022363354
232	0x3b866f58	0.0041026287
233	0x3d4d9ab2	0.050196357
234	0x3b3ed04b	0.0029115852
235	0x3cbc2e5f	0.02297133
236	0xbbe1c6cf	-0.006890155
237	0xbb878fbf	-0.004137009
238	0xbc1fd495	-0.009755273
239	0xbca01599	-0.019541549
240	0x3b9809bd	0.004639833
241	0xbcdb2572	-0.026751254
242	0xbc078baa	-0.008273045
243	0x3d1bc366	0.038028143
244	0xbb516dee	-0.0031956392
245	0x3bd0b8b7	0.006369676
246	0x3d0c6c58	0.034283012
247	0xbd159dcf	-0.03652745
248	0xbcb96e00	-0.02263546
249	0x3cf4e755	0.029895464
250	0x3bed329f	0.0072387005
251	0xbc34b56a	-0.011029581
252	0x3cbbdaea	0.022931535
253	0xbbfe1d31	-0.0077549447
254	0xbc8bb228	-0.017052725
255	0x3d146054	0.03622468

action_model._continuous_distribution.mu.bias f4 [2]
0	0x3c99861d	0.018740708
1	0x3cd3530a	0.025796432

exp_avg f4 [256, 8]
0	0xb955b259	-0.00020379703
1	0xb5bf328d	-1.4245321e-06
2	0xb86ab31f	-5.5956767e-05
3	0xb98ec8e1	-0.00027234017
4	0x397d1ce7	0.00024138727
5	0xb831582e	-4.2282212e-05
6	0x383ac6ae	4.453089e-05
7	0xb52f7ff9	-6.5378805e-07
8	0xb807da9d	-3.2390108e-05
9	0x36095976	2.0466664e-06
10	0xb7be7211	-2.2702881e-05
11	0xb4c01ee9	-3.5785277e-07
12	0x3889b4c2	6.566338e-05
13	0x371e7ea8	9.447023e-06
14	0xb8b7b456	-8.75971e-05
15	0x36ac96b1	5.1435422e-06
16	0x35edeb12	1.772629e-06
17	0x3902c78d	0.00012472105
18	0xb92ac158	-0.0001628449
19	0x38ec4997	0.00011267064
20	0x3a000c05	0.00048846035
21	0xb94f7c57	-0.00019787379
22	0xb95b57a7	-0.0002091812
23	0xb8f19df8	-0.000115211995
24	0x3a0baefd	0.00053285045
25	0xb9438c18	-0.00018648838
26	0x39c37908	0.00037283474
27	0xb9ff1ff0	-0.00048661185
28	0xb92f26b4	-0.00016703719
29	0xb9025c6e	-0.00012432199
30	0x39c60949	0.0003777242
31	0x39078ade	0.00012926335
32	0x39258de5	0.00015788486
33	0x3935ddc7	0.00017344124
34	0xb955299d	-0.00020328765
35	0x39a27cc4	0.00030992005
36	0xb9b44e96	-0.00034390826
37	0xb8a5c923	-7.905278e-05
38	0x39a28c27	0.0003100347
39	0xb70a0946	-8.2276e-06
40	0x39752699	0.000233794
41	0x395a493a	0.00020817379
42	0x38385139	4.3944663e-05
43	0xb890c83e	-6.903753e-05
44	0x391b098a	0.00014785505
45	0x37600533	1.3352651e-05
46	0xb88eda79	-6.811781e-05
47	0x37a6fbc5	1.9905981e-05
48	0xba0ebc3a	-0.0005444918
49	0x395d75c8	0.0002112008
50	0xb9fef47b	-0.00048628807
51	0xb9863be9	-0.00025603108
52	0x3a43e401	0.0007472635
53	0xb921119e	-0.0001536072
54	0x39be4874	0.00036293606
55	0xb9b9218b	-0.0003531094
56	0x394a8fbf	0.00019317771
57	0x39943903	0.00028271237
58	0xb7bfbf5d	-2.2858085e-05
59	0xba28aa85	-0.0006434101
60	0x39a0ea32	0.00030692067
61	0x392380f3	0.00015592929
62	0x39961791	0.00028627788
63	0x390094f0	0.00012262515
64	0x371058d5	8.603752e-06
65	0xb73817dc	-1.097281e-05
66	0xb6b8747e	-5.497189e-06
67	0x372f005d	1.0430897e-05
68	0xb5bbfee0	-1.4006764e-06
69	0xb7330084	-1.06693515e-05
70	0xb7b3c254	-2.1428954e-05
71	0xb69ab22f	-4.610301e-06
72	0x380d2b1b	3.3657165e-05
73	0x379efb32	1.895204e-05
74	0xb88f3a1b	-6.829594e-05
75	0x37f1468d	2.8762292e-05
76	0x379f73a2	1.9008123e-05
77	0xb7c5231d	-2.3500581e-05
78	0x38a6b3ff	7.949024e-05
79	0xb7dbe3a5	-2.621284e-05
80	0x39750075	0.00023365191
81	0xb9400226	-0.00018311347
82	0x3994a274	0.00028349797
83	0xb91b4068	-0.00014805945
84	0xb8b5115a	-8.6339845e-05
85	0x38b3f148	8.580327e-05
86	0x37054316	7.943037e-06
87	0xb900d66f	-0.00012286914
88	0x398b1eee	0.0002653519
89	0xb90a6bef	-0.00013200914
90	0x39b3d8b2	0.0003430299
91	0x3a83ca41	0.0010054783
92	0xb9830887	-0.0002499262
93	0xb91bb91b	-0.00014850909
94	0xba849ac1	-0.0010116921
95	0xb965765b	-0.00021883233
96	0xb9d11915	-0.00039882274
97	0xb94a6d6c	-0.00019304984
98	0xb9978958	-0.00028903293
99	0x39842f32	0.00025212165
100	0xb934e0ce	-0.00017249884
101	0xb9a9d0b1	-0.0003238968
102	0xb71917d2	-9.125057e-06
103	0xb913b1a6	-0.00014085192
104	0x37ce6456	2.4603836e-05
105	0x38a120b6	7.683171e-05
106	0xb92c814b	-0.00016451364
107	0xb94f4ba4	-0.00019769237
108	0x39710ecb	0.00022989062
109	0x38e5bccc	0.00010954737
110	0xb9699b4e	-0.00022278467
111	0x39717d7e	0.000230303
112	0xb93bf077	-0.0001792329
113	0xb8e39861	-0.00010852586
114	0xb8bc9698	-8.992589e-05
115	0x3885c443	6.378491e-05
116	0xb7f7f691	-2.9559511e-05
117	0xb8d5cad1	-0.00010194409
118	0xb8b1a5fe	-8.470936e-05
119	0xb8a3f736	-7.818492e-05
120	0x3a02f0aa	0.0004994968
121	0x393b830f	0.00017882533
122	0x39a0db56	0.00030680996
123	0xb9ae7a7a	-0.00033279118
124	0x3932bcb4	0.000170457
125	0xb5ae4b6d	-1.2985962e-06
126	0x38aee58b	8.339722e-05
127	0x38c180e6	9.226966e-05
128	0x38fa1d7e	0.00011926422
129	0xb93a5e18	-0.00017773395
130	0x375cea0e	1.3167517e-05
131	0x39d7d46c	0.00041166262
132	0x393e2f2a	0.00018137382
133	0xb92493b8	-0.00015695288
134	0xba7b3b3e	-0.0009583718
135	0xb5ba3c40	-1.3875615e-06
136	0xb9af3acf	-0.00033422417
137	0x38e6f40e	0.000110127134
138	0xb8fe1a7d	-0.00012116598
139	0xba07b4ea	-0.00051767996
140	0x3a0a7ba3	0.00052827055
141	0x3900f366	0.00012297704
142	0xb860f3c4	-5.3632786e-05
143	0x390a2fcb	0.0001317851
144	0xb98f8cec	-0.0002738008
145	0x3839c711	4.4292832e-05
146	0xb93a35ea	-0.00017758427
147	0xb9d440ca	-0.00040484063
148	0x3894173a	7.061516e-05
149	0xb8a534eb	-7.87767e-05
150	0x3a07c8d6	0.0005179768
151	0x3856d4b4	5.121967e-05
152	0x3929c747	0.00016191333
153	0x37ae5d78	2.0785941e-05
154	0x38f50405	0.00011683259
155	0xb8ec3b42	-0.000112643946
156	0xb93226a5	-0.00016989799
157	0x385fe14d	5.337717e-05
158	0x39a7fc2e	0.0003204061
159	0xb67aa9f9	-3.735184e-06
160	0xb6023bbe	-1.9406284e-06
161	0x39b9b704	0.00035422307
162	0xb9309d5f	-0.00016843293
163	0xb936631a	-0.00017393791
164	0x3988a3cf	0.00026061988
165	0xb6be282d	-5.6671183e-06
166	0x3815c547	3.5708097e-05
167	0x3811155e	3.4590594e-05
168	0x37bf8bad	2.2834016e-05
169	0xb8d33fe1	-0.000100731624
170	0x38a55169	7.882977e-05
171	0x3984c3d9	0.0002532292
172	0xb97f71bb	-0.00024361063
173	0xb92f0bcb	-0.00016693694
174	0xb90126be	-0.00012316831
175	0xb83f3769	-4.5589553e-05
176	0x39153817	0.00014230642
177	0xb887c999	-6.474852e-05
178	0x38822555	6.205837e-05
179	0x398030d2	0.00024450436
180	0x37f5772c	2.926177e-05
181	0xb623c205	-2.4401827e-06
182	0xb9d04669	-0.0003972531
183	0xb7c550b9	-2.352182e-05
184	0x394231fe	0.00018519905
185	0x390c3d8e	0.00013374371
186	0x38ff39d3	0.00012170118
187	0x39d6fa19	0.00041003598
188	0xb9a4a167	-0.00031400772
189	0xb7911c33	-1.7298478e-05
190	0xb9894af7	-0.0002618653
191	0x3835d846	4.3355183e-05
192	0x38783083	5.9172988e-05
193	0x382551ec	3.941536e-05
194	0x38919017	6.9409776e-05
195	0xb7fb09b5	-2.9926052e-05
196	0x389c71ba	7.459843e-05
197	0xb6c6a002	-5.919487e-06
198	0x36b297f3	5.3225026e-06
199	0x351f403b	5.9325583e-07
200	0x38085a85	3.250923e-05
201	0x391018b6	0.00013742116
202	0xb7ba32d2	-2.2196593e-05
203	0x3a626897	0.0008636801
204	0xb99aeea5	-0.00029550973
205	0xb907fe97	-0.00012969445
206	0xba75d6a5	-0.0009377993
207	0xb7c6abea	-2.3683493e-05
208	0x3995fdb6	0.00028608524
209	0x3950e30f	0.00019921012
210	0x39069b4e	0.00012837091
211	0x37c7f9e8	2.383902e-05
212	0x3988de34	0.00026105496
213	0xb85ee2c1	-5.3140106e-05
214	0xb88fbc41	-6.8538364e-05
215	0xb80910ee	-3.2679112e-05
216	0xb98a0be1	-0.00026330262
217	0xb7c48f4b	-2.3431747e-05
218	0xb9877980	-0.0002583973
219	0x3969e7d2	0.00022306971
220	0xb91ea6da	-0.00015130211
221	0xb931f430	-0.00016971002
222	0xb8d1b2c5	-9.999195e-05
223	0xb865a58c	-5.4752032e-05
224	0x3a018387	0.00049405586
225	0xb8994003	-7.3075316e-05
226	0x396a36ed	0.0002233644
227	0xbaa30c28	-0.0012439536
228	0x3a0591a3	0.0005095249
229	0x3941713c	0.00018448097
230	0x3a73ecba	0.00093049894
231	0xb6905ea1	-4.3025507e-06
232	0x399d3825	0.00029987204
233	0xb8a0a477	-7.6600285e-05
234	0x396d5af9	0.00022635971
235	0xba0f1ad0	-0.00054590125
236	0x393130ea	0.00016898257
237	0x3914a311	0.00014175127
238	0x3a09946c	0.0005248252
239	0xb7b6a0cb	-2.1770966e-05
240	0xb9876642	-0.00025825395
241	0xb955561d	-0.00020345343
242	0xb96bc1ca	-0.00022483538
243	0x39098d86	0.0001311806
244	0xb91dc485	-0.00015045896
245	0xb89b3311	-7.400488e-05
246	0x37eba4c3	2.8090906e-05
247	0xb8cd49c8	-9.7889046e-05
248	0x39c69f7a	0.00037884322
249	0xb96aa9fb	-0.00022379302
250	0x39969bff	0.00028726456
251	0xba1ed124	-0.0006058386
252	0x39404de9	0.0001833957
253	0xb93d3c29	-0.00018046856
254	0x393bf943	0.00017926567
255	0x38ae133f	8.3005514e-05

exp_avg_sq f4 [256, 8]
0	0x352f4e93	6.530692e-07
1	0x35825b5a	9.712342e-07
2	0x34e0e60a	4.1890627e-07
3	0x35a553f4	1.2317892e-06
4	0x34df0c99	4.1546153e-07
5	0x3473fedd	2.2723857e-07
6	0x34ce475a	3.8422405e-07
7	0x3481cc43	2.4176742e-07
8	0x34437d84	1.8206453e-07
9	0x343f9893	1.7843767e-07
10	0x348f9bc5	2.6749163e-07
11	0x357b6d68	9.3663994e-07
12	0x34536d5f	1.9690695e-07
13	0x33105321	3.3603218e-08
14	0x358a7bc2	1.031782e-06
15	0x331de7f1	3.676536e-08
16	0x365a5661	3.253481e-06
17	0x3677c531	3.6920649e-06
18	0x3619769a	2.2867812e-06
19	0x354851ab	7.462465e-07
20	0x35e36b31	1.6944015e-06
21	0x35b13111	1.3201808e-06
22	0x3664c908	3.4091663e-06
23	0x35cf8f2a	1.5464368e-06
24	0x37ec3819	2.8159515e-05
25	0x37a6495f	1.9822908e-05
26	0x37db9031	2.6173979e-05
27	0x38e00a9a	0.00010683127
28	0x37a95961	2.018799e-05
29	0x36b68da3	5.4405114e-06
30	0x383c354b	4.4872326e-05
31	0x36cbb7c1	6.071263e-06
32	0x3656048c	3.1891132e-06
33	0x36b444ed	5.372442e-06
34	0x3660d978	3.3505185e-06
35	0x36e03fe3	6.6831576e-06
36	0x3650e058	3.1125e-06
37	0x35935616	1.0977408e-06
38	0x3613eaa4	2.2041286e-06
39	0x35a67a9f	1.2403651e-06
40	0x361bb8d3	2.3204382e-06
41	0x35c8388c	1.4917619e-06
42	0x353817e7	6.8580124e-07
43	0x35202694	5.9660783e-07
44	0x35542503	7.9030013e-07
45	0x3521d12a	6.028155e-07
46	0x34ae285f	3.24394e-07
47	0x35242c60	6.1159335e-07
48	0x37a6a316	1.9864685e-05
49	0x3786db0b	1.6076045e-05
50	0x37797dca	1.4870844e-05
51	0x386dbfb2	5.6683733e-05
52	0x373e1b46	1.1331233e-05
53	0x36833230	3.909947e-06
54	0x36e71581	6.88684e-06
55	0x36c4a04a	5.8599153e-06
56	0x36eb4e18	7.012637e-06
57	0x36ebf564	7.032113e-06
58	0x36806706	3.8266908e-06
59	0x3748042e	1.1921902e-05
60	0x3664794b	3.404525e-06
61	0x35ed2c9d	1.767086e-06
62	0x36e17cb1	6.7200385e-06
63	0x35f9c308	1.8608707e-06
64	0x32634a32	1.3230009e-08
65	0x322ff360	1.0241678e-08
66	0x31ff6e68	7.4340285e-09
67	0x3165f741	3.3464433e-09
68	0x31e9e209	6.8068897e-09
69	0x31968c90	4.3815547e-09
70	0x32405703	1.1195655e-08
71	0x31aea5f9	5.0829354e-09
72	0x351f8f37	5.944052e-07
73	0x3506a560	5.015954e-07
74	0x34ce1204	3.8383598e-07
75	0x35452f5a	7.3457124e-07
76	0x34a9b844	3.1612774e-07
77	0x34504679	1.9397147e-07
78	0x343a37b6	1.7342867e-07
79	0x345ac552	2.0374617e-07
80	0x362df1ac	2.591968e-06
81	0x35d0c5d5	1.5554784e-06
82	0x35bc57ba	1.4032623e-06
83	0x368b4336	4.150347e-06
84	0x35609edd	8.367768e-07
85	0x350dc256	5.280939e-07
86	0x352b5b79	6.3835574e-07
87	0x351d289e	5.8546163e-07
88	0x3696112f	4.472349e-06
89	0x367a9935	3.7342081e-06
90	0x36587e26	3.2259936e-06
91	0x379ce9ec	1.8705578e-05
92	0x3676aa26	3.6755896e-06
93	0x354ab8ac	7.5519597e-07
94	0x37281936	1.001945e-05
95	0x353b6b88	6.9819407e-07
96	0x361420fa	2.2072913e-06
97	0x364afa19	3.0245922e-06
98	0x359a9049	1.1515887e-06
99	0x351611e1	5.590537e-07
100	0x357b0f4e	9.352706e-07
101	0x35538a3a	7.880477e-07
102	0x3553c5cf	7.8891475e-07
103	0x356f2986	8.909486e-07
104	0x35bcd733	1.4069723e-06
105	0x35a0a92d	1.1970166e-06
106	0x36066806	2.0028106e-06
107	0x36a48c99	4.9039486e-06
108	0x3605530b	1.9866882e-06
109	0x34c7f90f	3.7247852e-07
110	0x3781036c	1.5379592e-05
111	0x34cb13c5	3.782608e-07
112	0x34f1e4c6	4.5056203e-07
113	0x34c233f4	3.6173117e-07
114	0x34c90fcb	3.7450658e-07
115	0x34aa251f	3.1691977e-07
116	0x34c41724	3.6524682e-07
117	0x340b162f	1.2953454e-07
118	0x360a224c	2.0583566e-06
119	0x3411014e	1.3504652e-07
120	0x36c2d07b	5.805921e-06
121	0x36c54bef	5.8798973e-06
122	0x362356ab	2.433934e-06
123	0x36af5c11	5.2261244e-06
124	0x3620d3c9	2.3965133e-06
125	0x35f09f77	1.7927804e-06
126	0x3661ec44	3.3665137e-06
127	0x35d38bfc	1.5761466e-06
128	0x35e4d407	1.7049032e-06
129	0x35c8af69	1.4952212e-06
130	0x35fe2d28	1.8937617e-06
131	0x3674715b	3.6424815e-06
132	0x35c165cf	1.4409251e-06
133	0x350a2249	5.14589e-07
134	0x371dfc43	9.4166635e-06
135	0x34f6d72a	4.5977623e-07
136	0x368a77f4	4.126685e-06
137	0x36b9e6a7	5.540281e-06
138	0x36c130d6	5.7575335e-06
139	0x37832dfc	1.563783e-05
140	0x36a7afb2	4.9974415e-06
141	0x3583283c	9.77197e-07
142	0x3813220f	3.507925e-05
143	0x3584b281	9.886718e-07
144	0x35596773	8.098934e-07
145	0x357fdf01	9.5319416e-07
146	0x35669bcc	8.590839e-07
147	0x3674049f	3.6361523e-06
148	0x354737c4	7.4214427e-07
149	0x346167d6	2.0992533e-07
150	0x3660183d	3.339271e-06
151	0x34379fb2	1.71013e-07
152	0x3566c153	8.5963e-07
153	0x35219f44	6.0208936e-07
154	0x358e49a3	1.0601256e-06
155	0x362079f7	2.391285e-06
156	0x3537e587	6.850682e-07
157	0x34164994	1.3996606e-07
158	0x36925e79	4.362137e-06
159	0x34458d6e	1.8398507e-07
160	0x369a7bbe	4.603963e-06
161	0x36598581	3.241323e-06
162	0x35f9735c	1.858552e-06
163	0x3687fa48	4.05245e-06
164	0x36166530	2.241064e-06
165	0x35a6810d	1.2405523e-06
166	0x364f36de	3.087734e-06
167	0x35ac514b	1.2838658e-06
168	0x36c58e1c	5.887601e-06
169	0x36c27e69	5.7963666e-06
170	0x36c85bd4	5.9711547e-06
171	0x37cb3cf1	2.4227864e-05
172	0x36a70199	4.977174e-06
173	0x35d3184a	1.5727794e-06
174	0x377f6984	1.5223752e-05
175	0x35c4df24	1.466808e-06
176	0x3499fc09	2.868185e-07
177	0x34f6dd38	4.5982028e-07
178	0x34c038e5	3.5804183e-07
179	0x350fe7fd	5.360924e-07
180	0x34ab17ca	3.186854e-07
181	0x33ce08c4	9.594217e-08
182	0x36153775	2.223501e-06
183	0x33e525d8	1.0670527e-07
184	0x356299f4	8.441559e-07
185	0x3570d18f	8.9711915e-07
186	0x358a7ba8	1.031779e-06
187	0x365f9764	3.331771e-06
188	0x35905202	1.0752703e-06
189	0x3457d15c	2.00996e-07
190	0x36d27d46	6.2730714e-06
191	0x34846777	2.4662197e-07
192	0x33ed79c4	1.10583215e-07
193	0x33f1b32b	1.12550275e-07
194	0x33bf8158	8.917658e-08
195	0x32ea637d	2.7286427e-08
196	0x338c11a7	6.522469e-08
197	0x336c368f	5.4997653e-08
198	0x33a41d91	7.642223e-08
199	0x336d8293	5.529962e-08
200	0x3681629d	3.8559797e-06
201	0x3689d869	4.1081116e-06
202	0x36a8a1b8	5.0256167e-06
203	0x37abca73	2.0479061e-05
204	0x368f1120	4.2637257e-06
205	0x3528b1a7	6.2843395e-07
206	0x37831dba	1.563026e-05
207	0x3543fff0	7.30156e-07
208	0x36111b2d	2.1622502e-06
209	0x35c0305b	1.4319188e-06
210	0x35985727	1.1350247e-06
211	0x350b8cb7	5.19863e-07
212	0x357bdba8	9.382443e-07
213	0x3569b70b	8.7065627e-07
214	0x359644a0	1.1195843e-06
215	0x3573b364	9.07856e-07
216	0x360fbf11	2.1419876e-06
217	0x35f76e0b	1.8434961e-06
218	0x35ef5369	1.7831163e-06
219	0x36d47808	6.332066e-06
220	0x35da5c21	1.6269079e-06
221	0x3517e674	5.6587237e-07
222	0x35211139	6.0002236e-07
223	0x353740ab	6.8266917e-07
224	0x372403a1	9.776007e-06
225	0x37205348	9.556134e-06
226	0x3707b44d	8.088607e-06
227	0x381a9d0b	3.686272e-05
228	0x36f5f1df	7.3297265e-06
229	0x35fa9eff	1.8672725e-06
230	0x37699d5c	1.392452e-05
231	0x36055c16	1.9872145e-06
232	0x35d14998	1.5593132e-06
233	0x360346af	1.9561664e-06
234	0x360df14c	2.115109e-06
235	0x36ddc33e	6.6090424e-06
236	0x35dadd0f	1.6306602e-06
237	0x34b9487a	3.451167e-07
238	0x36b8dec6	5.5095616e-06
239	0x34e8bc40	4.3350337e-07
240	0x35c64d0a	1.4774571e-06
241	0x35b2f003	1.3331886e-06
242	0x35867c6b	1.0019988e-06
243	0x34b96c0d	3.4537553e-07
244	0x3539b0e4	6.917528e-07
245	0x35203641	5.9683595e-07
246	0x34e27c5a	4.2186258e-07
247	0x3534b73f	6.7321884e-07
248	0x377a2e0a	1.49118805e-05
249	0x3779dece	1.4893432e-05
250	0x377ac230	1.4946374e-05
251	0x388a159e	6.584379e-05
252	0x373546fc	1.0804968e-05
253	0x36802025	3.8184394e-06
254	0x375ab37a	1.30356e-05
255	0x3673483e	3.6251872e-06

exp_avg f4 [256]
0	0xb9463b86	-0.00018904926
1	0x379f0815	1.895804e-05
2	0x3871ec63	5.767903e-05
3	0xb932885c	-0.000170262
4	0x39bce968	0.00036032056
5	0xb96b06c0	-0.00022413861
6	0xb91d5132	-0.00015002934
7	0xba15a73b	-0.0005708818
8	0x3809bb59	3.2837826e-05
9	0x38988d4c	7.2742434e-05
10	0xb802afb8	-3.1158066e-05
11	0x3a4b887f	0.0007764175
12	0x3a066fff	0.0005128383
13	0xb947691e	-0.00019017278
14	0x394dc583	0.00019623902
15	0xb9ec2a54	-0.00045044965
16	0x39f1457f	0.0004601888
17	0xb888e2f1	-6.5272565e-05
18	0xb98998d7	-0.0002624455
19	0xb8a98c24	-8.084651e-05
20	0xb992a84f	-0.0002797269
21	0x3964bd58	0.0002181431
22	0x3926112e	0.00015837394
23	0x39d69f45	0.00040935926
24	0xb8f40d87	-0.00011637346
25	0x3a60eefd	0.0008580534
26	0xb9b235cd	-0.0003399089
27	0x3a11902e	0.00055527955
28	0xba81a8e2	-0.000989225
29	0xb9d0a139	-0.00039792972
30	0x39c81a7b	0.00038166702
31	0xba22fc25	-0.0006217382
32	0x3a2c532b	0.0006573672
33	0x39fd36fa	0.0004829688
34	0x39aa5f88	0.00032496103
35	0x398f7fd4	0.00027370325
36	0xb93101a7	-0.00016880651
37	0xb986e352	-0.00025727839
38	0x391348b2	0.00014046094
39	0xb8170953	-3.600989e-05
40	0x3938f10b	0.00017637403
41	0x37b01e86	2.0995049e-05
42	0x3958fde9	0.00020693954
43	0x3945b0d9	0.00018853265
44	0xb81abcd6	-3.689233e-05
45	0x3ae49dd2	0.0017442054
46	0x39bd44ec	0.0003610024
47	0x3a40f4eb	0.00073607144
48	0xb9489184	-0.00019127695
49	0xb92bc03b	-0.00016379442
50	0x395dfae0	0.0002116966
51	0x39e93cca	0.00044486515
52	0xba6d38ce	-0.0009049297
53	0x39392078	0.0001765507
54	0xb9a951e0	-0.00032295194
55	0xb9007fc2	-0.00012254625
56	0x399da45e	0.00030067837
57	0xb929f415	-0.00016208024
58	0x390fc40b	0.00013710574
59	0xb6030172	-1.9521362e-06
60	0xb9958593	-0.00028519015
61	0xb84fefe3	-4.9576058e-05
62	0x396bb454	0.00022478524
63	0xb8f34372	-0.000115997056
64	0xb9b90c9a	-0.0003529534
65	0x3962e136	0.00021636937
66	0xba897e00	-0.0010489821
67	0x3a171c31	0.0005764394
68	0xb85c0cdf	-5.2464075e-05
69	0x392c3d78	0.00016426097
70	0xb98cc932	-0.00026852783
71	0xb9881f2f	-0.00025963175
72	0x38c88b36	9.562673e-05
73	0x395cc1b4	0.00021052995
74	0xba3f9a23	-0.000730904
75	0xb945f912	-0.0001888017
76	0xb9461da4	-0.00018893793
77	0xb99312e0	-0.00028052088
78	0xba2a6848	-0.00065005245
79	0xb6d1d90c	-6.253953e-06
80	0x39c49760	0.00037496816
81	0x39a6bec5	0.00031804122
82	0x39a2b59a	0.00031034352
83	0xb8c12c0a	-9.21116e-05
84	0x38b4367d	8.593218e-05
85	0x39685000	0.00022155046
86	0x39172c44	0.00014416972
87	0xb897637e	-7.218773e-05
88	0x39a0e6fd	0.00030689678
89	0x3a220774	0.000618092
90	0x39126e87	0.0001396482
91	0xb9178463	-0.000144498
92	0x39330f7b	0.00017076537
93	0xb8462d12	-4.7248854e-05
94	0xb851f152	-5.005423e-05
95	0x399aa628	0.00029496965
96	0xb900e9db	-0.00012294149
97	0x38be906f	9.086809e-05
98	0x38d77064	0.00010272933
99	0xb89cf66c	-7.484559e-05
100	0x38ad3504	8.259158e-05
101	0xb71a5019	-9.1977645e-06
102	0x3a423a68	0.0007409216
103	0xb841043f	-4.601874e-05
104	0xba4174ce	-0.0007379771
105	0x39b81630	0.00035111746
106	0xb864a4da	-5.4512966e-05
107	0x3916feb5	0.000144
108	0xb99408f5	-0.00028235433
109	0xb885f3ce	-6.3873464e-05
110	0xb917bc1d	-0.0001447056
111	0x38fd741b	0.000120856064
112	0xb8eba8dd	-0.000112371265
113	0xb9ce4e1b	-0.00039349575
114	0x3a4d15c2	0.00078233716
115	0x3885913a	6.368985e-05
116	0xb9004b1a	-0.00012235009
117	0xb979e784	-0.00023832737
118	0xb913a71e	-0.00014081268
119	0xb9bc0503	-0.00035861888
120	0x39f9b14b	0.00047625075
121	0xb9825e6b	-0.0002486588
122	0xb8b906b6	-8.8227374e-05
123	0xba0383ed	-0.0005016912
124	0xb9c66e3b	-0.0003784763
125	0x383dc145	4.5241108e-05
126	0xb9450ab8	-0.00018791377
127	0x399bc954	0.00029713905
128	0x39ca7f9b	0.00038623516
129	0xb92cc409	-0.00016476227
130	0x38a85ba6	8.027935e-05
131	0x39bb3565	0.00035707201
132	0x3933cdba	0.0001714741
133	0xb90de9a2	-0.00013533843
134	0x38e528e3	0.00010927187
135	0xba261eff	-0.0006337016
136	0xba0c8ca3	-0.00053615327
137	0xb7e263fa	-2.6987855e-05
138	0xb79b8f5a	-1.8544193e-05
139	0x37ec7ac2	2.8190556e-05
140	0x3a058b3c	0.0005094295
141	0x398973c8	0.0002621694
142	0x392eba13	0.00016663251
143	0xb947f23a	-0.00019068355
144	0xb7a6aecc	-1.9870138e-05
145	0x3904dae2	0.00012670041
146	0x3a61dea8	0.0008616247
147	0x390e7d9c	0.00013588968
148	0xb6f59563	-7.31896e-06
149	0xb8443851	-4.678249e-05
150	0xb98d0cb8	-0.00026903092
151	0x3a117d1c	0.0005549954
152	0x3aaafe10	0.0013045687
153	0x3a734985	0.00092806696
154	0xb9811a28	-0.00024624285
155	0x3905241a	0.00012697317
156	0xb90dd015	-0.00013524324
157	0xb83452e0	-4.2992528e-05
158	0xb9656315	-0.00021876053
159	0xb8b73547	-8.736044e-05
160	0xba164d6c	-0.00057335827
161	0xb8180f9f	-3.6254172e-05
162	0x399b0a2f	0.0002957149
163	0x3837d0ea	4.3825166e-05
164	0x3a83d063	0.0010056611
165	0x384f5ba6	4.9438e-05
166	0x3947bcb7	0.0001904842
167	0xb8fd0174	-0.00012064251
168	0x39406f20	0.00018351944
169	0x39f9b585	0.00047628224
170	0x3a2eb429	0.0006664419
171	0xb81578ba	-3.5636804e-05
172	0x39c7c00b	0.0003809932
173	0xb8441620	-4.6750647e-05
174	0xb9b5f846	-0.00034707988
175	0x38465ba2	4.729222e-05
176	0x3a48a17f	0.00076534593
177	0x39713001	0.00023001434
178	0xb8ffc64b	-0.000121962825
179	0xb8979bac	-7.229237e-05
180	0xba005126	-0.00048949046
181	0x39c43458	0.00037423032
182	0xb7eaa224	-2.7970476e-05
183	0x38982b96	7.256043e-05
184	0xb9ba50c5	-0.00035536863
185	0xb9c50b43	-0.0003758316
186	0xb94937b0	-0.00019189599
187	0x398c09ef	0.00026710282
188	0x39d4642b	0.00040510422
189	0x3912499b	0.00013951065
190	0x3a825f79	0.0009946666
191	0xba2ee424	-0.0006671569
192	0xb93e75fa	-0.00018163762
193	0x37aec279	2.0832975e-05
194	0x3a251301	0.0006297082
195	0xba209fdc	-0.00061273365
196	0xb958f6be	-0.00020691284
197	0xba4fdf11	-0.0007929663
198	0xb947dfb3	-0.00019061453
199	0xb899ee08	-7.339945e-05
200	0x39172ac6	0.00014416417
201	0x3a3cfa4f	0.000720893
202	0xb92bf629	-0.00016399533
203	0xb9bae748	-0.00035649003
204	0xb8320faa	-4.2453095e-05
205	0xb9117654	-0.00013872358
206	0xb9974ae3	-0.0002885676
207	0xb8fd786b	-0.0001208641
208	0x391de842	0.0001505921
209	0xb9a0c163	-0.00030661662
210	0xb94f8d98	-0.00019793806
211	0xb967ddca	-0.000221125
212	0x3924617b	0.00015676573
213	0x394a96df	0.00019320425
214	0x3a28c7cc	0.00064384635
215	0xba2576f7	-0.00063119776
216	0x39c2d6be	0.0003716256
217	0xb98599b5	-0.00025482257
218	0xb9f5f215	-0.00046910407
219	0x3965ea9f	0.00021926545
220	0xba393c0f	-0.00070661394
221	0x38ee0958	0.00011350465
222	0xb8d24bb6	-0.000100276826
223	0x38d7c2bc	0.00010288271
224	0x38a46775	7.8394e-05
225	0xb7b7d202	-2.1913092e-05
226	0x3a4cf4f6	0.00078184844
227	0xb8dffc6c	-0.00010680486
228	0xb82ef995	-4.1717274e-05
229	0x3a076c8b	0.00051660155
230	0xb838f9a1	-4.4101504e-05
231	0xb9a62f55	-0.00031697252
232	0x38202b19	3.818711e-05
233	0xba9d99a9	-0.0012023944
234	0x38d5b13c	0.00010189644
235	0xb97b0985	-0.00023940772
236	0x39a31b8d	0.0003111031
237	0xb7a65a96	-1.9830924e-05
238	0x39812523	0.00024632466
239	0x38878aa6	6.463127e-05
240	0xb8df9ec1	-0.00010663039
241	0x39f1b8e9	0.0004610487
242	0x38f2f2bc	0.00011584672
243	0x392df66b	0.00016590364
244	0x3a699de3	0.00089117716
245	0xb8d2f427	-0.00010059057
246	0xb95ae971	-0.00020877064
247	0x3a11e88d	0.0005565964
248	0x392763ef	0.00015963589
249	0xb9c4398f	-0.00037426918
250	0xb9717a2c	-0.00023029064
251	0x38745a07	5.8257978e-05
252	0xb9e72753	-0.00044089052
253	0x395679e9	0.00020454045
254	0x38320ef7	4.2452444e-05
255	0xba2d00f9	-0.0006599571
