results/max-hiddenunits32-config1-2/3DBall/3DBall-449419.pt (torch, 25946 bytes, 32 tensors)

network_body.observation_encoder.processors.0.normalizer.running_mean f4 [8]
-0.0013328894 5.5318695e-05 -0.1968732 3.0547385 -0.12450551 -0.001899596 -0.30622226 -0.017495217
00000000: 59b4 aeba ff05 6838 2199 49be d680 4340
00000010: bffc febd ddfb f8ba 2ac9 9cbe 2152 8fbc

network_body.observation_encoder.processors.0.normalizer.running_variance f4 [8]
1016.9114 1068.3486 184769.38 17664.549 221429.16 107557.97 201773.97 124214.77
00000000: 543a 7e44 288b 8544 5870 3448 1901 8a46
00000010: 4a3d 5848 fc12 d247 7e0b 4548 639b f247

network_body.processors.0.normalizer.running_mean f4 [8]
-0.0013328894 5.5318695e-05 -0.1968732 3.0547385 -0.12450551 -0.001899596 -0.30622226 -0.017495217
00000000: 59b4 aeba ff05 6838 2199 49be d680 4340
00000010: bffc febd ddfb f8ba 2ac9 9cbe 2152 8fbc

network_body.processors.0.normalizer.running_variance f4 [8]
1016.9114 1068.3486 184769.38 17664.549 221429.16 107557.97 201773.97 124214.77
00000000: 543a 7e44 288b 8544 5870 3448 1901 8a46
00000010: 4a3d 5848 fc12 d247 7e0b 4548 639b f247

network_body._body_endoder.seq_layers.0.weight f4 [32, 8]
0.11176431 0.37558576 -0.32464868 -0.11605398 0.17800163 -0.40607595 -0.106564015 0.5788476
-0.96779567 0.057160646 -0.03474185 0.64209116 0.07116342 0.09305621 0.25834826 0.65006083
-0.22026241 -0.58915913 0.38453534 -0.037513796 -0.23156816 0.3194305 -0.032593396 -0.42567798
-0.14453833 -0.6271416 0.2323643 0.051961496 -0.012879114 -0.4557686 -0.21808214 -0.23107283
-0.13708499 -0.4965043 -0.3563452 0.7142461 -0.5730974 0.106668316 0.50835055 -0.9648114
-0.17967452 0.11659506 -0.13366581 0.22740649 0.42079303 0.4254873 0.0048241518 0.3709695
-0.47331816 0.78613913 0.14815645 -0.6725405 0.18315421 0.6351299 0.527585 0.18717058
0.27245247 -0.2981892 -0.45779735 0.4804247 -0.5574357 -0.30210865 -0.19727789 -0.12502979
-0.45261228 -0.29789314 0.8822654 -0.20791389 -0.056994036 -0.018410247 0.24391155 -0.23206104
0.06998351 -0.42532018 0.16877241 0.08300527 -0.09759371 0.4890707 0.27313632 -0.19859937
0.62409425 0.13414532 0.21286653 0.4424299 0.87522817 -0.028604249 0.17548802 -0.07767536
0.08652738 -0.1437811 -0.20185877 -0.37368652 -0.540659 -0.72122204 0.7954807 -0.060507696
-0.46319294 0.31975213 0.14184764 0.28862667 -0.036658198 0.15457717 -0.27074668 0.44285193
-0.42407787 -0.050792955 0.16994652 0.13838471 -0.22646533 -0.18298766 -0.5248527 -0.35145295
-0.83605194 -0.4426102 -0.17428663 0.22284034 0.06978755 0.016112208 -0.065168776 -0.10002378
-0.5904601 -0.6523209 -0.08644981 -0.041318547 0.10616045 0.53361994 0.37363848 -0.12429066
-0.63640034 -0.59996414 0.24905756 0.74424905 -0.2636417 0.1272015 0.08448163 -0.47621608
0.3114487 -0.46480322 -0.32729745 -0.40352482 -0.8324587 -0.11216646 -1.0357258 -0.099478334
-0.10255624 0.6712996 -0.075744085 0.2133725 0.3118986 0.23383255 -0.727384 0.62316245
-0.4569315 0.96856815 0.4676783 0.25480205 0.03473095 0.17582709 0.4098076 0.08774531
0.35419858 -0.33626267 0.21107057 -0.4561042 -0.25115964 0.35228273 -0.20212685 -0.60054255
0.68006206 0.07077539 -0.8754633 0.12134555 0.048991643 -0.019850904 0.29633564 0.6044925
0.71709514 -0.16882773 -0.64876693 0.46172336 0.042892862 -0.96115524 0.45991978 -0.33000255
0.31295872 -0.32144302 -0.47656634 -0.25752157 -0.3366777 -0.357003 0.17864767 0.32823828
-0.41394526 0.39267877 0.723302 -0.15657565 0.068050355 0.60140324 -0.38378832 0.31637076
0.15228966 -0.41552478 0.042557888 -0.42268485 -0.18203455 -0.06870509 -0.3790775 0.06950583
0.29463547 -0.48762876 -0.00327456 -0.31689343 0.5735098 0.39999148 -0.19065537 -0.28794715
-0.19305216 -0.14542595 -0.39346078 -0.13713998 -0.01300737 0.13523823 -0.3638265 0.08603872
0.869974 -0.4281506 -0.39702338 0.1889503 0.092253976 -0.7201881 -0.5672002 -0.25092635
0.18680084 -0.5355533 -0.10663826 0.27999288 0.25802112 -0.18378179 -0.13117674 -0.20647359
-0.117959075 -0.19970916 -0.70367324 0.41072038 -0.2117234 0.08538921 0.23324668 -0.8499123
-0.18303138 -0.77302545 -0.47771788 -0.23719347 -0.573034 0.21969302 0.4009334 -0.07715158
00000000: b0e4 e43d c74c c03e 5a38 a6be b6ad edbd
00000010: 0f46 363e 30e9 cfbe 3c3e dabd 5b2f 143f
00000020: 75c1 77bf 4821 6a3d 784d 0ebd 1660 243f
00000030: 21be 913d 4194 be3d 3946 843e 636a 263f
00000040: 788c 61be 22d3 16bf d1e1 c43e 11a8 19bd
00000050: 3420 6dbe 658c a33e a780 05bd 77f2 d9be
00000060: db01 14be 5a8c 20bf e8f0 6d3e 94d5 543d
00000070: eb02 53bc 805a e9be ed50 5fbe 5b9e 6cbe
00000080: 0260 0cbe d035 febe e172 b6be d5d8 363f
00000090: 83b6 12bf eb74 da3d 4323 023f e1fd 76bf
000000a0: 99fc 37be 64c9 ee3d b1df 08be 3fdd 683e
000000b0: 2f72 d73e 79d9 d93e eb13 9e3b b7ef bd3e
000000c0: c256 f2be 6a40 493f 53b6 173e 9d2b 2cbf
000000d0: c78c 3b3e e097 223f d00f 073f a5a9 3f3e
000000e0: e47e 8b3e 41ac 98be 6a64 eabe 3afa f53e
000000f0: 1bb4 0ebf fcad 9abe 3703 4abe cf07 00be
00000100: ccbc e7be 7385 98be 25dc 613f 61e7 54be
00000110: 9472 69bd 16d1 96bc f3c3 793e 69a1 6dbe
00000120: 8453 8f3d 91c3 d9be add2 2c3e abfe a93d
00000130: 36df c7bd 7a67 fa3e 86d8 8b3e a25d 4bbe
00000140: a4c4 1f3f 645d 093e aff9 593e 2c86 e23e
00000150: f40e 603f 7553 eabc 22b3 333e 4214 9fbd
00000160: 4435 b13d 5a3b 13be 11b4 4ebe d753 bfbe
00000170: a168 0abf 02a2 38bf a0a4 4b3f ebd6 77bd
00000180: a027 edbe 8db6 a33e 8240 113e e0c6 933e
00000190: e826 16bd 7a49 1e3e 4f9f 8abe 7dbd e23e
000001a0: bc20 d9be 460c 50bd 7606 2e3e b9b4 0d3e
000001b0: 87e6 67be 1e61 3bbe bf5c 06bf a4f1 b3be
000001c0: 8007 56bf ce9d e2be 3278 32be 4230 643e
000001d0: c6ec 8e3d c0fd 833c 3577 85bd 44d9 ccbd
000001e0: 6528 17bf 81fe 26bf 990c b1bd a33d 29bd
000001f0: a66a d93d 519b 083f 8b4d bf3e 1a8c febd
00000200: 22eb 22bf 4097 19bf f208 7f3e 1b87 3e3f
00000210: 0bfc 86be 1c41 023e b404 ad3d 98d2 f3be
00000220: 3476 9f3e b0fa edbe 8893 a7be ce9a cebe
00000230: 031c 55bf 87b7 e5bd aa92 84bf 4cbb cbbd
00000240: 0209 d2bd 4ada 2b3f b71f 9bbd 527e 5a3e
00000250: 2cb1 9f3e cd71 6f3e d635 3abf 9387 1f3f
00000260: edf2 e9be 15f4 773f 8873 ef3e 6a75 823e
00000270: 0a42 0e3d 040c 343e 4dd2 d13e d0b3 b33d
00000280: 8459 b53e 9f2a acbe e222 583e 7d86 e9be
00000290: ff97 80be 675e b43e 57fa 4ebe 28bd 19bf
000002a0: 8c18 2e3f b0f2 903d 5d1e 60bf 0484 f83d
000002b0: 76ab 483d 5d9e a2bc 4eb9 973e 05c0 1a3f
000002c0: 8c93 373f 2de1 2cbe 9715 26bf 0167 ec3e
000002d0: 6db0 2f3d 450e 76bf 9b7a eb3e 18f6 a8be
000002e0: 203c a03e 2e94 a4be 8100 f4be ded9 83be
000002f0: 0561 acbe 19c9 b6be 6aef 363e d90e a83e
00000300: a2f0 d3be 310d c93e 522a 393f 5e55 20be
00000310: fc5d 8b3d 90f5 193f e77f c4be 59fb a13e
00000320: d2f1 1b3e aabf d4be 2e51 2e3d 266a d8be
00000330: 4467 3abe 41b5 8cbd 7216 c2be 1359 8e3d
00000340: 76da 963e 7aaa f9be 009a 56bb db3f a2be
00000350: 8ad1 123f afcb cc3e 293b 43be cf6d 93be
00000360: 77af 45be 8aea 14be b173 c9be 6c6e 0cbe
00000370: dd1c 55bc e47b 0a3e 7847 babe 1235 b03d
00000380: 9eb6 5e3f 8e36 dbbe a646 cbbe 307c 413e
00000390: a7ef bc3d 3f5e 38bf 0834 11bf 6b79 80be
000003a0: b848 3f3e 051a 09bf 2965 dabd 3a5b 8f3e
000003b0: 581b 843e 4b31 3cbe 3253 06be d06d 53be
000003c0: 8794 f1bd 8f80 4cbe ee23 34bf f149 d23e
000003d0: 05ce 58be 8ae0 ae3d 38d8 6e3e da93 59bf
000003e0: 946c 3bbe ffe4 45bf 7097 f4be d8e2 72be
000003f0: 5bb2 12bf 35f7 603e 2547 cd3e a601 9ebd

network_body._body_endoder.seq_layers.0.bias f4 [32]
0.16628219 0.16044815 -0.012431743 0.042049743 0.16142353 0.10601353 0.15542287 0.11117366
0.08762161 0.09428694 0.062424976 0.08944806 0.1142584 -0.014550429 0.08429062 0.14720224
0.16573547 -0.07851021 0.018635085 0.115339026 0.034196477 0.11130123 0.26993498 0.07126138
0.21747282 0.017240673 0.0076077627 -0.045010757 0.17997971 0.0043944 0.124988124 0.10090929
00000000: e145 2a3e 854c 243e 82ae 4bbc 5a3c 2c3d
00000010: 364c 253e 9f1d d93d 2c27 1f3e 04af e33d
00000020: f572 b33d 8319 c13d 55b1 7f3d 8b30 b73d
00000030: 4f00 ea3d ec64 6ebc 90a0 ac3d 2fbc 163e
00000040: 8fb6 293e f6c9 a0bd 9ba8 983c de36 ec3d
00000050: 9b11 0c3d e6f1 e33d eb34 8a3e 7df1 913d
00000060: 32b1 5e3e 503c 8d3c 8a4a f93b 335d 38bd
00000070: 9a4c 383e e6fe 8f3b c6f9 ff3d 88a9 ce3d

action_model._continuous_distribution.log_sigma f4 [1, 2]
-0.13708857 -0.1781638
00000000: f260 0cbe 9270 36be

action_model._continuous_distribution.mu.weight f4 [2, 32]
-0.14737885 0.13694762 0.059052 -0.028967839 -0.011802847 0.14621936 0.15628582 -0.15819116
0.10358838 0.19089323 -0.0627926 -0.2570271 0.1244614 0.06651225 0.108961485 0.24267651
0.14447089 -0.0038495904 -0.0036364389 0.09431905 0.019143473 -0.1624063 -0.3062913 -0.20411961
0.18459143 -0.040099096 0.09494855 -0.008115886 -0.1327353 -0.025766859 -0.04746403 0.016723813
-0.22403996 -0.09601317 0.06481591 0.11305759 0.16350423 -0.16676399 -0.08210412 0.11568862
0.038598552 0.19359332 -0.10236339 0.047748167 -0.11615462 0.037808098 0.06602413 0.096639566
0.15330584 0.026219822 -0.06254465 -0.1163869 0.071875885 -0.13711236 0.033089045 -0.029770834
-0.094658166 0.056348097 0.07254878 0.038939256 0.031637087 0.102403514 0.13603276 0.1672797
00000000: 7bea 16be ff3b 0c3e 83e0 713d f64d edbc
00000010: ba60 41bc 87ba 153e 6409 203e ddfc 21be
00000020: 2526 d43d 8479 433e 6899 80bd 0e99 83be
00000030: 9ee5 fe3d 9337 883d 3327 df3d 3180 783e
00000040: 2df0 133e 6949 7cbb 5251 6ebb 592a c13d
00000050: c6d2 9c3c d64d 26be 37d2 9cbe bb04 51be
00000060: 8905 3d3e f33e 24bd 6374 c23d 7ef8 04bc
00000070: c3eb 07be 0515 d3bc a569 42bd 6100 893c
00000080: bb6a 65be 8ea2 c4bd 34be 843d bd8a e73d
00000090: a76d 273e 2ec4 2abe 3426 a8bd 28ee ec3d
000000a0: 8419 1e3d 543d 463e e6a3 d1bd 9593 433d
000000b0: 79e2 edbd aadc 1a3d a937 873d f7ea c53d
000000c0: 35fc 1c3e f4ca d63c 6917 80bd 415c eebd
000000d0: aa33 933d 2f67 0cbe 6188 073d f7e1 f3bc
000000e0: 24dc c1bd 43cd 663d 7494 943d c57e 1f3d
000000f0: e495 013d efb8 d13d 2c4c 0b3e 5f4b 2b3e

action_model._continuous_distribution.mu.bias f4 [2]
0.006622173 -0.017568246
00000000: d0fe d83b 48eb 8fbc

exp_avg f4 [32, 8]
0.0010318154 -0.0009389835 0.0012419837 0.0043978915 0.0010875964 -0.0011377933 -0.007924386 -5.5312536e-05
-0.0014680485 0.00045094537 -0.00073067524 0.0008980067 0.0010217817 0.00051391736 -0.0010685893 0.00044506192
-0.00020464415 0.00043183033 0.00011152206 -0.0003036814 -0.0002532015 3.3235363e-05 0.0012743897 -6.514047e-05
2.831372e-05 -0.00053056487 -0.00020306028 -0.0014336627 -0.00085555646 -0.00026014552 0.004571781 -0.0007275166
0.001385039 0.0003184049 0.0022499885 -0.0033838982 -6.8636145e-05 -0.00054385775 0.0025369425 -0.0010751138
-0.0016589274 0.0009898356 -0.00028596347 0.0021414773 0.001058888 0.00021447164 -0.0049834573 0.0012923902
-0.001095373 0.0010525327 -0.000602457 -0.00034058452 0.0006937764 0.00028224266 0.000423546 0.00072536484
0.00075908605 -0.002095748 0.0005389874 -0.0019112803 0.000207622 -0.00089759874 0.004763033 -0.0013385739
-0.001136783 0.0007427543 -0.0002418393 0.0007161338 -8.004291e-05 0.00018973238 0.00032822497 0.00020213645
0.00058880105 0.0026502623 0.0016948645 -0.00054612604 -0.0004623069 0.00062701956 9.376843e-05 -4.0468705e-05
-5.5977638e-05 -0.00012695466 0.00015636497 0.0009895631 0.00022480266 -0.0010303949 -0.0032957932 -7.613071e-05
0.002198547 -0.00265359 0.0006951421 -0.0007554547 -0.00047351257 -0.0014098424 0.0001375137 -0.0013152271
-0.00050862075 0.0018061703 0.00054473965 0.0018408558 0.00060005067 0.0005683283 -0.006652635 0.00077439734
-0.00039243224 0.0001385882 -4.814844e-05 -0.0016668934 4.3368727e-05 9.804837e-05 0.0020472102 8.596563e-05
-0.0009693001 0.0006373146 0.0006000842 -0.0027929049 0.0010335508 -0.0002060624 0.0017696294 -9.70366e-05
-0.0025529407 0.0023693854 0.00068155193 -0.00048916735 0.0014531943 -0.00021048506 3.508134e-05 6.222029e-05
-0.0002561132 0.0006234721 0.0018706839 -0.0052600703 0.0013227205 -0.0005255246 0.004110846 -0.00064257305
5.5903e-05 -0.00025601615 -9.642851e-05 -0.00067124155 -0.000100790814 2.219531e-05 0.0014382044 -5.9264883e-05
-0.000293325 0.0004518876 0.0002805297 0.0018150647 -5.7956702e-05 -6.291931e-05 -0.0033151805 0.0002251447
-0.000749971 0.0011394799 -0.00015691781 0.0013724641 0.00013877219 0.00048007155 -0.002418725 0.0007914909
-4.593874e-05 0.00010955874 -0.0004987231 0.00027588522 -0.0008189427 0.00032469016 0.002076256 -4.205545e-05
-0.0010949549 -0.0027506622 -0.0015967566 0.0029982305 0.00045006652 -0.001480572 -0.0002562829 -0.0007185342
0.0016471496 -0.002672738 9.607487e-05 0.0022386215 -0.00086495344 -0.0023111012 -0.0008783211 -0.0029749782
0.0008899313 -0.002627739 0.00018298234 -0.00014795894 0.0002539251 -0.0011186951 0.0007687177 -0.0009665241
-0.0007377843 0.0025197144 0.00065540697 0.00086866773 0.0006130031 0.00041745746 -0.0055369157 0.0008647067
5.8373003e-05 -0.000563887 -0.00036152417 -0.00031763755 -0.0005505315 -8.6093605e-05 0.0024080055 -0.0003465959
-0.000636072 0.0008616539 -0.0006386877 0.0009051245 -0.00035027732 0.0006806032 0.0014852335 0.00045909407
6.975284e-05 -0.00016322611 -0.000114360424 -0.00082881993 -0.00010471489 -5.5949276e-05 0.001665865 -0.00017740464
0.00029408417 -0.0015562075 -0.000311917 0.00013789043 -0.00018093924 -0.00091568695 0.0022888326 -0.0014241727
0.00047567757 -0.00023930849 0.0002757365 -0.0016104289 -0.000407153 5.5287048e-05 0.0033503564 -0.00067342777
0.0011580903 0.00021958596 0.001597531 -0.0024046 0.00019679373 -0.0004895149 0.0014237006 -0.0011597764
0.00044596888 0.0016683362 0.0014946896 -0.00051792094 -0.0014657339 -0.00038891434 -0.00027587402 -0.00046571868
00000000: fb3d 873a 1e26 76ba 0fca a23a 301c 903b
00000010: ae8d 8e3a 0222 95ba 49d5 01bc 62ff 67b8
00000020: 896b c0ba dd6c ec39 c98a 3fba 3668 6b3a
00000030: 4eed 853a 69b8 063a e80f 8cba 3357 e939
00000040: bf95 56b9 4967 e239 f3e0 e938 6d37 9fb9
00000050: 21c0 84b9 3366 0b38 6c09 a73a 069c 88b8
00000060: 4083 ed37 9b15 0bba 94ec 54b9 bde9 bbba
00000070: 6c47 60ba 2464 88b9 e1ce 953b d0b6 3eba
00000080: 328a b53a 95ef a639 8b74 133b 64c4 5dbb
00000090: c0f0 8fb8 ad91 0eba d542 263b d5ea 8cba
000000a0: 5e70 d9ba 5fbd 813a 5eed 95b9 0758 0c3b
000000b0: 63ca 8a3a cbe3 6039 454c a3bb 6b65 a93a
000000c0: 9e92 8fba 23f5 893a 34ee 1dba 7b90 b2b9
000000d0: 8cde 353a f8f9 9339 620f de39 6926 3e3a
000000e0: 67fd 463a d158 09bb d54a 0d3a ed83 faba
000000f0: 1bb5 5939 d54c 6bba 3713 9c3b 1673 afba
00000100: 1c00 95ba 66b5 423a 3e96 7db9 edba 3b3a
00000110: b6dc a7b8 e6f2 4639 9c15 ac39 97f4 5339
00000120: c559 1a3a 06b0 2d3b 3726 de3a e629 0fba
00000130: c861 f2b9 925e 243a 8ba5 c438 f1bc 29b8
00000140: 88c9 6ab8 221f 05b9 e7f5 2339 3ab4 813a
00000150: 01b9 6b39 510e 87ba 3cfe 57bb 5da8 9fb8
00000160: 7f15 103b dae7 2dbb 323a 363a b509 46ba
00000170: c841 f8b9 76ca b8ba 8e31 1039 b363 acba
00000180: f654 05ba 05bd ec3a dccc 0e3a df48 f13a
00000190: b84c 1d3a defb 143a 59fe d9bb ed00 4b3a
000001a0: 5dbf cdb9 fd51 1139 fef2 49b8 a97b daba
000001b0: d1e6 3538 519f cd38 7d2a 063b 7248 b438
000001c0: a118 7eba 7511 273a f84e 1d3a 2b09 37bb
000001d0: 3678 873a 7412 58b9 e9f2 e73a 2180 cbb8
000001e0: 3d4f 27bb b147 1b3b 2daa 323a 773b 00ba
000001f0: 1c79 be3a a7b5 5cb9 4d24 1338 447c 8238
00000200: ef46 86b9 8170 233a bc31 f53a ab5c acbb
00000210: 235f ad3a 5cc3 09ba 47b4 863b 5972 28ba
00000220: 6479 6a38 e839 86b9 a939 cab8 42f6 2fba
00000230: a85f d3b8 1130 ba37 2282 bc3a 2f93 78b8
00000240: 6ac9 99b9 54eb ec39 0f14 9339 77e7 ed3a
00000250: 8916 73b8 8cf3 83b8 8043 59bb d214 6c39
00000260: b499 44ba 9a5a 953a 4e8a 24b9 41e4 b33a
00000270: 6083 1139 1db2 fb39 7983 1ebb 0e7c 4f3a
00000280: 59ae 40b8 e7c2 e538 bebc 02ba b0a4 9039
00000290: 50ae 56ba 2d3b aa39 cc11 083b b264 30b8
000002a0: 9784 8fba 7444 34bb 434a d1ba f67d 443b
000002b0: e8f6 eb39 c10f c2ba b55d 86b9 045c 3cba
000002c0: 2be5 d73a 1a29 2fbb ce7b c938 d6b5 123b
000002d0: 0bbe 62ba d875 17bb 223f 66ba daf7 42bb
000002e0: 474a 693a 2536 2cbb f3de 3f39 6d25 1bb9
000002f0: 4021 8539 2ea1 92ba c683 493a 565e 7dba
00000300: de67 41ba cb21 253b 9ecf 2b3a 4eb7 633a
00000310: f1b1 203a 31de da39 046f b5bb 7cad 623a
00000320: 89d5 7438 d1d1 13ba f48a bdb9 9788 a6b9
00000330: 8b51 10ba 278d b4b8 a1cf 1d3b 50b7 b5b9
00000340: 12be 26ba 9de0 613a 9b6d 27ba e145 6d3a
00000350: 6da5 b7b9 826a 323a 2bac c23a 90b2 f039
00000360: 4548 9238 ad27 2bb9 c9d4 efb8 2a45 59ba
00000370: 619a dbb8 14ab 6ab8 2759 da3a b205 3ab9
00000380: 4f2f 9a39 a9f9 cbba cb88 a3b9 ae96 1039
00000390: 82ba 3db9 b60a 70ba 3d00 163b 4eab baba
000003a0: 5d64 f939 e2ee 7ab9 ba90 9039 0715 d3ba
000003b0: 2777 d5b9 04e4 6738 a791 5b3b f988 30ba
000003c0: 10cb 973a a840 6639 3f64 d13a 7e96 1dbb
000003d0: 6a5a 4e39 ca52 00ba 779b ba3a a303 98ba
000003e0: eed0 e939 13ac da3a 76e9 c33a 16c5 07ba
000003f0: de1d c0ba 33e7 cbb9 2fa3 90b9 b42b f4b9

exp_avg_sq f4 [32, 8]
9.482603e-05 0.00010031091 0.00010329153 0.00015326565 0.0001166165 4.5636254e-05 0.0005683033 4.0644536e-05
4.735175e-05 4.7507212e-05 3.4313885e-05 0.00019575046 4.8775077e-05 1.3133813e-05 0.000102800564 1.5169877e-05
7.873854e-06 6.3494385e-06 5.059392e-06 1.7486418e-05 7.944801e-06 1.6467071e-06 1.5402871e-05 1.847088e-06
2.0159869e-05 1.7914115e-05 2.4171966e-05 5.8864698e-05 2.9348013e-05 7.0818855e-06 0.00013367519 5.6860304e-06
4.0681447e-05 3.72106e-05 2.1574087e-05 0.0001201506 3.6988014e-05 6.8813915e-06 5.4829106e-05 8.99397e-06
6.1346094e-05 5.8604786e-05 6.114705e-05 0.00024650036 7.7433215e-05 1.2217612e-05 0.00032472887 1.5420053e-05
3.4377874e-05 3.1366817e-05 1.2327867e-05 5.35367e-06 2.3128721e-05 1.0060347e-05 1.379409e-05 1.18322705e-05
5.683234e-05 5.915961e-05 5.8381174e-05 0.00028960104 6.824039e-05 1.2431756e-05 0.00033630276 1.5341044e-05
1.34168495e-05 1.0645879e-05 1.0136931e-05 1.37711095e-05 1.2246588e-05 5.6013737e-06 8.71609e-06 4.599805e-06
7.6472075e-05 6.61039e-05 4.0562736e-05 0.00017465574 6.9274174e-05 1.4993775e-05 5.2280866e-05 1.6865188e-05
2.473641e-05 1.9264271e-05 2.3060167e-05 7.761166e-05 3.5855854e-05 6.781326e-06 7.820958e-05 5.281881e-06
7.257082e-05 7.24565e-05 3.142411e-05 1.9505022e-05 5.2229196e-05 3.0752817e-05 2.0440026e-05 3.236522e-05
4.5978883e-05 4.9133276e-05 5.3131764e-05 0.00020422462 6.169854e-05 1.3342214e-05 0.00033515133 1.5520207e-05
8.559945e-06 6.4652327e-06 9.415483e-06 3.890308e-05 1.1344496e-05 1.8991515e-06 4.915977e-05 1.9610493e-06
2.5941903e-05 2.1633234e-05 1.7828459e-05 9.031268e-05 3.0075995e-05 5.1760567e-06 7.907485e-05 6.031556e-06
8.768569e-05 8.1135804e-05 3.426952e-05 0.0001362752 7.402561e-05 1.8263601e-05 4.604455e-05 2.1104133e-05
8.35895e-05 6.5100365e-05 6.961059e-05 0.00032905053 9.106203e-05 1.4444105e-05 0.00027446618 1.5889185e-05
9.5339016e-07 8.81884e-07 1.28528e-06 2.158021e-06 1.3367022e-06 2.3113778e-07 1.0344949e-05 2.5586965e-07
6.476307e-06 6.9966604e-06 9.252441e-06 2.5294281e-05 1.0603127e-05 2.1126025e-06 6.379552e-05 2.2380455e-06
3.1264357e-05 3.491419e-05 2.2231743e-05 6.7781075e-05 2.9795492e-05 1.3556407e-05 3.281465e-05 1.3328666e-05
5.963386e-06 3.9603947e-06 4.1647204e-06 2.7581048e-06 6.064387e-06 1.1847488e-06 2.3528153e-05 1.3907223e-06
5.462749e-05 5.2175754e-05 3.2015505e-05 0.000107984175 4.3798198e-05 1.4371537e-05 7.66216e-05 1.696142e-05
0.00015760293 0.00014009078 0.00010738368 0.0005894652 0.00013868617 4.1664527e-05 0.00013255375 4.5409393e-05
3.8496437e-05 3.5361525e-05 1.5490787e-05 3.4538327e-05 2.7720753e-05 1.3408717e-05 2.4452998e-05 1.6379689e-05
6.157722e-05 6.107862e-05 6.587759e-05 0.00016118745 8.170425e-05 1.8712637e-05 0.0003772923 2.0206198e-05
5.027519e-06 4.658176e-06 5.415298e-06 4.658758e-06 6.655617e-06 1.5108261e-06 4.351678e-05 1.5641393e-06
1.670828e-05 1.3791054e-05 1.32433e-05 2.5356261e-05 2.4887662e-05 4.0731134e-06 6.1609186e-05 4.216259e-06
1.5880966e-06 1.5451128e-06 2.2197096e-06 4.062555e-06 2.1927112e-06 3.1332448e-07 1.9868858e-05 3.7786683e-07
3.4766963e-05 2.8100178e-05 3.1009888e-05 0.00014539047 4.013352e-05 8.188635e-06 0.0001530219 8.853108e-06
1.5889398e-05 1.3900133e-05 2.0151527e-05 6.362169e-05 2.4546815e-05 3.3605183e-06 0.000113259375 3.4480256e-06
2.756882e-05 2.5958403e-05 2.2489852e-05 9.165685e-05 2.5556585e-05 4.4740477e-06 0.00010963973 6.4592123e-06
3.2655487e-05 2.9049137e-05 1.0223988e-05 3.0823318e-05 2.1554873e-05 7.0151095e-06 1.4910468e-05 8.474548e-06
00000000: 56dd c638 025e d238 389e d838 efb5 2039
00000010: 0290 f438 8e69 3f38 30fa 143a bd79 2a38
00000020: 8e9b 4638 7b42 4738 41ec 0f38 5d42 4d39
00000030: d793 4c38 4c59 5c37 a296 d738 2082 7e37
00000040: f219 0437 430d d536 d9c3 a936 ccaf 9237
00000050: a94a 0537 6d04 dd35 6a35 8137 76e9 f735
00000060: fd1c a937 4546 9637 e7c4 ca37 7de5 7638
00000070: 6130 f637 efa0 ed36 292b 0c39 a1ca be36
00000080: 5fa1 2a38 9412 1c38 00fa b437 5df9 fb38
00000090: 9423 1b38 b4e6 e636 4ef8 6538 cfe4 1637
000000a0: efa6 8038 69ce 7538 133c 8038 b83c 8139
000000b0: a463 a238 3efa 4c37 5f40 aa39 505a 8137
000000c0: f630 1038 dd8f 0338 c9d3 4e37 ada3 b336
000000d0: 8d04 c237 ddc8 2837 2a6d 6737 3783 4637
000000e0: 435f 6e38 2622 7838 4fde 7438 98d5 9739
000000f0: 481c 8f38 fc91 5037 cb51 b039 a4b0 8037
00000100: ee18 6137 b49b 3237 ca11 2a37 770a 6737
00000110: b276 4d37 6ff3 bb36 523b 1237 0658 9a36
00000120: a25f a038 43a1 8a38 e821 2a38 cb23 3739
00000130: 4a47 9138 c68d 7b37 2748 5b38 b779 8d37
00000140: 0981 cf37 b599 a137 5571 c137 71c3 a238
00000150: ee63 1638 268b e336 7304 a438 033b b136
00000160: 2a31 9838 caf3 9738 62cd 0338 b79e a337
00000170: ac10 5b38 96fc 0038 9f76 ab37 e4bf 0738
00000180: 73d9 4038 7414 4e38 ccd9 5e38 2125 5639
00000190: 2764 8138 5fd8 5f37 40b7 af39 6431 8237
000001a0: af9c 0f37 edef d836 31f7 1d37 dd2b 2338
000001b0: 3d54 3e37 59e6 fe35 e730 4e38 929a 0336
000001c0: d09d d937 0479 b537 538e 9537 4066 bd38
000001d0: b54b fc37 fdad ad36 fdd4 a538 ac62 ca36
000001e0: e5e3 b738 7427 aa38 9ebc 0f38 18e5 0e39
000001f0: 323e 9b38 c934 9937 f61f 4138 c808 b137
00000200: c54c af38 7e86 8838 e7fb 9138 6a84 ac39
00000210: 8ef8 be38 f554 7237 3ae6 8f39 c449 8537
00000220: 79ec 7f35 9bba 6c35 e281 ac35 85d2 1036
00000230: bd68 b335 ab2e 7834 388f 2d37 755e 8934
00000240: 0e4f d936 dbc4 ea36 ee3a 1b37 0e2f d437
00000250: 15e4 3137 3cc6 0d36 f6c9 8538 5431 1636
00000260: d921 0338 d370 1238 4e7e ba37 b025 8e38
00000270: 55f1 f937 5370 6337 76a2 0938 2f9e 5f37
00000280: 1819 c836 88e3 8436 adbe 8b36 e117 3936
00000290: b07c cb36 a903 9f35 535e c537 dba8 ba35
000002a0: d21f 6538 4ad7 5a38 6348 0638 9075 e238
000002b0: f5b3 3738 481d 7137 e9af a038 5f48 8e37
000002c0: 3742 2539 55e5 1239 2d33 e138 5786 1a3a
000002d0: 496c 1139 f2c0 2e38 20fe 0a39 f775 3e38
000002e0: 3c77 2138 2651 1438 36f2 8137 3fdd 1038
000002f0: dd89 e837 00f6 6037 6a20 cd37 1d67 8937
00000300: 0523 8138 5617 8038 c327 8a38 6d04 2939
00000310: a358 ab38 15f9 9c37 51cf c539 7b80 a937
00000320: 0fb2 a836 6d4d 9c36 0eb5 b536 6d52 9c36
00000330: 5153 df36 97c7 ca35 c985 3638 6bef d135
00000340: c228 8c37 2060 6737 8a2f 5e37 28b4 d437
00000350: d9c5 d037 c7ab 8836 2e34 8138 6479 8d36
00000360: 9526 d535 ac61 cf35 52f6 1436 1551 8836
00000370: 7e26 1336 fd36 a834 0cac a637 9fdd ca34
00000380: bed2 1138 acb8 eb37 9d10 0238 f573 1839
00000390: 0a55 2838 eb61 0937 8174 2039 cf87 1437
000003a0: 394a 8537 9e34 6937 130b a937 a26c 8538
000003b0: e2e9 cd37 4485 6136 aa85 ed38 a164 6736
000003c0: 9743 e737 3fc1 d937 97a8 bc37 e637 c038
000003d0: 5962 d637 c71f 9636 62ee e538 36bc d836
000003e0: 90f7 0838 8cae f337 b287 2b37 4948 0138
000003f0: bdd0 b437 5563 eb36 f927 7a37 e82d 0e37

exp_avg f4 [32]
0.0028659366 0.0028931543 -0.00065574946 -0.001866992 -0.0016322302 0.004465627 0.0025376338 -0.0017131456
3.3871514e-05 -0.00123539 0.0015796176 -0.0002745156 0.0036481943 -0.00044167886 -0.0006924699 2.7832213e-05
-0.001967199 -0.00046915584 0.0011759347 0.0022666457 -0.0007534725 0.0011777179 0.00062813243 3.8124737e-05
0.003920534 -0.0009063506 -0.0010498402 -0.0007905692 -0.00022490487 -0.0017693182 -0.0015130132 -0.0014811176
00000000: 70d2 3b3b 139b 3d3b 9ae6 2bba dbb5 f4ba
00000010: 8ff0 d5ba 6554 923b 6e4e 263b a18b e0ba
00000020: 4311 0e38 cfec a1ba 2c0b cf3a dcec 8fb9
00000030: 8b16 6f3b 2291 e7b9 de86 35ba 3979 e937
00000040: 1fec 00bb 08f9 f5b9 d221 9a3a 018c 143b
00000050: af84 45ba a85d 9a3a 41a9 243a 20e8 1f38
00000060: d377 803b 2998 6dba cb9a 89ba 333e 4fba
00000070: 71d4 6bb9 78e8 e7ba 4c50 c6ba 0f22 c2ba

exp_avg_sq f4 [32]
0.00015715348 6.484188e-05 9.64429e-06 3.2273914e-05 4.9169266e-05 9.73623e-05 4.8030444e-05 8.606013e-05
1.6094045e-05 9.306157e-05 2.9679137e-05 0.000101019046 7.481792e-05 1.1032501e-05 3.231524e-05 0.000104490675
9.474283e-05 1.6253676e-06 1.109385e-05 4.261306e-05 7.837579e-06 7.067116e-05 0.00019138554 5.5715125e-05
9.988245e-05 9.028166e-06 2.3330618e-05 3.0336198e-06 4.8293165e-05 2.3912056e-05 3.887335e-05 4.2947508e-05
00000000: 91c9 2439 b8fb 8738 e9cd 2137 da5d 0738
00000010: 193b 4e38 fd2e cc38 4c74 4938 2e7b b438
00000020: b301 8737 0d2a c338 76f7 f837 30da d338
00000030: 91e7 9c38 3b18 3937 3a8a 0738 0122 db38
00000040: abb0 c638 3527 da35 b91f 3a37 6dbb 3238
00000050: 257e 0337 4a35 9438 aaae 4839 a9af 6938
00000060: fb77 d138 ad77 1737 1fb6 c337 3195 4b36
00000070: 648e 4a38 c096 c837 f10b 2338 8922 3438

exp_avg f4 [1, 2]
0.0051297136 0.043983784
00000000: 2817 a83b 5728 343d

exp_avg_sq f4 [1, 2]
0.0063472837 0.008393617
00000000: e0fc cf3b 6285 093c

exp_avg f4 [2, 32]
0.0064490503 0.0031686593 -0.0044229934 -0.0064234072 -0.014005066 0.005083006 0.012328082 -0.009742327
-0.0012974687 -0.003585922 -0.00075383054 -0.006795821 0.004390676 -0.0009448954 0.0023210885 0.0025048403
-0.0071828403 0.0019437434 0.009494981 0.009531292 -0.0065401043 0.0020849106 -0.016404198 -0.0043965946
0.010799452 -0.0029177219 -0.0043510995 0.0018556154 -0.012603352 -0.007087855 -0.00947338 -0.0063727708
-0.0076399483 -0.019063199 0.0024559062 -0.005972298 -0.0078509115 -0.0088331755 0.00069362525 -0.01877513
0.00397115 0.0032660177 -0.0019671682 0.0031646858 -0.025679061 -0.025166867 -0.009887596 -0.0066415723
-0.015339538 -0.031000888 -0.04844425 0.0007008055 -0.00050200167 -0.0042347857 -0.008821419 0.00039056625
-0.028175807 -0.008209987 -0.006645639 -0.00902882 -0.030088726 -0.0072526787 -0.008688409 -0.003011479
00000000: 8e52 d33b 48a9 4f3b c2ee 90bb 727b d2bb
00000010: 8175 65bc 588f a63b b9fb 493c 489e 1fbc
00000020: d30f aaba ca01 6bbb b69c 45ba 7aaf debb
00000030: a9df 8f3b dbb2 77ba 671d 183b 3f28 243b
00000040: 085e ebbb 35c5 fe3a d690 1b3c 2329 1c3c
00000050: 5f4e d6bb ffa2 083b 1962 86bc 4f11 90bb
00000060: 2ff0 303c 4037 3fbb ab93 8ebb 1f38 f33a
00000070: 4a7e 4ebc 3d41 e8bb 3c36 1bbc add2 d0bb
00000080: 8858 fabb 6d2a 9cbc 45f3 203b 44b3 c3bb
00000090: 1ca1 00bc 06b9 10bc 67d4 353a 4dce 99bc
000000a0: 6c20 823b af0a 563b 9beb 00bb 9e66 4f3b
000000b0: e55c d2bc bf2a cebc 95ff 21bc 8ca1 d9bb
000000c0: b052 7bbc 93f5 fdbc 7a6d 46bd 43b6 373a
000000d0: c398 03ba f5c3 8abb b787 10bc eac4 cc39
000000e0: f3d0 e6bc 2e83 06bc a9c3 d9bb 9eed 13bc
000000f0: a27c f6bc e1a7 edbb d459 0ebc 3c5c 45bb

exp_avg_sq f4 [2, 32]
0.0005321191 0.0038503357 0.00036547057 0.00081416755 0.003623542 0.0006035707 0.0009302664 0.0030719514
0.00068439025 0.00029038585 0.0031166603 0.000624728 0.001798101 0.0017811612 0.0016827908 0.0011160597
0.00482589 0.004413878 0.005523358 0.0016861599 0.0004265831 0.00095942174 0.002629332 0.00038498876
0.0014670687 0.00046750242 0.00076421635 0.0004784784 0.0049513136 0.0013019365 0.0016377615 0.0007938144
0.00096667814 0.0035362646 0.00038239823 0.0009853863 0.0024859498 0.0006706108 0.0010470566 0.0034119494
0.0008103125 0.00034769755 0.0034642487 0.0008183007 0.0029136806 0.00392674 0.0021219102 0.0011818674
0.004211161 0.010170118 0.011718358 0.0019297929 0.0005214711 0.0008806585 0.0021019096 0.00040518
0.00256186 0.00068253424 0.0012115001 0.0013960166 0.0075615877 0.0013794836 0.0013064339 0.00083607924
00000000: e97d 0b3a ea55 7c3b a19c bf39 dc6d 553a
00000010: f278 6d3b f238 1e3a 1fdd 733a cb52 493b
00000020: a768 333a ee3e 9839 e240 4c3b c9c4 233a
00000030: 42ae eb3a da75 e93a 1791 dc3a c048 923a
00000040: 8022 9e3b 4ba2 903b 49fd b43b 2302 dd3a
00000050: 04a7 df39 b481 7b3a df50 2c3b 51d8 c939
00000060: a84a c03a 1d1b f539 b155 483a 49dc fa39
00000070: a13e a23b bda5 aa3a 28aa d63a fc17 503a
00000080: ac68 7d3a adc0 673b 9f7c c839 1428 813a
00000090: 51eb 223b eecb 2f3a 643d 893a 039b 5f3b
000000a0: 276b 543a 2d4b b639 7308 633b 3b83 563a
000000b0: 73f3 3e3b e2ab 803b bf0f 0b3b e4e8 9a3a
000000c0: c7fd 893b 91a0 263c 5bfe 3f3c 1bf1 fc3a
000000d0: 55b3 083a fedb 663a 31c0 093b 576e d439
000000e0: e1e4 273b 19ec 323a 33cb 9e3a 8bfa b63a
000000f0: 32c7 f73b cacf b43a a63c ab3a 542c 5b3a

exp_avg f4 [2]
0.007935745 -0.02471357
00000000: ed04 023c 1d74 cabc

exp_avg_sq f4 [2]
0.004420839 0.005615162
00000000: afdc 903b 65ff b73b

exp_avg f4 [32, 8]
-0.00024751393 0.0005955195 -0.00028217552 0.0013492242 -0.00029868566 -0.00016212995 -0.0025208774 2.3262399e-05
0.00021287287 -0.00013987905 9.372197e-05 -0.0009831626 2.714034e-07 6.0396535e-05 0.0014891956 -3.24973e-05
0.0001694005 -0.0002843645 0.00013976339 -0.00078427664 0.00013332472 0.00014132157 0.0012816851 2.1916633e-06
1.7653329e-05 1.7923676e-05 -3.255857e-05 4.1083575e-05 0.000102378726 -3.9258425e-06 9.942434e-05 0.0001803213
-0.00014414854 -0.00018154354 -0.00021418575 -0.0005801459 -7.065293e-05 0.000100589576 0.0013501397 1.6531418e-05
0.00010218889 0.00011693313 -1.2041391e-05 7.116258e-05 -0.00023016045 -4.0680056e-06 2.6571313e-05 -0.00012977656
-0.00031160287 0.00029078437 -0.00030079632 0.00068932987 -5.103372e-05 -7.34095e-05 -0.0008854789 5.5768232e-05
0.0002585138 -1.95141e-05 0.00026796546 -0.00024160017 5.6556464e-06 -3.1826316e-05 -6.6127454e-06 -0.00013365719
-0.0004772971 0.00032897433 -0.00059285533 0.0017240128 -0.00019489015 3.7477366e-05 -0.0021097055 0.00032581593
0.0001700803 -0.0003309997 -7.005524e-05 -0.0009786759 5.8455724e-05 4.5781926e-05 0.0020430458 0.00012355873
-0.00024634457 0.00017231477 -0.00029321807 0.00084835675 -3.829808e-05 -9.340691e-05 -0.00063231424 5.8811467e-05
8.993013e-05 -0.00012874357 6.866548e-05 -0.00024793518 8.7527995e-05 3.111898e-05 0.0006094285 -3.2097116e-05
1.1521457e-05 -2.997852e-05 3.2115047e-05 0.00023579429 9.588201e-05 -2.1225813e-05 -0.0008573416 0.00019324908
-0.00040713404 0.00048954267 -0.00017751119 0.0013315557 -5.5640207e-06 -0.00019567471 -0.0023723624 -7.581629e-06
-7.965197e-05 -0.00029698262 -2.981936e-05 -0.00019090102 0.0003152142 8.352406e-05 0.001256551 -7.0916845e-05
-0.00030052985 0.00052775 -0.0002979499 0.0013081654 -8.763167e-05 7.6343684e-05 -0.0024509085 5.164185e-05
7.1473687e-06 0.00068133784 0.000112843256 0.00030019804 1.8869909e-05 -0.00015627468 -0.0014755883 -1.2792577e-05
-8.358063e-05 1.0257475e-05 -9.453408e-05 -2.6455707e-05 6.070861e-05 8.100504e-05 0.00042403123 -7.943349e-05
0.00020132062 -2.796988e-05 7.2889866e-06 -0.00022670595 -7.9724385e-05 -4.2986925e-05 0.0008942355 -0.00011948121
-7.036425e-05 -6.4998894e-05 -3.0505807e-06 -0.0001072189 3.1930827e-05 1.3562743e-05 0.000410671 -6.77777e-06
-0.00038885142 0.00034358384 -0.00037807837 0.0013926972 -0.00018707875 -0.00012287566 -0.0019376333 0.00032011693
-8.229458e-05 0.00020742373 -2.8384278e-05 -4.4027684e-06 -3.150979e-05 -2.41555e-05 -0.00035504915 5.377921e-06
-0.0003846803 0.00023139252 -0.00046833573 0.00042696367 -0.00014048786 -0.00013605574 -0.000106037034 0.00030337423
0.00035213845 2.8732624e-05 0.00047906043 -0.0013895736 0.00019860135 1.0040271e-05 0.0009357349 -0.00012687166
-0.00040498804 0.00031313964 -0.00045265307 0.001122298 -0.00023360991 -0.00013525975 -0.0010334319 0.0001810513
-0.0003308529 0.00045384435 -0.00017892277 0.0015112743 -0.00019610475 -0.0001477024 -0.0023981193 7.8467805e-05
-0.00012596064 0.00029599966 3.8408263e-05 0.0003462422 8.0665166e-05 -8.443486e-05 -0.0013972387 0.00020856361
0.00022556934 0.00012249747 0.00029393795 -0.0003517215 -1.3936155e-06 4.543909e-05 4.3267224e-05 -0.00012371568
0.00022107885 -0.00028704572 0.00023592901 -0.0006693335 0.00024733416 8.847102e-05 0.00091918436 -2.043446e-05
0.00035062915 -0.00029412768 1.8705891e-06 -0.0011672571 -1.5108541e-05 -7.600327e-05 0.0016991905 8.233525e-05
2.675278e-05 -0.0002759653 1.2680369e-05 3.4990542e-05 2.0077441e-05 4.1753607e-05 0.00028773578 6.053226e-05
-9.850321e-05 -0.00019745676 -0.00013980795 9.604491e-05 0.000102533086 0.00010645744 0.0005431831 -4.896019e-07
00000000: c2c4 81b9 a31c 1c3a f5f0 93b9 74d8 b03a
00000010: e998 9cb9 6d01 2ab9 4e35 25bb 9f23 c337
00000020: a036 5f39 7fac 12b9 998c c438 76dd 80ba
00000030: 66b5 9134 4952 7d38 1d31 c33a b64d 08b8
00000040: 1aa1 3139 c216 95b9 738d 1239 ea97 4dba
00000050: 15cd 0b39 b82f 1439 37fe a73a 7d14 1336
00000060: 3c16 9437 cd5a 9637 808f 08b8 2751 2c38
00000070: 29b4 d638 bbba 83b6 0982 d038 a114 3d39
00000080: 9426 17b9 b95c 3eb9 0d97 60b9 ef14 18ba
00000090: 812b 94b8 9ef3 d238 2cf7 b03a f3ac 8a37
000000a0: 3e4e d638 ff39 f538 6105 4ab7 1f3d 9538
000000b0: 3a57 71b9 e77f 88b6 76e5 de37 a114 08b9
000000c0: a15e a3b9 6b74 9839 33b4 9db9 25b4 343a
000000d0: 0a0d 56b8 6df3 99b8 7c1f 68ba afe8 6938
000000e0: 2389 8739 36b2 a3b7 b77d 8c39 0d56 7db9
000000f0: a2c5 bd36 3f7d 05b8 0de3 ddb6 5426 0cb9
00000100: bb3d fab9 307a ac39 d969 1bba 45f8 e13a
00000110: 6d5b 4cb9 0431 1d38 fc42 0abb 46d2 aa39
00000120: 9557 3239 078a adb9 9fea 92b8 ea46 80ba
00000130: 5b2e 7538 f805 4038 9fe4 053b 8b8f 0139
00000140: cf27 81b9 65af 3439 10bb 99b9 4264 5e3a
00000150: 40a2 20b8 74e3 c3b8 e4c1 25ba 55ac 7638
00000160: df98 bc38 57ff 06b9 8000 9038 4cfd 81b9
00000170: 3c8f b738 c085 0238 0ec2 1f3a 04a0 06b8
00000180: 484c 4137 627a fbb7 45b3 0638 8c3f 7739
00000190: 4314 c938 160e b2b7 39bf 60ba e8a2 4a39
000001a0: 9b74 d5b9 a754 003a 4c22 3ab9 9887 ae3a
000001b0: 93b2 bab6 082e 4db9 a379 1bbb b265 feb6
000001c0: d30a a7b8 55b4 9bb9 9724 fab7 9a2c 48b9
000001d0: 5543 a539 a329 af38 dbb2 a43a 31b9 94b8
000001e0: 6f90 9db9 b458 0a3a 2936 9cb9 bf76 ab3a
000001f0: e5c6 b7b8 b41a a038 6c9f 20bb 049a 5838
00000200: 6ed3 ef36 cf9b 323a 43a6 ec38 e663 9d39
00000210: d24a 9e37 aadd 23b9 8768 c1ba b39f 56b7
00000220: 0248 afb8 8517 2c37 9940 c6b8 33ed ddb7
00000230: 60a1 7e38 40e1 a938 8250 de39 8895 a6b8
00000240: 9819 5339 dca0 eab7 eb93 f436 eab7 6db9
00000250: b431 a7b8 dc4c 34b8 216b 6a3a fc91 fab8
00000260: 8590 93b8 0450 88b8 94b8 4cb6 b5da e0b8
00000270: 77ed 0538 8a8b 6337 544f d739 9a6c e3b6
00000280: c1de cbb9 0b23 b439 d238 c6b9 2a8b b63a
00000290: 922a 44b9 2fd8 00b9 2ff8 fdba 5ed5 a739
000002a0: 9195 acb8 e27f 5939 c61a eeb7 7ebb 93b6
000002b0: 6129 04b8 8ba1 cab7 e425 bab9 fd73 b436
000002c0: eaae c9b9 f5a1 7239 f58a f5b9 18da df39
000002d0: ec4f 13b9 2faa 0eb9 3360 deb8 330e 9f39
000002e0: 399f b839 d706 f137 672a fb39 5a22 b6ba
000002f0: a53f 5039 a372 2837 1b4c 753a da08 05b9
00000300: 9354 d4b9 e42c a439 1152 edb9 121a 933a
00000310: 2ff5 74b9 83d4 0db9 3874 87ba 97d8 3d39
00000320: 5376 adb9 f5f1 ed39 379d 3bb9 f315 c63a
00000330: 78a1 4db9 90e0 1ab9 c429 1dbb 158f a438
00000340: 4d14 04b9 6730 9b39 8f18 2138 d787 b539
00000350: c82a a938 9f12 b1b8 8d23 b7ba deb1 5a39
00000360: cf86 6c39 aa72 0039 af1b 9a39 4367 b8b9
00000370: 440c bbb5 da95 3e38 d479 3538 adb9 01b9
00000380: 67d1 6739 a07e 96b9 b663 7739 3676 2fba
00000390: a1ac 8139 8489 b938 6bf5 703a ab6a abb7
000003a0: a6d4 b739 2635 9ab9 f410 fb35 a6fe 98ba
000003b0: b17a 7db7 f263 9fb8 5fb7 de3a 67ab ac38
000003c0: 286b e037 70af 90b9 c5bd 5437 cfc2 1238
000003d0: fa6b a837 9820 2f38 3edb 9639 05e4 7d38
000003e0: 8293 ceb8 650c 4fb9 6999 12b9 b86b c938
000003f0: 0807 d738 e741 df38 6764 0e3a 306d 03b5

exp_avg_sq f4 [32, 8]
5.4105217e-06 5.048302e-06 5.3832014e-06 1.9464713e-05 7.5828502e-06 1.3398436e-06 2.9336321e-05 1.6611036e-06
1.0711168e-06 1.1381086e-06 1.731117e-06 1.0239072e-05 1.8838983e-06 1.800345e-07 1.1132608e-05 1.5570369e-07
9.802204e-07 1.000552e-06 1.6091643e-06 8.719359e-06 1.6927166e-06 1.5821898e-07 8.4868625e-06 1.112209e-07
2.1914195e-06 1.899927e-06 1.0886184e-06 4.2905233e-07 1.7619127e-06 9.1875467e-07 1.1878509e-06 8.9455506e-07
9.143996e-07 8.0424275e-07 9.288555e-07 1.5043948e-06 1.2886131e-06 2.6257433e-07 1.1976179e-05 2.6668633e-07
7.457845e-07 6.8735994e-07 5.551375e-07 6.2350836e-07 8.1643634e-07 4.26402e-07 7.811186e-07 4.670382e-07
2.3397765e-06 2.1235332e-06 1.9473364e-06 7.837874e-06 2.8547752e-06 6.659953e-07 5.740747e-06 7.2157343e-07
4.2669956e-07 6.072185e-07 6.255782e-07 5.7420543e-06 6.0148363e-07 4.6645017e-08 3.2571276e-07 7.281326e-08
8.1040325e-06 7.947057e-06 6.611174e-06 3.2305426e-05 9.395737e-06 1.7118606e-06 3.1450098e-05 2.2302577e-06
1.3156786e-06 1.3148382e-06 1.9195845e-06 5.9349727e-06 2.3550333e-06 1.3268668e-07 2.0096435e-05 1.5647691e-07
2.0177758e-06 2.0756684e-06 1.3775461e-06 4.720678e-06 1.9000778e-06 7.9336075e-07 2.5395789e-06 7.824627e-07
3.81905e-07 2.6059658e-07 5.219542e-07 2.7552358e-06 5.72823e-07 2.3588973e-08 2.356366e-06 2.9641415e-08
1.976594e-06 1.7929784e-06 1.7466788e-06 3.837291e-06 2.1416006e-06 7.587181e-07 5.01599e-06 7.025265e-07
5.1244965e-06 5.0454396e-06 5.4368743e-06 2.0045461e-05 7.032167e-06 1.7810464e-06 2.4433879e-05 1.823661e-06
1.0961191e-06 1.0172073e-06 1.5067504e-06 2.7496549e-06 2.61102e-06 1.8554553e-07 1.504118e-05 2.7658345e-07
4.33333e-06 4.1943113e-06 4.095638e-06 1.6517588e-05 6.1070978e-06 1.1254597e-06 2.2098367e-05 1.4627193e-06
4.41537e-06 4.0514255e-06 2.8828679e-06 1.6757205e-06 4.791437e-06 1.7903736e-06 9.644224e-06 1.8282316e-06
2.0217134e-07 1.5200531e-07 3.0895083e-07 4.616596e-07 3.9001955e-07 7.428201e-08 1.8716486e-06 8.2961755e-08
9.814862e-07 6.824457e-07 1.0600509e-06 4.146339e-06 1.2349569e-06 1.0221742e-07 6.7107603e-06 1.274174e-07
9.183352e-08 8.8013834e-08 9.3033286e-08 1.4461925e-07 1.3703152e-07 2.1666688e-08 1.1407109e-06 1.9017103e-08
5.840981e-06 5.7217226e-06 5.6604185e-06 2.2096e-05 7.3133497e-06 1.7733951e-06 2.3857829e-05 1.7902292e-06
1.1093435e-06 9.901192e-07 5.8361e-07 3.4692047e-07 1.2233304e-06 3.8103875e-07 1.9658796e-06 4.725687e-07
4.9875193e-06 4.961241e-06 4.0541036e-06 1.6631233e-05 5.2485534e-06 1.6748796e-06 3.5524579e-06 1.7364213e-06
1.2389577e-06 1.5471229e-06 1.8525683e-06 1.5677473e-05 1.9498182e-06 1.07254635e-07 8.903778e-06 1.6656669e-07
3.3270085e-06 3.5127139e-06 2.8864263e-06 1.4129503e-05 3.924753e-06 9.980305e-07 8.777723e-06 1.0856287e-06
4.5796896e-06 4.4136896e-06 4.467389e-06 1.6664431e-05 6.2078925e-06 1.4260985e-06 2.3018521e-05 1.6041066e-06
4.6358987e-06 4.164786e-06 3.6427052e-06 5.2706023e-06 5.260542e-06 1.8572152e-06 1.2167294e-05 1.902957e-06
5.639441e-07 7.137749e-07 8.9887703e-07 7.033783e-06 7.742424e-07 1.2000632e-07 5.087609e-07 1.3925154e-07
6.5034607e-07 6.432211e-07 1.0808768e-06 7.366214e-06 1.1800383e-06 3.2279658e-08 4.6232944e-06 7.936578e-08
9.2015193e-07 1.1148778e-06 1.382647e-06 5.4566412e-06 1.7874017e-06 1.5060685e-07 1.44995565e-05 1.67928e-07
2.898258e-07 2.6441543e-07 1.642984e-07 1.5180593e-07 3.6112155e-07 9.2117624e-08 8.055182e-07 2.4953866e-07
2.8395257e-07 1.8299292e-07 5.276291e-07 5.3768696e-07 6.5680337e-07 1.233266e-07 2.5431318e-06 9.439078e-08
00000000: 078c b536 9564 a936 59a1 b436 2748 a337
00000010: 3070 fe36 add4 b335 4517 f637 16f3 de35
00000020: 4bc3 8f35 1dc1 9835 ba58 e835 7bc8 2b37
00000030: 41da fc35 824f 4134 30c6 3a37 812f 2734
00000040: 1e90 8335 b44a 8635 77fa d735 5d49 1237
00000050: 4d31 e335 e7e2 2934 cc62 0e37 56d8 ee33
00000060: 4d10 1336 ff00 ff35 a51c 9235 8158 e634
00000070: dc7a ec35 57a0 7635 3f6e 9f35 5b21 7035
00000080: 1075 7535 24e3 5735 7756 7935 9dea c935
00000090: 69f4 ac35 f1f7 8c34 4ced 4837 172d 8f34
000000a0: ec31 4835 0483 3835 c204 1535 2b5f 2735
000000b0: 1429 5b35 3fec e434 10ae 5135 3ebd fa34
000000c0: 0e05 1d36 0682 0e36 fcae 0236 6a7f 0337
000000d0: aa94 3f36 d9c6 3235 a4a0 c036 26b2 4135
000000e0: 2415 e534 bdff 2235 68ed 2735 dfab c036
000000f0: a475 2135 bd56 4833 9fdd ae34 835d 9c33
00000100: 8ef6 0737 5a54 0537 8dd5 dd36 b07f 0738
00000110: 62a2 1d37 15c3 e535 49e9 0338 89ab 1536
00000120: 5f96 b035 7f79 b035 36d2 0036 0725 c736
00000130: 2a0b 1e36 a378 0e34 c494 a837 0c04 2834
00000140: 2069 0736 b64b 0b36 20e4 b835 5166 9e36
00000150: 2d06 ff35 56f7 5435 a26d 2a36 6d0a 5235
00000160: a008 cd34 1fe8 8b34 6b1c 0c35 97e6 3836
00000170: 19c4 1935 b3a0 ca32 0f22 1e36 299e fe32
00000180: a0a5 0436 45a6 f035 6d6f ea35 14c2 8036
00000190: 6bb8 0f36 b6aa 4b35 074f a836 4195 3c35
000001a0: 17f3 ab36 ff4b a936 656e b636 4d27 a837
000001b0: dbf5 eb36 4a0c ef35 5bf7 cc37 84c4 f435
000001c0: 5e1e 9335 fa86 8835 8d3b ca35 b686 3836
000001d0: fb38 2f36 5e3a 4734 6059 7c37 577d 9434
000001e0: 0567 9136 dcbc 8c36 436d 8936 408f 8a37
000001f0: 92eb cc36 800e 9735 e25f b937 a752 c435
00000200: bd27 9436 7bf1 8736 4b77 4136 51e9 e035
00000210: 21c6 a036 c54c f035 a0cd 2137 8f61 f535
00000220: 6f14 5934 e736 2334 e1dd a534 03da f734
00000230: e163 d134 f884 9f33 5b35 fb35 b528 b233
00000240: 9cbb 8335 5031 3735 1247 8e35 c820 8b36
00000250: ccc0 a535 9f82 db33 fe2c e136 3ad0 0834
00000260: 0336 c533 1e02 bd33 97c9 c733 a348 1b34
00000270: f022 1334 8d1d ba32 871a 9935 0d5b a332
00000280: a5fd c336 39fd bf36 a0ee bd36 cc5a b937
00000290: 3265 f536 6405 ee35 4c22 c837 cf47 f035
000002a0: c1e4 9435 3de4 8435 60a9 1c35 6340 ba34
000002b0: 5031 a435 9191 cc34 8eed 0336 59b5 fd34
000002c0: 775a a736 bc78 a636 7c08 8836 4d83 8b37
000002d0: bb1c b036 6dcc e035 c366 6e36 fb0e e935
000002e0: 434a a635 bda6 cf35 c3a5 f835 1e83 8337
000002f0: 9fd9 0236 dc53 e633 6f61 1537 81d9 3234
00000300: 9245 5f36 f7bb 6b36 6db4 4136 c10d 6d37
00000310: 5fb1 8336 11f4 8535 0944 1337 ebb5 9135
00000320: 3cab 9936 4e19 9436 94e6 9536 98ca 8b37
00000330: 644d d036 5f68 bf35 e617 c137 af4c d735
00000340: 118e 9b36 3dbf 8b36 3375 7436 21da b036
00000350: b683 b036 6e45 f935 2122 4c37 1b69 ff35
00000360: f261 1735 3d9a 3f35 5c4a 7135 bc03 ec36
00000370: 88d5 4f35 16db 0034 c891 0835 2c85 1534
00000380: 7193 2e35 d1a9 2c35 a512 9135 4c2b f736
00000390: cf61 9e35 dca3 0a33 cc21 9b36 cd6f aa33
000003a0: 5c00 7735 e9a2 9535 6493 b935 3118 b736
000003b0: a8e6 ef35 7fb6 2134 1f43 7337 b24f 3434
000003c0: 5b99 9b34 fbf4 8d34 006a 3034 1900 2334
000003d0: 2be0 c134 33d2 c533 ca3a 5835 55f8 8534
000003e0: 2572 9834 b67c 4434 65a2 0d35 9155 1035
000003f0: 2f4f 3035 c26b 0434 acaa 2a36 e1b3 ca33

exp_avg f4 [32]
0.00016309781 -0.0004565213 -0.00032207402 -0.00047995843 -0.0002846957 0.00012602653 -7.133494e-05 7.605855e-05
-2.4991652e-05 -0.00057737954 -7.985665e-05 -0.00010138709 -0.00014474856 0.00015972885 -0.00015957221 -6.0186772e-05
-0.00032337676 -5.2426225e-05 -0.00016580311 -2.7649956e-05 3.003209e-05 -0.00016471064 -0.0005703449 -0.00036050525
-5.0106795e-05 8.0752616e-05 -0.00023934848 -5.8686128e-05 -0.00019196044 -0.00050218415 9.73955e-05 -1.1424322e-05
00000000: 3c05 2b39 4059 efb9 0bdc a8b9 eea2 fbb9
00000010: 3643 95b9 fd25 0439 a799 95b8 a081 9f38
00000020: 2aa5 d1b7 495b 17ba b678 a7b8 c89f d4b8
00000030: a5c7 17b9 e37c 2739 d752 27b9 0e71 7cb8
00000040: e58a a9b9 3be4 5bb8 6fdb 2db9 d4f1 e7b7
00000050: 6ced fb37 2db6 2cb9 3383 15ba 3202 bdb9
00000060: c329 52b8 bb59 a938 9ef9 7ab9 c025 76b8
00000070: fd48 49b9 02a5 03ba d040 cc38 17ab 3fb7

exp_avg_sq f4 [32]
8.3053155e-06 1.3552751e-06 1.061641e-06 3.489274e-06 1.309467e-06 9.208427e-07 3.4734417e-06 5.083233e-07
1.1677674e-05 1.7181069e-06 3.184413e-06 3.2067786e-07 2.9145176e-06 7.697129e-06 1.5680229e-06 6.872191e-06
7.390154e-06 2.590366e-07 8.685518e-07 1.54548e-07 8.125446e-06 1.9225981e-06 6.8878085e-06 1.6892996e-06
4.82749e-06 7.397966e-06 7.22198e-06 6.413427e-07 6.8476965e-07 1.3816642e-06 4.826731e-07 3.356126e-07
00000000: 0f57 0b37 e6e6 b535 b57d 8e35 4529 6a36
00000010: f2c0 af35 d42f 7735 4619 6936 b673 0835
00000020: 3aeb 4337 b499 e635 ccb3 5536 a129 ac34
00000030: 0897 4336 eb22 0137 db74 d235 ac97 e636
00000040: f1f8 f736 b811 8b34 6d26 6935 d5f1 2534
00000050: 8652 0837 fc05 0136 d31d e736 e4bb e235
00000060: d3fb a136 0b3c f836 5654 f236 bc28 2c35
00000070: 03d1 3735 9f71 b935 0b91 0135 3f2e b434

exp_avg f4 [1, 32]
0.0009564429 0.0015174743 0.0015894468 -0.0007791478 0.00019686902 -7.837205e-05 -0.00041202994 -6.345488e-06
0.0005289475 0.0010868972 -0.0001982772 0.00013272649 -0.00020274533 0.0026247571 0.00012478411 0.0031833134
-0.0003490048 0.00013110484 0.00026851584 5.617196e-05 0.0009858131 -0.00053640176 -0.000895253 0.0006242523
0.0008187195 0.002287038 -0.00050962623 0.00015507144 0.00071883 0.00074071 -3.3048666e-05 9.8018834e-05
00000000: ccb9 7a3a fde5 c63a fc54 d03a b93f 4cba
00000010: a06e 4e39 ad5b a4b8 b905 d8b9 54eb d4b6
00000020: 11a9 0a3a 3876 8e3a a1e8 4fb9 7f2c 0b39
00000030: 0998 54b9 1e04 2c3b 7bd8 0239 239f 503b
00000040: a2fa b6b9 3079 0939 96c7 8c39 2f9a 6b38
00000050: 6636 813a 509d 0cba 69af 6aba dda4 233a
00000060: 569f 563a 21e2 153b 7098 05ba ac9a 2239
00000070: dd6f 3c3a 352c 423a bc9d 0ab8 768f cd38

exp_avg_sq f4 [1, 32]
2.1532593e-05 9.293863e-06 2.128826e-05 1.062689e-05 1.2633809e-06 9.868621e-07 1.4849083e-05 1.1079624e-06
1.5698082e-05 5.5222526e-06 1.6979422e-05 1.7987956e-06 1.3731964e-05 4.8719612e-05 1.6088541e-06 7.667696e-05
8.816565e-06 9.505074e-07 3.6736744e-06 8.7161015e-07 3.102622e-05 1.4967027e-05 1.050229e-05 2.3053005e-06
2.406227e-05 4.7190093e-05 8.249545e-06 1.9141287e-06 9.7584325e-06 4.5750676e-06 9.485052e-07 1.1430031e-06
00000000: e4a0 b437 d6ec 1b37 3194 b237 254a 3237
00000010: 7091 a935 5374 8435 5320 7937 4cb5 9435
00000020: 60af 8337 ca4b b936 086f 8e37 256e f135
00000030: 5662 6637 4958 4c38 ceef d735 a1cd a038
00000040: dcea 1337 5f26 7f35 3f89 7636 98f8 6935
00000050: 2622 0238 e41a 7b37 fe32 3037 c3b4 1a36
00000060: 55d9 c937 faed 4538 8767 0a37 7b74 0036
00000070: 26b8 2337 8883 9936 c89c 7e35 4a69 9935

network_body.observation_encoder.processors.0.normalizer.running_mean f4 [8]
-0.0013328894 5.5318695e-05 -0.1968732 3.0547385 -0.12450551 -0.001899596 -0.30622226 -0.017495217
00000000: 59b4 aeba ff05 6838 2199 49be d680 4340
00000010: bffc febd ddfb f8ba 2ac9 9cbe 2152 8fbc

network_body.observation_encoder.processors.0.normalizer.running_variance f4 [8]
1016.9114 1068.3486 184769.38 17664.549 221429.16 107557.97 201773.97 124214.77
00000000: 543a 7e44 288b 8544 5870 3448 1901 8a46
00000010: 4a3d 5848 fc12 d247 7e0b 4548 639b f247

network_body.processors.0.normalizer.running_mean f4 [8]
-0.0013328894 5.5318695e-05 -0.1968732 3.0547385 -0.12450551 -0.001899596 -0.30622226 -0.017495217
00000000: 59b4 aeba ff05 6838 2199 49be d680 4340
00000010: bffc febd ddfb f8ba 2ac9 9cbe 2152 8fbc

network_body.processors.0.normalizer.running_variance f4 [8]
1016.9114 1068.3486 184769.38 17664.549 221429.16 107557.97 201773.97 124214.77
00000000: 543a 7e44 288b 8544 5870 3448 1901 8a46
00000010: 4a3d 5848 fc12 d247 7e0b 4548 639b f247
