results/max-hiddenunits256-config1-2/3DBall/3DBall-349132.pt (torch, 82458 bytes, 32 tensors)

network_body.observation_encoder.processors.0.normalizer.running_mean f4 [8]
0	0xbb23e6b8	-0.0025009345
1	0x3990bac2	0.00027604966
2	0xbe6a322a	-0.22870699
3	0x404473b1	3.0695612
4	0x3d2100cf	0.03930741
5	0x3ccaf65d	0.024775678
6	0xbeb1e3ba	-0.34744054
7	0x3c53df00	0.012931585

network_body.observation_encoder.processors.0.normalizer.running_variance f4 [8]
0	0x4468a7b9	930.62067
1	0x447fd976	1023.3978
2	0x482c9934	176740.81
3	0x4683c95b	16868.678
4	0x4830421c	180488.44
5	0x47c1f6e6	99309.8
6	0x4832b6ac	183002.69
7	0x47ed0500	121354.0

network_body.processors.0.normalizer.running_mean f4 [8]
0	0xbb23e6b8	-0.0025009345
1	0x3990bac2	0.00027604966
2	0xbe6a322a	-0.22870699
3	0x404473b1	3.0695612
4	0x3d2100cf	0.03930741
5	0x3ccaf65d	0.024775678
6	0xbeb1e3ba	-0.34744054
7	0x3c53df00	0.012931585

network_body.processors.0.normalizer.running_variance f4 [8]
0	0x4468a7b9	930.62067
1	0x447fd976	1023.3978
2	0x482c9934	176740.81
3	0x4683c95b	16868.678
4	0x4830421c	180488.44
5	0x47c1f6e6	99309.8
6	0x4832b6ac	183002.69
7	0x47ed0500	121354.0

network_body._body_endoder.seq_layers.0.weight f4 [256, 8]
0	0xbe657f11	-0.22411753
1	0xbf56f347	-0.8396496
2	0xbf1e37fc	-0.61804175
3	0xbb31006b	-0.0027008306
4	0xbf07bb63	-0.53020304
5	0x3d455958	0.048180908
6	0xbe72ed11	-0.23723246
7	0xbe9d8d24	-0.30771744
8	0xbec5df39	-0.38646868
9	0xbc00ab63	-0.007853362
10	0x3e9822a6	0.29713935
11	0xbc33a3d5	-0.010964354
12	0xbd2cfd7e	-0.042233936
13	0xbdcc2300	-0.09967613
14	0x3e41af1b	0.18914454
15	0x3e1562b9	0.14588441
16	0x3e2c6b2c	0.16837758
17	0xbf061026	-0.5236839
18	0xbd8823fd	-0.06647489
19	0xbe26e299	-0.16297378
20	0xbf094487	-0.5362019
21	0xbf67733f	-0.90410227
22	0xbf1ad5e2	-0.6048261
23	0x3d402f86	0.046920322
24	0x3e09445e	0.13404986
25	0xbeab3b36	-0.33443612
26	0xbdafcc48	-0.085838854
27	0x3dddaf2e	0.108244285
28	0x3e1f0311	0.15528513
29	0x3e4d851e	0.20070311
30	0x3df26da3	0.11837318
31	0xbe993061	-0.29919723
32	0x3ecbd49a	0.3981064
33	0xbf1e01e6	-0.61721647
34	0xbf488828	-0.7833276
35	0x3ef19b35	0.47188726
36	0x3e301b31	0.17197873
37	0xbe400c40	-0.18754673
38	0x3e8c5dc2	0.27415282
39	0xbf216993	-0.6305172
40	0xbe188394	-0.14893943
41	0x3ef70fde	0.48254293
42	0x3e0247dd	0.12722726
43	0xbf533a5a	-0.8251091
44	0xbea81e24	-0.32835495
45	0xbe65f7e5	-0.22457846
46	0xbe581807	-0.21102916
47	0x3f31e32c	0.6948726
48	0x3e2ead18	0.17058218
49	0xbbe9f058	-0.007139247
50	0x3bc73925	0.00607981
51	0xbe2f794f	-0.1713612
52	0xbe970a8f	-0.29500243
53	0xbda582a3	-0.080815576
54	0xbed3f7cf	-0.414
55	0xbd8dc8ff	-0.069231026
56	0xbcaabdee	-0.020842519
57	0xbe9aa4cb	-0.30203852
58	0x3ec08972	0.37604862
59	0xbf1ed2f7	-0.62040657
60	0x3e544e7f	0.20733069
61	0x3e113441	0.1418009
62	0xbc5b4d10	-0.013385072
63	0xbe97010d	-0.2949299
64	0x3a2b194c	0.0006526902
65	0x3e03f545	0.12886532
66	0x3a730ef3	0.0009271942
67	0xbdb066c0	-0.08613348
68	0x3f06a7d4	0.52599835
69	0xbf1f885e	-0.62317455
70	0xbea070ea	-0.31336147
71	0xbf397744	-0.7244761
72	0xbe6e419d	-0.23267217
73	0x3e07a927	0.1324812
74	0xbe0e8bdc	-0.1392054
75	0x3eb0113e	0.34388155
76	0x3bf16274	0.007366473
77	0x3e9e3746	0.30901545
78	0xbdd7022a	-0.1049846
79	0xbc19b31e	-0.009381084
80	0x3c97fe97	0.018554015
81	0x3b93f2a2	0.004515008
82	0x3ee834c1	0.45352748
83	0x3dba6c08	0.091026366
84	0x3f06a0f2	0.52589333
85	0x3d853e1d	0.06505988
86	0xbf33e4dc	-0.70271087
87	0x3e29e471	0.1659105
88	0x3ef2b04e	0.47400135
89	0x3edca309	0.43093136
90	0xbe60b1d6	-0.21942839
91	0x3ebacc31	0.3648391
92	0xbed39dea	-0.41331416
93	0xbec4bc5b	-0.38424954
94	0xbe9462bb	-0.28981575
95	0x3cac9691	0.02106789
96	0xbe91786a	-0.2841218
97	0x3d22245e	0.039585464
98	0x3e05bcfd	0.13060375
99	0x3e217457	0.15767036
100	0x3e55801a	0.20849648
101	0xbebcd54e	-0.3688149
102	0x3ed24d9e	0.41074842
103	0xbeaa1c50	-0.33224726
104	0xbf737fda	-0.9511696
105	0x3ee1c9f9	0.44099405
106	0xbe53669b	-0.2064461
107	0x3de759b3	0.11296406
108	0x3b9e6f50	0.004835047
109	0x3e09b8af	0.13449357
110	0xbf08ae28	-0.5339074
111	0xbcd6a615	-0.026202241
112	0x3ef2a982	0.4739495
113	0x3cdeb8fa	0.027187813
114	0xbde8b9a2	-0.11363532
115	0x3ed7fb37	0.4218385
116	0xbe52dd23	-0.2059217
117	0x3e83c1ef	0.25733897
118	0xbec3cfcf	-0.38244483
119	0x3f055c17	0.5209364
120	0xbe47d90d	-0.19516392
121	0xbe2f3efe	-0.17113873
122	0xbf22b857	-0.6356253
123	0xbeb5a2a4	-0.35475647
124	0x3da7ddfd	0.08196638
125	0x3e038655	0.12844212
126	0x3e398832	0.1811836
127	0xbedf3e45	-0.43602195
128	0x3e2ee808	0.170807
129	0x3efddb62	0.49581438
130	0x3e04c07c	0.12964052
131	0xbe4f8443	-0.20265298
132	0x3e3765e3	0.1790996
133	0x3e9f0d5b	0.31064877
134	0x3e3e11f7	0.1856154
135	0x3e9e97cc	0.30975187
136	0x3d6ae341	0.057345632
137	0x3e88b5dd	0.2670125
138	0xbcd93a57	-0.026517076
139	0xbec3a5d2	-0.38212448
140	0xbf26f0fe	-0.65211475
141	0x3e10c7a7	0.14138661
142	0xbe031439	-0.12800683
143	0xbe96900e	-0.2940678
144	0x3f28ae91	0.6589137
145	0xbedf0211	-0.43556264
146	0x3e4f92d0	0.20270848
147	0xbea6d0c3	-0.32581148
148	0xbe04a929	-0.12955154
149	0x3e729397	0.23689114
150	0xbea3f014	-0.32019103
151	0xbeb75a94	-0.35811293
152	0xbe786063	-0.24255519
153	0x3e939a55	0.28828683
154	0xbf1627bf	-0.586544
155	0xbe66b7dd	-0.22531076
156	0x3f3836e0	0.7195873
157	0x3ed27eee	0.41112465
158	0x3de25a88	0.11052424
159	0x3cc119d8	0.023571894
160	0xbead593c	-0.33857143
161	0x3d33209a	0.043732263
162	0x3ead86f2	0.33892018
163	0x3dd05082	0.10171606
164	0xbe7cfb09	-0.24705137
165	0xbdd47a08	-0.10374838
166	0x3e5327f5	0.20620711
167	0x3d9d7a11	0.07689298
168	0xbe705718	-0.23470724
169	0xbd869293	-0.065709256
170	0xbee0c5b9	-0.4390085
171	0xbed4551f	-0.41471192
172	0x3e20f521	0.1571851
173	0x3c935bc7	0.017988099
174	0x3f04c4fa	0.5186306
175	0x3ea7bd5f	0.32761666
176	0x3ba3fadf	0.0050042714
177	0x3e9119e9	0.2834008
178	0xbe498dd6	-0.19683012
179	0x3d8dda33	0.06926384
180	0xbf4920f7	-0.78565925
181	0xbf1c5ea0	-0.61081886
182	0x3c7d2f12	0.015453117
183	0xbd548495	-0.051884253
184	0x3e0514e2	0.12996247
185	0xbe488209	-0.19580854
186	0x3e807148	0.25086427
187	0xbbfc9834	-0.0077085737
188	0x3db09374	0.086218745
189	0x3edb27ce	0.42803806
190	0xbe5de0e4	-0.2166782
191	0xbd19f7d6	-0.03758987
192	0x3f144d3f	0.5793037
193	0x39b63788	0.0003475512
194	0xbf5ecde3	-0.8703291
195	0x3d0ab1b2	0.03386087
196	0xbd82e575	-0.06391422
197	0xbe0879b4	-0.13327676
198	0x3ee37625	0.44426075
199	0x3d727c32	0.059200473
200	0xbd30fe84	-0.043211475
201	0x3eed2e14	0.46324217
202	0x3e82bc4b	0.2553428
203	0xbeb85a90	-0.36006594
204	0xbd589624	-0.05287756
205	0x3e65ee87	0.22454272
206	0x3ec41e86	0.38304538
207	0x3da75daa	0.08172162
208	0xbecfd0b8	-0.40588927
209	0x3d8996aa	0.0671819
210	0x3f17ebef	0.5934438
211	0x3e8bd87d	0.27313605
212	0xbef13334	-0.47109377
213	0xbeba9f2f	-0.36449572
214	0x3e868478	0.2627294
215	0x3e28fa9e	0.16501853
216	0xbe0f0191	-0.13965441
217	0xbf426114	-0.7592938
218	0xbcee8611	-0.029116662
219	0xbefbc4ce	-0.49173588
220	0x3e918b76	0.28426713
221	0x3e07d620	0.13265276
222	0x3f2bf708	0.67173815
223	0x3ea1f464	0.31631768
224	0xbec4389b	-0.38324437
225	0xbef4ba30	-0.477983
226	0xbf16a7fb	-0.5885007
227	0x3f241084	0.640877
228	0x3eb09af9	0.34493235
229	0xbe065da9	-0.13121666
230	0x3ebc71b4	0.368055
231	0x3f135c7b	0.5756299
232	0xbd0ac702	-0.033881195
233	0xbe48a7fe	-0.19595334
234	0x3ee29995	0.442578
235	0x3d9f925e	0.07791589
236	0xbeb8c3c1	-0.36086848
237	0x3e91e68e	0.28496212
238	0xbeafac6b	-0.34311232
239	0xbe359a92	-0.17734745
240	0x3ec8e5fe	0.3923797
241	0xbe7b7eef	-0.2456014
242	0xbea2f6a3	-0.31828794
243	0xbea6b887	-0.32562658
244	0xbf323e4e	-0.6962632
245	0x3d6e9fb0	0.05825776
246	0xbdd1a8d8	-0.102372825
247	0x3eec4d63	0.4615279
248	0xbc9151a1	-0.017739119
249	0x3e2a315d	0.16620393
250	0xbc9e3550	-0.01931253
251	0xbf796755	-0.974233
252	0xbeffe985	-0.4998285
253	0xbede0609	-0.4336398
254	0xbf50227d	-0.81302625
255	0x3eb5378c	0.3539394

network_body._body_endoder.seq_layers.0.bias f4 [256]
0	0x3d163152	0.03666813
1	0xbc6cce8a	-0.01445354
2	0xbcb4b428	-0.022058561
3	0xbd305236	-0.043047152
4	0x3c78432f	0.015152737
5	0xbdd9a1ed	-0.10626588
6	0x3c9934dd	0.018701965
7	0x3cafba22	0.02145106
8	0x3c2f3b6e	0.0106953215
9	0x3d4c1d60	0.0498327
10	0x3d2dc21d	0.04242145
11	0x3b074a90	0.0020643808
12	0xbd99942f	-0.07498967
13	0xbda255f1	-0.07926548
14	0xbcf21b13	-0.029553926
15	0xbb76f55e	-0.0037682871
16	0xbcb4eefa	-0.02208661
17	0xbcb18758	-0.021670982
18	0x3c9016b0	0.017588943
19	0x3d01b9d7	0.03167137
20	0x3bce595a	0.0062972726
21	0xbd4cab85	-0.04996826
22	0xbcfb4f38	-0.030677423
23	0xbd675e24	-0.056486264
24	0x3c4fc0fb	0.0126802875
25	0xbc228b8d	-0.009920967
26	0xbc221f97	-0.009895227
27	0x3d33bc2d	0.04388063
28	0x3d14799f	0.0362488
29	0xbd586fcd	-0.052840997
30	0xbd138ea9	-0.036024723
31	0xbcde7b18	-0.027158305
32	0xbc2a844a	-0.010407517
33	0x3c5305c9	0.012879797
34	0xbe01cd99	-0.12676086
35	0x3d1b81d1	0.0379656
36	0xbbc562ce	-0.0060237413
37	0xbdd407be	-0.10353039
38	0xbc80672b	-0.015674194
39	0xbdb72e8c	-0.08944425
40	0x3c9ecec7	0.019385708
41	0x3d4b870a	0.04968933
42	0xbdad88ad	-0.084733345
43	0xbd5ebce5	-0.054379363
44	0xbc4fd528	-0.012685098
45	0x3a213f1d	0.0006151067
46	0x3dc084a1	0.09400297
47	0x3b772f2e	0.003771733
48	0xbc3cef92	-0.011531727
49	0xb989f0bd	-0.0002631004
50	0xbe122054	-0.14270145
51	0x3cd6950a	0.026194114
52	0x3d58fa8f	0.052973326
53	0x3d47a6d7	0.048743095
54	0xbc7ebc1b	-0.0155477775
55	0xbe05f68b	-0.1308233
56	0x3ceab546	0.028650891
57	0x3a4aed83	0.00077410805
58	0xbd49c523	-0.04926027
59	0x3cfe9e5c	0.031081371
60	0xbd5a1c00	-0.05324936
61	0x3d508d68	0.050916106
62	0xbcaf9456	-0.021433037
63	0xbddcc7f6	-0.10780327
64	0xbd14692e	-0.03623312
65	0xbcda8fc2	-0.026679877
66	0xbd493492	-0.0491224
67	0xbd8edd6f	-0.06975829
68	0xbd088e4a	-0.033338822
69	0xbd502842	-0.050819643
70	0x3c85bb56	0.01632468
71	0x3d2cfdd7	0.042234268
72	0xbb8dc93d	-0.004326968
73	0x3c6363eb	0.013878803
74	0x3d00807e	0.03137254
75	0xbd48d4ca	-0.049031056
76	0x3d8b824c	0.068119615
77	0xbd8655f4	-0.06559363
78	0xbc0edad2	-0.008719163
79	0x3d507e14	0.050901487
80	0xbcd4b5b5	-0.02596555
81	0x3d82f60b	0.06394585
82	0x3d377d41	0.044797186
83	0x3c625171	0.013813362
84	0x3d8f5085	0.0699778
85	0xbd82b1a3	-0.06381538
86	0x3c18102e	0.009281201
87	0x3d41dc6d	0.047329355
88	0xbd7572f0	-0.059924066
89	0xbd81836a	-0.06323893
90	0xbc9afac6	-0.018918406
91	0xbb17dffe	-0.0023174281
92	0x3d259dc9	0.04043368
93	0x3c743201	0.0149045
94	0xbc2eaf85	-0.010661964
95	0x3c339c6c	0.010962587
96	0xbc4a7ac6	-0.012358373
97	0xbd356f53	-0.04429562
98	0xbd8a1fd7	-0.06744354
99	0xbca92d61	-0.020651521
100	0x3d426f45	0.047469396
101	0xbd6f32a9	-0.058397923
102	0x3d80ecc4	0.062951595
103	0x3ce556ba	0.027995456
104	0xbb06adca	-0.0020550364
105	0x3d81b411	0.06333173
106	0x3a7b0181	0.0009575114
107	0xbd5e4824	-0.054268017
108	0x3d1bbeea	0.038023867
109	0xbde6cbb8	-0.11269325
110	0xbd830c29	-0.06398804
111	0x3d06e378	0.032931775
112	0x3d2b4ecd	0.041823197
113	0xbdabb7e4	-0.08384684
114	0xbd56d214	-0.05244644
115	0x3b2b6369	0.0026151782
116	0xbd51853c	-0.051152453
117	0xbb74130e	-0.0037242803
118	0xbd3a8524	-0.04553713
119	0x3cc9a62a	0.024615366
120	0xbd623ccd	-0.055233765
121	0xbd050899	-0.032478902
122	0x3d9eeadd	0.0775964
123	0xbcf115d3	-0.029429352
124	0xbbd6005d	-0.006530805
125	0xbde647fb	-0.11244198
126	0xbdbefa6d	-0.09325109
127	0x3c212a03	0.0098366765
128	0x3d42a94f	0.047524747
129	0x3d19974e	0.03749781
130	0xbdb0f825	-0.0864108
131	0xbd39c6d1	-0.04535562
132	0x3d165e29	0.036710892
133	0xbdb6bf2c	-0.08923182
134	0x3ca9aece	0.020713236
135	0x3d4cbb54	0.049983338
136	0xbc644725	-0.013932978
137	0xbd091d4f	-0.033475216
138	0xbcd5d151	-0.026100786
139	0xbd50bead	-0.050963093
140	0xbc78bea3	-0.01518217
141	0xbd2152c7	-0.039385583
142	0xbdbe625b	-0.092961036
143	0x3d90dfff	0.07073974
144	0xbd6d4520	-0.05792725
145	0xbd41889b	-0.047249418
146	0x3c3e83ef	0.011628135
147	0x3c5f6095	0.013633867
148	0x3d3d1c01	0.046169285
149	0xbd74616c	-0.05966322
150	0xbd3a6d2d	-0.045514274
151	0x3c3737a8	0.011182703
152	0xbd80d03c	-0.062897176
153	0xbd0493f4	-0.03236766
154	0xbd7d201d	-0.061798204
155	0x3c20abc8	0.009806581
156	0xbd51eaf9	-0.051249478
157	0x3d2f662b	0.042822044
158	0x3c53b899	0.0129224295
159	0x3bc9cb0f	0.0061582397
160	0xbd2533f0	-0.040332735
161	0x3bd3afda	0.006460172
162	0xbc09f497	-0.008420131
163	0x3d0c9641	0.03432298
164	0xbc8e5315	-0.017373601
165	0x3d4799d3	0.048730683
166	0xbdbd101a	-0.09231587
167	0xbd0f73e0	-0.035022616
168	0xbd9ddfcf	-0.07708704
169	0x3b347a9d	0.0027538904
170	0x3dc5532a	0.09635003
171	0xbccabe38	-0.024748906
172	0x3d5ab3f2	0.053394265
173	0x3ccff9ad	0.02538761
174	0xbd066381	-0.032809738
175	0xbd3f8139	-0.046754096
176	0xbd1041df	-0.03521907
177	0xbaf678e5	-0.001880434
178	0xbca58f21	-0.02020985
179	0x3da763fc	0.081733674
180	0xbb3d8b71	-0.0028922225
181	0xbb95ec5d	-0.004575296
182	0xbdc4e35a	-0.09613676
183	0x3d0c1deb	0.03420822
184	0xbd5bdf30	-0.053679645
185	0x3d1c487e	0.03815507
186	0xbcfea856	-0.031086128
187	0x3d4a934b	0.049456876
188	0x3ca1f95a	0.01977222
189	0xbd9b1270	-0.07571876
190	0x3da3cf76	0.079985544
191	0xbd28000a	-0.041015662
192	0x3d2cb35e	0.042163245
193	0xbc719d24	-0.014746938
194	0x3d25c66d	0.040472437
195	0x3c28fe6b	0.010314564
196	0xbd3a782a	-0.045524754
197	0xbd7a33bc	-0.061084494
198	0xbd83e6eb	-0.064405285
199	0x3c16ae40	0.009196818
200	0xbc94624c	-0.018113278
201	0x3d2632cd	0.04057579
202	0xbd5e045f	-0.054203387
203	0x3cc07e97	0.023497863
204	0xbdbcf5be	-0.09226559
205	0x3d7222df	0.059115287
206	0x3d60a190	0.054841578
207	0xbd2ee12b	-0.042695206
208	0xbd05645d	-0.032566417
209	0x3d56e4be	0.05246424
210	0x3d41dd42	0.04733015
211	0xbc3264ad	-0.010888261
212	0xbc7b4a44	-0.0153375305
213	0x3d5c5998	0.05379638
214	0xbd300278	-0.042971104
215	0x3d8fc7ab	0.070205055
216	0xbd4cf636	-0.050039493
217	0xbc98195f	-0.018566785
218	0x3cf649b8	0.030064449
219	0xbd33f55b	-0.04393516
220	0x3d194a6c	0.03742449
221	0xbbdf4482	-0.0068135867
222	0xbd3ea4f3	-0.046544027
223	0x3d9d285d	0.07673714
224	0x3c87859f	0.016543208
225	0xbd83fd47	-0.06444793
226	0xbc866eb7	-0.016410215
227	0x3c53b72b	0.012922089
228	0xbc8cf779	-0.017207848
229	0xbc861072	-0.016365264
230	0xbd34d5b2	-0.04414911
231	0xbcb4efac	-0.02208694
232	0xbcec13bc	-0.028818004
233	0x3d1c5aea	0.03817264
234	0x3d399281	0.045305733
235	0xbd5e2b76	-0.054240666
236	0x3b00890c	0.0019612936
237	0x3bbb07ed	0.005707732
238	0x3b96d343	0.004602821
239	0x3c7ca2ca	0.015419671
240	0xbb674282	-0.0035287444
241	0xbd85f41e	-0.06540702
242	0x3c9cae47	0.01912607
243	0x3a4704e6	0.00075919775
244	0xbda63cd7	-0.08117073
245	0x3c109c2e	0.008826299
246	0xbd07603a	-0.033050753
247	0xbc339a5e	-0.010962097
248	0x3d8cc4e0	0.068734884
249	0x3cee4db0	0.029089779
250	0xbc6b866e	-0.014375312
251	0xbca7ca42	-0.020482186
252	0x3db8f04b	0.09030207
253	0x3ce76269	0.028245168
254	0xbd159adb	-0.036524635
255	0x3cb75006	0.022377025

action_model._continuous_distribution.log_sigma f4 [1, 2]
0	0xbe04d361	-0.1297126
1	0xbe27100a	-0.16314712

action_model._continuous_distribution.mu.weight f4 [2, 256]
0	0x3c95c26d	0.018281186
1	0x3d00d388	0.031451732
2	0x3b88d6e3	0.004176007
3	0xbb5cc906	-0.0033689155
4	0xbd370bc1	-0.044688944
5	0x3c3b7cdd	0.011443344
6	0x3c5a5c39	0.013327652
7	0x3d06d210	0.032915175
8	0x3b67a665	0.0035346982
9	0x3d1b02d0	0.03784448
10	0xba578d32	-0.0008222639
11	0xbc85000e	-0.016235378
12	0xbbae8922	-0.005326406
13	0x3b01c7f6	0.0019803024
14	0xbcfd6b44	-0.030934937
15	0x3c7f1959	0.015570008
16	0xbc80f8db	-0.015743664
17	0xbc2b7d79	-0.010466927
18	0x3cd87eb7	0.02642761
19	0x3bb9c7ce	0.0056695705
20	0x3d15209d	0.036408056
21	0xbc14f3f5	-0.009091367
22	0xbb404b8c	-0.0029341904
23	0xbc1bc297	-0.009506843
24	0xbd765ba6	-0.060145997
25	0x3c33c5f5	0.01097249
26	0x3c956321	0.018235745
27	0x3d336e5f	0.04380643
28	0x3caab795	0.020839492
29	0x3c0c8cde	0.008578507
30	0x3bd394a3	0.006456928
31	0x3d2e40c6	0.04254224
32	0x3ca6b19b	0.02034836
33	0xbcba571f	-0.02274662
34	0x3c0f98c9	0.008764454
35	0xbccabe78	-0.024749026
36	0xbb93dbcf	-0.004512287
37	0x3a627f6d	0.0008640204
38	0x3d0f19d1	0.03493673
39	0xbaf86c83	-0.0018953237
40	0x3cfcd93c	0.030865304
41	0x3d4d3c13	0.05010612
42	0xbc383b2e	-0.011244578
43	0xbbabe1d7	-0.005245428
44	0xbc2f627e	-0.010704635
45	0x3c3f641b	0.011681582
46	0xbcac91e6	-0.021065664
47	0x3c0ef181	0.008724571
48	0xbbc53a09	-0.006018881
49	0x3ccb598e	0.024822976
50	0xbca28bd2	-0.019842062
51	0xbcdbddb3	-0.026839113
52	0x3cc5e4df	0.024156986
53	0x3c889d8b	0.016676685
54	0xbb4e9e5a	-0.003152749
55	0x3c85b9a7	0.016323877
56	0x3c540fec	0.012943249
57	0xbbe3dff9	-0.00695419
58	0xbd45f4dd	-0.048329223
59	0xbd116876	-0.035500012
60	0xbd07071c	-0.032965764
61	0x3c884698	0.016635224
62	0x3aa562d0	0.0012617949
63	0xbb12d973	-0.0022407442
64	0x3bb29311	0.0054496606
65	0xbcb2bf13	-0.021819627
66	0xbd08254d	-0.033238698
67	0xbb61df24	-0.0034465278
68	0x3cab6e3a	0.020926584
69	0x3cadfa49	0.02123751
70	0xbcbe5276	-0.02323268
71	0x3ce32ad2	0.02773038
72	0xbb746132	-0.0037289378
73	0x3c927bc0	0.017881274
74	0xbd89caad	-0.067281105
75	0xbd14eb9e	-0.036357515
76	0x3d4476d2	0.04796488
77	0xbc3a8ed2	-0.01138659
78	0xbd3f8874	-0.04676099
79	0x3d0130da	0.03154073
80	0xbca4ce03	-0.020117765
81	0x3cb250f5	0.021767119
82	0x3d44d385	0.048053283
83	0x3ba59d06	0.005054119
84	0x3d552bb4	0.05204363
85	0xbce9d045	-0.028541693
86	0xbba50b9b	-0.005036784
87	0x3ccfb139	0.025353061
88	0xbc4edfb6	-0.012626579
89	0xbcb004d8	-0.021486685
90	0xbd1c73a5	-0.038196225
91	0x3c1a6a19	0.00942471
92	0x3c544396	0.012955567
93	0x3cccf4ad	0.025019014
94	0xbbbfcd52	-0.0058533335
95	0x3cd56e1e	0.026053485
96	0xbd056b26	-0.032572888
97	0x3bcfdd8d	0.0063435496
98	0xbc5987dd	-0.013277021
99	0x3c4a71fa	0.012356276
100	0xbd08ab57	-0.033366527
101	0xbae024eb	-0.0017100846
102	0x3d0ab9ab	0.033868473
103	0x3d0747eb	0.03302757
104	0xbcba3bbd	-0.022733564
105	0x3d24948f	0.04018074
106	0x3beda61d	0.0072524683
107	0x3c0b2583	0.00849283
108	0x3cfac693	0.030612266
109	0x3c264420	0.010148078
110	0x3c23a214	0.009987373
111	0xba3f5694	-0.0007298973
112	0x3c96525d	0.01834982
113	0x3bcd6b86	0.0062689213
114	0xbb9530d1	-0.0045529385
115	0x3c0b1cb8	0.008490734
116	0xbc9306c7	-0.017947568
117	0x3ba9b25e	0.0051787337
118	0xbd4210d7	-0.04737934
119	0x3cb9c4b0	0.022676796
120	0xbce54662	-0.027987663
121	0xbcd52862	-0.026020233
122	0x3d17fa90	0.03710419
123	0x3ca59466	0.020212363
124	0xbd4e4b3a	-0.05036471
125	0xbb78db95	-0.0037972678
126	0xb9c2e50f	-0.00037173225
127	0x3cb44cda	0.022009302
128	0xbc84e995	-0.016224662
129	0xbccebaf3	-0.025235629
130	0x3c61e790	0.013788119
131	0xbcdc4363	-0.026887601
132	0xbd161b17	-0.03664693
133	0xbc09d26c	-0.008411985
134	0xbc638938	-0.013887696
135	0x3d108e52	0.035291977
136	0xbd82f519	-0.06394405
137	0x3cb27a94	0.021786965
138	0xbbb50e5c	-0.0055253934
139	0xbcff5a8f	-0.031171111
140	0xbcc90293	-0.02453736
141	0x3998e781	0.00029164183
142	0xbbe6e980	-0.0070468783
143	0x3d17fad9	0.03710446
144	0xbc0de718	-0.008661054
145	0x3bb9b87b	0.0056677437
146	0x3d0301df	0.031984206
147	0x3d008632	0.03137798
148	0x3cea0f48	0.02857174
149	0xbd2ca550	-0.04214984
150	0x3c46d4c5	0.012135689
151	0x3b8164d7	0.0039487886
152	0x3c22b4f7	0.009930841
153	0xbbaa0162	-0.005188153
154	0xbc18c59d	-0.009324458
155	0x3d1e8a3f	0.03870606
156	0xbc9b18d3	-0.018932736
157	0xba893f21	-0.0010471084
158	0x3d09d535	0.033650596
159	0x3bac70c9	0.0052624685
160	0xbd01e64e	-0.031713776
161	0x3d00c975	0.031442124
162	0xbd4142c5	-0.047182817
163	0x3ce2ebc8	0.02770032
164	0xbc2da374	-0.010598052
165	0xbc55118e	-0.013004674
166	0xb9d7c064	-0.00041151338
167	0xbd00aa72	-0.03141255
168	0xbc5b197d	-0.013372776
169	0x39237bd5	0.00015591022
170	0x3d31cd58	0.04340872
171	0x3b8f68b6	0.004376496
172	0xbbfc8399	-0.0077061174
173	0x3cb44466	0.022005271
174	0x3c567e48	0.013091631
175	0xbc68f300	-0.014218092
176	0xbd0884a9	-0.03332964
177	0x3d120529	0.035649452
178	0x3b8f7856	0.004378359
179	0x3cb324a3	0.021868056
180	0xbd84a541	-0.06476832
181	0x3cb2033e	0.021730062
182	0x3c2ed742	0.010671439
183	0xbcfa4e82	-0.030555014
184	0xbbe31425	-0.0069298916
185	0x3cedbb36	0.029019933
186	0x3c073405	0.0082521485
187	0x3c8ab73b	0.016933074
188	0xbd5bd2ef	-0.05366796
189	0xbc88edf2	-0.016715024
190	0x3d45f3d6	0.048328243
191	0x3ca8bb52	0.020597134
192	0x3c095c8b	0.00838388
193	0x3b8cfab1	0.0043023457
194	0x3bddcccf	0.0067688
195	0xbd49558c	-0.04915385
196	0x3cacbb9e	0.021085557
197	0xbcc44a3e	-0.023961183
198	0xbac3ed95	-0.0014948124
199	0x3c0af526	0.0084812995
200	0x3c781c0f	0.015143408
201	0x3d382377	0.044955697
202	0xbce90784	-0.028445967
203	0x3c83afe3	0.01607508
204	0xbbc0255c	-0.0058638286
205	0x3d4ebff4	0.05047603
206	0x3a1e7c28	0.00060457224
207	0xbc1e7413	-0.009671229
208	0xbcd11345	-0.025521884
209	0x3c696c71	0.014247046
210	0x3c78b9fb	0.01518106
211	0xbce46912	-0.027882133
212	0xbd39f38c	-0.04539828
213	0x3c69567f	0.014241814
214	0xbb4518bb	-0.0030074555
215	0x3d613cc2	0.054989584
216	0x3af055fa	0.001833617
217	0xbd15ab65	-0.036540408
218	0x3c762d80	0.0150254965
219	0xbd1f6b1f	-0.038920518
220	0x3d034160	0.03204477
221	0x3cd2b569	0.025721269
222	0xbcecfe92	-0.028929982
223	0x3dad2158	0.084536254
224	0x3cfbf7a4	0.030757733
225	0x3b0f5c68	0.0021875147
226	0x37e2e9da	2.7050195e-05
227	0x3cc1d03a	0.02365886
228	0x3cc0fd8d	0.023558402
229	0x3c9a7336	0.018853765
230	0xbc83f377	-0.016107304
231	0xbd426ec9	-0.047468934
232	0xbbfebb88	-0.0077738203
233	0x3d4250d4	0.047440365
234	0x3d03e729	0.032202873
235	0xbbbc7eec	-0.005752435
236	0xbc94a0b5	-0.018143037
237	0x3cf2b243	0.029626017
238	0x3c36be65	0.011153792
239	0x3c14bdc1	0.009078444
240	0xbd72cada	-0.059275486
241	0x3c71b0f0	0.014751658
242	0x3cbc8a46	0.023015153
243	0xbc5580c3	-0.0130311875
244	0x3c11a7fd	0.008890149
245	0x3ced0335	0.028932193
246	0xbca49713	-0.020091569
247	0xbc977b3d	-0.018491382
248	0x3d6e8be1	0.058238868
249	0x3d0a1217	0.033708658
250	0x3b997bd3	0.0046839505
251	0xbcb33e0f	-0.021880178
252	0x3d26497d	0.040597428
253	0x3ab16c46	0.0013536296
254	0xbaf8606b	-0.0018949633
255	0xbd0b8786	-0.034064792

action_model._continuous_distribution.mu.bias f4 [2]
0	0x3d18f40a	0.03734211
1	0xbd166a7e	-0.036722653

exp_avg f4 [256, 8]
0	0x39b9242d	0.00035312903
1	0xb898f793	-7.294039e-05
2	0xb7555968	-1.2716606e-05
3	0xb929862c	-0.00016167079
4	0xb89e740b	-7.555642e-05
5	0x38a94f14	8.0732774e-05
6	0xb959ddbd	-0.00020777337
7	0xb818727a	-3.634624e-05
8	0x39886dce	0.00026021752
9	0xba1dd778	-0.0006021182
10	0xba0dbcd5	-0.00054068613
11	0xba88e847	-0.0010445201
12	0x3a17c5e5	0.00057896815
13	0x39a485b8	0.00031380146
14	0x39b4effa	0.00034511072
15	0xb8f293fd	-0.00011567024
16	0x38aedfa8	8.338626e-05
17	0xba207cd2	-0.00061221153
18	0xb9c34c8e	-0.00037250336
19	0xba76a56a	-0.0009408804
20	0x39113b2b	0.0001385032
21	0xba22d203	-0.0006211104
22	0x3a25f3e4	0.0006330593
23	0x39bcbabb	0.0003599728
24	0xb73c9c06	-1.1242e-05
25	0x38837830	6.2689534e-05
26	0x3857b864	5.143172e-05
27	0x396bcbed	0.00022487315
28	0x398c2283	0.00026728594
29	0xb8ad7a4d	-8.272063e-05
30	0xb9253ea9	-0.00015758969
31	0x38dfe4c1	0.00010676077
32	0xba36e0c1	-0.000697624
33	0x39ab1cc8	0.00032637105
34	0x392d2fd1	0.00016516379
35	0x3a51d3f2	0.00080042996
36	0x395cf443	0.0002107183
37	0xb9c20c9e	-0.00037011964
38	0x3908338d	0.00012989175
39	0x39886649	0.0002601615
40	0x399c8165	0.00029851045
41	0xb969c5c3	-0.00022294284
42	0xb943ecd5	-0.00018684876
43	0xb9f35e11	-0.00046418657
44	0xb8398d2e	-4.423892e-05
45	0xba07aa73	-0.000517524
46	0x39f492ea	0.00046648766
47	0x39d94f05	0.0004144834
48	0x38a90ae8	8.0605794e-05
49	0xb993cab1	-0.00028189042
50	0xb9a41082	-0.00031292817
51	0xb9d2e213	-0.0004022276
52	0x39a85cd1	0.0003211261
53	0x39459d70	0.00018846034
54	0x38a9c0d4	8.094465e-05
55	0xb8cabc50	-9.6671865e-05
56	0x39865be7	0.00025626944
57	0xb765e7ab	-1.3703403e-05
58	0xb87511fa	-5.8429294e-05
59	0x38a8db1b	8.051676e-05
60	0x362dd00b	2.5900106e-06
61	0x3975e933	0.00023451894
62	0xb93bc0ab	-0.00017905484
63	0xb90ac459	-0.00013233851
64	0x3858989f	5.1640553e-05
65	0x379c9748	1.8667095e-05
66	0xb810b269	-3.4498433e-05
67	0xb94dd5bb	-0.00019629944
68	0xb8f36774	-0.000116064126
69	0x3926f8e8	0.00015923718
70	0xb931c8f6	-0.00016954899
71	0xb910719b	-0.00013775231
72	0x39fdf1eb	0.00048436163
73	0xba9c572a	-0.0011927832
74	0xba4aed95	-0.0007741091
75	0xbb05fa58	-0.0020443406
76	0x3a3a8374	0.0007114925
77	0x3996008c	0.00028610637
78	0x3a067add	0.00051300024
79	0xb8bbaff5	-8.9496294e-05
80	0x388547f5	6.355337e-05
81	0x393a2f0d	0.0001775587
82	0x3947037d	0.00018979418
83	0x390f2a1c	0.0001365323
84	0xb9abea7a	-0.0003279036
85	0x389e6f71	7.554785e-05
86	0xb987b838	-0.0002588646
87	0xb8541a18	-5.056904e-05
88	0xb8b2a3a6	-8.518183e-05
89	0x3a48e08e	0.0007662856
90	0x3a6401a5	0.0008697755
91	0x3a9f8855	0.0012171367
92	0xba5acf25	-0.0008346907
93	0x393d577e	0.00018057038
94	0xba46eab8	-0.00075880764
95	0xb95621d0	-0.00020421227
96	0xb864e3db	-5.4571643e-05
97	0x38ab9389	8.181396e-05
98	0x388003ef	6.104248e-05
99	0x3935cd23	0.00017337925
100	0xb6471db7	-2.9670607e-06
101	0xb8f4cbdc	-0.000116727984
102	0xb78dd58d	-1.6907952e-05
103	0x3894efa5	7.101827e-05
104	0xb8ae9ffa	-8.3267645e-05
105	0xb90ed68c	-0.000136221
106	0xb99f2212	-0.00030352228
107	0xb9023569	-0.00012417663
108	0x39a6a9b4	0.00031788426
109	0x381a9241	3.685267e-05
110	0x394f8604	0.00019790983
111	0x371fb588	9.519405e-06
112	0xb8669d7b	-5.498294e-05
113	0x3aaca35d	0.0013171245
114	0x3ad75ff8	0.0016431799
115	0x3b10d2d8	0.002209833
116	0xbac72a79	-0.0015195153
117	0x37a3582f	1.9472178e-05
118	0xbaa528aa	-0.001260062
119	0xb8b7748d	-8.747829e-05
120	0x3994f761	0.0002841307
121	0xb8805b04	-6.1204686e-05
122	0x371af1c4	9.235406e-06
123	0xb8894c1e	-6.546847e-05
124	0xb7138f28	-8.795214e-06
125	0x390064bf	0.00012244562
126	0xb953a3dc	-0.0002018357
127	0xb6803a10	-3.8214566e-06
128	0xb936d5f3	-0.00017436575
129	0x39a3649b	0.0003116474
130	0x39dbfee7	0.00041960852
131	0x3a16739c	0.0005739273
132	0xb9f2b1ee	-0.00046290405
133	0x38a79d72	7.992507e-05
134	0xb9c576bb	-0.0003766323
135	0xb930abca	-0.00016848664
136	0xb7156bed	-8.9062205e-06
137	0x37e44d93	2.7215841e-05
138	0xb899877b	-7.320844e-05
139	0xb8d851a6	-0.00010314891
140	0xb909c7bd	-0.00013139746
141	0xb9829764	-0.00024908327
142	0x394791cf	0.00019032437
143	0x3920bf74	0.00015330111
144	0x394b3f80	0.00019383244
145	0xba028675	-0.0004979142
146	0xba138926	-0.00056280417
147	0xba3199ca	-0.00067749305
148	0x39cbb493	0.00038853716
149	0x38815182	6.166381e-05
150	0x398c8ce6	0.00026807858
151	0xb807c088	-3.2365817e-05
152	0x38893c0b	6.543853e-05
153	0xb8dd19c8	-0.00010542903
154	0x360cd3ca	2.0984903e-06
155	0xb9347429	-0.0001720941
156	0xb86a5422	-5.5868302e-05
157	0xb648e99d	-2.9938303e-06
158	0x38454dfd	4.7041092e-05
159	0xb8001a1b	-3.054189e-05
160	0x396b3091	0.00022429439
161	0xbaa6d00c	-0.0012726798
162	0xba99f11f	-0.0011744833
163	0xbb08b304	-0.0020858655
164	0x3aa58d01	0.0012630523
165	0x391f96d2	0.00015219607
166	0x3a783464	0.0009468256
167	0x3801cc52	3.0946285e-05
168	0xb957c644	-0.00020577858
169	0x3706c434	8.0327045e-06
170	0xb88385f1	-6.271515e-05
171	0x38a2a7c5	7.7560115e-05
172	0x37fa9add	2.9874436e-05
173	0x38aeb057	8.3298124e-05
174	0x385f57ad	5.3248998e-05
175	0xb8fa2b25	-0.00011928965
176	0xb794837d	-1.7704204e-05
177	0x385b4273	5.2275554e-05
178	0x38564f75	5.1095576e-05
179	0x386f800a	5.7101286e-05
180	0xb8adafa5	-8.281999e-05
181	0xb9227713	-0.00015493883
182	0x380a39f5	3.295574e-05
183	0x38c3190d	9.302991e-05
184	0xb87b0167	-5.984437e-05
185	0x38c89cbc	9.565937e-05
186	0x38c651c3	9.456605e-05
187	0x395ac7a9	0.0002086448
188	0xb728a2fb	-1.0051527e-05
189	0xb89ac8af	-7.3806725e-05
190	0x38133b0d	3.5102526e-05
191	0x3820977a	3.8288046e-05
192	0xba5dd40e	-0.00084620796
193	0x383d5fe4	4.5150417e-05
194	0x380c07b6	3.3385782e-05
195	0x38affa9d	8.3913306e-05
196	0x38985092	7.262932e-05
197	0xb9d511d5	-0.00040639812
198	0x3a0725fa	0.00051555
199	0x38b60376	8.679081e-05
200	0x38c97ebc	9.608033e-05
201	0xb921c9b7	-0.00015429301
202	0xb91626e7	-0.00014319607
203	0xb974546d	-0.00023301104
204	0x391b687b	0.00014820874
205	0x3833b1d0	4.2842526e-05
206	0x389cfead	7.486097e-05
207	0x37ea3c96	2.7923186e-05
208	0x38d53b66	0.00010167695
209	0xba3dce56	-0.0007240524
210	0xba302512	-0.0006719391
211	0xba9c9cba	-0.0011948564
212	0x3a41e6c0	0.000739675
213	0xb75dfe24	-1.3231798e-05
214	0x3a2051c8	0.0006115702
215	0x389a1ec6	7.349024e-05
216	0x389172f9	6.935554e-05
217	0x39210e04	0.00015359378
218	0xb9d3a1fb	-0.0004036574
219	0x3955895a	0.0002036443
220	0x3984a8f4	0.00025302882
221	0x3a847567	0.0010105789
222	0xb90a4401	-0.00013186039
223	0xba2f5d3e	-0.00066896144
224	0x39e61260	0.0004388271
225	0xb9255211	-0.00015766198
226	0xb8a2a193	-7.7548575e-05
227	0xba0c3805	-0.0005348924
228	0xb852a7c6	-5.0224153e-05
229	0x39f06cc2	0.00045857398
230	0xb828cb77	-4.0243813e-05
231	0xb99c927f	-0.00029863787
232	0x3792413f	1.7434939e-05
233	0xb9bd0feb	-0.0003606075
234	0xb9c2930f	-0.0003711213
235	0xba0d0516	-0.0005379481
236	0x39ba2e79	0.0003551131
237	0x382abd61	4.070753e-05
238	0x398a9cb7	0.00026438173
239	0xb78e03b5	-1.6929445e-05
240	0x39004719	0.00012233517
241	0xb9112114	-0.000138406
242	0xb911e2f2	-0.00013912821
243	0xb99e0f7e	-0.0003014765
244	0xb6a36b70	-4.870286e-06
245	0xb9370ca9	-0.00017456956
246	0x3909b87f	0.00013134068
247	0x3905b5b5	0.0001275156
248	0x39ef0b9c	0.00045594282
249	0xb9f029ca	-0.00045807502
250	0xba2d985f	-0.00066221313
251	0xba49f1eb	-0.000770359
252	0x39d61566	0.00040833204
253	0x39a53c21	0.00031516052
254	0x393addb5	0.00017820935
255	0xb8b7aefb	-8.758713e-05

exp_avg_sq f4 [256, 8]
0	0x363314ce	2.6685188e-06
1	0x35f37cc9	1.8141228e-06
2	0x35fb0a28	1.8703913e-06
3	0x3687f74d	4.052103e-06
4	0x35a41e0b	1.2227696e-06
5	0x3507619b	5.0433454e-07
6	0x37219612	9.631289e-06
7	0x3500f718	4.8043285e-07
8	0x35ccd34b	1.5260679e-06
9	0x35962e20	1.1189295e-06
10	0x35b2c10e	1.331822e-06
11	0x365ab5e4	3.2590406e-06
12	0x355ab1f5	8.147029e-07
13	0x34bfb5eb	3.5708885e-07
14	0x35c7554d	1.4851481e-06
15	0x34a0b8f8	2.9936905e-07
16	0x3630377a	2.6258335e-06
17	0x364043fa	2.8649797e-06
18	0x36658e50	3.4206496e-06
19	0x36aff335	5.2437194e-06
20	0x36441a61	2.922163e-06
21	0x35bf31a7	1.424506e-06
22	0x3784e2f7	1.5841315e-05
23	0x357345e2	9.0626247e-07
24	0x368f04db	4.2622974e-06
25	0x3689bd13	4.1049293e-06
26	0x362904c7	2.5185743e-06
27	0x3705e245	7.9801e-06
28	0x3620eae5	2.3978585e-06
29	0x358e1058	1.0584581e-06
30	0x36aabdda	5.0884964e-06
31	0x356b145c	8.757395e-07
32	0x370e25ce	8.472662e-06
33	0x36e1da34	6.7309247e-06
34	0x36af90a2	5.232244e-06
35	0x37bb9916	2.2363423e-05
36	0x36926e5d	4.363987e-06
37	0x35f62f6f	1.8342233e-06
38	0x371b9641	9.273704e-06
39	0x35c92d32	1.498882e-06
40	0x35d7671d	1.6048758e-06
41	0x35f7fb6e	1.847611e-06
42	0x35dc16e3	1.6397938e-06
43	0x3588200f	1.014212e-06
44	0x35b3e598	1.340336e-06
45	0x35706576	8.955461e-07
46	0x36b98092	5.528397e-06
47	0x35708b4c	8.960967e-07
48	0x3544576d	7.314291e-07
49	0x34d48c7a	3.9590287e-07
50	0x357f3ebe	9.5086205e-07
51	0x35edbe7e	1.7713317e-06
52	0x34e50bc3	4.2663132e-07
53	0x33d4151c	9.875859e-08
54	0x3688bfdb	4.0754508e-06
55	0x33bd5609	8.816648e-08
56	0x3540868e	7.1721377e-07
57	0x3533cf72	6.698457e-07
58	0x3511396a	5.410026e-07
59	0x34abd53e	3.2006386e-07
60	0x351332f2	5.48359e-07
61	0x34ad35f0	3.2263006e-07
62	0x36167723	2.2421088e-06
63	0x347c9e9e	2.3527033e-07
64	0x358081a4	9.574474e-07
65	0x3562566c	8.431732e-07
66	0x3583a954	9.809542e-07
67	0x3627ea01	2.5021147e-06
68	0x356de880	8.862771e-07
69	0x34e2f978	4.2277293e-07
70	0x36ab827c	5.1113875e-06
71	0x3454cc98	1.981847e-07
72	0x36a73e4e	4.984241e-06
73	0x36634b89	3.3869603e-06
74	0x36b36390	5.3462063e-06
75	0x37a7d9ed	2.0009431e-05
76	0x36773cd1	3.6841268e-06
77	0x34f5fd6a	4.581919e-07
78	0x37aaf01f	2.0377394e-05
79	0x35078f02	5.049952e-07
80	0x34d41d14	3.9509234e-07
81	0x34f097bf	4.4813893e-07
82	0x351d33b8	5.856232e-07
83	0x35ec61d7	1.7611845e-06
84	0x3512e66a	5.4724535e-07
85	0x34146406	1.3819962e-07
86	0x362e655f	2.5987026e-06
87	0x33d0ea45	9.728368e-08
88	0x3653c632	3.1556815e-06
89	0x3645202c	2.9374014e-06
90	0x36875b37	4.0339323e-06
91	0x3736b241	1.0889548e-05
92	0x36413368	2.8789163e-06
93	0x3538eadb	6.88871e-07
94	0x375cf586	1.3170187e-05
95	0x3517d7eb	5.6566086e-07
96	0x33d24e47	9.7931256e-08
97	0x336a1847	5.450445e-08
98	0x336184d6	5.250771e-08
99	0x344e3aa7	1.9206583e-07
100	0x331fc164	3.719596e-08
101	0x32c52636	2.2951195e-08
102	0x32ec868e	2.7535204e-08
103	0x32696def	1.3587381e-08
104	0x359f351b	1.1861879e-06
105	0x3546d506	7.407074e-07
106	0x3577c402	9.22999e-07
107	0x362128a7	2.4014532e-06
108	0x352ff6bc	6.5551626e-07
109	0x34164382	1.3994398e-07
110	0x3667aa0b	3.452066e-06
111	0x3417704a	1.4103821e-07
112	0x370893a5	8.140608e-06
113	0x36f6ee58	7.359118e-06
114	0x3743bae2	1.1666418e-05
115	0x38039cfa	3.137903e-05
116	0x370bbb41	8.328644e-06
117	0x35937a3d	1.098793e-06
118	0x3835a3c4	4.330628e-05
119	0x35ba78a7	1.3893194e-06
120	0x35a43998	1.2235714e-06
121	0x3550c5b0	7.777371e-07
122	0x35554548	7.94495e-07
123	0x350c9f39	5.2385764e-07
124	0x34be4b3a	3.5444992e-07
125	0x349ac17e	2.882552e-07
126	0x3582cb58	9.744936e-07
127	0x34872ab9	2.5176794e-07
128	0x35c942b6	1.4995082e-06
129	0x35d4e2c7	1.5861232e-06
130	0x358656f8	1.0009089e-06
131	0x35bb312b	1.3946895e-06
132	0x354edaae	7.70592e-07
133	0x34dec966	4.149726e-07
134	0x35b26047	1.3290054e-06
135	0x35038ed6	4.9009157e-07
136	0x3550ab93	7.773571e-07
137	0x3575dfa6	9.1595064e-07
138	0x353cdf56	7.0360454e-07
139	0x3560c88b	8.373833e-07
140	0x3532800d	6.6496506e-07
141	0x3483d300	2.4554174e-07
142	0x362c36b4	2.5661839e-06
143	0x347a71de	2.3324489e-07
144	0x368f48ca	4.270206e-06
145	0x3640a707	2.8707452e-06
146	0x369f40b9	4.746104e-06
147	0x36d1f45a	6.2571316e-06
148	0x3643bc30	2.9166804e-06
149	0x35437ca6	7.282455e-07
150	0x379d2314	1.8732193e-05
151	0x3521f263	6.0329893e-07
152	0x3503152e	4.8832123e-07
153	0x349be40c	2.9036926e-07
154	0x34863b6b	2.5002677e-07
155	0x34e308e5	4.2288517e-07
156	0x34373470	1.706228e-07
157	0x33c19e49	9.016055e-08
158	0x34c6118a	3.6893135e-07
159	0x33c4abd3	9.158216e-08
160	0x3681d131	3.8688527e-06
161	0x365fbba0	3.3338802e-06
162	0x3694a2fe	4.4297185e-06
163	0x3742c172	1.1608341e-05
164	0x3638b8ad	2.7525632e-06
165	0x353b38bf	6.9745505e-07
166	0x36b10d8b	5.2765877e-06
167	0x351f2c79	5.929683e-07
168	0x353bf38f	7.0017353e-07
169	0x34cb9743	3.7921754e-07
170	0x34a5d704	3.089009e-07
171	0x3478f672	2.3186456e-07
172	0x3414f79d	1.3873655e-07
173	0x34134fee	1.371952e-07
174	0x34291fdb	1.575094e-07
175	0x341dba9d	1.4689654e-07
176	0x34120b01	1.3601313e-07
177	0x33e51036	1.0666592e-07
178	0x33e65ba2	1.07268775e-07
179	0x34869584	2.5068232e-07
180	0x33ac2fcf	8.0180705e-08
181	0x332eee12	4.0729056e-08
182	0x348261bd	2.42855e-07
183	0x3317f031	3.537588e-08
184	0x34c3763b	3.6407604e-07
185	0x349c2026	2.9080655e-07
186	0x34e6d98d	4.2999127e-07
187	0x359b590e	1.1574318e-06
188	0x34b275c6	3.3240775e-07
189	0x33a1fbcf	7.5429504e-08
190	0x3613edd7	2.2043148e-06
191	0x3392b666	6.831833e-08
192	0x36be9c7d	5.680659e-06
193	0x369c46ad	4.65739e-06
194	0x365b3658	3.2665175e-06
195	0x3701039b	7.689839e-06
196	0x35fa27f6	1.8638082e-06
197	0x35b86033	1.3737066e-06
198	0x364f264a	3.086769e-06
199	0x35ac4b66	1.2836942e-06
200	0x341e7215	1.47564e-07
201	0x342c1d48	1.6029401e-07
202	0x33a95c6a	7.886486e-08
203	0x3398b263	7.1105e-08
204	0x337c3472	5.872102e-08
205	0x332d4978	4.034652e-08
206	0x3398cfaf	7.115829e-08
207	0x3333da0c	4.1874998e-08
208	0x35fce767	1.884281e-06
209	0x35c674b5	1.4786116e-06
210	0x361c4d10	2.3290668e-06
211	0x36c3d611	5.8363735e-06
212	0x35b4774d	1.3445766e-06
213	0x34bc3c39	3.5061547e-07
214	0x3652b34d	3.1396805e-06
215	0x348f2e82	2.6669665e-07
216	0x36827092	3.887407e-06
217	0x368d0514	4.2027186e-06
218	0x35fa9092	1.8668527e-06
219	0x358da7a1	1.0554105e-06
220	0x35da22f1	1.6252435e-06
221	0x35c0ab99	1.4355056e-06
222	0x35af2e43	1.305198e-06
223	0x35b03b3b	1.313026e-06
224	0x362e878e	2.6006924e-06
225	0x35e5ea3b	1.713e-06
226	0x35befeb4	1.4230231e-06
227	0x36df30f9	6.651619e-06
228	0x35a0ae69	1.1971689e-06
229	0x34fc2352	4.6964357e-07
230	0x3639cbcb	2.7685771e-06
231	0x34eca956	4.4081634e-07
232	0x351a3e45	5.7460085e-07
233	0x34dd424f	4.1212704e-07
234	0x3580fab2	9.609705e-07
235	0x360c4e20	2.09071e-06
236	0x35103aab	5.3729553e-07
237	0x337dff22	5.9138195e-08
238	0x365fb21b	3.333326e-06
239	0x337bc9af	5.862392e-08
240	0x351ab331	5.763023e-07
241	0x350aeca7	5.175338e-07
242	0x35084ce6	5.077585e-07
243	0x34eeb421	4.4462016e-07
244	0x34dd1339	4.1178444e-07
245	0x3478e1e8	2.3178984e-07
246	0x35de236b	1.6550597e-06
247	0x348698ac	2.5070528e-07
248	0x36673b26	3.4456111e-06
249	0x36531769	3.1455077e-06
250	0x36a5abb3	4.9373716e-06
251	0x36b8a32d	5.5026235e-06
252	0x36801508	3.8171456e-06
253	0x35873cb1	1.0075947e-06
254	0x380e319d	3.3901644e-05
255	0x356b0a07	8.7558914e-07

exp_avg f4 [256]
0	0x39a30c36	0.0003109888
1	0xb9f79139	-0.0004721971
2	0x39e35557	0.00043360397
3	0x3a281bb0	0.0006412817
4	0x39d4538c	0.00040498038
5	0x3a0318a0	0.0005000923
6	0xb947fb84	-0.00019071816
7	0x39699072	0.00022274422
8	0xb9a9ca59	-0.00032384953
9	0xba43e820	-0.0007473249
10	0xb931ebee	-0.00016967926
11	0xb8f707fa	-0.000117793636
12	0x3929db6a	0.00016198834
13	0x384ebee7	4.929202e-05
14	0xb88e4369	-6.783644e-05
15	0x39736b1a	0.00023214184
16	0xb9975524	-0.000288644
17	0x39a59a83	0.00031586373
18	0x39e49d47	0.0004360473
19	0xb92f1c85	-0.00016699925
20	0xba17cf57	-0.0005791089
21	0xb9618506	-0.00021507227
22	0x3927b06c	0.00015992083
23	0x390fa1a1	0.00013697754
24	0xb9e3835c	-0.00043394684
25	0xb675ca88	-3.6625734e-06
26	0xb9af22aa	-0.00033404428
27	0xba1388f8	-0.0005628015
28	0xba18075d	-0.0005799437
29	0xb895013f	-7.105106e-05
30	0x39807ae7	0.00024505632
31	0xb7953705	-1.7787805e-05
32	0xb9a6d5e5	-0.0003182135
33	0x3a3ca6a5	0.0007196463
34	0x39ae7e4c	0.00033281965
35	0xba1a6b96	-0.00058906653
36	0xb81f34d9	-3.7957772e-05
37	0xb5675113	-8.6172184e-07
38	0xb9fef902	-0.0004863218
39	0x3963c302	0.00021721053
40	0xba13e057	-0.0005641034
41	0x3a0f5ae9	0.0005468564
42	0x39af9d5b	0.0003349584
43	0x3a107460	0.0005510505
44	0x39778e08	0.00023608666
45	0xb93209a3	-0.00016978993
46	0xb8f60f8c	-0.0001173309
47	0xb99c6a74	-0.00029833952
48	0x39bf68c5	0.00036508418
49	0x39bc5203	0.00035919258
50	0x39afcc86	0.00033530983
51	0x39b6f9b0	0.00034899777
52	0xba63e78e	-0.0008693867
53	0xba19bb45	-0.0005864392
54	0x3947ff66	0.00019073262
55	0x390d5901	0.00013479964
56	0xba025ed3	-0.00049732364
57	0x3863ae53	5.428337e-05
58	0x39dcda82	0.0004212447
59	0xba093aac	-0.0005234878
60	0x384c7dc5	4.8754522e-05
61	0xba3c6366	-0.00071864424
62	0x393db1ea	0.00018090723
63	0x38ac0cd1	8.203986e-05
64	0x3a29b84a	0.00064742996
65	0xb9520332	-0.00020028351
66	0x3a0994e2	0.00052483205
67	0x3a0c0550	0.0005341368
68	0xb9be4057	-0.0003628756
69	0xb9dd48f0	-0.00042206747
70	0x38e19d16	0.000107580956
71	0xb97c917e	-0.00024086793
72	0xb909295e	-0.00013080749
73	0xb9786785	-0.00023689687
74	0x3a375199	0.0006993055
75	0x39697aee	0.00022266406
76	0xba77d262	-0.0009453652
77	0x39504c04	0.00019864744
78	0x3a9259c4	0.0011165668
79	0xb9cbb87d	-0.00038856632
80	0x39336625	0.00017108822
81	0xb9872331	-0.00025775426
82	0xba534544	-0.00080593326
83	0x39be4bf2	0.00036296208
84	0x3a151986	0.0005687702
85	0x39ae0b95	0.00033196495
86	0x370823d3	8.114573e-06
87	0xb9e07b92	-0.00042816676
88	0x384f5c5f	4.9438673e-05
89	0x3a1c05b2	0.00059517764
90	0x39187f07	0.00014543171
91	0xb99fd3f0	-0.0003048475
92	0xba215521	-0.0006154348
93	0xb98a40ab	-0.00026369593
94	0x3972924f	0.00023133423
95	0xb97b697f	-0.00023976526
96	0x38133938	3.510082e-05
97	0x39918eba	0.00027762895
98	0xb979f982	-0.0002383944
99	0xb98d7fac	-0.0002698874
100	0xba008d11	-0.0004903833
101	0xb94dea2d	-0.00019637561
102	0xba71330e	-0.0009201028
103	0xb938bd40	-0.00017618109
104	0x38ccfdbf	9.774742e-05
105	0xb9e5283c	-0.0004370826
106	0x394cc148	0.00019526959
107	0xb8e86938	-0.000110822206
108	0xb969231d	-0.00022233692
109	0xb8b200f6	-8.4878804e-05
110	0xb9295495	-0.00016148605
111	0xb8cf393c	-9.88119e-05
112	0xb99e72da	-0.0003022168
113	0x386a1962	5.5813587e-05
114	0x39a20841	0.00030905197
115	0xb913c70f	-0.00014093168
116	0x3a2f0911	0.0006677071
117	0x3a0260f3	0.0004973553
118	0x3a9cb8af	0.0011956895
119	0x3958d179	0.000206774
120	0x3a8539b1	0.0010164288
121	0x3a5122a1	0.00079778774
122	0xb958adae	-0.00020664066
123	0x3796e75d	1.798913e-05
124	0xb99cb6af	-0.0002989075
125	0x366c5037	3.5213432e-06
126	0x391aa858	0.00014749297
127	0xb999435a	-0.00029232615
128	0xb9c2661a	-0.00037078635
129	0xba21711e	-0.00061585184
130	0x39d67c24	0.00040909753
131	0x3949a0c0	0.00019228738
132	0xb9d3bd9c	-0.00040386326
133	0x3825f9dd	3.957177e-05
134	0xb9cdc97d	-0.00039250767
135	0xb9c1496c	-0.00036866532
136	0x3ac006a2	0.0014650414
137	0xb8f074bc	-0.00011465835
138	0x39aa76c5	0.00032513417
139	0x39aaad3e	0.00032554002
140	0xb8547a70	-5.0658768e-05
141	0x3a49d594	0.0007699367
142	0x3968fb78	0.00022218924
143	0xba5978cc	-0.0008295893
144	0x3892097d	6.96359e-05
145	0x37ea938c	2.796368e-05
146	0xb9bafbc3	-0.00035664262
147	0xb9f5fd5b	-0.00046918806
148	0xb9099d7b	-0.00013124004
149	0x3a0f42e5	0.0005464985
150	0x3816aa1f	3.5921224e-05
151	0xb9b7df9f	-0.0003507109
152	0xb93bc9ba	-0.00017908859
153	0xb9ca013e	-0.00038529368
154	0xb8d4cee6	-0.000101474856
155	0x397d2928	0.00024143292
156	0x3a04b4b3	0.00050623267
157	0xb9d3b2af	-0.00040378186
158	0xb853be8b	-5.0483777e-05
159	0x3a37ede6	0.00070163456
160	0x3a6bb91f	0.0008992124
161	0x39929fef	0.0002796645
162	0xb8def74c	-0.000106318475
163	0xb9b29710	-0.00034063356
164	0x398d5ddf	0.00026963555
165	0xba25b9dd	-0.0006321946
166	0x391f1d94	0.0001517444
167	0x394f4cbc	0.00019769644
168	0x394ea09d	0.00019705524
169	0xb8897e4b	-6.556193e-05
170	0xba447043	-0.0007493535
171	0xb8c88fed	-9.5635514e-05
172	0xba09eef4	-0.0005261742
173	0xb891f52f	-6.959808e-05
174	0xb88c36a4	-6.685898e-05
175	0x393ae826	0.00017824824
176	0x398d2361	0.00026919975
177	0xb96ac8ca	-0.00022390779
178	0x386e8016	5.686291e-05
179	0xba34a722	-0.000689136
180	0x39f5275a	0.0004675936
181	0xb9eec9af	-0.00045545163
182	0xb91ca790	-0.00014939741
183	0xba05b9d9	-0.0005101241
184	0x39d0b92c	0.00039810815
185	0xba02955a	-0.00049813616
186	0xb9a57263	-0.00031556477
187	0x38ef708e	0.00011417373
188	0x39bdc78d	0.00036197566
189	0x3949f452	0.0001925987
190	0xbaf34708	-0.0018560598
191	0x3a142859	0.0005651764
192	0xba1de821	-0.00060236646
193	0x38e1b897	0.000107632186
194	0x3918a050	0.0001455557
195	0xb968c8d5	-0.0002220006
196	0xb8f096c7	-0.00011472176
197	0x3a04cfb5	0.0005066351
198	0x39023522	0.0001241756
199	0xb99dff9a	-0.00030135812
200	0xb96de649	-0.00022687869
201	0xb9d165f2	-0.00039939542
202	0x3a8a0579	0.0010530195
203	0x3a1c4b63	0.0005962161
204	0x398932c1	0.0002616849
205	0xba88a7bd	-0.0010425966
206	0xb9d4206b	-0.00040459944
207	0x391d8989	0.00015023923
208	0x3a1f7f86	0.0006084371
209	0x3a13af8b	0.0005633763
210	0xba584472	-0.0008249945
211	0x394816da	0.00019081999
212	0x3a457130	0.000753182
213	0xba475d50	-0.0007605152
214	0xb8fedf63	-0.00012153273
215	0xb9d4facb	-0.00040622646
216	0x39cb62ff	0.00038792935
217	0x39d8f6bb	0.0004138256
218	0xba141522	-0.0005648901
219	0x3a2333a8	0.0006225654
220	0x38c4d50c	9.3856914e-05
221	0x39910f80	0.00027668104
222	0x39ccc952	0.00039059907
223	0xba8fe53a	-0.0010978349
224	0x390fe766	0.00013723745
225	0xb960e618	-0.00021448021
226	0x393d97a7	0.0001808094
227	0xb97e8b75	-0.0002427528
228	0xb956eee7	-0.00020497628
229	0x39c7cadb	0.00038107377
230	0x3a1c360f	0.0005958983
231	0x37ef46ca	2.8523984e-05
232	0x39f82512	0.00047329866
233	0x38b28372	8.512185e-05
234	0xba0b2369	-0.0005307706
235	0x397ce982	0.00024119581
236	0x3a05b64d	0.00051007123
237	0x39bacd26	0.00035629532
238	0x3925b786	0.00015803994
239	0xba1542df	-0.00056938635
240	0x3a0dbad1	0.0005406561
241	0xb9f1f3fa	-0.0004614888
242	0xb9636dbd	-0.00021689288
243	0xb8de85fd	-0.00010610742
244	0xb880c009	-6.139285e-05
245	0x3a29bf7c	0.0006475372
246	0x39c57c3a	0.00037667324
247	0x3a5d9c41	0.00084537646
248	0xba8a52bd	-0.0010553222
249	0xb8f5e0b2	-0.00011724363
250	0xb92aaa26	-0.00016275849
251	0x3a136b17	0.00056235626
252	0xba80545c	-0.0009790766
253	0xb9f18ece	-0.000460735
254	0xb99582d4	-0.0002851697
255	0xb9e1c0f7	-0.00043059114
