results/max-hiddenunits-config1-0/3DBall/checkpoint.pt (torch, 13237 bytes, 16 tensors)

network_body.observation_encoder.processors.0.normalizer.running_mean f4 [8]
-0.0044520204 -0.006850085 0.09665873 3.0069547 -0.07969348 0.130465 -1.1886737 -0.11417638
00000000: 41e2 91bb ae76 e0bb 03f5 c53d f271 4040
00000010: 5636 a3bd 9e98 053e 7626 98bf 4ed5 e9bd

network_body.observation_encoder.processors.0.normalizer.running_variance f4 [8]
90.07533 124.92711 13182.487 2560.206 15472.679 12293.42 11296.444 17270.6
00000000: 9226 b442 aeda f942 f3f9 4d46 4c03 2045
00000010: b7c2 7146 ae15 4046 c781 3046 33ed 8646

network_body.processors.0.normalizer.running_mean f4 [8]
-0.0044520204 -0.006850085 0.09665873 3.0069547 -0.07969348 0.130465 -1.1886737 -0.11417638
00000000: 41e2 91bb ae76 e0bb 03f5 c53d f271 4040
00000010: 5636 a3bd 9e98 053e 7626 98bf 4ed5 e9bd

network_body.processors.0.normalizer.running_variance f4 [8]
90.07533 124.92711 13182.487 2560.206 15472.679 12293.42 11296.444 17270.6
00000000: 9226 b442 aeda f942 f3f9 4d46 4c03 2045
00000010: b7c2 7146 ae15 4046 c781 3046 33ed 8646

network_body._body_endoder.seq_layers.0.weight f4 [32, 8]
0.14352332 0.21222584 -0.3149664 -0.30468494 0.1562349 -0.61656046 -0.18023941 0.043476477
0.15295179 -0.10748937 0.22219092 -0.06775368 0.50680023 0.17605491 0.17061472 0.0057721236
0.021737603 0.20138071 0.021942478 -0.22118868 -0.4553648 -0.1787752 -0.08514694 -0.13744052
0.2778872 0.32954955 0.10533456 0.5569638 -0.19482027 -0.3672866 0.30551043 0.10764345
0.41695228 0.19692856 -0.7690171 -0.80056065 -0.5731041 0.20287602 0.16783617 0.6334762
-0.39978787 0.6594011 -0.56357557 0.27917978 0.13845189 -0.14498816 0.33688113 -0.010137148
-0.12932771 -0.07056586 0.10539558 -0.2445524 0.09651064 -0.09506032 0.026867323 -0.29630226
-0.24085979 -0.51011735 0.3256976 -0.08683535 0.38729274 0.31120688 -0.21349612 0.08785532
-0.09405453 0.6359779 -0.07012822 -0.041604258 0.18996063 -0.38952568 0.0438161 0.25936684
0.036901042 -0.1084916 0.117845766 -0.4363888 -0.116846174 -0.9189546 0.023709968 -0.03300048
0.9676472 -0.15253207 -0.16095638 0.09549244 -0.23413554 -0.33121768 0.37553263 -0.5323881
0.36777824 0.40622362 0.74295336 -0.3771331 -0.07278391 -0.028014665 -0.59147257 0.64467037
0.033164557 0.11222677 -0.70894283 0.46065864 0.029788438 -0.68750525 -0.53656805 -0.015290194
-0.33636922 -0.34560075 -0.06193527 0.33749458 -0.19377783 -0.4699213 -0.2764289 -0.0110225845
0.29302058 -0.021424226 0.5401258 -0.038719274 -0.24418913 0.30552146 -0.15405272 0.42768753
-0.6783599 0.669401 -0.11021259 -0.24607353 -0.22932635 -1.3219544 0.5935085 -0.16478796
0.029273996 -0.37811336 -0.23801607 0.21777953 0.04294449 -0.67153555 0.17850116 -0.20598379
0.05326613 0.020528605 -0.13424884 0.039815497 0.26344797 0.4369325 0.647041 -0.7803265
0.21812876 0.052595213 0.5384066 0.051433764 0.19991538 -0.21003407 0.31329894 -0.10486621
0.2633907 0.088230744 -0.10004256 0.036304865 0.49272165 -0.38781086 0.00064169324 -0.39687866
0.03425188 -0.22335766 -0.19889122 0.17736982 0.22396404 0.3569828 0.18396524 -0.05113197
-0.47663373 -0.03354774 -0.30688483 -0.20552397 -0.54395854 -0.38639328 -0.484573 0.21052542
-0.56552595 -0.31435513 0.16991936 0.4962157 -0.29133114 -0.4341129 0.57733256 0.28027803
-0.4309463 0.47367316 -0.09755435 -0.07860249 0.017856654 0.10150063 -0.281707 -0.60896546
0.7872796 -0.7351251 0.37344995 -0.534409 0.01729815 -0.45749518 -0.2707178 -0.05988311
-0.15558632 -0.38718593 0.017116943 0.10457733 0.013441695 -0.31892043 -0.23773682 -0.12621216
0.25353408 -0.58916426 0.12311716 -0.4617495 0.23794167 -0.74409217 0.0513677 -0.16537654
-0.5688467 -0.23473349 0.22769082 -0.06238417 0.278682 -0.12955607 -0.40613726 -0.27010658
0.25509992 0.29542136 -0.04657367 -0.12751462 0.19762985 -0.35051826 0.03155956 -0.028271895
-0.6896094 0.5841952 0.11431443 0.034776144 -0.14545035 0.07710068 -0.1851692 0.172409
-0.20901418 0.27192986 -0.08439921 0.07412546 -0.4146228 -0.031155327 0.29126155 -0.23215443
-0.023626177 0.07087774 0.0448074 0.16353472 -0.38618386 -0.68017286 -0.6266123 -0.26363584
00000000: c7f7 123e bb51 593e 4743 a1be aaff 9bbe
00000010: 0bfc 1f3e e8d6 1dbf ae90 38be 6414 323d
00000020: 659f 1c3e 6323 dcbd 0486 633e 71c2 8abd
00000030: a9bd 013f bd47 343e a0b5 2e3e 1524 bd3b
00000040: 0f13 b23c bf36 4e3e b6c0 b33c 497f 62be
00000050: 9325 e9be d910 37be 8561 aebd 35bd 0cbe
00000060: 3b47 8e3e b8ba a83e a5b9 d73d 2e95 0e3f
00000070: f77e 47be fd0c bcbe dd6b 9c3e 2b74 dc3d
00000080: c57a d53e a4a7 493e 4ede 44bf 8bf1 4cbf
00000090: f3b6 12bf bbbe 4f3e 3fdd 2b3e 7f2b 223f
000000a0: ffb0 ccbe 83ce 283f 7d46 10bf a7f0 8e3e
000000b0: 55c6 0d3e c777 14be af7b ac3e 4816 26bc
000000c0: 7c6e 04be d584 90bd a3d9 d73d f26b 7abe
000000d0: 5fa7 c53d fcae c2bd dc18 dc3c eeb4 97be
000000e0: f3a3 76be 0d97 02bf d6c1 a63e bbd6 b1bd
000000f0: 3c4b c63e 8256 9f3e ba9e 5abe 7ded b33d
00000100: a99f c0bd 73cf 223f 629f 8fbd 3a69 2abd
00000110: 0a85 423e e96f c7be 8378 333d bbcb 843e
00000120: 8c25 173d d830 debd 1f59 f13d 5a6e dfbe
00000130: 0c4d efbd 9c40 6bbf 683b c23c 832b 07bd
00000140: bab7 773f 5e31 1cbe c0d1 24be 8a91 c33d
00000150: 3ac1 6fbe 5d95 a9be d045 c03e 964a 08bf
00000160: 6e4d bc3e 8bfc cf3e 3132 3e3f 9717 c1be
00000170: bb0f 95bd 037f e5bc bf6a 17bf 1e09 253f
00000180: 8fd7 073d 26d7 e53d 477d 35bf 73db eb3e
00000190: e206 f43c 5800 30bf 865c 09bf b983 7abc
000001a0: 9638 acbe 95f2 b0be d6af 7dbd 17cc ac3e
000001b0: b26d 46be 8699 f0be 1788 8dbe 1298 34bc
000001c0: cb06 963e dc81 afbc af45 0a3f 1a98 1ebd
000001d0: b70c 7abe 4f6d 9c3e ffbf 1dbe dcf9 da3e
000001e0: ffa8 2dbf dd5d 2b3f 23b7 e1bd b3fa 7bbe
000001f0: 87d4 6abe cd35 a9bf 2cf0 173f 2dbe 28be
00000200: 05d0 ef3c 1398 c1be 7cba 73be 9901 5f3e
00000210: 90e6 2f3d c1e9 2bbf 02c9 363e 6aed 52be
00000220: 962d 5a3d 9b2b a83c 8778 09be 9315 233d
00000230: a7e2 863e 9eb5 df3e 7ba4 253f 7ac3 47bf
00000240: 255d 5f3e 146e 573d 04d5 093f 36ac 523d
00000250: 9eb6 4c3e 2c13 57be b868 a03e 18c4 d6bd
00000260: 25db 863e 52b2 b43d 1de3 ccbd 69b4 143d
00000270: 0346 fc3e 258f c6be 4e37 283a ae33 cbbe
00000280: b34b 0c3d dfb7 64be 24aa 4bbe 6fa0 353e
00000290: d456 653e 73c6 b63e 6261 3c3e c26f 51bd
000002a0: 5609 f4be 5b69 09bd 0220 9dbe e074 52be
000002b0: de40 0bbf 57d5 c5be f419 f8be fa93 573e
000002c0: 4fc6 10bf 28f3 a0be 57ff 2d3e fc0f fe3e
000002d0: 5b29 95be 0c44 debe 11cc 133f 9a80 8f3e
000002e0: fea4 dcbe 4a85 f23e 93ca c7bd 58fa a0bd
000002f0: 1e48 923c 90df cf3d e63b 90be 29e5 1bbf
00000300: 288b 493f 2931 3cbf d534 bf3e 07cf 08bf
00000310: dab4 8d3c cf3c eabe 869b 8abe fe47 75bd
00000320: 0552 1fbe 3c3d c6be d538 8c3c a42c d63d
00000330: 8e3a 5c3c 8a49 a3be 4871 73be c33d 01be
00000340: 38cf 813e 78d3 16bf d924 fc3d 6e6a ecbe
00000350: fba6 733e d37c 3ebf f066 523d 7858 29be
00000360: f09f 11bf fa5d 70be c827 693e 8b86 7fbd
00000370: 68af 8e3e 59aa 04be 39f1 cfbe 694b 8abe
00000380: 759c 823e 7841 973e 08c4 3ebd 3193 02be
00000390: 7b5f 4a3e 2177 b3be 9944 013d 769a e7bc
000003a0: 3e8a 30bf d18d 153f af1d ea3d 6e71 0e3d
000003b0: f0f0 14be f6e6 9d3d ff9c 3dbe fc8b 303e
000003c0: d007 56be 643a 8b3e 7ed9 acbd 17cf 973d
000003d0: 7149 d4be 7539 ffbc 3c20 953e e4b9 6dbe
000003e0: af8b c1bc 5928 913d f787 373d a575 273e
000003f0: e4b9 c5be cf1f 2ebf aa69 20bf 47fb 86be

network_body._body_endoder.seq_layers.0.bias f4 [32]
0.0 0.0 0.0 0.0 0.0 0.0 0.0 0.0
0.0 0.0 0.0 0.0 0.0 0.0 0.0 0.0
0.0 0.0 0.0 0.0 0.0 0.0 0.0 0.0
0.0 0.0 0.0 0.0 0.0 0.0 0.0 0.0
00000000: 0000 0000 0000 0000 0000 0000 0000 0000
00000010: 0000 0000 0000 0000 0000 0000 0000 0000
00000020: 0000 0000 0000 0000 0000 0000 0000 0000
00000030: 0000 0000 0000 0000 0000 0000 0000 0000
00000040: 0000 0000 0000 0000 0000 0000 0000 0000
00000050: 0000 0000 0000 0000 0000 0000 0000 0000
00000060: 0000 0000 0000 0000 0000 0000 0000 0000
00000070: 0000 0000 0000 0000 0000 0000 0000 0000

action_model._continuous_distribution.log_sigma f4 [1, 2]
0.0 0.0
00000000: 0000 0000 0000 0000

action_model._continuous_distribution.mu.weight f4 [2, 32]
0.012936573 0.016586892 -0.035146322 -0.021151956 -0.01238709 0.0697386 0.039088756 -0.012606226
0.013002991 0.035628572 -0.014588152 -0.06945034 -0.003634695 0.0285195 0.009107733 -0.03801907
0.032556422 0.015842611 0.04406582 -0.014422488 -0.012252732 -0.051785838 0.020906381 -0.02471904
0.034128603 -0.018523067 0.05523608 0.014141458 -0.057835 0.029766772 -0.008135909 0.015070041
-0.058632392 0.032961804 0.073739864 0.009429242 -0.012579738 0.070645384 -0.009313203 -0.0024933505
0.017661802 -0.051496506 -0.017292542 -0.004612015 -0.009321654 -0.055968046 0.018960215 -0.011400047
-0.018647127 -0.030515302 0.046203002 0.031074801 0.0037280933 -0.01918871 0.0254012 -0.030561745
-0.035672598 -0.04288293 -0.00048370697 -0.03385585 -0.015689032 0.040268574 -0.0071214656 0.017300138
00000000: ebf3 533c 3ce1 873c 97f5 0fbd de46 adbc
00000010: 39f3 4abc 1cd3 8e3d 881b 203d 588a 4ebc
00000020: 7f0a 553c 44ef 113d 2503 6fbc fb3b 8ebd
00000030: 1034 6ebb baa1 e93c 9a38 153c e2b9 1bbd
00000040: e259 053d 5dc8 813c 5c7e 343d 4d4c 6cbc
00000050: afbf 48bc 631d 54bd dc43 ab3c 967f cabc
00000060: 6fca 0b3d b0bd 97bc 3a3f 623d 93b1 673c
00000070: 65e4 6cbd 72d9 f33c 7a4c 05bc 55e8 763c
00000080: 8528 70bd f502 073d ed04 973d 1c7d 1a3c
00000090: 3f1b 4ebc 87ae 903d 6896 18bc 7b67 23bb
000000a0: 7caf 903c 00ee 52bd 17a9 8dbc 6320 97bb
000000b0: dab9 18bc c03e 65bd 7452 9b3c 43c7 3abc
000000c0: dcc1 98bc 3afb f9bc 5c3f 3d3d 9590 fe3c
000000d0: 0753 743b a431 9dbc 2d16 d03c a05c fabc
000000e0: 6e1d 12bd 03a6 2fbd 0d9a fdb9 6fac 0abd
000000f0: 4986 80bc a9f0 243d 2f5b e9bb 05b9 8d3c

action_model._continuous_distribution.mu.bias f4 [2]
0.0 0.0
00000000: 0000 0000 0000 0000

network_body.observation_encoder.processors.0.normalizer.running_mean f4 [8]
-0.0044520204 -0.006850085 0.09665873 3.0069547 -0.07969348 0.130465 -1.1886737 -0.11417638
00000000: 41e2 91bb ae76 e0bb 03f5 c53d f271 4040
00000010: 5636 a3bd 9e98 053e 7626 98bf 4ed5 e9bd

network_body.observation_encoder.processors.0.normalizer.running_variance f4 [8]
90.07533 124.92711 13182.487 2560.206 15472.679 12293.42 11296.444 17270.6
00000000: 9226 b442 aeda f942 f3f9 4d46 4c03 2045
00000010: b7c2 7146 ae15 4046 c781 3046 33ed 8646

network_body.processors.0.normalizer.running_mean f4 [8]
-0.0044520204 -0.006850085 0.09665873 3.0069547 -0.07969348 0.130465 -1.1886737 -0.11417638
00000000: 41e2 91bb ae76 e0bb 03f5 c53d f271 4040
00000010: 5636 a3bd 9e98 053e 7626 98bf 4ed5 e9bd

network_body.processors.0.normalizer.running_variance f4 [8]
90.07533 124.92711 13182.487 2560.206 15472.679 12293.42 11296.444 17270.6
00000000: 9226 b442 aeda f942 f3f9 4d46 4c03 2045
00000010: b7c2 7146 ae15 4046 c781 3046 33ed 8646

network_body._body_endoder.seq_layers.0.weight f4 [32, 8]
-0.54108024 -0.075323716 0.16737922 0.33794728 -0.4513865 0.61782914 0.5678206 0.017673561
-0.089893766 -0.08197228 0.045391038 -0.08415612 -0.020019077 -0.029648282 0.0017605583 -0.09532126
0.14417146 -0.61555105 -0.2441686 0.52972186 -0.38495165 -0.06664401 0.045473866 0.1898861
-0.18282546 -0.11924985 -0.333931 -0.08177826 0.27210075 -0.4649824 0.020362636 -0.6298937
-0.23650177 0.22719139 -0.06950236 -0.62378573 0.49245164 0.34254706 -0.49230012 -0.16960143
-0.118125476 -0.014123105 0.51007754 -0.47665185 -0.23724191 0.11006966 -0.13705729 -0.6766181
0.4668157 0.24062473 0.25181702 0.3004853 0.4432465 -0.6661763 0.36449432 -0.58205193
0.33673394 -0.08660157 0.4409002 0.53599083 0.88855046 -0.6185633 0.20392591 -0.19440699
0.49936053 0.4733385 0.06265812 0.060138807 -0.28351405 -0.22025509 0.7262625 0.112872116
0.03786449 0.05227926 0.12716334 -0.81823623 0.17152017 0.15326773 0.28510332 -0.19664349
0.44757184 0.4795016 0.20175943 0.19283935 0.5627595 -0.15861411 0.1381934 -0.08495352
-0.27680933 0.28464514 -0.1512351 0.192408 -0.25284395 -0.30278897 0.36643818 -0.14195698
-0.57887137 -0.17359942 -0.50494206 0.5356595 0.06591183 0.6038665 -0.1175595 0.16813736
-0.7036562 -0.75271744 0.436924 -0.18249965 -0.23467852 0.4557634 0.05860987 -0.34698674
0.7456686 -0.24847476 -0.13736483 0.21583384 0.20025037 0.312257 0.37464187 -0.32585344
0.5605132 1.0903915 -0.5326243 -0.29146945 0.013787614 0.25890565 0.39441016 0.030192405
-0.18874672 -0.2899349 0.15670925 -0.14293317 0.21793368 -0.24364468 0.5487506 -0.5202813
0.735776 -0.0334597 0.39458704 0.098110236 -0.4724157 -0.28707027 0.354327 0.11666946
-0.19036327 -0.30955485 0.47432807 0.05939173 -0.18841906 0.2056356 -0.37118793 -0.07366781
0.17028499 -0.12346097 -0.46801305 0.26311955 -0.30739647 0.30493602 0.4808903 0.22089283
-0.02326997 0.37883097 -0.063241504 -0.5401212 -0.006627148 -0.36755422 0.49993524 -0.075660296
-0.16066836 0.13037083 0.25778148 0.5375064 0.2942147 -0.11964226 0.22519836 0.047220424
-0.09832878 -0.34461445 -0.01633979 -0.124638386 0.016493859 -0.18781753 0.0070696636 0.06104051
0.19492765 -0.25948352 0.35067898 -0.34763998 0.463346 0.4953304 0.38102376 0.34349996
-0.41721928 0.17739442 -0.365683 0.046773475 -0.11051404 -0.2690295 -0.09077777 -0.0059742597
-0.02312185 -0.026546095 -0.5567151 0.09140843 0.32274 0.22315672 -0.111574925 -0.0038950036
-0.06457872 0.20482709 0.19261682 -0.13601384 0.20630884 0.15363292 -0.282306 0.4335288
0.2799965 -0.318083 -0.20722327 -0.092208534 0.32195088 0.3570264 -0.008755431 0.6686507
-0.12818411 0.26768503 -0.32178777 0.54394436 -0.25031385 0.4342656 0.18741903 -0.67636514
0.50988626 0.25217238 0.032502394 -0.2376597 0.056585994 -0.05589034 -0.1308646 -0.2238824
0.46628538 -0.06458466 0.03671603 0.19777489 -0.06911334 -0.041528657 0.39106202 -0.36408103
0.35187748 -0.70724285 0.5349984 0.313436 0.4674257 0.2638458 -0.37736198 -0.07521695
00000000: 3c84 0abf 5243 9abd 7565 2b3e 6d07 ad3e
00000010: 221c e7be 0d2a 1e3f b15c 113f 25c8 903c
00000020: 391a b8bd 15e1 a7bd f4eb 393d 0b5a acbd
00000030: 0cff a3bc f4e0 f2bc 89c2 e63a cb37 c3bd
00000040: afa1 133e c194 1dbf 5507 7abe da9b 073f
00000050: 6218 c5be a87c 88bd ce42 3a3d 8071 423e
00000060: 9936 3bbe 4439 f4bd 01f9 aabe 5c7b a7bd
00000070: ca50 8b3e 2c12 eebe 8bcf a63c b740 21bf
00000080: 852d 72be dca4 683e 4157 8ebd 6cb0 1fbf
00000090: 9f22 fc3e 5462 af3e c30e fcbe ffab 2dbe
000000a0: c5eb f1bd 9964 67bc 7194 023f b60b f4be
000000b0: 8bef 72be 346c e13d bf58 0cbe d836 2dbf
000000c0: 7802 ef3e 5466 763e 29ee 803e 36d9 993e
000000d0: 35f1 e23e 888a 2abf 009f ba3e 5b01 15bf
000000e0: 6468 ac3e 2a5c b1bd acbd e13e b236 093f
000000f0: 0b78 633f 2a5a 1ebf f4d1 503e a012 47be
00000100: 2fac ff3e 6d59 f23e e752 803d 1c54 763d
00000110: c128 91be 8d8a 61be 57ec 393f 7f29 e73d
00000120: cc17 1b3d c722 563d 1b37 023e ee77 51bf
00000130: fca2 2f3e 37f2 1c3e 10f9 913e e95c 49be
00000140: 2328 e53e 3c81 f53e 069a 4e3e ae77 453e
00000150: 0211 103f bd6b 22be 9282 0d3e 1cfc adbd
00000160: f4b9 8dbe 02bd 913e 60dd 1abe 9a06 453e
00000170: c374 81be 2807 9bbe c99d bb3e 2c5d 11be
00000180: ea30 14bf 0cc4 31be e243 01bf fb20 093f
00000190: c8fc 863d ff96 1a3f 09c3 f0bd 332c 2c3e
000001a0: d022 34bf 17b2 40bf 81b4 df3e 30e1 3abe
000001b0: 914f 70be d259 e93e e710 703d 3fa8 b1be
000001c0: 23e4 3e3f 2b70 7ebe 5ea9 0cbe 8c03 5d3e
000001d0: 6f0e 4d3e 26e0 9f3e 0fd1 bf3e 43d6 a6be
000001e0: cb7d 0f3f f391 8b3f 115a 08bf 7c3b 95be
000001f0: 72e5 613c 488f 843e 21f0 c93e 1056 f73c
00000200: d246 41be 5972 94be 6478 203e 135d 12be
00000210: 022a 5f3e fe7d 79be eb7a 0c3f 2831 05bf
00000220: d15b 3c3f 0a0d 09bd 5007 ca3e 05ee c83d
00000230: 78e0 f1be e0fa 92be 596a b53e 66f0 ee3d
00000240: 97ee 42be f97d 9ebe 21db f23e be44 733d
00000250: edf0 40be 2492 523e 580c bebe 26df 96bd
00000260: 305f 2e3e 1bd9 fcbd 689f efbe 9bb7 863e
00000270: 1263 9dbe 9320 9c3e 4137 f63e bb31 623e
00000280: aaa0 bebc 22f6 c13e c384 81bd 6245 0abf
00000290: 8c28 d9bb 1130 bcbe 83f7 ff3e c9f3 9abd
000002a0: 3f86 24be ee7f 053e effb 833e 059a 093f
000002b0: 4fa3 963e 0007 f5bd 669a 663e 346a 413d
000002c0: 9960 c9bd 4e71 b0be 06db 85bc 6942 ffbd
000002d0: 211e 873c 3d53 40be a3a8 e73b 9d05 7a3d
000002e0: 1d9b 473e 06db 84be 328c b33e defd b1be
000002f0: b03b ed3e f29b fd3e 8c15 c33e 3adf af3e
00000300: c49d d5be e2a6 353e cd3a bbbe 8b95 3f3d
00000310: 2f55 e2bd 3cbe 89be b2e9 b9bd b9c3 c3bb
00000320: 096a bdbc 3277 d9bc e184 0ebf 5834 bb3d
00000330: 2d3e a53e 3283 643e 6581 e4bd 5143 7fbb
00000340: d941 84bd 31be 513e 583d 453e 3647 0bbe
00000350: a042 533e f351 1d3e 698a 90be 7df7 dd3e
00000360: b45b 8f3e c6db a2be 5632 54be d4d7 bcbd
00000370: bfd6 a43e 2acc b63e f072 0fbc b12c 2b3f
00000380: b242 03be 030e 893e 5ec1 a4be f03f 0b3f
00000390: 2329 80be 1058 de3e c6ea 3f3e 4426 2dbf
000003a0: e887 023f bd1c 813e 3b21 053d 105d 73be
000003b0: b7c6 673d 45ed 64bd 5f01 06be 6e41 65be
000003c0: f5bc ee3e f644 84bd 8c63 163d 8085 4a3e
000003d0: 4b8b 8dbd f419 2abd 4839 c83e d468 babe
000003e0: 4929 b43e de0d 35bf a8f5 083f af7a a03e
000003f0: 6c52 ef3e cc16 873e 9735 c1be 580b 9abd

network_body._body_endoder.seq_layers.0.bias f4 [32]
0.0 0.0 0.0 0.0 0.0 0.0 0.0 0.0
0.0 0.0 0.0 0.0 0.0 0.0 0.0 0.0
0.0 0.0 0.0 0.0 0.0 0.0 0.0 0.0
0.0 0.0 0.0 0.0 0.0 0.0 0.0 0.0
00000000: 0000 0000 0000 0000 0000 0000 0000 0000
00000010: 0000 0000 0000 0000 0000 0000 0000 0000
00000020: 0000 0000 0000 0000 0000 0000 0000 0000
00000030: 0000 0000 0000 0000 0000 0000 0000 0000
00000040: 0000 0000 0000 0000 0000 0000 0000 0000
00000050: 0000 0000 0000 0000 0000 0000 0000 0000
00000060: 0000 0000 0000 0000 0000 0000 0000 0000
00000070: 0000 0000 0000 0000 0000 0000 0000 0000

value_heads.value_heads.extrinsic.weight f4 [1, 32]
0.14996105 0.19763583 -0.40812057 0.3987189 0.10212076 -0.23223902 -0.17895062 -0.15146524
-0.14748943 0.26988548 -0.3729809 0.2445736 0.27004695 -0.40760082 0.02679333 0.258197
-0.40839556 0.05289921 0.25174707 0.18206298 -0.39497995 0.40101743 0.26719284 0.35557318
-0.14406174 0.1713363 -0.18157834 0.011121571 0.12354791 -0.19072004 0.28315288 -0.3337914
00000000: 648f 193e 0c61 4a3e 2ef5 d0be e224 cc3e
00000010: b024 d13d 11d0 6dbe d53e 37be b419 1bbe
00000020: 7807 17be 6e2e 8a3e 5af7 bebe 8071 7a3e
00000030: 9843 8a3e 0eb1 d0be b07d db3c 6632 843e
00000040: 3919 d1be d8ac 583d fee4 803e b86e 3a3e
00000050: d03a cabe 2852 cd3e 80cd 883e b00d b63e
00000060: ec84 13be c872 2f3e acef 39be 4037 363c
00000070: b006 fd3d 1d4c 43be 6af9 903e b5e6 aabe
