results/max-hiddenunits128-config2-2/3DBall/3DBall-100070.onnx (onnx, 45830 bytes, 4 tensors)

action_model._continuous_distribution.log_sigma f4 [1, 2]
00000000: cc83 63bd fa78 6bbd
-0.055545613 -0.05748842

action_model._continuous_distribution.mu.bias f4 [2]
00000000: 79ca e3bb b9ed 593b
-0.006951627 0.0033253266

network_body.processors.0.normalizer.running_mean f4 [8]
00000000: 48fc d63a 04a8 61b9 313f d9bd 315d 4640
00000010: b78b bc3c 552f 39bd 0817 29bf 685e f13b
0.001640209 -0.00021520263 -0.10607756 3.099438 0.02301584 -0.045211155 -0.6605077 0.0073659904

sqrt f4 [8]
00000000: 4635 933d bffe 913d 1848 853f d810 b33e
00000010: 698e 843f 2005 5d3f e9a3 843f 5b3d 5a3f
0.071878955 0.07128667 1.0412626 0.34973788 1.035596 0.86335945 1.0362521 0.8524987
