results/max-hiddenunits32-config2-1/3DBall/3DBall-49987.pt (torch, 86115 bytes, 56 tensors)

network_body.observation_encoder.processors.0.normalizer.running_mean f4 [8]
000000 69 7d 8a 3a 27 6d 5e ba 30 bc f9 3c e3 3c 44 40
       0.001056594 -0.0008484893 0.030485243 3.0662162
000010 ee a3 dc bc c0 58 52 3c ed 7e 80 bf 86 5e 42 bc
       -0.026933637 0.012838542 -1.0038735 -0.011863356

network_body.observation_encoder.processors.0.normalizer.running_variance f4 [8]
000000 85 22 cb 43 ab ef c9 43 17 7c 97 47 b9 fe 1c 46
       406.26968 403.8724 77560.18 10047.681
000010 e7 0b 96 47 27 a1 85 47 5c 77 78 47 66 9d 83 47
       76823.805 68418.305 63607.36 67386.8

network_body.processors.0.normalizer.running_mean f4 [8]
000000 69 7d 8a 3a 27 6d 5e ba 30 bc f9 3c e3 3c 44 40
       0.001056594 -0.0008484893 0.030485243 3.0662162
000010 ee a3 dc bc c0 58 52 3c ed 7e 80 bf 86 5e 42 bc
       -0.026933637 0.012838542 -1.0038735 -0.011863356

network_body.processors.0.normalizer.running_variance f4 [8]
000000 85 22 cb 43 ab ef c9 43 17 7c 97 47 b9 fe 1c 46
       406.26968 403.8724 77560.18 10047.681
000010 e7 0b 96 47 27 a1 85 47 5c 77 78 47 66 9d 83 47
       76823.805 68418.305 63607.36 67386.8

network_body._body_endoder.seq_layers.0.weight f4 [32, 8]
000000 1a d4 59 3e f4 0f 62 be 43 49 a3 bb 94 db 98 3f
       0.21272317 -0.22076398 -0.0049830987 1.194201
000010 60 52 9d be 01 3a a0 be 21 4b 17 bf a1 00 64 3e
       -0.3072691 -0.31294253 -0.5909901 0.22265865
000020 85 19 d4 be 87 d4 88 be ce d4 89 be f1 40 6f 3d
       -0.4142572 -0.26724645 -0.2692017 0.058411542
000030 53 34 b7 3e aa 54 45 3d c4 5e 1d 3f 02 91 01 3f
       0.35782108 0.048176445 0.61472726 0.5061189
000040 a9 ec ca 3e 31 c6 9f 3e 75 a0 14 bf f8 c6 6e be
       0.39633682 0.31205896 -0.5805734 -0.23318088
000050 ac e6 a2 3e 74 c0 ea 3d 57 c9 1a bf b5 05 6f 3d
       0.31816614 0.11462489 -0.6046347 0.058355052
000060 66 6e 4f 3d da ac 4e 3e 5b e1 4d 3e 90 4f a0 3c
       0.050642394 0.20183125 0.20105498 0.019569188
000070 ce db c3 3e 0d 5b 29 3f f8 7f 9d bd f6 53 1c be
       0.38253635 0.6615456 -0.07690424 -0.15266404
000080 f8 b9 92 be 56 07 da bb 81 77 56 3e 1c fa 3d 3f
       -0.28657508 -0.0066537065 0.20944025 0.7420976
000090 59 35 c1 bd 3c 3d a8 3e 44 03 a3 3e 1d 7c 22 be
       -0.094340034 0.32859218 0.3183843 -0.15867658
0000a0 ca 5d a7 bd 3e bd ae 3b 11 4d 1d 3e 0c 33 46 bf
       -0.08172186 0.005332618 0.1536143 -0.7742164
0000b0 1d 46 1c 3f eb 38 20 3e bc d1 a1 be b5 49 5b be
       0.61044484 0.15646712 -0.31605327 -0.21414836
0000c0 c1 63 7e be da 5a 9c be de aa 4b 3f bd c5 b9 3e
       -0.2484274 -0.30538064 0.795576 0.36283675
0000d0 f0 28 2e 3e e8 2d e6 3d c0 b4 54 be c4 20 55 be
       0.17007804 0.11239225 -0.20772076 -0.2081328
0000e0 fd fc 29 3f 05 ad cf be 8e e5 19 3e 32 af d0 3e
       0.66401654 -0.4056169 0.15028974 0.40758663
0000f0 31 32 f0 3e 36 1b 57 3e b5 af b7 be d8 02 d5 be
       0.46913293 0.21006474 -0.3587624 -0.41603732
000100 bb 45 83 be de a0 79 3e 3d ff 45 3e 17 1b c7 be
       -0.25639138 0.24377772 0.19335647 -0.38887855
000110 38 9e 02 bf e9 9e b8 bd a5 b6 48 be 9d 8d 20 3f
       -0.5102267 -0.09014685 -0.19600923 0.62716085
000120 52 bd 3d be 2a f2 c2 3e 6e 4d bb 3e d4 d4 b6 3e
       -0.18529251 0.38075382 0.36582512 0.3570925
000130 53 6c a0 be 0e fe 31 be 66 b0 60 bf bb 3c c3 bd
       -0.31332645 -0.1738207 -0.8776916 -0.09533068
000140 a8 0c 93 be ad bc 7b be 4a 93 be be 29 1c 63 3d
       -0.28720593 -0.24583693 -0.37221748 0.055446777
000150 cc 43 52 3e c6 23 3f 3e fa ee 24 be a1 6c 09 3f
       0.20533675 0.1866599 -0.16106787 0.5368138
000160 81 3f 69 3e 34 49 aa bc ea af f3 3d eb 21 7d 3d
       0.22778131 -0.02078686 0.11898787 0.061799925
000170 2c 1a 53 be 17 92 f2 be 59 7a ee 3d ce a5 4c bc
       -0.20615453 -0.47377083 0.1164443 -0.012490703
000180 45 c5 6c 3e ac c7 2a 3e ee 79 08 3f 54 ea fa bd
       0.23122127 0.16677731 0.5331105 -0.12251726
000190 27 01 6b 3d a9 29 23 3f 56 29 95 3e 92 d7 6d 3f
       0.057374146 0.63735443 0.291331 0.9290706
0001a0 d6 4c bf be 50 ee d4 3d 2b 35 75 3d b1 cf d5 3e
       -0.3736331 0.10397017 0.059865158 0.41760018
0001b0 dc af 1b be 3f ef bf be 0e b5 3b 3d 25 c1 10 3f
       -0.15203804 -0.37487218 0.045826964 0.56544715
0001c0 52 45 1f 3e 2a 9b 9f be 9e 5f 2c bd 36 20 05 bd
       0.15553787 -0.31173068 -0.042083375 -0.032501422
0001d0 2d 92 8d be fd 50 a3 be 6f dc 32 be 4c 34 2f 3e
       -0.27650586 -0.31897727 -0.17466901 0.17109793
0001e0 92 59 0c 3f b1 2e 6d 3e e5 74 f3 3d 67 85 a7 3d
       0.54824173 0.23162343 0.1188753 0.08179741
0001f0 86 05 d3 3d f0 d1 9e 3d 14 b3 0d be ae f4 81 3e
       0.10303788 0.07754886 -0.13837844 0.25381988
000200 7f 82 d9 bc 8d a7 24 3f 99 02 d3 bc 6b 1a 7b 3e
       -0.026551483 0.6431816 -0.025758075 0.24521796
000210 e7 de cf 3e 3e e4 24 3f 95 fb 24 bf 7e 3f 0b 3f
       0.40599748 0.6441077 -0.64446384 0.54393756
000220 e1 de 98 bd 24 79 4b be fe 37 1a bd 82 15 4e bf
       -0.07464386 -0.1987043 -0.037651055 -0.8050157
000230 02 a7 1d 3f 51 1c c1 be 1e 34 11 3e 66 d6 05 3f
       0.6158296 -0.37716916 0.14180037 0.5228027
000240 f7 dd b3 be d1 fa 97 bd 17 c5 0a 3f 86 3f 22 3d
       -0.35130283 -0.07420886 0.54206985 0.039611362
000250 f3 98 06 be 30 c5 0b 3f 34 20 a4 3d 83 0c bd bd
       -0.13144283 0.5459776 0.08013955 -0.09230902
000260 b1 0a 8a be d5 69 68 be a9 cf 2a 3e 6f f1 06 be
       -0.26961282 -0.22696622 0.16680779 -0.13178037
000270 73 e6 94 bd 32 a8 c9 3e e0 6f 42 3e 5d cd 04 bf
       -0.07270517 0.39386135 0.1898799 -0.5187586
000280 a2 39 11 be e4 83 c4 3e b1 20 4b bd 17 c0 1f 3e
       -0.14182141 0.38381875 -0.049591724 0.1560062
000290 67 14 27 3e 5e bd 82 3d 40 cc 2f be 79 25 98 3d
       0.16316377 0.06383775 -0.17167759 0.07429022
0002a0 4d 39 a5 be c8 cb ae 3d d0 8d 2a 3f 31 1f 27 3f
       -0.3227028 0.08534962 0.6662264 0.6528197
0002b0 6e 69 44 3f b4 95 07 be b2 44 1d be c1 5a 8a be
       0.7672337 -0.13240701 -0.15358236 -0.27022365
0002c0 0b a8 84 bd 2e 62 d6 bc c7 9c 1b 3e 8e b9 63 3e
       -0.06477364 -0.026169863 0.15196525 0.22238752
0002d0 2a 0a d7 3e fe 4d 22 3f 86 01 e5 3e db 3e 84 3e
       0.41999942 0.63400257 0.44727725 0.25829205
0002e0 9d 88 01 3f 93 42 bb be f9 e1 95 3e 3e 4c 1a 3f
       0.5059908 -0.3657423 0.29273966 0.60272586
0002f0 2e 61 b4 be 22 0f 4c bb df f5 77 3e b1 8b 83 bf
       -0.35230392 -0.003113695 0.24214886 -1.0277005
000300 11 cf ef be 7c f8 2c bf 73 5c 38 bf fd 8c 26 3e
       -0.46837667 -0.6756666 -0.72016066 0.1626472
000310 80 b9 d3 be c1 95 06 3f e9 7b 06 bf 1c db 11 3d
       -0.41352463 0.52572256 -0.5253282 0.03560935
000320 94 28 cb 3e af e5 3a 3e cb 3b e3 be c9 4c 07 bf
       0.39679396 0.1825168 -0.44381556 -0.5285154
000330 f1 cc 91 be fe a0 31 be ab 90 ff be 78 df 79 bc
       -0.2847667 -0.1734657 -0.4991506 -0.015251033
000340 6c dc bc be e0 1b 4a 3e 6e 1c 07 bf fd 1f 00 bf
       -0.3688692 0.19737196 -0.52777755 -0.5004881
000350 b8 b4 2e be 62 1f 6c be 65 06 92 bc 7f ba 9c be
       -0.17061126 -0.23058847 -0.017825315 -0.30611035
000360 40 cf a4 bd 59 bc b9 3d 50 fe b5 3e 64 c7 4c be
       -0.08047342 0.090691276 0.35545588 -0.19997936
000370 ab d2 1d 3b ef 77 9e 3d 31 66 c4 3e 04 6c 25 be
       0.0024081867 0.07737719 0.38359216 -0.16154486
000380 f1 37 a6 be 50 23 61 be 96 cb ff 3b a7 63 e1 3c
       -0.32464555 -0.21986127 0.0078062518 0.027513338
000390 23 bc 94 3d b7 ca 75 3e 09 c2 16 bf b2 67 49 be
       0.07262447 0.24003111 -0.58889824 -0.19668463
0003a0 e8 dc ee 3e cd 0c 75 3b 6a 7b d8 3e 19 5d 38 3d
       0.46652913 0.0037391663 0.42281657 0.04501066
0003b0 87 ee 75 3e 6b 0d 37 3f 42 f4 12 bd 54 03 c9 3e
       0.24016772 0.7150485 -0.035877474 0.39260352
0003c0 ed ab 74 3e dc 1b 12 bf 5b 22 0a 3f 6b be bd be
       0.2389371 -0.5707376 0.5395867 -0.3705934
0003d0 71 90 14 be ae ff 0b 3e c7 bc 3f be 92 ac cf 3d
       -0.14508225 0.13671753 -0.18724357 0.10140337
0003e0 81 30 06 be 77 88 e6 be 12 a0 d6 3e 36 68 95 3e
       -0.1310444 -0.4502599 0.41919 0.2918107
0003f0 2a ea b3 bd f8 d7 9b 3e aa e0 d0 be cd 84 8e be
       -0.087848976 0.3043821 -0.40796405 -0.27835694

network_body._body_endoder.seq_layers.0.bias f4 [32]
000000 6c 0d c0 3d 3e 24 2c bc ff 0c b1 3d 1b 25 9f bd
       0.0937756 -0.010506688 0.08645057 -0.07770749
000010 49 0c 97 bc 9f c0 a0 ba 51 dd f3 3c f6 9e 21 3c
       -0.018438475 -0.0012264437 0.029768618 0.009864559
000020 48 f4 0e bd 84 f1 78 3c 98 45 a8 bd 33 79 c0 3c
       -0.034900934 0.015194301 -0.08216399 0.023495292
000030 a7 43 d4 3c 13 7c 34 ba 58 ce 06 3d 23 e2 c4 3d
       0.025911165 -0.00068849436 0.03291163 0.09613445
000040 f0 cb d6 3d ac 5f a9 3c aa a1 6f 3d ee a5 29 3d
       0.10488117 0.020675503 0.058503784 0.04141801
000050 a9 33 77 3a 6f 2d 4e bc 17 45 c4 3c 67 8a 9b 3d
       0.000943 -0.012584074 0.023958726 0.075947575
000060 91 28 9a 3d c7 41 e9 bc 3a b9 6d bd 6e 28 80 3c
       0.07527269 -0.028473748 -0.058037974 0.015644278
000070 13 aa 33 bd 13 17 af bb 34 61 a6 3c fd 7b 27 3c
       -0.043863367 -0.005343327 0.020310022 0.010222432

network_body._body_endoder.seq_layers.2.weight f4 [32, 32]
000000 a9 45 f7 bd 37 5c 81 bd 01 5f 65 be 0c 5e bd 3d
       -0.120738335 -0.06316417 -0.22399522 0.09246454
000010 8a f7 73 3c 03 f5 d1 3d ee 21 c1 3e f3 c7 d5 bd
       0.014890561 0.102518104 0.377212 -0.10438528
000020 f7 53 b4 bd bb a7 ab be 2e 29 e2 3d aa 20 ed 3e
       -0.088050775 -0.33526406 0.11043011 0.46313983
000030 ab 26 08 be d3 7f f0 3d 7a 85 53 be c5 53 c3 bd
       -0.13296 0.117431305 -0.20656386 -0.09537462
000040 26 88 71 bd 62 dc 1a 3d 4b b9 a3 3d 1e ce 00 be
       -0.058967732 0.03780783 0.07994326 -0.12578627
000050 98 bc b8 bd b3 18 ae bc 11 7d 4e bd b2 70 6f 3e
       -0.090203464 -0.021252012 -0.05041224 0.23382834
000060 c3 66 af be a6 48 3e 3e 30 95 9f 3b f7 97 2d be
       -0.34258088 0.185824 0.0048700795 -0.16952501
000070 ed 26 06 be 74 f0 e9 3d d5 28 78 3e 24 e0 7b 3d
       -0.13100787 0.11422816 0.24234326 0.061493054
000080 ba c8 be 3e eb a8 2b be ff e2 c1 3d 14 89 d0 3d
       0.37262517 -0.16763656 0.09467124 0.101823956
000090 40 50 46 bd d6 a6 41 bd 26 e6 c5 be b2 a8 de bc
       -0.048416376 -0.047278248 -0.38652152 -0.02718005
0000a0 59 20 a0 be 3d 72 91 be 47 98 bf bd 86 09 3b 3e
       -0.3127468 -0.2840747 -0.093552165 0.18265352
0000b0 ea d4 a4 be d7 9f 76 be b7 86 a2 3d 45 9f ce 3c
       -0.3219369 -0.24084412 0.07935851 0.02522243
0000c0 c5 8e 4e bd 80 ce dc bc 0a e2 db be 97 3f ba bd
       -0.050429124 -0.026953936 -0.42945892 -0.0909416
0000d0 9b 0a 4e be 73 33 6c be 6a c5 a3 be aa bf f2 3d
       -0.20121233 -0.23066501 -0.31986552 0.11852963
0000e0 10 e4 10 3b dc 7a e4 ba fb ce ef be b8 1c dc 3d
       0.0022108592 -0.0017431634 -0.468376 0.10747665
0000f0 62 16 32 be e4 26 17 3d b7 97 ba 3d 65 4a ba bb
       -0.17391351 0.036902323 0.091109686 -0.005685138
000100 ab b1 83 3c c7 01 db 3c 36 13 6c 3e 43 e1 d6 3d
       0.01607593 0.026734246 0.23054203 0.10492184
000110 6b da d3 3e a6 a9 8c bc a2 58 4f 3d 39 6a 43 bc
       0.41377577 -0.017170738 0.050621636 -0.011927181
000120 0c f5 41 3e 1f 2d 91 3d 79 33 79 be 06 4a ed bd
       0.18941134 0.07088684 -0.24336042 -0.115863845
000130 1f 25 98 be 44 b7 a9 3c e7 b0 b7 3d ec 4d 50 be
       -0.2971582 0.02071727 0.08969288 -0.20342225
000140 02 66 f1 3d a7 83 8d be d5 9a 2f be bd 26 8d bb
       0.117870346 -0.27639505 -0.17148907 -0.0043075965
000150 64 36 09 be a8 1a 0b 3d b7 9a d5 3e 2e d7 8a be
       -0.13399655 0.03396097 0.417196 -0.27117294
000160 09 1d c0 bd 6c 4d ab bd 8c 21 09 3e c8 90 f2 bd
       -0.09380538 -0.083643764 0.13391703 -0.11844021
000170 6d 27 aa 3d ba 70 9c 3e 79 c5 c1 be 93 8d 80 bd
       0.08308301 0.30554754 -0.37845972 -0.06277003
000180 59 07 66 bd f3 68 8a 3e 09 53 3a be a5 96 55 bd
       -0.05615935 0.27033195 -0.18195738 -0.05214562
000190 85 37 2d bd 04 c9 0e be 12 1a 12 3d 0d c5 1a bd
       -0.042289276 -0.13943869 0.035669394 -0.03778558
0001a0 dd 7d 4b 3e 88 bb 3b 3e d4 f0 b4 3d 9a 49 05 3e
       0.19872232 0.18333256 0.08834997 0.13016358
0001b0 f4 1f 2f be a2 c7 46 bd 0f a7 1b be b9 b7 14 be
       -0.17102033 -0.04853023 -0.15200447 -0.1452321
0001c0 e1 d0 bb bd d9 4b c6 be ab a5 5e 3e e7 e8 ac 3d
       -0.091707 -0.38729742 0.21742885 0.0844286
0001d0 3a c0 c1 3d 89 f4 41 be 05 d8 6f 3e 19 cf 75 3e
       0.094604924 -0.18940939 0.23422249 0.24004783
0001e0 eb 21 41 3e 9a aa 91 bd 68 0b 08 3e 32 6f a7 3e
       0.18860595 -0.07112618 0.13285601 0.32702023
0001f0 cf b3 9e be 53 ca cd 3d c9 4a e2 3d 90 c2 40 3d
       -0.30996558 0.10048356 0.110494204 0.04706055
000200 80 66 06 3e 36 8f 35 3e 28 22 95 be 1f 13 ed bc
       0.13125038 0.17730412 -0.29127622 -0.028939782
000210 73 5d b6 bd 20 a0 9e bc 60 cb 5b 3d 2e 76 43 bd
       -0.08904543 -0.019363463 0.05366075 -0.047720127
000220 92 b3 29 bd 13 7f 7d be 77 f4 38 b9 3a 11 00 3e
       -0.041431017 -0.24755506 -0.00017638678 0.12506571
000230 f1 ac 49 be a2 fd 22 bd c3 2e f6 3d dc 0d 30 be
       -0.19694878 -0.039792664 0.12020638 -0.17192787
000240 ee 43 c7 be 11 7a 52 3c 21 8a 8a 3d f6 89 62 be
       -0.38919014 0.012846486 0.06764627 -0.2212294
000250 89 af 48 bd 4f c0 8b bd 8e 40 52 be 3c 37 1f 3d
       -0.04899553 -0.06823789 -0.20532438 0.038871035
000260 20 c3 9a 3d 95 66 f5 3d 5f 05 0b 3e 8b 22 77 3e
       0.075567484 0.119824566 0.13576268 0.24134271
000270 ad f3 65 3d 9f 11 95 be a0 83 0e 3e 2e bc 2f be
       0.05614059 -0.29115006 0.13917398 -0.17161629
000280 54 fa 06 3e 27 07 8d 3e 0e 1a a7 bc 67 83 df 3c
       0.1318143 0.2754452 -0.020398166 0.027284337
000290 4e a0 7f be b1 f5 12 be 9c b8 94 3e ac b7 55 be
       -0.24963495 -0.14351536 0.29047096 -0.20870847
0002a0 6e dc 69 bc 27 b7 96 3d a9 2e 11 3e 1f aa 43 3e
       -0.014273746 0.07359152 0.14177956 0.19107865
0002b0 fd d5 de bd ec ca 23 be dd 11 b4 bd 2d 3c f4 bd
       -0.10880659 -0.15995377 -0.0879247 -0.1192554
0002c0 be 41 0d 3e af 40 33 3e ff 9f b7 3d c3 1a 35 3d
       0.1379461 0.17505144 0.08966064 0.044214975
0002d0 8c a0 33 3e 41 38 6f 3c 5f e7 98 bc 23 b5 c0 bd
       0.17541713 0.014600814 -0.018665014 -0.09409549
0002e0 f1 ac 3b 3d c0 a4 12 3e 97 c5 ab bd 6b b7 07 be
       0.045819227 0.1432066 -0.08387297 -0.13253562
0002f0 eb 3b 61 be 41 1c b7 bd d3 20 d2 be ec 8a 13 bd
       -0.21995513 -0.08940936 -0.41040668 -0.036021158
000300 c7 ac ef be f1 a1 68 3e dc a6 ea bd 59 68 e3 bd
       -0.46811506 0.22718026 -0.11457607 -0.11103887
000310 f6 43 fa bc 20 61 25 3e d3 70 37 3d dd 51 aa be
       -0.030549984 0.16150331 0.044785332 -0.33265582
000320 a1 10 16 be b6 b0 49 bb 83 9e 18 bd 44 1f fa be
       -0.14654781 -0.0030775494 -0.037260544 -0.4885198
000330 10 e3 f2 3e 99 33 5d 3e 43 d3 0e 3c db 97 ac be
       0.4743886 0.21601714 0.008717361 -0.33709607
000340 16 4c 52 3e 87 7d 8c 3d d5 19 ee 3c 0b 63 4f 3e
       0.20536837 0.0685988 0.029065052 0.20252626
000350 f1 87 0b 3e 27 ef 5c 3a 84 34 62 bd d9 48 bc bd
       0.13626076 0.00084279705 -0.055225864 -0.09193582
000360 19 d9 34 bd 79 54 8b be a0 5a 85 3d 8b b7 1d 3e
       -0.044152353 -0.27212885 0.06511426 0.15402047
000370 91 43 d0 bd d3 93 2b bd 31 02 3a be 30 8c 83 bc
       -0.10169137 -0.041889023 -0.18164898 -0.016058058
000380 86 0e 04 3e cb 4c 42 3e c5 ae f4 bd b3 be 6e bd
       0.12896165 0.18974607 -0.11947397 -0.058287334
000390 07 b0 8b be 5e bb 43 3e 4d ab 47 3e c8 cd 48 bc
       -0.27282736 0.19114444 0.1949894 -0.012256093
0003a0 d1 7b 07 bc 2b c0 8c 3e 75 20 61 3e 4f 4d 28 3d
       -0.008269266 0.27490363 0.21985038 0.041089352
0003b0 93 03 12 3e 78 67 57 be 66 1c a6 3d 1b b6 5a 3d
       0.14259176 -0.21035564 0.08110885 0.053396326
0003c0 dc 0e 1d 3c 0f c5 34 bd 04 59 0f 3c a3 21 af 3e
       0.009586062 -0.044133242 0.00874925 0.3420535
0003d0 88 c5 a2 3e 29 ee ec bd 54 0e 37 3e b2 06 cf 3d
       0.3179133 -0.11568863 0.1787656 0.10108699
0003e0 5f b7 bb 3d ab 1b 9b 3e 8f bd fd 3d 36 a4 89 3d
       0.09165835 0.30294546 0.12389671 0.06720774
0003f0 b0 f8 af 3d c2 cd 91 bc 36 df 2f 3d 34 8f 8c 3e
       0.08592355 -0.017798308 0.04293748 0.27453005

network_body._body_endoder.seq_layers.2.bias f4 [32]
000000 ac 6b 0c bc 07 8a 97 3d a1 d4 a5 3d 0f 7b 44 3d
       -0.008570593 0.073993735 0.08097196 0.04796892
000010 b9 10 95 3c 9c f8 2a 3d 7f 17 26 3d eb 3c db bc
       0.01819645 0.041741 0.04054975 -0.026762446
000020 83 91 07 3d 17 55 d5 3c 32 f6 54 bd 4e 3b 77 bb
       0.033097755 0.02604155 -0.051992603 -0.0037724557
000030 8e 0b 50 3d e8 5b f2 bb 68 cd f4 3c c6 2f 15 3d
       0.05079227 -0.00739621 0.029883102 0.036422513
000040 28 6c 25 3d c0 23 b9 3b 4f 01 f6 3c 96 73 69 3d
       0.04038635 0.0056500137 0.03002992 0.056994997
000050 5e 1b 0f 3d 8a dd 1e 3d f6 93 7c 3d 2c 4b 9a 3c
       0.03493821 0.038785495 0.061664544 0.018834673
000060 bc 4b 16 3d a3 6a 16 bc 83 96 29 3d 1a 3c 57 3d
       0.03669332 -0.009180698 0.041403305 0.05254755
000070 c7 3d e5 ba 47 99 23 3d de 9c 4b 3d 32 e1 39 3d
       -0.0017489725 0.0399411 0.049710147 0.04538078

network_body._body_endoder.seq_layers.4.weight f4 [32, 32]
000000 ad 22 c0 be 0f b6 89 be c9 f6 53 bd 57 ef 38 be
       -0.37526456 -0.26896712 -0.051749025 -0.18060051
000010 a9 ab 37 be 00 84 94 be 6b ce fd bc 7c cd 1a 3e
       -0.17936577 -0.29006958 -0.030982217 0.15117449
000020 da 2c c0 3d 6b 52 ed 3d 92 59 51 3d 67 db 21 be
       0.09383555 0.115879856 0.05111081 -0.15806352
000030 22 b3 82 be 67 48 39 bd a3 f6 1e 3e 27 e2 0c 3e
       -0.25527292 -0.045235064 0.15523772 0.13758145
000040 51 10 9d 3e 0d 36 e3 bd 73 23 27 3e 63 8f e5 3d
       0.3067651 -0.11094294 0.16322117 0.112089895
000050 b6 5f 3e 3e f8 dc 98 be 10 50 12 bc 6e dc 8e be
       0.18591198 -0.29856086 -0.008930221 -0.2790255
000060 a8 57 ba bd 08 17 0c be 45 ab 9c 3d 4d 60 91 bd
       -0.0909875 -0.1368066 0.076498546 -0.07098446
000070 5d 46 be be 0b 56 69 bd 0d 04 3b bd 85 94 cd 3d
       -0.37163058 -0.056966823 -0.04565816 0.100380935
000080 a3 28 dd bd 48 0f 08 be 7d 4f a7 3d 9d 12 46 3e
       -0.107987665 -0.1328708 0.08169458 0.19343038
000090 c9 1d 87 3d cc bd 49 be 0a a8 64 3e 21 d4 3c 3d
       0.06597478 -0.19701308 0.22329727 0.04610074
0000a0 95 ad 81 3d 00 1a 5b 3c 0d 55 7d 3d 84 ac 87 3e
       0.06331936 0.013372898 0.06184869 0.26498806
0000b0 9f 68 e4 3d 3f 38 8a 3d 0f 65 85 bc 6f 7c 57 be
       0.111527674 0.06749009 -0.01628354 -0.21043561
0000c0 5c 87 95 be 20 75 11 3e 41 38 80 3e 8a e4 f7 be
       -0.29204834 0.14204836 0.25042918 -0.4841655
0000d0 a4 9a e2 3b 62 79 82 be 00 ee 1b 3d 13 63 d2 bd
       0.0069154073 -0.25483233 0.03806877 -0.10272803
0000e0 40 da a4 bb 69 ed 86 3d 55 87 2a be f4 15 c4 bd
       -0.0050309002 0.06588251 -0.16653188 -0.095745
0000f0 db 0d 17 3d d4 21 be be dd e8 a8 bb 49 5b 7a 3e
       0.036878448 -0.37135184 -0.0051547126 0.24448885
000100 c5 a6 0b be a0 51 8a be e7 09 be 3e 01 89 52 3e
       -0.13637836 -0.270154 0.3711693 0.20560075
000110 a3 db 45 3e 76 8f b8 3d d0 cc 9d 3d 1d e1 4b 3c
       0.19322066 0.09011738 0.077050805 0.012443808
000120 a4 04 a1 be 80 69 b6 3c 9e 2f 0b 3e 80 35 82 3e
       -0.31448853 0.022267103 0.13592383 0.25431442
000130 9a f1 50 3e 5c 3b 7b be dd e7 8d 3c a9 30 1f be
       0.20404664 -0.24534363 0.017322475 -0.15545906
000140 e2 75 15 be 6f 63 ef bd a9 0e 16 be b7 5e e9 bd
       -0.1459575 -0.11688887 -0.1465403 -0.113950185
000150 b7 99 38 3d 83 68 21 be 53 82 03 be 90 2d 31 be
       0.04506847 -0.15762524 -0.12842683 -0.17302537
000160 c8 8d d6 3d 3f 00 8e 3e 39 a9 ee bd 76 40 98 bc
       0.104762614 0.27734563 -0.116533704 -0.018585425
000170 8a ac 23 be e2 8f 31 3e 62 ac ee bd 0e 82 6d bb
       -0.15983787 0.17340043 -0.11653973 -0.0036240849
000180 41 71 20 be 0b 70 a3 3b af ba bc bd 50 57 46 be
       -0.15668203 0.004987722 -0.092152946 -0.19369245
000190 c0 60 a5 3e 4b 05 33 3d 53 e2 62 3e f0 f2 8d be
       0.32300377 0.04370622 0.22156648 -0.2772441
0001a0 52 28 8a bd 11 ea ea bd 97 63 d0 bd cd c6 f7 be
       -0.06745972 -0.11470426 -0.10175245 -0.4839386
0001b0 83 da c4 be 36 0f a7 3c f2 5f a1 be 9d 14 68 bb
       -0.3844796 0.020392995 -0.31518513 -0.0035412677
0001c0 55 e2 99 bd 77 0f f3 bd b4 fa 24 3e 85 04 8c bd
       -0.075138725 -0.11868184 0.1611126 -0.068367995
0001d0 95 87 ac 3d 8a 2b 95 3e a5 c5 1b bd c9 60 c5 3e
       0.08424298 0.2913478 -0.038030285 0.38550404
0001e0 3a cb 87 3e ee 1d ee bd 48 65 0a 3e c5 03 5e 3d
       0.26522237 -0.116268024 0.13515198 0.054202814
0001f0 90 26 a2 bd b9 17 b2 bd 56 00 7b bd 33 99 c2 bd
       -0.079175115 -0.08695931 -0.061279617 -0.09501877
000200 43 e7 b8 3d 6b e8 04 bd 5c ec 0c 3d 88 7c 90 3e
       0.09028485 -0.032448214 0.034405097 0.2822001
000210 cc aa 58 3d 88 ad 62 bd 92 5d 80 be a6 4b 9d bd
       0.05289726 -0.055341274 -0.25071388 -0.076804444
000220 69 81 6f be a3 18 76 bc 69 06 47 3e 72 71 e7 bd
       -0.2338921 -0.015020522 0.19436039 -0.11300935
000230 7f 95 10 be bc 0e 96 3e 0f b1 b1 bd 25 ec 2c 3e
       -0.14119528 0.29308116 -0.08676349 0.16886957
000240 29 43 0d 3e af ac ff bd 58 31 56 3e 6f 90 43 3d
       0.13795151 -0.12484109 0.2091726 0.047745164
000250 79 84 89 3d 41 84 92 3e f9 3b 3d 3e 4a 55 eb 3e
       0.0671472 0.28616527 0.18479909 0.45963508
000260 ac 74 c0 3d 81 1c 9e 3e 77 fb 86 3c c3 f3 8a 3e
       0.093972534 0.30881122 0.01647733 0.271391
000270 59 0d 20 bb 35 0f 98 3d f6 26 a0 3d 04 e9 34 be
       -0.0024422018 0.074247755 0.07819931 -0.17667013
000280 67 1e 42 3e 88 6f c9 3e ab d6 99 3d 99 6b 44 3e
       0.1895691 0.39342904 0.07511648 0.1918167
000290 e6 24 a9 3e 1c c1 90 3e 2c bd 41 be 19 dd cd be
       0.33035964 0.2827233 -0.1891982 -0.40207747
0002a0 0c fa 8c be 6c 0f 2b 3c 7d aa 25 be 96 ef 04 be
       -0.2753452 0.010440689 -0.16178317 -0.1298202
0002b0 ae 49 5c 3d 9c 28 3f bd d9 b9 6c 3e f9 8b a8 be
       0.053781204 -0.046669587 0.2311777 -0.3291929
0002c0 9f d9 00 bd cb ef ce be ac 8e ad 3e 05 ab 37 be
       -0.03145754 -0.40417323 0.33897913 -0.17936333
0002d0 a5 72 91 3e be 2e 24 bf cb 8a ab bd 2b cc 45 3c
       0.2840778 -0.6413382 -0.08376082 0.012072603
0002e0 e9 51 88 3e d3 62 81 be 15 31 c6 bd 46 28 5a 3e
       0.26624992 -0.2527071 -0.096773304 0.21304426
0002f0 d1 a4 49 be fb fc a5 3d e3 f2 b7 be 19 1f f7 bd
       -0.19691779 0.08104893 -0.35927495 -0.12066478
000300 65 48 a1 3e 34 aa a9 3d d1 f7 90 3e 55 5f 2b 3e
       0.31500545 0.08284417 0.2831407 0.16735585
000310 da 07 ae be b8 df a3 3e 31 b3 82 3e 30 d0 48 3e
       -0.33990365 0.3200662 0.25527337 0.19610667
000320 d8 5a fe 3c a9 a7 89 3d 83 b6 90 bc cb 37 04 bd
       0.031049177 0.06721432 -0.017665153 -0.03227977
000330 1a f0 7f be 1c 3a 4b be ee c2 91 bd 8a d6 1f be
       -0.24993935 -0.19846386 -0.07117258 -0.15609184
000340 1f e7 81 3d 69 f0 b1 3e 50 e5 4b 3e c9 00 8e 3e
       0.06342911 0.3475373 0.19911695 0.27734974
000350 31 11 ff 3d 05 44 13 be 54 ce f6 bc 2f 47 a1 bd
       0.12454451 -0.14381416 -0.030127682 -0.07874905
000360 19 47 5c bd b0 78 98 bd 38 cc af bc 0f b4 01 bf
       -0.05377874 -0.07444894 -0.021459684 -0.5066537
000370 40 2e 87 3c 8e 2a b3 be 11 d6 70 3e d6 2d 90 bd
       0.016501546 -0.34993404 0.2351916 -0.070399925
000380 92 49 48 be c3 7a 8b bd bb a0 1f be dd 99 83 be
       -0.19559315 -0.06810524 -0.15588658 -0.25703326
000390 be b4 9e 3c 62 5f c5 bd 07 7c 83 bd 5d 87 8e be
       0.019373294 -0.096373335 -0.06420141 -0.2783765
0003a0 5a 94 85 bc 9f b0 91 be 82 54 dc bd 77 35 6f 3d
       -0.016306091 -0.28455064 -0.10758306 0.058400597
0003b0 e9 7e 2e 3c 08 f3 bd bd 7b 24 ac be dc 8c b1 3c
       0.010650375 -0.0927487 -0.33621582 0.021673612
0003c0 a5 05 74 be 17 66 4c 3e 78 65 95 bd 44 f6 16 3e
       -0.23830278 0.19960819 -0.07294744 0.1474238
0003d0 f0 d6 44 be dd 01 2c 3e 95 19 30 3e 69 47 a6 3b
       -0.19222617 0.16797586 0.17197259 0.0050744307
0003e0 c1 9e f9 bc 6f 41 4e be 46 2f fe 3d 2f aa 43 bd
       -0.030471208 -0.20142148 0.124113604 -0.04776972
0003f0 24 ae 73 3d 02 77 a7 bd 2c 8f 08 3e 08 bf b8 3e
       0.059492245 -0.08176996 0.13335866 0.36083245

network_body._body_endoder.seq_layers.4.bias f4 [32]
000000 6e d9 73 3c 22 b7 0b 3c e6 17 81 3c 0b be ad ba
       0.014883382 0.008527549 0.015758466 -0.001325549
000010 34 32 3f 3c 95 a8 3e 3d 8b 92 7b 3c ec 70 04 3d
       0.011669684 0.04654749 0.015354763 0.032334253
000020 37 66 e8 3c bd 45 28 3d ad 60 6f 3c 53 2d 9a 3c
       0.028369052 0.041082133 0.014610452 0.01882044
000030 45 64 e8 bb 9e 8f aa bb 09 8a df 3c 46 88 82 3c
       -0.007092031 -0.005205109 0.0272875 0.01593412
000040 58 26 d8 3c 8e cc 69 3c 64 87 4a 3c e4 c6 93 3c
       0.026385471 0.014269961 0.012361381 0.018039174
000050 db de c9 3c 58 31 cc 3b cd ae 9d 3c 76 a2 a1 3c
       0.024642399 0.006231468 0.01924839 0.019730788
000060 1a 96 d1 3c 05 39 b2 ba 79 3b 0d 3c 9a b6 cd ba
       0.02558427 -0.0013597315 0.008620136 -0.0015694678
000070 1c b2 a4 3c 78 42 3a 3d 56 f3 e9 3c 2f 18 cb 3c
       0.02010446 0.045473546 0.028558414 0.024791805

action_model._continuous_distribution.log_sigma f4 [1, 2]
000000 ff 2f d8 bc e3 a5 fd bc
       -0.026390074 -0.03096289

action_model._continuous_distribution.mu.weight f4 [2, 32]
000000 0c 79 90 3d 09 26 db 3d 8a a3 1e 3e b2 64 23 bd
       0.07054338 0.10700614 0.15492073 -0.039890952
000010 44 d8 9d bd 45 32 4f 3c 6d 12 f1 bb e0 65 ed bd
       -0.07707265 0.0126462625 -0.007356933 -0.11591697
000020 94 2f c3 bd b4 26 d2 3b 32 a1 02 3e 85 62 94 bd
       -0.09530559 0.006413305 0.12756804 -0.072453536
000030 a9 82 3b 3d 5e 48 3e bc 53 57 8b bd 8b 3f df bd
       0.045778904 -0.011613933 -0.06803765 -0.10900792
000040 63 d3 f4 bd 9b 03 69 3d 33 f0 0a 3e 23 14 69 3d
       -0.11954381 0.056888204 0.13568191 0.05690397
000050 1e 62 b8 3c 54 bb a9 3d a8 87 4d 3c e6 65 ab bd
       0.022507723 0.08287683 0.01254455 -0.08369045
000060 d3 5d fc bc 70 8c 90 3d a0 23 63 bc 2f a6 1a 3c
       -0.030806458 0.07058036 -0.013863474 0.009439035
000070 cf 50 b0 bd 05 e8 10 3e 89 48 c2 bc 43 60 9f bd
       -0.08609163 0.14151008 -0.023716228 -0.07782032
000080 55 13 60 3c 0a 25 93 bb 7d d4 4f 3d 92 27 c7 38
       0.013676484 -0.0044904994 0.050739754 9.49643e-05
000090 b5 f9 61 bc ce 5d 1e 3e a2 b3 f9 bc c8 29 97 bd
       -0.013792445 0.15465471 -0.030481163 -0.07381016
0000a0 86 29 98 bc f1 75 fe bd 5a 89 56 bd 84 97 a7 3d
       -0.018574487 -0.12424839 -0.052377082 0.08183196
0000b0 de 44 f0 3c bc 19 80 bb 71 be 6b bd ec 61 06 3d
       0.029329713 -0.003909318 -0.057554666 0.03280823
0000c0 24 f5 6f 3d b8 70 a9 3d da 78 9a 3c b5 37 fb 3b
       0.058583394 0.082734525 0.018856455 0.007666553
0000d0 71 86 93 bd 1a a5 a3 3d 00 a3 1b 3e 9a df 9b bd
       -0.07203377 0.07990475 0.15198898 -0.07611008
0000e0 7b e2 a8 bd a9 83 1c bd e6 41 93 3d d7 7a 8e bb
       -0.08246323 -0.0382115 0.071903035 -0.0043481397
0000f0 c0 16 0f 3c 31 56 d8 bd 19 d8 b8 3d de ce 77 3d
       0.008733451 -0.10563315 0.09025592 0.06050002

action_model._continuous_distribution.mu.bias f4 [2]
000000 1b 2f 9c bb e0 63 4a bc
       -0.0047663576 -0.012352914

exp_avg f4 [32, 8]
000000 fa 1a 76 38 5e ea 37 3a d2 89 26 ba b0 98 9c 39
       5.8676094e-05 0.00070158194 -0.0006352934 0.000298684
000010 4d a3 36 b7 29 e9 ac b9 2f a5 1d 3b 58 90 d4 b8
       -1.0886067e-05 -0.00032980114 0.0024054756 -0.00010135834
000020 e4 46 b3 b8 3c 6c 13 b9 0c 22 b3 39 8e e8 a0 b7
       -8.5485895e-05 -0.00014059333 0.00034166907 -1.9181778e-05
000030 66 19 e6 b9 2d e4 b6 39 56 72 26 b9 f9 0d f7 b7
       -0.00043887942 0.0003488375 -0.00015873587 -2.9451201e-05
000040 7c 15 9a 39 97 da 00 b9 ee 03 c8 b9 02 b1 ba b9
       0.00029389176 -0.00012288462 -0.000381499 -0.00035608566
000050 5f 38 07 ba 78 26 15 ba a3 63 2d 3b e1 40 79 b7
       -0.0005158241 -0.0005689631 0.0026457093 -1.4856662e-05
000060 4e 51 5f 38 35 f9 72 37 eb 0e 10 38 53 c4 7d 39
       5.3243064e-05 1.4482347e-05 3.434617e-05 0.00024201097
000070 d1 46 f3 38 cb e7 37 b9 01 49 af b9 da f7 ba 38
       0.000116003335 -0.0001753859 -0.00033432993 8.915337e-05
000080 ff 61 99 b8 4b d1 83 b9 fe 6e 08 b8 fe 53 19 b9
       -7.313862e-05 -0.00025142203 -3.2528296e-05 -0.00014622507
000090 35 3f c9 39 de c9 b6 39 a1 79 69 ba d4 f1 c3 38
       0.000383848 0.00034864148 -0.0008906369 9.3433686e-05
0000a0 eb 97 ed 38 23 01 e0 38 a9 1f fd 38 52 1c 95 39
       0.000113293376 0.00010681364 0.00012069877 0.00028440595
0000b0 5c c0 7e 38 b0 12 08 38 cf be 45 ba 6f 56 ce b8
       6.0737468e-05 3.244233e-05 -0.00075433863 -9.838945e-05
0000c0 41 c4 28 ba 66 d9 76 ba b8 b7 2a b9 ba a6 c3 39
       -0.00064379355 -0.000941655 -0.00016280904 0.0003731752
0000d0 d9 83 ff 39 46 cd db 38 9b 45 e1 ba 52 8e d3 b8
       0.00048735624 0.00010480969 -0.0017186882 -0.00010087773
0000e0 b9 0a 5b 39 95 03 8e b6 a0 f1 09 ba 76 e3 d7 b8
       0.00020889462 -4.232347e-06 -0.000526214 -0.00010294367
0000f0 75 fa 23 39 31 0a c9 b8 45 3b 3b 3a e2 65 2e b9
       0.00015638194 -9.586325e-05 0.0007142316 -0.00016631887
000100 4c f5 4d b9 34 79 42 b9 76 af 0e b9 00 a0 22 b8
       -0.00019641704 -0.00018546433 -0.0001360754 -3.877282e-05
000110 22 9a d6 39 41 d4 19 38 fe 1e a5 b9 a7 e8 62 38
       0.000409321 3.667572e-05 -0.00031494343 5.4099273e-05
000120 3b 23 41 39 9d 23 df b9 ed 8c 21 39 cb 96 d4 39
       0.00018419039 -0.00042560408 0.00015406655 0.0004054814
000130 ff 77 e2 39 1d ce e7 b8 da 8a 97 ba f3 7b 84 39
       0.00043195483 -0.0001105333 -0.0011561767 0.0002526935
000140 b2 5b 7b b8 d0 a6 7d 39 30 b4 b2 37 c1 6f f0 37
       -5.992846e-05 0.00024190103 2.130316e-05 2.8662269e-05
000150 29 ea 1c 39 00 35 21 39 3e 73 3e ba e0 e3 34 b9
       0.00014964551 0.000153739 -0.0007265097 -0.00017251028
000160 7d 47 59 39 2d 65 b2 39 e9 64 34 b9 58 58 bf b7
       0.00020721364 0.00034026187 -0.0001720373 -2.2810113e-05
000170 d5 c4 cd 38 74 a1 cf 38 30 a7 36 3a f3 19 07 b9
       9.8118246e-05 9.900602e-05 0.0006967662 -0.0001288427
000180 e7 54 14 39 e9 60 7f ba 23 bd 85 3a 36 21 1a 3a
       0.00014146008 -0.0009741919 0.0010203462 0.00058795826
000190 c2 10 63 ba 55 56 63 b8 c6 81 e0 b9 18 5f 6e 39
       -0.000866186 -5.420142e-05 -0.00042821298 0.00022732874
0001a0 f5 96 de b8 3e 10 00 ba f2 5c a4 b8 37 4c 2b 39
       -0.00010613903 -0.0004885233 -7.837442e-05 0.00016336223
0001b0 08 7a ff b9 71 7a af b9 ae 08 ba 38 04 40 9b 39
       -0.0004872831 -0.00033469827 8.870788e-05 0.000296116
0001c0 3b 9d d6 38 77 c6 1b 39 fb 2f 58 b9 12 91 cc b8
       0.00010233602 0.00014855886 -0.0002061724 -9.7544995e-05
0001d0 d0 17 b7 b6 8d 2f 35 b8 06 ce b0 39 f7 af 3d b9
       -5.456597e-06 -4.3198048e-05 0.00033722835 -0.00018089997
0001e0 f3 86 99 39 7c 02 8a 38 bf 0e c4 38 35 3e 94 38
       0.0002928298 6.5808155e-05 9.348755e-05 7.068777e-05
0001f0 95 d3 8c ba 44 46 ae b8 bb ad bf 3a 9a 21 62 39
       -0.0010744209 -8.3100545e-05 0.0014623919 0.00021565557
000200 4a ba a2 3a 06 50 1a ba 22 b7 a9 3a 1d f9 91 39
       0.0012415138 -0.0005886558 0.0012948255 0.0002784216
000210 9f 6e a9 ba 3f f1 8d b8 06 43 1e ba dd b2 67 38
       -0.0012926644 -6.7683395e-05 -0.0006037209 5.524127e-05
000220 df bc 09 ba b6 7a d5 b9 42 40 ca b8 74 7b c8 37
       -0.0005254279 -0.00040717953 -9.6440795e-05 2.3899345e-05
000230 50 9e dc b8 37 0d 32 b9 32 92 a6 3a 75 8b 8f 39
       -0.000105199055 -0.00016980326 0.0012708365 0.0002737899
000240 c4 68 4e b9 a5 32 00 ba bf a1 1d ba 1c 96 ef 38
       -0.00019684719 -0.0004890359 -0.0006013177 0.00011424368
000250 00 ed 23 3a 59 12 91 b9 a3 fe bf ba 0d f7 9b 38
       0.00062532723 -0.00027670225 -0.0014648031 7.436993e-05
000260 20 59 28 39 28 99 6e 39 fc 53 af b9 67 22 88 39
       0.0001605493 0.00022754504 -0.00033441174 0.00025965573
000270 b6 f2 53 3a f7 2f 6d b9 92 02 c6 ba a7 27 19 3a
       0.0008085178 -0.0002261995 -0.0015106967 0.00058423955
000280 15 17 96 39 3f a9 e9 b9 30 55 22 3a 27 bb 77 39
       0.00028627427 -0.0004456732 0.00061925035 0.00023625475
000290 61 30 0f ba e2 b8 d7 b8 18 43 8f ba 5e 83 a5 37
       -0.0005462226 -0.00010286436 -0.001093003 1.9730705e-05
0002a0 f7 fa 52 38 b7 da a9 b8 d2 cb a8 39 6d 8c 25 39
       5.030163e-05 -8.099287e-05 0.00032195315 0.00015787939
0002b0 89 5c 8d b7 7a f8 e8 b7 04 c9 85 ba 57 da 8a 37
       -1.68516e-05 -2.7772261e-05 -0.0010207002 1.6552554e-05
0002c0 00 75 c7 b8 87 01 59 b9 4f 00 7a 39 e6 44 29 39
       -9.5108524e-05 -0.00020695302 0.00023841973 0.00016142763
0002d0 a1 16 8a b9 7c 2b e0 b8 cf a7 32 39 a5 f7 19 b8
       -0.0002633827 -0.00010689252 0.00017037916 -3.670868e-05
0002e0 b8 f4 23 3a 35 e7 fe 39 63 d3 63 ba 05 c5 db b9
       0.00062544225 0.00048618918 -0.0008690862 -0.00041917726
0002f0 6f a0 df 39 8b 15 6c 38 93 e2 64 3a 38 9b b2 b9
       0.00042653407 5.6286848e-05 0.0008731272 -0.00034066453
000300 0c c6 ef b9 4a 4a 19 b8 c5 3b 95 b6 d7 26 0e 3a
       -0.0004573319 -3.654723e-05 -4.447504e-06 0.00054226577
000310 02 c2 84 3a ee e8 92 3a 01 1d ba ba 21 75 cd b9
       0.001012862 0.0011208334 -0.0014199318 -0.00039187915
000320 9b e2 6a b9 be 26 e8 b8 0f 84 14 3a a1 1c 64 39
       -0.00022400396 -0.000110698384 0.000566543 0.0002175444
000330 14 dd 34 39 e3 85 0b 3a c4 7f 79 39 f1 58 12 b9
       0.00017248496 0.000532238 0.00023794087 -0.00013956778
000340 88 35 ca b7 6b 54 b6 b5 48 a9 7f 39 99 d1 ba 38
       -2.4105204e-05 -1.3584626e-06 0.00024381757 8.908212e-05
000350 61 f1 65 b9 16 5e 22 38 9d 20 b3 38 89 78 91 38
       -0.00021929062 3.8711434e-05 8.54146e-05 6.93659e-05
000360 e5 c1 c6 38 a0 68 16 b9 44 59 59 b8 f7 1b 15 b9
       9.4774914e-05 -0.0001434409 -5.1819967e-05 -0.00014220165
000370 0a 8d d6 38 6c 75 a5 39 40 0b 93 b9 fc 49 b9 b9
       0.00010230586 0.0003155874 -0.00028046407 -0.00035341072
000380 65 b0 1c 39 85 7a d9 39 30 68 db b6 ff 16 39 39
       0.00014943031 0.0004148075 -6.5388376e-06 0.00017651542
000390 47 23 09 3a c7 cc 04 38 85 31 e0 ba 22 8a 74 38
       0.0005231392 3.1661966e-05 -0.0017104602 5.830278e-05
0003a0 9b b6 9a b9 be 8e 22 b9 75 eb c2 b8 2e 51 aa b9
       -0.0002950922 -0.000155027 -9.294498e-05 -0.0003248541
0003b0 4c 65 de 39 b5 53 fa 38 82 9d a9 b8 82 d4 03 39
       0.00042418612 0.000119365206 -8.087886e-05 0.00012572299
0003c0 58 a9 33 39 c3 1f 45 39 08 ac 60 ba d2 08 57 b9
       0.00017133856 0.00018799216 -0.00085705565 -0.00020507284
0003d0 55 8d 7a 3a 4a 90 0b ba 99 d3 7f 39 b9 c4 c6 b9
       0.0009557803 -0.000532393 0.00024397521 -0.00037912073
0003e0 1a 83 7d b9 e2 1e 99 39 81 c2 52 ba 73 62 ad b8
       -0.000241768 0.00029205444 -0.00080398476 -8.2676204e-05
0003f0 c5 5c 91 3a af e6 5e b9 ae 18 63 ba 4b 2b 21 39
       0.001109027 -0.00021257506 -0.00086630404 0.00015370284

exp_avg_sq f4 [32, 8]
000000 a0 fd 21 37 6e 3f 1a 37 3e b5 40 37 97 b8 e2 37
       9.6553995e-06 9.193884e-06 1.14862905e-05 2.7027256e-05
000010 5a b5 6e 37 68 10 4c 36 8a 97 f1 37 6f e2 4c 36
       1.422813e-05 3.0407919e-06 2.8800005e-05 3.053017e-06
000020 cf 48 0f 36 b3 45 06 36 e4 bb 36 36 f6 01 24 36
       2.135104e-06 2.0008126e-06 2.722948e-06 2.4439046e-06
000030 7b 29 32 36 71 07 d1 35 87 9f 3f 36 2e 33 02 36
       2.6548212e-06 1.5573879e-06 2.8554075e-06 1.94013e-06
000040 67 54 4a 36 60 41 95 36 13 37 b5 36 61 9d e9 36
       3.0149474e-06 4.4481567e-06 5.400632e-06 6.9622624e-06
000050 52 09 b3 36 a7 e9 d8 35 0d 90 bb 37 ff 34 ea 35
       5.3357007e-06 1.6161256e-06 2.2359216e-05 1.7449782e-06
000060 46 76 71 34 f1 bd 93 34 06 89 e6 34 38 95 d9 34
       2.2487902e-07 2.7519084e-07 4.2940536e-07 4.052797e-07
000070 cf 22 9f 34 0c 87 24 34 bd 88 84 35 ef 60 0f 34
       2.9641384e-07 1.532282e-07 9.874562e-07 1.3353177e-07
000080 33 cd 58 36 e8 95 76 36 6d 4e 83 36 04 96 5e 37
       3.230595e-06 3.6744113e-06 3.913234e-06 1.3267159e-05
000090 dd dd 9d 36 4e a1 9a 35 41 43 9b 36 27 f0 a8 35
       4.704793e-06 1.152084e-06 4.6271894e-06 1.2586869e-06
0000a0 9a f2 3e 34 79 52 62 34 93 cf b6 34 66 a1 49 34
       1.7783387e-07 2.1077894e-07 3.4051172e-07 1.87783e-07
0000b0 0e 4c b1 34 1c c8 01 34 b4 07 b9 35 a3 a3 06 34
       3.3024156e-07 1.208686e-07 1.3785816e-06 1.2539253e-07
0000c0 d5 06 b2 36 eb 0e c1 36 b8 30 e4 36 66 d2 a2 37
       5.3056087e-06 5.753585e-06 6.800601e-06 1.940988e-05
0000d0 2c d5 0d 37 44 01 c8 35 7b 71 d4 37 b3 d0 01 36
       8.453888e-06 1.490153e-06 2.5325213e-05 1.9343977e-06
0000e0 8c af d2 35 0a 43 cb 35 6a d8 15 36 f6 4b 9f 36
       1.569731e-06 1.514419e-06 2.23287e-06 4.7474123e-06
0000f0 d2 ba 0c 36 bb d9 2e 35 f1 7a a1 36 2a c5 40 35
       2.097037e-06 6.513689e-07 4.812486e-06 7.1812485e-07
000100 ba cc 86 35 a2 dd ad 35 9a aa c5 35 df 0b b6 35
       1.0043361e-06 1.2954008e-06 1.4727295e-06 1.3563512e-06
000110 fa a2 01 36 7f c1 37 35 dc a3 a0 36 1a 21 29 35
       1.9317363e-06 6.8454386e-07 4.7874473e-06 6.3005575e-07
000120 7a c6 1e 36 68 e0 2c 36 3d 40 64 36 55 53 20 37
       2.3659363e-06 2.576062e-06 3.401204e-06 9.556145e-06
000130 32 13 a3 36 70 fd 76 35 c4 72 03 37 d5 71 8d 35
       4.860013e-06 9.201094e-07 7.834929e-06 1.0538448e-06
000140 4b fa ce 34 e0 c3 f0 34 fd 5a 0e 35 f9 29 6a 35
       3.8552602e-07 4.4846e-07 5.303153e-07 8.723287e-07
000150 7c 76 1e 35 66 0d 8f 34 15 5a 96 35 e2 ee a5 34
       5.9032004e-07 2.6645574e-07 1.1202088e-06 3.0907455e-07
000160 61 41 16 36 a9 94 12 36 68 da 54 36 88 15 6c 36
       2.2389797e-06 2.1842227e-06 3.171759e-06 3.5179273e-06
000170 d8 f0 90 36 41 08 d0 35 a9 31 85 36 c3 d8 e6 35
       4.3195723e-06 1.549961e-06 3.96949e-06 1.7199421e-06
000180 ac 67 13 37 92 f4 ec 36 91 e4 5a 37 60 c5 2a 37
       8.786021e-06 7.06182e-06 1.304703e-05 1.0178745e-05
000190 0a 97 84 37 77 96 ad 36 f1 a3 38 37 b3 71 4e 36
       1.580596e-05 5.173318e-06 1.1005425e-05 3.0762574e-06
0001a0 89 93 e9 35 5e 3e 06 36 a3 e2 0c 36 2c 78 9a 36
       1.7402791e-06 2.0003858e-06 2.0993546e-06 4.6035475e-06
0001b0 10 ce 44 36 ca 6c 93 35 f1 ce 52 36 1d db 6f 35
       2.932622e-06 1.0984015e-06 3.1412894e-06 8.935329e-07
0001c0 f4 5a 14 35 b4 9f 08 35 b1 2e 40 35 f2 1d aa 35
       5.526665e-07 5.0896347e-07 7.159352e-07 1.2674702e-06
0001d0 3d 6e 6c 35 7a fc b2 34 5f 06 f8 35 3d d1 b2 34
       8.807727e-07 3.3338785e-07 1.8479294e-06 3.3307325e-07
0001e0 c7 ea d5 36 7b d1 e4 36 59 1d eb 36 1d b0 46 37
       6.3752263e-06 6.8193162e-06 7.0069623e-06 1.1842724e-05
0001f0 5a 70 00 37 5a 6a 3f 36 77 89 75 37 b7 b0 43 36
       7.655553e-06 2.8523123e-06 1.4635144e-05 2.9160126e-06
000200 88 b6 f2 36 a5 4c fe 36 65 a9 37 37 47 8e d1 37
       7.2334115e-06 7.5787125e-06 1.094709e-05 2.4980995e-05
000210 5a c9 3b 37 ad 4c 31 36 61 15 17 38 76 90 1e 36
       1.1192949e-05 2.6419686e-06 3.6021116e-05 2.3627922e-06
000220 66 9b d6 35 88 1c bc 35 4e 11 ec 35 d5 72 5b 35
       1.5989469e-06 1.4015395e-06 1.7588407e-06 8.175096e-07
000230 ea 4f f0 35 c0 7e ad 35 b4 a3 2a 36 cb 95 94 35
       1.7904651e-06 1.2926394e-06 2.5427262e-06 1.1070455e-06
000240 38 4a 80 36 e3 9f 85 36 bb dd 96 36 42 a0 de 36
       3.8233375e-06 3.982322e-06 4.496161e-06 6.634772e-06
000250 c5 dc de 36 40 63 0b 36 13 cc f8 36 4a e1 2f 36
       6.6418165e-06 2.0770385e-06 7.4147333e-06 2.6208168e-06
000260 c2 23 6c 36 d9 2f 90 36 1a d7 a1 36 21 7e af 36
       3.5187554e-06 4.2971046e-06 4.823215e-06 5.2300898e-06
000270 7f 60 cd 36 83 ed 34 36 26 24 e1 36 b1 9f 84 36
       6.1207097e-06 2.696034e-06 6.7097308e-06 3.952497e-06
000280 2f cf 69 36 97 ba 59 36 ce 5f 91 36 0d 9d 2d 37
       3.4840302e-06 3.244413e-06 4.33249e-06 1.034817e-05
000290 45 e3 c8 36 51 4e b6 35 35 6d 3e 37 53 d8 be 35
       5.986922e-06 1.358285e-06 1.1350309e-05 1.4219062e-06
0002a0 05 15 02 36 bc 24 04 36 7e c2 4e 36 96 8f 15 37
       1.9383745e-06 1.9690915e-06 3.0809601e-06 8.914523e-06
0002b0 70 c6 34 36 b2 11 28 35 f5 22 e7 36 7d db 28 35
       2.6937596e-06 6.2610627e-07 6.888406e-06 6.2904275e-07
0002c0 4f 7f 25 36 d1 5d 1a 36 9b 9d 57 36 bc 37 da 36
       2.466102e-06 2.3002397e-06 3.2129235e-06 6.5033946e-06
0002d0 d7 5d 51 36 13 69 93 35 7b 61 4f 36 50 31 98 35
       3.119805e-06 1.0982934e-06 3.0902145e-06 1.1339234e-06
0002e0 6a 91 38 37 c8 3f 37 37 e2 25 6d 37 36 bc f6 37
       1.10011115e-05 1.09225e-05 1.4135121e-05 2.9413128e-05
0002f0 e4 64 a7 37 a7 6d a7 36 57 27 97 37 1d 34 01 37
       1.9954932e-05 4.989753e-06 1.8018922e-05 7.701133e-06
000300 90 0a aa 36 ce 17 ab 36 81 8d f8 36 e2 89 9a 37
       5.0676244e-06 5.0989684e-06 7.407449e-06 1.8422437e-05
000310 22 b7 12 37 8d e1 06 36 6c 1e b6 37 ec c0 f7 35
       8.744917e-06 2.0098844e-06 2.1710257e-05 1.8459082e-06
000320 02 72 06 35 7f 57 1c 35 c9 e5 80 35 9f 5a 2e 35
       5.0084793e-07 5.824185e-07 9.60362e-07 6.495192e-07
000330 00 46 4b 35 f3 3a 1c 35 8d 13 25 36 c5 ef c9 34
       7.5725256e-07 5.820031e-07 2.4598296e-06 3.7613623e-07
000340 e0 08 a0 34 4e 71 a9 34 30 45 03 35 04 c7 a7 34
       2.980878e-07 3.1561143e-07 4.8901984e-07 3.1250977e-07
000350 e0 b9 17 35 aa a9 8e 34 88 22 56 35 30 8d d7 34
       5.652237e-07 2.6573008e-07 7.977146e-07 4.0149598e-07
000360 35 68 b0 35 15 d0 ae 35 ff b7 e5 35 9c 81 b5 35
       1.314335e-06 1.302457e-06 1.711538e-06 1.3523272e-06
000370 64 01 16 36 20 5b 88 35 ab 62 d6 35 82 b1 89 35
       2.2352551e-06 1.015931e-06 1.5972959e-06 1.0258957e-06
000380 62 3e 90 35 cb d6 aa 35 f8 35 f5 35 71 af 27 36
       1.0746992e-06 1.27285e-06 1.826963e-06 2.498706e-06
000390 b9 bf de 35 58 b6 05 35 7f 12 00 37 b7 e5 e9 34
       1.6596088e-06 4.9811706e-07 7.633701e-06 4.3566772e-07
0003a0 60 14 1f 35 94 82 28 35 6b 6d 6b 35 4b 25 a4 35
       5.9261765e-07 6.2774893e-07 8.7703546e-07 1.2229806e-06
0003b0 d4 cd 5f 35 f7 6f ca 34 8c 87 08 36 8c d8 ad 34
       8.3373493e-07 3.7706897e-07 2.0344478e-06 3.238132e-07
0003c0 aa 12 41 36 fb 40 2c 36 a7 8d 97 36 30 3b 77 36
       2.8770105e-06 2.566782e-06 4.516641e-06 3.684032e-06
0003d0 95 a4 a4 36 7d 76 ec 35 df af 26 37 f1 19 c3 35
       4.9067407e-06 1.7617855e-06 9.935319e-06 1.4536182e-06
0003e0 d6 7f 03 36 e7 3c 00 36 d8 f9 52 36 a8 5a d9 36
       1.9594931e-06 1.9108936e-06 3.1437867e-06 6.4776577e-06
0003f0 b2 46 44 36 22 1e 1a 35 e4 15 44 37 02 a4 08 35
       2.9247426e-06 5.741332e-07 1.1687607e-05 5.090261e-07

exp_avg f4 [32]
000000 85 80 07 ba 7b 74 9f b9 08 98 db b9 04 4f 36 39
       -0.0005168992 -0.00030413628 -0.00041884207 0.00017386308
000010 1e d4 3b ba a1 c2 71 b7 62 a3 1d 3a 5b b6 42 b9
       -0.0007165092 -1.4410035e-05 0.00060134206 -0.00018569214
000020 2d 00 23 b9 3b 22 cf 39 f7 b6 50 b9 3c 59 d9 b8
       -0.00015544957 0.0003950762 -0.00019904585 -0.000103639875
000030 50 06 a6 3a 5f 5b 65 3a 2d 0d da b8 2e 48 2f 3a
       0.0012666676 0.0008749272 -0.00010397504 0.0006686476
000040 10 0e f1 39 1e fa 46 3a 24 cd 0f ba ba 9c 97 ba
       0.0004597758 0.0007590371 -0.00054855854 -0.0011567094
000050 6a 12 24 3a 50 34 5b 39 62 0c 65 b9 d5 5f 57 ba
       0.00062588474 0.00020904955 -0.00021843755 -0.0008215879
000060 81 a0 8a ba 5d 63 ac b9 52 35 ba b8 4e a3 06 ba
       -0.0010576398 -0.00032880428 -8.879103e-05 -0.00051360286
000070 43 54 65 b8 92 2f 38 b9 59 4c 8a ba 3c fc f8 b9
       -5.467633e-05 -0.00017565329 -0.0010551318 -0.00047490175

exp_avg_sq f4 [32]
000000 a7 94 a2 37 75 cd 8e 36 c8 48 10 37 79 94 c9 34
       1.9381127e-05 4.255848e-06 8.600015e-06 3.7547196e-07
000010 e7 64 fa 36 51 93 f3 34 61 e8 60 37 19 c6 69 36
       7.462327e-06 4.5369464e-07 1.3405545e-05 3.4835014e-06
000020 00 51 18 36 a9 f4 cf 36 75 f4 5a 35 92 a1 b5 36
       2.2696913e-06 6.197563e-06 8.156706e-07 5.4130296e-06
000030 01 64 80 37 3e 98 8b 36 e2 15 ad 35 a0 1c 57 37
       1.5305357e-05 4.160246e-06 1.2895873e-06 1.2821663e-05
000040 d6 e7 94 37 47 09 4a 36 99 4a 1d 37 47 8d 15 37
       1.7750932e-05 3.0105746e-06 9.375298e-06 8.913986e-06
000050 40 9e 06 37 8f 90 a6 36 36 4c a7 36 a9 a8 c8 37
       8.023868e-06 4.9640144e-06 4.98586e-06 2.3920396e-05
000060 ed 87 5f 37 c9 8e 52 35 e8 b2 33 35 4a ac 30 36
       1.33234835e-05 7.8438876e-07 6.694304e-07 2.632633e-06
000070 ab 06 24 36 9f ef 9b 35 c9 e8 c0 36 60 08 9a 36
       2.4441786e-06 1.1618139e-06 5.7491457e-06 4.5905326e-06
