results/max-hiddenunits256-config2-1/3DBall/3DBall-99880.onnx (onnx, 45831 bytes, 4 tensors)

action_model._continuous_distribution.log_sigma f4 [1, 2]
000000 7d 2b a4 bd 1e a7 62 bd
       -0.08016107 -0.055335157

action_model._continuous_distribution.mu.bias f4 [2]
000000 b1 41 7e 3a 9a 07 15 3c
       0.000969912 0.009096051

network_body.processors.0.normalizer.running_mean f4 [8]
000000 81 6b 98 3a db 05 51 bb de a0 c0 3c bc 01 46 40
       0.0011628718 -0.003189436 0.023514207 3.0938559
000010 e1 6b c6 bd 2f e7 a2 3c 4e f4 2b bf 20 61 95 bd
       -0.09688545 0.019885628 -0.67169654 -0.07293916

sqrt f4 [8]
000000 50 ae 96 3d dc 15 99 3d a4 3c 84 3f 60 48 b9 3e
       0.07357466 0.074748725 1.0331006 0.3618803
000010 8d 7e 82 3f 73 6f 63 3f c9 da 84 3f d7 78 62 3f
       1.019487 0.88841933 1.0379268 0.88465637
