results/max-hiddenunits64-config1-2/3DBall.onnx (onnx, 29803 bytes, 5 tensors)

network_body._body_endoder.seq_layers.0.bias f4 [64]
00000000: 6c47 c73d e308 32bd 12ce b6bd 6514 db3d
00000010: 1da7 8fbc 0760 003c cc6e 303d 59f8 dbbc
00000020: 15ee 173d df79 b73d da46 fc3d d205 873d
00000030: 5ea6 533d 71ff 443c ef3b d33c be6a 8e3d
00000040: 1cb3 5a3c e61d 063d d519 cfbc 3d5a d23c
00000050: 6e4e 4c3a 724d 6f3c 170f cc3d 1d84 13bb
00000060: d0ca 1d3d e8a5 0c3d 32d8 303c ecc9 8b3d
00000070: 9833 443d 8dc9 bd3d bd51 a73d 7d77 bc3c
00000080: 5377 e0ba fcfd 18bd 8338 23bc ec82 2ebd
00000090: ad74 013d 8428 073e 5a76 c93d 1aef 7b3d
000000a0: b4f0 9b3d 5f79 05bd 88e8 ff3d 899e 4b3d
000000b0: 6d0a d9ba 7047 1439 6482 883d ccc1 fe3b
000000c0: de06 12bb afe8 d8bc 5588 14bd 6d73 46bc
000000d0: 9202 a0bc 2071 c8bb 7f31 0c3d eabe 083e
000000e0: f034 7b3c 33ce c43c daf6 0d3e 4986 5e3d
000000f0: 6cca 113d 1e87 b23c b808 ab3d f679 063e
0.097304195 -0.043465506 -0.089260235 0.10697249 -0.01753574 0.007835395 0.043074414 -0.02685182
0.037092287 0.08958792 0.12318201 0.06592907 0.051672332 0.012023793 0.025785415 0.06953953
0.013348367 0.032743357 -0.025280872 0.025677795 0.00077936694 0.014605867 0.09963816 -0.0022509166
0.038523495 0.034337908 0.0107937325 0.06825623 0.047900766 0.092669584 0.08169887 0.023006195
-0.0017125405 -0.037351593 -0.009962204 -0.042605326 0.03160541 0.13199049 0.09837027 0.061507322
0.0761427 -0.03258645 0.12495524 0.049711738 -0.0016558893 0.00014140992 0.06665495 0.007774567
-0.0022281925 -0.02647814 -0.03626283 -0.012112481 -0.019532476 -0.006117001 0.03422689 0.13354078
0.0153324455 0.024024105 0.13863698 0.054327283 0.035593435 0.021792945 0.08351272 0.13132462

action_model._continuous_distribution.log_sigma f4 [1, 2]
00000000: a2c6 f4bd 4528 64be
-0.11951949 -0.22280987

action_model._continuous_distribution.mu.bias f4 [2]
00000000: 32b9 21bd 1f85 4a3c
-0.039483257 0.01236084

network_body.processors.0.normalizer.running_mean f4 [8]
00000000: 5ca7 733a 610b 47ba e779 633e 9d85 4340
00000010: 9292 9d3d 4de2 853c eb6a 91be 4df2 30b8
0.0009294653 -0.0007592943 0.22214471 3.05503 0.07693972 0.01634326 -0.28401884 -4.218733e-05

sqrt f4 [8]
00000000: 0079 483d 4d52 463d 118f 1e3f 3ba6 443e
00000010: e1a2 263f c3da f53e 6757 233f a238 033f
0.04894352 0.048418332 0.6193705 0.19204037 0.65092283 0.48018464 0.6380524 0.5125829
