results/max-hiddenunits128-config2-0/3DBall/3DBall-49965.onnx (onnx, 45822 bytes, 4 tensors)

action_model._continuous_distribution.log_sigma f4 [1, 2]
-0.047438957 -0.05635376
00000000: 5a4f 42bd 33d3 66bd

action_model._continuous_distribution.mu.bias f4 [2]
-0.010825151 0.014967062
00000000: f95b 31bc 6838 753c

network_body.processors.0.normalizer.running_mean f4 [8]
0.0066809636 -0.0022171086 -0.07769718 3.0730515 -0.06595692 -0.13168976 -0.94028705 -0.065662734
00000000: fceb da3b e94c 11bb b31f 9fbd e0ac 4440
00000010: 6c14 87bd aed9 06be a7b6 70bf 2f7a 86bd

sqrt f4 [8]
0.08638175 0.084141545 1.2255722 0.43296778 1.2218586 1.129563 1.1200248 1.0907903
00000000: eae8 b03d 6752 ac3d 8ddf 9c3f f4ad dd3e
00000010: dd65 9c3f 8595 903f f95c 8f3f 049f 8b3f
