results/max-hiddenunits512-config1-0/3DBall/3DBall-349309.pt (torch, 146970 bytes, 32 tensors)

network_body.observation_encoder.processors.0.normalizer.running_mean f4 [8]
00000000: 37c8 88bb c1b7 6ebb 6858 62be 165f 4440
00000010: e88e cf3e 3526 283d 6421 bbbe 1ede adbc
-0.004174258 -0.0036425444 -0.22104037 3.0683036 0.40538716 0.041052062 -0.36548913 -0.021224078

network_body.observation_encoder.processors.0.normalizer.running_variance f4 [8]
00000000: af72 7b44 7f68 6b44 1c8e 2e48 f1a1 8046
00000010: 49e7 3848 bcbf cf47 76cd 2a48 d3b9 c047
1005.79193 941.63275 178744.44 16464.97 189341.14 106367.47 174901.84 98675.65

network_body.processors.0.normalizer.running_mean f4 [8]
00000000: 37c8 88bb c1b7 6ebb 6858 62be 165f 4440
00000010: e88e cf3e 3526 283d 6421 bbbe 1ede adbc
-0.004174258 -0.0036425444 -0.22104037 3.0683036 0.40538716 0.041052062 -0.36548913 -0.021224078

network_body.processors.0.normalizer.running_variance f4 [8]
00000000: af72 7b44 7f68 6b44 1c8e 2e48 f1a1 8046
00000010: 49e7 3848 bcbf cf47 76cd 2a48 d3b9 c047
1005.79193 941.63275 178744.44 16464.97 189341.14 106367.47 174901.84 98675.65

network_body._body_endoder.seq_layers.0.weight f4 [512, 8]
00000000: 946d b9bb c290 223e 6709 233f 5191 a9be
00000010: d768 203e 101e 96be e113 583e d40f 6e3f
00000020: c955 96be 2e01 f23e c399 8f3e 8d80 ad3e
00000030: 5684 33be 482a 2e3d e238 89be 450d a2be
00000040: 87f2 e83d f6e9 5e3f ca3c ef3e 21a6 4a3f
00000050: 4546 dcbe 0c3e 2bbf 358f 62be 8d3f 9d3e
00000060: 4b03 72bd fa92 633e f718 31be 126a 3abe
00000070: ef10 b5bd 2c1b b3be 61e8 72bf c214 4bbd
00000080: 81e2 f4be 11cf 85be 13b7 d53c c8b2 b23c
00000090: 0b20 6ebf e7cb 433d c714 f13e b927 a6be
000000a0: 490b 9c3e 0776 db3c 46fa 0dbd 4bc3 ebbc
000000b0: bfd5 553e 2408 343f 2c62 713e b57e 0a3f
000000c0: 7cd1 95be 0bb2 1abe 60ee 09bf 343e 8fbd
000000d0: d2df 26be 3437 b8be 9bfb 48bf 109c 20be
000000e0: d8dd 6abe 2fdf c5be 9579 223e a529 91be
000000f0: a6ce 1f3e cd68 6bbe 44d0 30be f5ae abbe
00000100: 268e d23d b520 c03e 1a11 5c3e ed28 ca3e
00000110: d41c 37bc d253 6cbf 1104 d4bd 9cc5 9bbe
00000120: 3e69 1b3e a8de 5d3e 330a d03b 143f 14bf
00000130: 4686 42bf a6a3 15bd 2c6f aa3d 90d1 c8bd
00000140: 8bb0 f23e 108a aabe 7a1e 96be d7c9 8fbf
00000150: 0aec 0cbe 950a 923e 2e5a 17be 3791 85be
00000160: f03a 12bf c51c e3be e4fb dbbe 192d 2b3f
00000170: 4d4d e3be 2d82 babe 134c ee3e deaf 2f3f
00000180: 9a51 f4be 1fcf 523e bd5a aa3b 41c2 99be
00000190: 553c 02be 2392 3cbe 795b ed3e e256 e1be
000001a0: 347a 143f 4f36 eabd 990b 543d d4f7 b13e
000001b0: 6cf9 9a3e 3f12 aa3d 0717 0d3e 395c 963a
000001c0: 133e 19bf 2c9b a33d 6d93 553f 1f92 abbe
000001d0: 6724 533e bf02 f43d 1121 bcbe 2337 043f
000001e0: e4ea 0c3e 09a6 f4be ba18 643e dcac eabc
000001f0: ad63 f0be 2d49 d8bc 12f5 b53d 3cc9 bb3e
00000200: 55ee a6be 74ac 193f 4139 463d 35a8 a03e
00000210: 533b 9cbe 9fca 38be 15e6 2e3d 8409 ad3e
00000220: a9db 43be 28b0 34bf d126 c03d 41b8 76be
00000230: 7189 98be 28a9 d9bc 3222 e8bd 7077 743e
00000240: 63b9 02bf b311 76be c82c babe 24f1 dbbd
00000250: 4c05 62be a98d 4a3e 38da b1be d48b 2b3e
00000260: 8a0f d23d fb95 95bd 29bc ea3d fda1 b3bc
00000270: cd3d 9d3d 614c dfbe df50 96be 69d5 093d
00000280: 37bc d03e b29c aabe 9ccd be3e b80d a23e
00000290: 6f76 0abe 7758 80be ac48 dfbe 7d97 a03d
000002a0: 480f 813d 10c0 16bf d63e c83e ecb6 cfbe
000002b0: 6d1b 343d 199e d7be 68ef 8bbe 24dd 92be
000002c0: 620d c0be d22d 563e 6460 933e c402 043c
000002d0: 7507 dabe d34b 7dbe a0d3 5b3c 3058 873e
000002e0: 8a87 10be 3793 bfbd 01d7 fabe bacb edbc
000002f0: 3851 15be 6f8c 8b3e 2f61 efbe b95c 923d
00000300: 06c3 eb3e 73e5 553d caf2 1f3e ad27 d4be
00000310: 5061 2dbf 95d8 f13d 6cdd 59be 0671 da3e
00000320: d2d6 0bbe 6f19 cf3e 32ee 63bd 550e 7f3e
00000330: 2f6d c8be 4a48 9a3e a057 45bf 1179 b93e
00000340: 0660 7dbd b322 aabe fc4b 2f3f c36e 62bd
00000350: d35d 11be 1ab1 83be dce9 383d 9cb3 47be
00000360: 7344 7cbe 081c 78be 2caf d53e bb3e adbe
00000370: bffa f0bd df59 8fbe 49b5 2bbf 9574 54be
00000380: 6de5 b3be a553 8fbe 1122 bdbc 9349 463e
00000390: 556d 5dbf 37a4 b53e c0a1 4fbe 9bc4 ee3e
000003a0: bb44 8f3e e1ce 793b 2381 bb3d 84f0 cf3e
000003b0: 08ff f43e a94c 213e 8d76 47be e0ea afbe
000003c0: f7c0 383f b8a8 063f 4b12 7abe 3455 c73e
000003d0: 7bce cabe b4ba ab3d e830 b03d 6236 443e
000003e0: 70a9 2ebe 4981 153e 2cf5 4fbe 6d2f f03e
000003f0: e87c 28bf 0552 8c3e 0d0a 8e3e 2564 1abe
-0.0056588147 0.15875533 0.6368622 -0.3311868 0.15664993 -0.2931981 0.21101333 0.929929
-0.29362324 0.47266525 0.28046998 0.3388714 -0.17530951 0.04252079 -0.2680121 -0.3165075
0.113743834 0.87075746 0.46726066 0.7915974 -0.4302236 -0.6689155 -0.22124942 0.30712548
-0.05908517 0.22224036 -0.1729468 -0.18204525 -0.088411205 -0.34981668 -0.9488583 -0.049580343
-0.4782906 -0.26134542 0.026088273 0.021813765 -0.93017644 0.04780188 0.47086164 -0.3245218
0.3047736 0.026789678 -0.034662507 -0.028779646 0.20882319 0.7032492 0.23572606 0.5409959
-0.29261386 -0.1510698 -0.53879356 -0.06994286 -0.16296318 -0.35979617 -0.7850892 -0.15684533
-0.22936189 -0.38646838 0.15866692 -0.28352085 0.15606174 -0.22989197 -0.17266947 -0.3353192
0.10281019 0.37524953 0.21490899 0.3948435 -0.011176307 -0.923154 -0.10352338 -0.304242
0.15176865 0.21666968 0.006348872 -0.5790875 -0.75986135 -0.03653302 0.083219856 -0.09805596
0.47400317 -0.33308458 -0.29320127 -1.1233472 -0.13761917 0.28523698 -0.14780495 -0.26087353
-0.5712118 -0.44357887 -0.42965615 0.6686569 -0.44394913 -0.3642744 0.46542415 0.6862773
-0.47718507 0.20586823 0.005198805 -0.30031016 -0.12718327 -0.18415122 0.4635885 -0.440116
0.5799897 -0.1143614 0.051768873 0.3475939 0.3026842 0.083042614 0.13778315 0.0011471576
-0.5986034 0.07988581 0.8342808 -0.3350992 0.20619355 0.11914586 -0.36743978 0.5164663
0.13761479 -0.47782925 0.22275057 -0.028646879 -0.46951047 -0.02640208 0.08884634 0.36676967
-0.32603708 0.6002877 0.048394445 0.31378332 -0.3051401 -0.18046044 0.042699892 0.33796322
-0.19126762 -0.70581293 0.09382404 -0.24093725 -0.2979236 -0.026569918 -0.11334647 0.23873687
-0.5106413 -0.24030189 -0.3636229 -0.10739353 -0.22072333 0.19780602 -0.347368 0.16752559
0.1025687 -0.07303997 0.1146167 -0.021927828 0.07677803 -0.4361296 -0.29358575 0.03365079
0.40768597 -0.33322674 0.37266243 0.31651092 -0.13521741 -0.25067493 -0.43610132 0.07841394
0.06301743 -0.58886814 0.3911044 -0.40569246 0.043971468 -0.42112806 -0.2733109 -0.28684342
-0.3751021 0.20915917 0.28784478 0.0080573 -0.42583814 -0.24735956 0.013417155 0.2643447
-0.14114204 -0.09354251 -0.4899216 -0.029027808 -0.14581764 0.2725558 -0.46753833 0.07146592
0.4604723 0.052220773 0.1561996 -0.4143652 -0.6772661 0.11808888 -0.21275872 0.42664355
-0.13656166 0.40449092 -0.055647083 0.24907811 -0.391458 0.30133277 -0.7708683 0.3622518
-0.061859153 -0.33229598 0.6847532 -0.05528141 -0.14195947 -0.25721055 0.0451449 -0.1950211
-0.24635486 -0.24229443 0.41735208 -0.33836922 -0.11766576 -0.27998254 -0.67073494 -0.20747598
-0.35135975 -0.27993503 -0.023087533 0.19364004 -0.8649495 0.35476848 -0.20276546 0.46634373
0.27982125 0.0038117694 0.0915549 0.40613186 0.47850823 0.157519 -0.19478817 -0.34358883
0.7216944 0.52601194 -0.2442104 0.38932192 -0.39610657 0.0838522 0.08603078 0.1916137
-0.17056823 0.146001 -0.2030837 0.46911183 -0.6581559 0.27406326 0.27742043 -0.15077265

network_body._body_endoder.seq_layers.0.bias f4 [512]
00000000: 46c7 4bbc 9cfb 66bc 7c73 c8bd fc63 00bc
00000010: abd0 18be 6494 1e3c fe9a 65bd 53c0 9fbc
00000020: 1ae7 88bd baed 00be 72f2 12be c4b9 e3bd
00000030: 716b 083d ea52 7cbd e425 e2bb 9eed 27be
00000040: 0e6a a6bd c9f6 c23d 65a1 d1bd 00c4 21bd
00000050: c0e3 53bd 9be9 ff3c fd03 1e3c 1263 bebd
00000060: a56e 42bc e85c 0e3d d0ff 9cbd 080c 1b3d
00000070: 8b13 d33d bdab cdbd 47ec 01be 5971 6e3d
00000080: 05a4 813d c04b afbd 8a24 09bc a90f 71bc
00000090: 613d 8bbd 6cbb 473d 8756 293c f0d6 6ebd
000000a0: e8b8 0bbe 3dcc 47bc 9f76 edbc 46a3 84bd
000000b0: ba87 cabd 6b86 213d 63aa e63c cb16 29be
000000c0: 489c 823d 3124 143d 18aa d4bd 831a 0fbe
000000d0: 5b42 bbbd 6d85 2fbd d4e0 2fbd c878 aabd
000000e0: 70bc 83bd 8dd4 bf3d 14e6 843d f9ec 30bb
000000f0: 13af babc 4e3c 093d a26a 41bb 3858 b1ba
00000100: 9465 273d a76c 573d d18b 3e3d 341e 893c
00000110: f7b5 b13d 48c5 403d 3707 efbd d341 85bc
00000120: 24b9 b73b 1fe5 a7bd c940 023d 2d41 86bd
00000130: 6ed4 d63d 82f9 96ba 552d d93c 7f04 68bd
00000140: cc4b e6bd 3168 3bbd 7edc 0abe 3430 b4bc
00000150: 9fda 31bd ccbd 39bd 3c27 aabd c556 94bd
00000160: 4cc8 01be a24c 933d 0e8b bfbd be41 c2bd
00000170: ebc0 96bd ba85 32bc c1b9 08be d8d8 cabd
00000180: f880 903d 619d 9abd d58a c0bd c5df 103d
00000190: 4145 51bd c652 a6bd b31a 963d 48dd 3fbe
000001a0: 9c7e c9bd ce16 95bd 56d0 6ebd 4d08 253d
000001b0: 3b83 73bd 1130 acbd 59f9 c9bd 1576 88bb
000001c0: 5d3c d53b 5662 78bd 7f9a 7bbb eca4 d3ba
000001d0: 92d2 9c3d 543b f2bd dbd6 0ebd b7ca e6bd
000001e0: 4b13 b03b 81e5 0dbe c4a2 2b3d 64ac 05bd
000001f0: c055 343d 3852 ad3d c035 553c fcae d8bd
00000200: 87de d9bc bce5 603c 1e4d ad3d 3c0e 34bd
00000210: 65d9 20be 05dd 2ebe 7b46 a9bd f481 393c
00000220: 143f 8e3c 3e6e 09be 3b06 f9bc 7a63 9c3d
00000230: 5746 8dbd d9be f53b 2185 65bd 2ecf e5bc
00000240: 76e4 00be 55eb b6bd 53b7 7bbd 4685 87bc
00000250: adb4 883d b30a eebd bedc fabd e087 453d
00000260: 01b0 433b d6c0 84bc 5fad 1fbd 8737 843d
00000270: 8c4e 22bd 9fcd 2dbe 0b0a 7dbd 4906 c9bd
00000280: 4fd7 333d 4fd0 123d 83d3 9fbd 98bd dfbd
00000290: 576e 013d 02d0 283d 8de2 233c 3112 5c3c
000002a0: 2ece efbd 763f 9ebd e405 84bc 56e9 bfbd
000002b0: a586 d3bd 3a18 adbd d774 94bd 5757 a8bc
000002c0: 4593 acbd 81a2 ce3b 544c 90bd 5afe 36bd
000002d0: 2baf 393b ef1c db3d 206d e0bd 550c b73d
000002e0: 681d c2bd b71c 9e3d 8d61 d2bd fa28 cdbd
000002f0: e042 bb3d 9d89 b93d a37b 82bd 04cb f4bd
00000300: 4597 8ebb 9f32 55bd c600 edbd 32ea 77bd
00000310: c778 523d 4a58 9ebd 17c5 52bd 592b b53d
00000320: ca4f b3bc 3761 643c 1e33 533d 6744 b53d
00000330: 9a87 0bbc ac39 d73a 937e 12be da1c 9ebd
00000340: a0b7 b23d b824 cbbd 270b a93d 99d5 cbbd
00000350: 946f 8f3d 7b5a 0bbe 506b c8bd 0f34 b0bd
00000360: 2b9c 74bd 5880 cfbd f4bd 99bd d47b 48bd
00000370: 76cf 9b3c d790 6a3d b6b1 16be a6aa ccbd
00000380: 4b48 17ba da39 1abd 9d12 e5bd c4ab 8ebd
00000390: 7176 97bb fb0f 983d 3f4c b7bd 86a2 eb3b
000003a0: 42f4 15be 54f9 e3bc 1c91 98bd fb29 d1bd
000003b0: 0615 a0bd ae2a 34bc d5db a0bd 880b 94bd
000003c0: 3005 a9bd d541 5f3d 9cdf 21bd 858e f03c
000003d0: dc40 a9bd 55f7 1cbc 54a6 533d 5dc8 cbbd
000003e0: 41b2 d6bd 45d8 5e3d 6210 5c3d 4ec5 06be
000003f0: d4bb 32bd f0dd 77bd 3ca6 41be b831 a2bd
-0.012437647 -0.014098074 -0.09787652 -0.007836338 -0.1492335 0.009678934 -0.056056015 -0.019500887
-0.06684704 -0.12590685 -0.14350298 -0.11119416 0.03330559 -0.06160251 -0.0069014896 -0.16399238
-0.08125697 0.09519727 -0.10235862 -0.03949356 -0.05173087 0.031239321 0.009644506 -0.0929624
-0.0118672 0.03475657 -0.0766598 0.03785327 0.10306462 -0.10042522 -0.12687789 0.058213565
0.06330112 -0.0855937 -0.008370528 -0.014713206 -0.067988165 0.048762724 0.010335571 -0.05831045
-0.13644755 -0.01219469 -0.028987227 -0.064764544 -0.09889169 0.03943483 0.028157419 -0.16512601
0.063774645 0.036167327 -0.10384005 -0.13974957 -0.09143516 -0.042851854 -0.042939022 -0.083238184
-0.06432426 0.09366713 0.064891964 -0.0026996715 -0.02278856 0.033504777 -0.002951302 -0.001353032
0.040868357 0.052593853 0.046520058 0.016738035 0.08677285 0.047063142 -0.11671298 -0.016266739
0.0056067873 -0.08197998 0.031800065 -0.065554 0.104897365 -0.0011518451 0.026510874 -0.056644913
-0.11244926 -0.04575366 -0.13560674 -0.021995641 -0.043421384 -0.04534702 -0.083082646 -0.072431125
-0.12674063 0.07192351 -0.093526945 -0.094851956 -0.07361015 -0.010896141 -0.1335211 -0.09904641
0.07055849 -0.07549549 -0.0940148 0.035369653 -0.051091436 -0.081212565 0.07329311 -0.18736756
-0.09838602 -0.0727974 -0.058304153 0.04029112 -0.059451323 -0.084076054 -0.098620124 -0.004164467
0.00650744 -0.060640655 -0.0038391647 -0.0016147173 0.076573506 -0.11827722 -0.03487287 -0.112691335
0.0053733937 -0.1385708 0.041903272 -0.032635108 0.04402709 0.084629476 0.013013303 -0.105802506
-0.026595367 0.013726648 0.084619746 -0.043958887 -0.1570793 -0.170765 -0.08265396 0.011322487
0.017364062 -0.1342096 -0.030398479 0.07636161 -0.06898182 0.0074995575 -0.056035165 -0.028052893
-0.12587151 -0.08931605 -0.06145413 -0.016543042 0.06675086 -0.116231345 -0.122491345 0.048225284
0.0029859545 -0.016205233 -0.0389837 0.064559035 -0.03962569 -0.1697297 -0.061777156 -0.09815652
0.043906506 0.03584319 -0.078040145 -0.10924834 0.03159937 0.041213997 0.010002744 0.013432072
-0.117092475 -0.07726948 -0.01611609 -0.09370677 -0.10328416 -0.084518865 -0.07248848 -0.02054946
-0.08426527 0.006305993 -0.070458084 -0.044676162 0.0028333168 0.10698878 -0.10958314 0.08937899
-0.09478265 0.07720321 -0.102725126 -0.10017581 0.09143615 0.09059451 -0.06371238 -0.11952785
-0.004351529 -0.05205023 -0.11572413 -0.06052608 0.051384714 -0.077316836 -0.05145749 0.088461585
-0.021888632 0.013939193 0.05156242 0.08850937 -0.008516217 0.0016420386 -0.14306097 -0.07720347
0.0872643 -0.09919113 0.0825408 -0.0995285 0.07003704 -0.13608734 -0.09786093 -0.086036794
-0.059719246 -0.101319015 -0.07506934 -0.048946217 0.019019824 0.057267036 -0.14716229 -0.09993486
-0.00057709654 -0.037652828 -0.11185191 -0.069663554 -0.0046222736 0.07424923 -0.0895009 0.007191005
-0.14643958 -0.02782885 -0.074495524 -0.10213085 -0.0781651 -0.010996504 -0.0785443 -0.07228762
-0.082529426 0.05450614 -0.03951989 0.029364834 -0.08264324 -0.009580453 0.051672295 -0.09950326
-0.10483218 0.05440547 0.05372656 -0.13161203 -0.043636158 -0.06051439 -0.1891107 -0.07919639

action_model._continuous_distribution.log_sigma f4 [1, 2]
00000000: e194 25be 8eff 20be
-0.16170074 -0.15722486

action_model._continuous_distribution.mu.weight f4 [2, 512]
00000000: a606 263c 1ae1 ac3b 8797 6bb9 e2dd 25bc
00000010: 4e85 babc 5055 be3c 2f97 2239 0b2c 1e3c
00000020: e93d d2bc dd3c 0abc 7cf0 99bc 705c 52bc
00000030: 7966 36bc 6cbb eabc f84c 163c 8189 afbb
00000040: c027 be3a 3a57 8ebc 8bf8 6abc 3975 2bbb
00000050: 6d3d 60bc 017e 433c ee81 ec3b d9cc 8ebc
00000060: c940 02bb 6d95 873c c4db c03b 91ef 2f3c
00000070: 0902 eb3b ba24 84bc b064 1939 ee10 c93b
00000080: 1f09 103d db3f 9ebc e53c 1e3c 9a84 87bc
00000090: 7eda 0cbd e06d afbb 1d34 b03b 0d48 6cbb
000000a0: 7cda 12bc cc7c 4bbb 4484 38bc e6db e23b
000000b0: 49b0 273b b647 3a3c 6ce5 fdba f068 7fba
000000c0: a0cf 49bc 6a71 41bc 2d88 83bc dcce 2fbc
000000d0: 3691 76bc f8fa 8abc f95e 223c a11c 01bd
000000e0: bb3a 5fb7 3418 e23b 354a ef3c 85e8 94bc
000000f0: 9eb0 2d3c dc5f 673c 0195 5fbd aec2 673c
00000100: 524d af3c b6be 6dbc 8a18 003d 1e85 6d3b
00000110: 70f7 3d3c 01d6 513b 097e 7dbc 1cba e63c
00000120: 5e69 53ba 5cf9 e6bc 2c69 223c 22fd b73b
00000130: 412c ce3c 8a22 51bb d977 e73a caa7 ad3c
00000140: 2e6b c4bc 5b02 563a 8e3f 8abb 831f 18bc
00000150: 2e50 f6bb 8eae 08bc 521c d9bc d6e6 02bc
00000160: ec6c 97bc 539d d33c d4a4 1c3c 3e0c b43b
00000170: 116c 19bd a1f8 233c e66e b6ba c427 dfbc
00000180: 40dc 10bc b0f7 84bc 1a07 0c3c d5eb 60bc
00000190: f6b5 a13c 5f35 3abd c8ea 7c3c 408a 76bc
000001a0: 702b 393c 444d b83a 912d c93b f795 c3ba
000001b0: 075c 83bc 2aaf 1c39 9f8c e0bc 9286 83bc
000001c0: c843 70ba a1c4 10bc 96a8 a93c b240 bf3b
000001d0: 4676 09bb d017 7dbc 6a03 c53b e53f 9abb
000001e0: 07bd b93a 2ec9 a43b 9e40 31bc 2bb3 06bd
000001f0: dd11 a03b 22a9 b33c c614 e5bc 3817 9bbc
00000200: 082a 8e3c 21ef 553c aa60 313a 64c1 f23b
00000210: 3821 d0bc 64d3 e4bb 42b4 a53c b50d 90bc
00000220: 190f c0bc da59 2e3c d93f c63a bbcd c83c
00000230: 1c58 21bb 5807 413c 7f52 82bb 1ea7 bfbb
00000240: 9607 8abb 1459 febc 0c88 c0bc 7d09 68bc
00000250: de1b c03c 77ce b4bc b15b 33bc ec32 1d3d
00000260: 92d0 0ebd 4259 a8bc 74ec 6bbd 326c fd3b
00000270: 2e86 2a3b 1df6 71bc e01c c13b ba06 37bb
00000280: 978d b83b 3cb7 df3c a028 05bc 7c07 b6bb
00000290: f62c fb3b 6380 a43c 9565 dfbc 5e9f 923c
000002a0: 2921 f3bb 74db 21bd 18e8 7bbb ce1a 973b
000002b0: 1395 93bb 7b7f 0bbd 11e6 0fbd 6e76 7a3b
000002c0: d858 eebc 8fd7 adba d174 1cbc f133 9d39
000002d0: c081 c73a 84fe 2e3c 0678 a7bc eb1e 433c
000002e0: 9adb f238 103b 273c 6595 653a c6f9 bbbc
000002f0: e252 173d 53be 703c 5d57 62bb b5c6 fcb9
00000300: 8624 85bc 8b6c 8e3c 6a9e c93a 3764 7cbb
00000310: 4cce 3a3c dd75 77bc 3084 75bc a535 eb3c
00000320: daca e6bb 8a92 72bc a8f9 f93c 11f9 0d3d
00000330: ea92 a0bc a270 ec3b 7051 7fbc 7764 48bc
00000340: e104 e43b 219d 213b 676b 1f3c 4baf 3bbc
00000350: f187 ab3c efc4 81bc e590 81bc bbd3 95bc
00000360: f3f1 98bb cb38 85bc 3768 13ba b191 c7bc
00000370: ac95 eaba 200b 9c3b 5ef9 73bc 2633 05b9
00000380: d7b0 b8bc dd3d c23b ebc3 45bc 8182 903b
00000390: d006 e93c 3296 3abb ef1d 243c aa22 81bc
000003a0: 4ee1 e8bb ab18 05bb 5675 02bd 4c53 62bc
000003b0: a847 043c 54c2 953c 8d52 39bc 01ca b33b
000003c0: 26b7 103c 3720 a53b 6f6b 8b3b b829 f93c
000003d0: 7a05 163c c2b6 973c 3b52 a9bb ddcd 82b9
000003e0: 9426 cbbc 2d0a d83b 3229 ce3a 4991 813b
000003f0: 7eeb 32bc 025c 83bc b5f9 67bb 1cea d3bc
0.010133421 0.0052758576 -0.00022467795 -0.010123702 -0.022768643 0.02323404 0.00015505844 0.009654055
-0.025664287 -0.0084373625 -0.01879143 -0.012839422 -0.01113283 -0.028653823 0.009173624 -0.005356968
0.0014507696 -0.017375577 -0.014341484 -0.00261624 -0.01368652 0.011931897 0.0072176373 -0.017431663
-0.001987504 0.016550744 0.005885573 0.010738269 0.0071718735 -0.016130794 0.00014628726 0.0061360514
0.03516495 -0.019317558 0.009658073 -0.016542722 -0.034388058 -0.0053536743 0.005377306 -0.0036053688
-0.008963224 -0.0031049727 -0.011262003 0.0069231866 0.0025587252 0.011369636 -0.0019370741 -0.0009743115
-0.012317568 -0.011806825 -0.016056145 -0.010730471 -0.015049269 -0.016965374 0.009910339 -0.031521443
-1.330551e-05 0.006899858 0.02921019 -0.01817728 0.010601191 0.014121976 -0.05458546 0.014145536
0.021399174 -0.014510801 0.031273402 0.0036242674 0.011594638 0.0032018425 -0.015471944 0.028164916
-0.0008064712 -0.028195076 0.00991277 0.0056148926 0.025167586 -0.0031911456 0.0017659619 0.021198172
-0.023976889 0.0008163803 -0.004219002 -0.009284857 -0.0075168824 -0.008342398 -0.026502762 -0.007989606
-0.018484555 0.025831854 0.009560782 0.0054946234 -0.037456576 0.010008008 -0.0013918548 -0.027240641
-0.008841574 -0.016231388 0.008546615 -0.013728102 0.019740086 -0.045461055 0.015436836 -0.01504761
0.01130186 0.0014061113 0.006139465 -0.0014922012 -0.016035093 0.00014942573 -0.027410803 -0.016055379
-0.00091653736 -0.0088359425 0.02071027 0.0058365697 -0.0020975037 -0.015447572 0.00601237 -0.004707324
0.0014170714 0.0050288653 -0.010818629 -0.03288571 0.004884942 0.021931235 -0.027964007 -0.01893197
0.017354026 0.013057501 0.0006766418 0.007408308 -0.025406465 -0.0069832075 0.020227555 -0.017584661
-0.0234447 0.0106415395 0.0015125229 0.024512162 -0.0024619168 0.011781536 -0.0039771195 -0.0058487793
-0.00421233 -0.031048335 -0.023502372 -0.014162418 0.023450788 -0.022071106 -0.010947154 0.03837864
-0.034866877 -0.020550374 -0.057598546 0.007733845 0.0026019919 -0.014768151 0.0058933347 -0.0027927593
0.005632113 0.027309053 -0.008127362 -0.0055550914 0.007665272 0.02008075 -0.027270118 0.017898258
-0.0074197245 -0.039515927 -0.00384379 0.0046113497 -0.004503855 -0.03405712 -0.035131518 0.0038217562
-0.029095098 -0.0013263094 -0.009549336 0.00029984073 0.0015221164 0.010680798 -0.020442974 0.011909227
0.00011580363 0.010206953 0.0008757918 -0.02294625 0.036944278 0.014693814 -0.0034536936 -0.00048213234
-0.016252767 0.017385742 0.0015382294 -0.003851188 0.011401724 -0.015103784 -0.014985129 0.028712103
-0.0070432248 -0.014805445 0.030514553 0.034661356 -0.019601304 0.0072155753 -0.015583381 -0.012230984
0.0069585894 0.0024660307 0.009730197 -0.011455367 0.020938845 -0.015840976 -0.015816161 -0.018289438
-0.0046675145 -0.016262433 -0.0005623134 -0.024361463 -0.0017897389 0.0047620684 -0.014890997 -0.00012702923
-0.022545261 0.005927785 -0.012070636 0.0044100885 0.028445631 -0.002847087 0.010016902 -0.0157636
-0.0071069365 -0.0020308893 -0.03185018 -0.013813805 0.008073725 0.01828114 -0.011311186 0.005486727
0.0088327285 0.0050392407 0.0042547504 0.0304154 0.009156579 0.018519763 -0.0051672733 -0.00024948912
-0.024798669 0.00659301 0.001572883 0.003954087 -0.0109204035 -0.016035084 -0.003539664 -0.025868468

action_model._continuous_distribution.mu.bias f4 [2]
00000000: a9ab 8c3d 7cda 913d
0.06868679 0.07121751

exp_avg f4 [512, 8]
00000000: 5975 2339 b534 b537 064b 5539 e26e 9c37
00000010: 9a0e 79b9 6578 33b9 d81e 32b9 291a 1439
00000020: b75c 61b8 4fa1 9e38 9ba7 a4b8 b666 e8b7
00000030: d44d 4737 a74f eeb6 600c 9c38 78ec 6ab8
00000040: a2eb 6638 2421 2bb9 db32 8239 d98d 0539
00000050: 4229 e3b8 b665 1db7 2e5d 2bb9 13fe 4939
00000060: 411b 0238 7db7 76b8 e59e dd36 ddc9 d8b6
00000070: e28e 3e38 52c3 8537 4790 b336 1331 38b8
00000080: 1738 5139 a7aa 66b9 e032 a139 7cd7 ee38
00000090: 700c deb8 39b2 1638 5049 80b9 ef62 a639
000000a0: 7997 6536 bfab 0f37 d587 bab8 c412 8e38
000000b0: cb08 e4b8 9943 1a37 6679 0bb8 3ebb 9238
000000c0: ab01 13b6 5dc1 a436 3d12 abb5 39ae b634
000000d0: e6fe 55b5 cd3d 71b5 a406 a536 62be 72b6
000000e0: a158 b238 57bd 21b9 900c b138 296a 7938
000000f0: cf9b 81b8 7c3b b2b7 3a45 8db9 ea8c 4f39
00000100: 98ad 7338 3b63 4837 9899 b6b8 ca9a 4fb9
00000110: a146 4c39 1852 8e38 1e19 0739 baff 8db9
00000120: 5866 ad38 fd3e 0cb9 e3f2 1d39 877e 97b8
00000130: 5927 81b8 d8ed 3538 61be 21b9 0a12 e738
00000140: 5306 1939 87a7 90b8 7824 17b7 5a3b 49b8
00000150: 7119 8538 b5ce 85b6 c2b4 98b8 d0a1 a1b8
00000160: 3622 a5b7 a41c 22b9 6451 d537 4b4c 2f38
00000170: 3c9f 1338 b3e0 f837 470b 9db8 2c58 4439
00000180: 60fd 1cb9 d869 4739 4647 0fb9 0d1a 8d38
00000190: 9166 4138 d40a 08b9 35a3 7339 45d6 b5b9
000001a0: d104 3f39 846a 2338 3282 8837 3ecc 5ab9
000001b0: beb8 3239 8d3c 0338 5fd9 a2b5 c64d 36b9
000001c0: d8fa 7538 7d02 0938 d599 8e38 c5ed 0738
000001d0: a4f4 07b9 1b75 dab8 2645 13b9 9f59 ed37
000001e0: 5b39 c937 760c 78b8 e514 9d38 5621 9c38
000001f0: 6333 4fb8 a75b aab7 4d9d 3bb8 18b0 4338
00000200: d1fa 8839 e95c c1b9 d241 103a b57d 9b39
00000210: c64d 87b9 fc22 6e38 7596 09ba 8e84 063a
00000220: dcd5 6bb9 15bb 1639 9e66 8eb9 7d6a 86b9
00000230: ff7c b739 c14a 9a38 8b44 9d39 2c2e bab8
00000240: 95f1 56b8 1e14 5fb8 4015 a0b7 7011 d736
00000250: 7d1d 0038 2930 1bb8 9b76 3e38 ea0a 9a38
00000260: 6729 9b37 645e 05b8 50da ab37 34c4 3837
00000270: a7b4 8636 28f7 b7b6 caf0 12b8 c678 8237
00000280: 79ea 3a38 22a1 93b7 6649 d6b7 c128 a1b8
00000290: 1131 e538 3ca8 3a38 c4bf 4937 b1cf 65b8
000002a0: e78f e7b7 833a 75b8 0db3 9538 c21d 5e38
000002b0: ad98 03b9 3d00 3bb8 4694 cdb8 6fe6 c638
000002c0: 4d6b efb7 d07d c338 1aa1 ccb8 f1b3 fdb7
000002d0: 0393 b437 81cf 19b7 8853 a238 9a40 c0b8
000002e0: 5140 a838 07b9 3ab9 fb32 feb7 3bb8 87b6
000002f0: 67a8 9238 bd84 1337 d8c5 52b9 1945 1839
00000300: 3846 53b7 f977 8437 852a 23b8 8378 8636
00000310: 0d77 9d38 c49e b337 a236 3e38 39c4 3fb8
00000320: 3b43 2c38 a961 a838 7cb1 db37 933c 9e38
00000330: aea1 02b9 2549 58b8 065d b8b8 948a ee37
00000340: 1602 1439 6b4e 63b9 bc14 b039 7305 9d39
00000350: 9ffd 9bb9 044d f5b8 ae98 5eb9 1460 5539
00000360: df7a 8435 7e2a f2b7 07c2 8b38 e205 0f38
00000370: b547 f6b8 51ef 5cb8 4687 13b9 5000 ae38
00000380: ac1d 2cb8 2c7c 0539 98a3 fbb8 c34d dab8
00000390: 3e06 b938 32c9 6337 df85 0239 b5b7 07b9
000003a0: c7de 5a39 6083 5db9 6be3 ae38 555b 1d39
000003b0: a88d b238 4cf5 acb6 5a04 1fb9 d6c2 9c38
000003c0: 143f 6138 55ec 26b9 98b2 1a39 fccc e938
000003d0: 62b9 adb8 1269 0e38 e20a e3b8 e447 1839
000003e0: 3a70 d7b8 e676 3139 e2a2 1bb9 25a2 aab8
000003f0: 86ba 3c38 4b50 5bb8 edf0 0439 c801 20b9
0.00015588607 2.1601425e-05 0.00020341211 1.8648283e-05 -0.0002375193 -0.0001711562 -0.00016986893 0.00014124125
-5.3730528e-05 7.564073e-05 -7.851348e-05 -2.7704384e-05 1.1879445e-05 -7.1022255e-06 7.440965e-05 -5.6010176e-05
5.5055723e-05 -0.00016320177 0.00024833423 0.00012736711 -0.00010831888 -9.381611e-06 -0.00016342543 0.00019263504
3.1019797e-05 -5.8821857e-05 6.604811e-06 -6.4608016e-06 4.54326e-05 1.5945789e-05 5.351412e-06 -4.3914722e-05
0.00019952688 -0.00021998082 0.00030746218 0.000113888615 -0.000105881016 3.592877e-05 -0.00024468685 0.000317357
3.4211828e-06 8.563452e-06 -8.894472e-05 6.774583e-05 -0.00010873525 9.194854e-06 -3.3253244e-05 6.996699e-05
-2.1905678e-06 4.9100913e-06 -1.2745801e-06 3.4026905e-07 -7.971961e-07 -8.986943e-07 4.9181563e-06 -3.6171627e-06
8.50421e-05 -0.00015424691 8.442358e-05 5.9465096e-05 -6.180221e-05 -2.1246953e-05 -0.00026945194 0.00019793553
5.8097386e-05 1.1944033e-05 -8.707045e-05 -0.00019798722 0.00019481267 6.786379e-05 0.0001288396 -0.00027084147
8.268346e-05 -0.00013374905 0.00015063169 -7.223809e-05 -6.1585284e-05 4.3375272e-05 -0.00015425078 0.000110182984
0.00014593573 -6.8976595e-05 -9.008792e-06 -4.797741e-05 6.346673e-05 -3.9877727e-06 -7.2815936e-05 -7.707218e-05
-1.9685463e-05 -0.00015460193 2.542948e-05 4.1794305e-05 3.519583e-05 2.9668538e-05 -7.488444e-05 0.00018724863
-0.00014971709 0.00019017549 -0.00013664094 6.728256e-05 4.6110308e-05 -0.00012974004 0.00023235085 -0.00034682653
0.00018216974 3.896143e-05 1.627309e-05 -0.00020866186 0.00017044225 3.1289226e-05 -1.2133204e-06 -0.00017385845
5.864617e-05 3.2665663e-05 6.799741e-05 3.240795e-05 -0.00012965739 -0.00010416863 -0.00014044772 2.8294335e-05
2.3987775e-05 -5.9139413e-05 7.490235e-05 7.444869e-05 -4.9400503e-05 -2.0308258e-05 -4.4730772e-05 4.6655623e-05
0.00026126814 -0.00036881052 0.0005502972 0.00029657563 -0.00025807152 5.6776204e-05 -0.0005248555 0.00051314465
-0.00022491015 0.00014374808 -0.00027160806 -0.00025637812 0.0003499761 7.357216e-05 0.00029996442 -8.877771e-05
-5.1246567e-05 -5.318608e-05 -1.9083382e-05 6.4095293e-06 3.054504e-05 -3.6999732e-05 4.540999e-05 7.345325e-05
1.849672e-05 -3.179758e-05 2.0486448e-05 1.1012937e-05 4.014542e-06 -5.4825978e-06 -3.5033365e-05 1.5553447e-05
4.4564225e-05 -1.7598799e-05 -2.5544967e-05 -7.684669e-05 0.0001092871 4.4502536e-05 1.20251825e-05 -5.4791282e-05
-2.7604356e-05 -5.8467045e-05 7.1382245e-05 5.295664e-05 -0.0001255001 -4.4584496e-05 -9.80278e-05 9.484297e-05
-2.8540986e-05 9.321759e-05 -9.7574855e-05 -3.0243742e-05 2.152613e-05 -9.167824e-06 7.740321e-05 -9.1673064e-05
8.022844e-05 -0.0001780727 -3.03029e-05 -4.0447608e-06 6.99319e-05 8.792788e-06 -0.00020100863 0.0001452159
-1.2592929e-05 1.5791493e-05 -3.8901828e-05 4.0075406e-06 7.508518e-05 2.1412394e-05 4.535041e-05 -4.5720695e-05
4.107061e-05 8.029055e-05 2.6189482e-05 7.54531e-05 -0.00012457996 -5.1566534e-05 -8.791131e-05 2.8436341e-05
0.00014115157 -0.0002167762 0.00033584784 0.00029949434 -0.00029752866 -0.00011696856 -0.00021228447 0.00020349055
9.870527e-07 -2.8868435e-05 6.664177e-05 3.4099336e-05 -0.000117435506 -5.2674968e-05 -0.00014069406 8.297025e-05
-4.103563e-05 0.00012730126 -0.000119990844 -0.00010409534 8.82265e-05 1.3577099e-05 0.00012447637 -0.0001294304
0.00020873091 -0.00021125143 8.3393265e-05 0.0001500671 8.514087e-05 -5.1545558e-06 -0.00015165043 7.474951e-05
5.3702926e-05 -0.00015919034 0.00014753116 0.00011148487 -8.283813e-05 3.3953293e-05 -0.000108262306 0.00014522631
-0.00010272903 0.00016924329 -0.0001484263 -8.1364335e-05 4.4996406e-05 -5.2288447e-05 0.00012678253 -0.00015259453

exp_avg_sq f4 [512, 8]
00000000: 0654 8a35 c11d 2e35 c5fa ba34 cac9 d834
00000010: a38b 0635 ce95 1635 b0b3 c934 a7f9 0b35
00000020: 6659 e733 25dc ea33 f99b b833 8317 d234
00000030: c4a9 e733 5518 2f33 115e 7234 5057 2d33
00000040: bc39 1735 21c9 1435 c3d0 c434 2a69 a235
00000050: f086 2035 fb48 8734 0c54 7d35 fad5 7034
00000060: b20f 0134 6868 0634 192d f933 ed91 9234
00000070: 1701 0534 0243 8d33 dbd8 e334 b171 8b33
00000080: e045 9135 eec8 8a35 e21d 5235 b792 7636
00000090: d98c df35 1df9 0d35 29ed ff34 d70e 5635
000000a0: a86f 8f35 5c5d 6435 814c aa34 a503 2335
000000b0: 5379 f234 515b d434 c70f d234 6682 f034
000000c0: ac6d 5331 418d 2131 18a5 3731 434a e131
000000d0: e88f ea31 3119 c130 7018 2f32 5958 1231
000000e0: 9ec5 0235 0d69 dd34 69e7 7f34 e73d 7a34
000000f0: cddc 0a35 8cad 8734 e35b 4935 6862 d334
00000100: ce64 ca35 ab70 a035 e149 8935 a351 ae36
00000110: 51aa 8235 c60f 1935 620f ed35 dfc7 0835
00000120: c4c5 d234 84a7 e734 093f 6334 4b09 3534
00000130: e3a7 4435 f9c9 8134 1c69 cb34 cd32 9534
00000140: 9ac2 f834 62ac a734 ae14 5334 4837 eb33
00000150: 37b0 da34 a106 6d34 b142 4135 eb1d b234
00000160: 0c1a ee34 30fb b134 5506 b634 a537 f535
00000170: a7e2 aa34 7c36 2934 7664 6934 a368 7634
00000180: 148d 4a35 52e9 5035 120d b534 1c69 4a34
00000190: cd88 8035 c800 d034 1f0b a134 2821 3235
000001a0: c05d c235 4015 8235 7ecf 4935 f079 8836
000001b0: 158a 3235 eb2a b034 e73e 8035 5345 b934
000001c0: bdcc 8734 9e41 1134 140e d033 f8d8 4b34
000001d0: d218 fe33 3534 fb33 83c0 d734 1562 0c34
000001e0: 42a7 de33 6b3f 9233 8d3e 7c33 4943 8634
000001f0: 46b9 bb33 0814 4f33 297c da33 c657 4433
00000200: 33ea 7936 17e7 7d36 2779 1d36 b980 f636
00000210: ec4b 9536 515e f735 ebe0 9e36 851f fd35
00000220: 0ca3 f535 3d9c 9635 27e7 3135 2267 a935
00000230: f46f 0936 b80d 5d35 4b00 0736 5a06 a835
00000240: 76d2 d434 038d 5634 d2c8 5534 1196 ea34
00000250: 357b 8434 2a5f 0c34 1bde 3035 260e 7334
00000260: 07d1 0a33 b358 bf32 c16b c632 0e22 8933
00000270: 3c6a e132 8027 9332 3bd3 be33 5ee5 5c32
00000280: aed5 b934 9755 6c34 149b 8834 da8b b935
00000290: 5296 8134 1529 ee33 deb6 3c35 e399 bb33
000002a0: 1860 5e34 b3e8 1534 3b6b ed33 7632 d733
000002b0: 636c 3e34 fb89 ed33 e187 ed34 3f4a 0c34
000002c0: aa68 fa33 f32c e733 abb3 ac33 3fd7 9a34
000002d0: b236 dd33 b898 8233 8f5d 1734 c7ac 8333
000002e0: 5948 1b35 d90b 0835 f7ef 0a35 eb0e bf35
000002f0: 9c79 4835 471f 6d34 cb47 1736 06d9 b634
00000300: a378 9933 dde4 6833 b33f 1f33 cf8f 6333
00000310: c872 e033 ae94 1333 9a6b 0334 b7f8 1333
00000320: a57e f534 2b6b d634 16ff be34 4254 e235
00000330: 9140 c034 b738 2634 35c8 6c35 0b73 3e34
00000340: ee91 2f35 bd54 e534 0d12 d934 9507 8c35
00000350: 34ee 3b35 258c bf34 78fe 4935 f832 c134
00000360: 63f2 3134 0b2d d033 583a ef33 9d74 4a34
00000370: 20c4 3034 ec68 ba33 7ad0 0935 3f5e db33
00000380: 6869 b234 3b34 9134 482f 8534 5388 8935
00000390: dfac 0735 791e 2134 7e4c 3c35 6534 4234
000003a0: 155e 9535 029f 6135 6dcf 4b35 9122 8136
000003b0: f440 4635 c12c 8434 e112 0936 6457 9a34
000003c0: d667 e634 94d5 d334 8942 8934 139c 4a35
000003d0: ebef f434 73a1 3b34 acd7 2135 fc23 2f34
000003e0: a781 da34 8020 d434 7d1f 9734 d987 a735
000003f0: 3386 0335 a4e8 2034 6907 dd34 6848 4934
1.0306255e-06 6.486335e-07 3.482766e-07 4.0379956e-07 5.012209e-07 5.609735e-07 3.7569907e-07 5.2144827e-07
1.0773037e-07 1.0936518e-07 8.596539e-08 3.9132655e-07 1.0787656e-07 4.0767492e-08 2.2572227e-07 4.035911e-08
5.63359e-07 5.542698e-07 3.665974e-07 1.2100547e-06 5.9801005e-07 2.519881e-07 9.437215e-07 2.2429586e-07
1.2019771e-07 1.2517705e-07 1.1603169e-07 2.7300794e-07 1.2386987e-07 6.578013e-08 4.2439828e-07 6.493372e-08
1.0823678e-06 1.034028e-06 7.827458e-07 3.6742256e-06 1.6655787e-06 5.28891e-07 4.7670008e-07 7.974281e-07
1.0686826e-06 8.5072475e-07 3.1720631e-07 6.0727535e-07 4.5164288e-07 3.955452e-07 3.9127028e-07 4.479836e-07
3.0766882e-09 2.3508877e-09 2.672385e-09 6.5568044e-09 6.8266566e-09 1.4049758e-09 1.0191897e-08 2.1296016e-09
4.8716345e-07 4.1240892e-07 2.3832912e-07 2.3305584e-07 5.1730314e-07 2.5271981e-07 7.501205e-07 3.9373413e-07
1.5079511e-06 1.195372e-06 1.0228797e-06 5.195108e-06 9.735323e-07 5.7019895e-07 1.7662353e-06 5.09548e-07
3.9259442e-07 4.3148987e-07 2.1163955e-07 1.686032e-07 7.326e-07 2.4175077e-07 3.7888174e-07 2.7790375e-07
4.633519e-07 3.12316e-07 1.965843e-07 1.0953096e-07 4.0733877e-07 2.2074757e-07 7.199515e-07 3.3176852e-07
4.4349906e-07 3.3151582e-07 3.390475e-07 1.8270117e-06 3.182988e-07 1.5759173e-07 2.1736363e-07 2.2948602e-07
7.545616e-07 7.7825564e-07 3.3723387e-07 1.8850955e-07 9.576557e-07 3.8743588e-07 2.9996679e-07 6.6358416e-07
1.4481411e-06 9.691939e-07 7.5180276e-07 4.0673112e-06 6.6511103e-07 3.2813782e-07 9.55505e-07 3.4509375e-07
2.5294676e-07 1.3528049e-07 9.6883156e-08 1.8984781e-07 1.18323115e-07 1.1697595e-07 4.018694e-07 1.3074198e-07
1.03681046e-07 6.8101905e-08 5.8730212e-08 2.50084e-07 8.741567e-08 4.821416e-08 1.0174001e-07 4.5714636e-08
3.7240213e-06 3.783445e-06 2.3465343e-06 7.3463566e-06 4.4493845e-06 1.8430384e-06 4.734951e-06 1.8859142e-06
1.8301375e-06 1.1221342e-06 6.627401e-07 1.2621497e-06 2.0479756e-06 8.234888e-07 2.0116738e-06 1.2518824e-06
3.9641208e-07 1.9981603e-07 1.9910229e-07 4.3695084e-07 2.467656e-07 1.3073137e-07 6.5888315e-07 2.2636286e-07
3.2320738e-08 2.2275662e-08 2.3099235e-08 6.385754e-08 2.6241757e-08 1.7131015e-08 8.885987e-08 1.28578375e-08
3.4614408e-07 2.201035e-07 2.5444808e-07 1.3824276e-06 2.4137495e-07 1.10902114e-07 7.0301564e-07 8.735858e-08
2.071032e-07 1.3961362e-07 1.10556776e-07 1.00208965e-07 1.773456e-07 1.1061271e-07 4.4243555e-07 1.3065527e-07
1.16605705e-07 1.0764952e-07 8.0420556e-08 2.8841347e-07 1.03010635e-07 6.081376e-08 1.4097007e-07 6.131591e-08
5.784728e-07 5.068119e-07 5.17582e-07 1.4234951e-06 7.468277e-07 2.2083724e-07 2.2542542e-06 3.4058047e-07
7.1465614e-08 5.422486e-08 3.7078006e-08 5.298335e-08 1.04516914e-07 3.4361328e-08 1.2239471e-07 3.445231e-08
4.5726952e-07 3.993858e-07 3.5575857e-07 1.6862834e-06 3.5809765e-07 1.5480587e-07 8.820819e-07 1.7736981e-07
6.5404936e-07 4.271623e-07 4.0432533e-07 1.043302e-06 7.000956e-07 3.567849e-07 7.5248636e-07 3.5986136e-07
1.657259e-07 9.693948e-08 1.11399174e-07 1.885514e-07 1.6462627e-07 8.680385e-08 5.133985e-07 1.02151255e-07
3.3231777e-07 2.7046357e-07 2.4807582e-07 1.0246971e-06 5.054298e-07 1.500538e-07 7.014677e-07 1.8086719e-07
1.1128747e-06 8.405042e-07 7.592524e-07 3.8485236e-06 7.3855267e-07 2.461948e-07 2.042558e-06 2.874832e-07
4.291639e-07 3.945721e-07 2.556665e-07 7.547798e-07 4.5623105e-07 1.7474467e-07 6.029102e-07 1.6311236e-07
4.07e-07 3.9511724e-07 2.8148852e-07 1.2482006e-06 4.899659e-07 1.4985795e-07 4.116985e-07 1.8745925e-07

exp_avg f4 [512]
00000000: e1b5 8b39 d979 d9b7 6e89 ef38 c985 cb37
00000010: 2794 7b37 67e1 d438 b255 1db6 b84e fc38
00000020: 2e2d 7537 4afc 8338 c185 3839 57c5 da37
00000030: 2ef7 d838 a878 ce38 fadc 2739 af87 e738
00000040: c204 8a39 de16 e5b9 4bb8 a1b7 441e 2738
00000050: 61f6 5237 6ce8 4938 1aad 4bb8 02d9 4939
00000060: d725 91b8 877e b738 6f17 6639 419d 9f38
00000070: b3a1 1bb9 266d 7b39 3250 0039 c5c9 31b8
00000080: 14b8 d5b8 4b0e 1d39 31f6 3d39 33f9 f937
00000090: 086d 7d39 252a 16ba 6420 c036 8840 b7b7
000000a0: 9d1b 2c39 5db6 b438 64fe 3138 7359 b539
000000b0: 3579 d238 ae0b 0cb9 3913 6238 28ed b838
000000c0: 3680 7ab9 5894 83b9 99fe 5b39 ecdd 9d39
000000d0: c9b7 5d39 342a 4738 a53c 0639 6f08 b137
000000e0: 5983 2838 8e89 71b7 ee03 c8b8 ed61 2439
000000f0: 1d37 0a39 2698 9eb9 a000 7f39 c87f c4b8
00000100: e074 68b8 9f51 c8b9 3e95 f6b8 ded9 1ab8
00000110: 61ca 48b9 fefa 3bb8 2d12 a339 0ff8 a7b8
00000120: 875f d3b7 cbd8 7c38 13f4 55b9 0168 be38
00000130: a55a 56b9 0bb4 f7b7 4239 0c39 1195 af38
00000140: 1ea9 7736 73c2 4fb7 a22f 3638 e087 9f38
00000150: e3ad f3b6 fd4a 143a 02fc f239 81dd 6838
00000160: 2869 9439 b8ae 8638 441c bc37 6e12 c438
00000170: d20a 5139 cb6e 1139 a0a4 d338 fbc3 0539
00000180: bd65 9d38 d4c7 b739 7d08 e439 fadd d2b8
00000190: 3295 cb38 4c53 2239 f597 9eb8 3043 f538
000001a0: 75d1 2439 924e 1e39 e6bc 1d39 d509 3db7
000001b0: dc0d 0a38 54c4 ff36 e067 7e39 8057 c237
000001c0: af7c 07b9 d436 7336 94fd 0438 ffe4 dd38
000001d0: 248b 2bb8 0afe b739 0fe0 72b5 2e79 61b8
000001e0: 5393 8eb8 1910 3638 55a6 7cb9 20a9 9e37
000001f0: d6ed 7ab9 9c48 a8b9 e23e 83b8 3959 1837
00000200: cbac b838 4823 d838 6f45 13b7 52d3 feb6
00000210: cfb7 3c38 f132 4239 4d68 adb8 a80b 10ba
00000220: ab7d 8537 111a 3939 544f 6a38 02fc f2b8
00000230: 736a ea37 fb01 91b8 4e36 afb8 b793 5038
00000240: 6403 9238 e40b bc38 cba1 7a37 906c 5d38
00000250: 4ea3 30b8 ecef 8639 8dc8 3939 3e06 f1b8
00000260: d0f2 9c37 58b2 42b9 36b7 4e39 5a11 f5b8
00000270: 2539 5239 cf94 8f38 cc44 c137 e163 dfb7
00000280: 419e 43b8 5e3b cbb7 c9ff 043a 3ab3 3939
00000290: e64e 13b9 8981 8e37 95a0 70b9 2583 68b8
000002a0: cc72 8139 e9cb de39 1358 13b9 3529 9239
000002b0: 0db4 8539 326b 4f39 86d0 6039 104d 0039
000002c0: b8af 2639 5b4b 07b9 c3a3 0238 cbc8 91b8
000002d0: d35f 4838 e98e 96b9 48e4 3839 d6b9 00b9
000002e0: 293b c6b7 934f 56b9 d5f7 9337 6e0b 1439
000002f0: 6571 47b9 2a5e 10ba 8ac0 2f37 345a ee38
00000300: ada2 d8b9 43c3 f738 d71d c038 df9d 12b8
00000310: b376 96b6 72d7 b738 1da1 ef37 51e0 92b8
00000320: 3c04 a938 2fbb 70b9 354b 01b8 9135 f2b8
00000330: 4413 4a38 5fd9 e437 0623 ac37 c852 1138
00000340: c78d 90b8 0702 8538 68da 0db9 1326 1739
00000350: c581 07b9 51de 7439 e3ef 5739 650d b637
00000360: 1fee b538 5a87 8439 c0a0 ee36 b062 4637
00000370: ff53 8cb7 8714 b1b8 cdc3 6c37 cfc8 fc38
00000380: 3ad2 29b7 8432 0037 3dc8 0b38 aa89 4339
00000390: 9975 f4b8 6c38 83b8 3336 4038 b2cb deb9
000003a0: f161 8338 a22e 3136 4892 2339 b3e5 af37
000003b0: 0fa4 6a39 c58e 0339 90fa a739 1dab 5836
000003c0: 4a0f 003a b40d 70b9 00c1 0339 b7c2 d439
000003d0: 996f 8438 761c 4f39 05b6 88b8 024a 8538
000003e0: 365c d139 f40c 7bb8 d612 24b9 0949 3c39
000003f0: e8ac c236 fcbb bc38 f2c9 3239 9d05 bb39
0.00026647656 -2.5925156e-05 0.00011422006 2.4261784e-05 1.499526e-05 0.00010150932 -2.3444704e-06 0.00012030959
1.4613657e-05 6.293559e-05 0.00017597435 2.6079519e-05 0.000103457234 9.8453194e-05 0.00016008681 0.000110402114
0.00026324956 -0.0004369532 -1.9278514e-05 3.984409e-05 1.257434e-05 4.8138594e-05 -4.8560185e-05 0.00019249695
-6.921187e-05 8.7496875e-05 0.00021943239 7.611002e-05 -0.0001484219 0.00023977886 0.00012236906 -4.2388e-05
-0.00010190919 0.00014978011 0.00018116158 2.9799156e-05 0.00024168578 -0.0005728326 5.7258167e-06 -2.184535e-05
0.00016413485 8.617037e-05 4.243701e-05 0.00034589655 0.00010036157 -0.00013355791 5.39005e-05 8.8179775e-05
-0.0002388962 -0.00025096792 0.00020980313 0.00030110718 0.00021144668 4.7484602e-05 0.00012801828 2.1103971e-05
4.017665e-05 -1.4396746e-05 -9.537475e-05 0.00015676739 0.00013181237 -0.00030249468 0.00024318928 -9.3698094e-05
-5.542196e-05 -0.00038207785 -0.000117579926 -3.6919366e-05 -0.00019148878 -4.481803e-05 0.00031103325 -8.009385e-05
-2.5197643e-05 6.0283386e-05 -0.00020404188 9.079278e-05 -0.00020442398 -2.9528534e-05 0.0001337277 8.372416e-05
3.6904307e-06 -1.2383435e-05 4.3436543e-05 7.6070195e-05 -7.2622074e-06 0.0005656926 0.00046345597 5.5519402e-05
0.00028307107 6.422162e-05 2.2424509e-05 9.349441e-05 0.00019935824 0.00013869551 0.00010091928 0.00012756877
7.5052936e-05 0.00035053364 0.00043493873 -0.00010054927 9.707584e-05 0.00015480554 -7.562331e-05 0.00011695025
0.00015718288 0.00015097324 0.00015043057 -1.1267567e-05 3.291467e-05 7.622448e-06 0.00024262024 2.3167348e-05
-0.00012921052 3.6241736e-06 3.1707415e-05 0.00010580755 -4.0899162e-05 0.00035093754 -9.0478073e-07 -5.3757038e-05
-6.798529e-05 4.3407174e-05 -0.00024094556 1.8913823e-05 -0.00023930459 -0.00032097555 -6.2582796e-05 9.08068e-06
8.805989e-05 0.00010306254 -8.778049e-06 -7.594391e-06 4.4993878e-05 0.00018520259 -8.2687104e-05 -0.0005494901
1.5913354e-05 0.00017652685 5.5863828e-05 -0.00011586399 2.7944543e-05 -6.914508e-05 -8.354765e-05 4.9728635e-05
6.962454e-05 8.9667534e-05 1.4938832e-05 5.2791613e-05 -4.211376e-05 0.00025737227 0.00017717686 -0.00011492938
1.8709718e-05 -0.0001856772 0.00019713942 -0.00011685742 0.00020048449 6.846489e-05 2.3039429e-05 -2.6630181e-05
-4.663901e-05 -2.422713e-05 0.00050735153 0.00017709742 -0.00014048404 1.6988039e-05 -0.00022948005 -5.543525e-05
0.00024690328 0.00042495065 -0.00014051823 0.00027877992 0.00025501885 0.00019780992 0.00021439986 0.00012235739
0.00015896454 -0.00012902675 3.114693e-05 -6.9515394e-05 4.777296e-05 -0.00028716706 0.00017632649 -0.0001227626
-2.3630988e-05 -0.00020438274 1.7639171e-05 0.00014118638 -0.00019020362 -0.00055071956 1.0475642e-05 0.00011365526
-0.00041319933 0.00011814248 9.1608315e-05 -3.495614e-05 -4.4841668e-06 8.76625e-05 2.8566044e-05 -7.003605e-05
8.059337e-05 -0.00022957915 -3.082604e-05 -0.00011549437 4.8178495e-05 2.728094e-05 2.0520307e-05 3.464779e-05
-6.892863e-05 6.342312e-05 -0.0001352817 0.00014414666 -0.00012922946 0.00023352473 0.00020593363 2.1702328e-05
8.675106e-05 0.00025277847 7.1116665e-06 1.1824697e-05 -1.6728414e-05 -8.443841e-05 1.4112285e-05 0.000120537
-1.0122132e-05 7.641156e-06 3.332667e-05 0.00018647933 -0.00011656731 -6.257076e-05 4.5826844e-05 -0.00042494904
6.26481e-05 2.64022e-06 0.00015599385 2.0968588e-05 0.00022377096 0.0001254632 0.00032039406 3.228611e-06
0.0004885091 -0.00022893288 0.00012565032 0.00040580865 6.315037e-05 0.00019751661 -6.518889e-05 6.355719e-05
0.0003993229 -5.9855127e-05 -0.00015647276 0.00017956285 5.8017795e-06 8.9995534e-05 0.00017050633 0.00035671602

exp_avg_sq f4 [512]
00000000: ef51 4a35 54ad d333 2652 f434 a33f 2034
00000010: 11c5 b235 acf9 8f35 fc1d 8f31 e0f1 3135
00000020: 7831 a535 63f8 f134 b89e 2b35 affc f534
00000030: 3739 8335 3bf4 8e35 a397 5e34 5977 af33
00000040: 3ed2 5a36 5ea1 ec35 b21b c534 6a48 0533
00000050: f358 9634 db64 8534 b5bd d333 624e 4a35
00000060: e0e0 8a33 9b70 e534 9635 1835 c4f5 4334
00000070: 911f b134 686c 7735 0697 bf34 4502 ce34
00000080: af18 0e36 4649 6d35 0a55 1636 60e5 f034
00000090: c561 d735 dbb3 2236 1e03 ae33 a8d9 0133
000000a0: b2e2 7935 5969 ed33 07c5 5a35 0596 f735
000000b0: 55ea 8333 2fa3 f434 1c90 f034 f6a1 8d33
000000c0: 6b03 af35 1a04 8c35 5429 0b35 42ca a435
000000d0: a84c 0335 3583 d334 239a 8f35 c68a a035
000000e0: bc06 6133 ab43 3335 7d65 b035 5409 6a35
000000f0: 626f ff34 561e 9935 97b3 bf36 a7ee 0735
00000100: 01e4 4b35 f5fd e735 fe16 e435 7c43 1534
00000110: f67b 9735 3c08 a335 cc39 8b35 dff4 de35
00000120: c15f 5832 9cef 8335 240f 0935 bf57 9034
00000130: 5f9b df36 f3fe 4533 30a1 3334 d0af 7c35
00000140: 4883 3b35 f2c0 f431 5eb6 1f33 eb92 dd33
00000150: 56e7 b733 4b99 c536 a0cb 9636 e70d ae33
00000160: 65ad 1936 2768 a135 5ae2 8134 ca5a 7734
00000170: 41a6 9e36 a1ef 8f35 63cf c533 9056 ce35
00000180: 7cf8 1436 1de5 0436 a6d5 e935 a8ac 7b35
00000190: 82ca 4235 2aab 3536 4696 a334 c7a5 9834
000001a0: 1d06 dd34 f29c 6235 fa8c 1635 878b cd33
000001b0: 3d6f ac34 8976 9331 fdb5 e935 98a0 8c34
000001c0: 078c fa33 a078 0734 5045 3435 574b a934
000001d0: 0c02 5135 9d0c 9335 fee3 b633 07ba 8634
000001e0: 4847 9933 0c92 e333 36c7 a435 b223 eb35
000001f0: ebda 2c35 49af 5736 0c1c fc35 b645 2b35
00000200: 3bb2 0735 8d22 d934 e297 1e35 41f8 5f33
00000210: 9ea1 9f35 9f88 8c34 f01f c535 145c ce35
00000220: b1b7 5336 1779 3835 54e4 e234 6021 0136
00000230: 8ac2 9332 268c 8334 9c42 b235 f5e0 2734
00000240: 34fd a634 310f 8535 f8fd 2335 8843 ca34
00000250: 5e11 8d35 a333 2f35 7bb3 a734 46f9 2d36
00000260: 7e99 6936 9dea 8b35 fded c136 1dfa 4135
00000270: cf94 2235 af95 3835 d31f 6833 40a6 d932
00000280: 6937 3b33 e362 9d35 4aa4 c536 0d8d 9c34
00000290: 367c 5b34 5766 4135 fc18 1e36 1fa9 0d35
000002a0: ac62 7035 e4c4 ab36 2605 fe34 71eb d235
000002b0: 835a 8935 af7c e335 bfb1 e735 a170 4736
000002c0: a7a4 e935 cdb0 4735 3e20 1f34 ba86 cf33
000002d0: 46a1 0634 ba84 ef35 b9d9 3e35 18d7 fe34
000002e0: 3194 2233 0d40 df34 3c41 3733 1e72 8a35
000002f0: 902b 5536 6397 2c36 be90 9f32 d114 5534
00000300: aef2 ad35 4be9 4935 e98c 8a34 57be 9133
00000310: c133 0534 40e2 ae34 bf45 b834 351f 5e36
00000320: 158a 4c34 138a 1336 605d e035 97ea 0436
00000330: 9cb2 8035 f734 d533 762c 8d34 091e 9034
00000340: 0e0a 0136 f4d4 2534 ba46 c034 c44c aa35
00000350: 1cdd 9135 bf51 a735 eff9 5435 83ca ed34
00000360: bc2f 3e34 f974 8435 b529 c435 13da 4435
00000370: 95da 8432 2573 c633 2e29 f334 a544 b833
00000380: f37d 5735 37f2 fa34 8381 0435 8262 8a35
00000390: 80b1 0936 86d5 2034 a630 4434 fb99 c535
000003a0: a30e 2634 4a93 8632 2c7f b935 2ec0 5f34
000003b0: db3d b834 1800 f635 6c8d 0935 eeb5 c634
000003c0: f418 0f36 9acb 0e35 012b 2b35 1dc8 3d36
000003d0: 24de 2a34 5234 2635 6e8e a334 8ca0 5334
000003e0: 1c80 de35 b779 5734 85a2 d234 49b7 8c34
000003f0: e59f 5434 9b15 ca34 fc85 6235 6510 9e36
7.5370093e-07 9.8569814e-08 4.5508312e-07 1.4924312e-07 1.3319387e-06 1.0726994e-06 4.1652566e-09 6.628961e-07
1.2307855e-06 4.5070473e-07 6.393343e-07 4.5818658e-07 9.776912e-07 1.0650905e-06 2.0730526e-07 8.170782e-08
3.2606908e-06 1.7630334e-06 3.671426e-07 3.1032336e-08 2.8004396e-07 2.4846562e-07 9.859961e-08 7.5364926e-07
6.46703e-08 4.2736505e-07 5.670239e-07 1.8250199e-07 3.2991787e-07 9.217242e-07 3.5686406e-07 3.837214e-07
2.1174017e-06 8.8396007e-07 2.240124e-06 4.4870376e-07 1.6047203e-06 2.424457e-06 8.1030734e-08 3.023311e-08
9.3089614e-07 1.1055335e-07 8.149804e-07 1.8446596e-06 6.1427876e-08 4.5567273e-07 4.4808337e-07 6.595285e-08
1.3039511e-06 1.0432007e-06 5.1841675e-07 1.2277817e-06 4.891285e-07 3.9397278e-07 1.069919e-06 1.1961317e-06
5.239302e-08 6.6781166e-07 1.3142559e-06 8.718537e-07 4.7578493e-07 1.1408217e-06 5.7131506e-06 5.0638704e-07
7.595518e-07 1.7284752e-06 1.6994015e-06 1.3901257e-07 1.1286454e-06 1.2146843e-06 1.0373128e-06 1.6611556e-06
1.2594627e-08 9.829996e-07 5.105851e-07 2.6885934e-07 6.6640055e-06 4.609951e-08 1.6729314e-07 9.4133156e-07
6.985397e-07 7.12327e-09 3.7185934e-08 1.0317839e-07 8.563681e-08 5.888903e-06 4.4940534e-06 8.105035e-08
2.2899706e-06 1.2025747e-06 2.4192815e-07 2.3036696e-07 4.7281214e-06 1.0724071e-06 9.211251e-08 1.5373389e-06
2.2198356e-06 1.9802894e-06 1.7422033e-06 9.3756034e-07 7.256532e-07 2.7070732e-06 3.0470454e-07 2.8432825e-07
4.1168906e-07 8.4419946e-07 5.60845e-07 9.571436e-08 3.2118433e-07 4.291739e-09 1.7412818e-06 2.619388e-07
1.1667003e-07 1.2616738e-07 6.715609e-07 3.153352e-07 7.7861546e-07 1.0956024e-06 8.516507e-08 2.5094798e-07
7.137584e-08 1.0597077e-07 1.227693e-06 1.7519253e-06 6.439356e-07 3.2139526e-06 1.8783626e-06 6.3803907e-07
5.055078e-07 4.044454e-07 5.9080605e-07 5.214702e-08 1.189346e-06 2.6176437e-07 1.4686939e-06 1.5374994e-06
3.1548373e-06 6.872155e-07 4.226191e-07 1.9241925e-06 1.7201518e-08 2.4502623e-07 1.3281419e-06 1.5634926e-07
3.110414e-07 9.913693e-07 6.1091805e-07 3.7674567e-07 1.0510373e-06 6.526772e-07 3.1236763e-07 2.5924105e-06
3.480905e-06 1.0424588e-06 5.7795537e-06 7.2262065e-07 6.056625e-07 6.876316e-07 5.4045653e-08 2.5337727e-08
4.3589726e-08 1.1726191e-06 5.8901833e-06 2.9159892e-07 2.0441152e-07 7.2047027e-07 2.3558378e-06 5.2772697e-07
8.9550554e-07 5.119118e-06 4.7314933e-07 1.5714742e-06 1.0233638e-06 1.6949106e-06 1.7262572e-06 2.971887e-06
1.7407773e-06 7.4390556e-07 1.4819759e-07 9.663695e-08 1.2538393e-07 1.7845516e-06 7.1097344e-07 4.7467688e-07
3.7853344e-08 4.158359e-07 4.2667338e-08 1.0315014e-06 3.176483e-06 2.5718116e-06 1.8575857e-08 1.9844744e-07
1.2960134e-06 7.521782e-07 2.580703e-07 6.786711e-08 1.2405418e-07 3.2574644e-07 3.4323418e-07 3.3098743e-06
1.9049214e-07 2.1985077e-06 1.6716476e-06 1.9806082e-06 9.588725e-07 9.92822e-08 2.6295646e-07 2.6843944e-07
1.922835e-06 1.5444294e-07 3.5814247e-07 1.2688329e-06 1.0867693e-06 1.2466261e-06 7.9339856e-07 4.4292037e-07
1.7712495e-07 9.86881e-07 1.4615276e-06 7.333303e-07 1.5466222e-08 9.241038e-08 4.529224e-07 8.580654e-08
8.027702e-07 4.6742363e-07 4.9362296e-07 1.0310471e-06 2.051791e-06 1.497884e-07 1.827162e-07 1.4722458e-06
1.546528e-07 1.5666632e-08 1.3820586e-06 2.0838408e-07 3.4317677e-07 1.8328456e-06 5.1242273e-07 3.7012745e-07
2.1323185e-06 5.31954e-07 6.3765043e-07 2.8279676e-06 1.5913298e-07 6.1915955e-07 3.0464747e-07 1.9709313e-07
1.6577574e-06 2.0067715e-07 3.9233797e-07 2.621039e-07 1.9802208e-07 3.7641152e-07 8.4386534e-07 4.7106755e-06

exp_avg f4 [1, 2]
00000000: 4f8c 1abb 496f 62bd
-0.0023582166 -0.05528191

exp_avg_sq f4 [1, 2]
00000000: ac3e c93b d050 ee3b
0.0061415043 0.007272817
