results/max-hiddenunits512-config1-0/3DBall/3DBall-249087.pt (torch, 146970 bytes, 32 tensors)

network_body.observation_encoder.processors.0.normalizer.running_mean f4 [8]
00000000: 22e7 d83a f7fa afb9 fa30 213e 1c5a 4540
00000010: b218 a53d 1f18 52bc a961 cabe 26f3 7aba
0.0016548375 -0.00033565584 0.1574134 3.0836248 0.08061351 -0.012823134 -0.39527634 -0.0009572975

network_body.observation_encoder.processors.0.normalizer.running_variance f4 [8]
00000000: 84db 5444 5ac4 4144 ec7e 1148 11d4 5d46
00000010: 6313 1748 f7bb bc47 1006 1748 22ed b047
851.42993 775.068 148987.69 14197.017 154701.55 96631.93 154648.25 90586.266

network_body.processors.0.normalizer.running_mean f4 [8]
00000000: 22e7 d83a f7fa afb9 fa30 213e 1c5a 4540
00000010: b218 a53d 1f18 52bc a961 cabe 26f3 7aba
0.0016548375 -0.00033565584 0.1574134 3.0836248 0.08061351 -0.012823134 -0.39527634 -0.0009572975

network_body.processors.0.normalizer.running_variance f4 [8]
00000000: 84db 5444 5ac4 4144 ec7e 1148 11d4 5d46
00000010: 6313 1748 f7bb bc47 1006 1748 22ed b047
851.42993 775.068 148987.69 14197.017 154701.55 96631.93 154648.25 90586.266

network_body._body_endoder.seq_layers.0.weight f4 [512, 8]
00000000: 225d 973d f4a6 65be af6e 9a3e 6fed 4e3d
00000010: 3053 d6be b2f8 df3e 5e1d d63e 0191 c2be
00000020: 9a15 c43e 0b18 bf3e b035 aa3c fe2e b2bb
00000030: 7a3c 6e3e c60b 643e 9fdd 11be 0f4e 52be
00000040: bef7 0fbf 368d 0a3e cd5e 6c3e cbf3 97be
00000050: e220 18bf e7ff f6be c78b 28be 1e44 1d3e
00000060: 56d4 4bbf 6cbd 2fbf 0c1d da3e 3ea4 e73e
00000070: f7a8 cdbd a452 a3be 7707 073e 883e 8c3e
00000080: a472 db3e fb9c cfbc 9b1c 02be 5d4f 6f3d
00000090: 5950 293e 1013 ddbe 4448 ce3e c8e3 abbe
000000a0: 1c5a c63d fda5 8b3e c4ac 5b3d 3089 163e
000000b0: 387b d03e d1c5 24bf 5fb0 9fbe 83d1 abbe
000000c0: aabe ac3e a5f7 fabe 347c aebe 5409 bd3e
000000d0: 1df7 b0be 466d 153f bf03 66be 8b67 933e
000000e0: d3eb b8bd f9f4 bc3e 6efe a2be e0da aa3e
000000f0: 551e 6bbe 3e78 d93b 8b2e 2cbe 219a f3be
00000100: b6e6 25be 9296 6c3e a0d6 77be aa25 c13e
00000110: e6a3 053e d20a 003c 61a7 8fbe 2752 373d
00000120: a3df 78be c5de b83e eecc f6bd 2081 8fbe
00000130: 605f 793e 6035 bb3e 59a2 913e b5c2 b9be
00000140: 0f6f 04bf eca2 743e 6ca8 b63e 0444 edbe
00000150: f253 e33d ff28 353f eed5 05be 11a4 873e
00000160: 7992 b1be c2a5 133f 976f 533e 2c20 b53d
00000170: 6f84 963c 350a 7d3e b9f6 4c3e 5e10 9c3e
00000180: a810 29bc b914 ba3e 927e 3abd a437 033e
00000190: c9fb 1f3f eaed 813d a20a 273e 0a05 413c
000001a0: 882c 963e 3775 b7bd 2e52 563f 1d5c a83d
000001b0: ced7 8d3c d1eb 103c 8875 9e3d df1f b5bd
000001c0: 139e 043c a2f0 39bc 1218 bdbe 271f a13e
000001d0: f35f 52bb 0f53 1bbf c18d 783e 9142 38be
000001e0: 1d2d e33e 231b 763d ab55 a2be 5958 cd3e
000001f0: c2ba f93e 0331 0abe 414c c53e 2910 2abe
00000200: beb1 3a3c 68f4 b0be 2ccf 853c 59a3 4cbe
00000210: 9f73 85bd 3907 15bf a095 4e3e 7d09 44be
00000220: ec2a 9ebe 6cee 8cbe 17af 2f3d dccb 713e
00000230: 85cd 7bbe be02 5c3e 14d0 42be 03c8 1cbe
00000240: 6b15 a53c 9fbc 15bf 7a95 583e b11b ce3d
00000250: 22e0 b5be 6108 ee3e 9f21 dbbe 9698 0c3f
00000260: 7056 e5be adc7 af3d b25d c23e 5bed 573f
00000270: 6f9c c4be 59f7 90bd daa7 3d3e 59a3 7dbc
00000280: eff6 973d fcbe 193f 83a8 e8bd 4e0b 933e
00000290: 63f5 193b e80b d3be 6919 3c3e ff19 73be
000002a0: bb36 db3c 9ab3 bfbe 8cf2 09be 609b ef3e
000002b0: d6ce ef3e 7d4f b63e cda2 4bbe a1ba 0dbf
000002c0: a321 a5be 8f27 24bd fdd7 65bd 77a2 a63e
000002d0: 07da 743e 03b6 113f 287b 5d3e 1d36 fb3d
000002e0: e80b 233d 1cd9 b23e 73c3 27bd bc91 863e
000002f0: 3a4d 34be 614c 8c3e ef5b 9fbe 7bc3 96be
00000300: fa26 d6bc 21d5 473f 1ba2 49be 5eb9 70be
00000310: 65dd a63e 5b1e 363e 74f6 723d 0e49 053d
00000320: f127 d73e 5233 0b3f 2a5a 25be eb06 20bf
00000330: b86f 1cbe a27f 3cbd 17c1 9dbe 3255 8c3e
00000340: f468 9f3d 4d17 7fbe ab04 7dbe d043 00be
00000350: 6cb9 a63e fa1c 863e 53f6 03bd eb12 86bd
00000360: a566 683e 4aec 84be c15f 0c3e 886c 98be
00000370: e2e5 89be c345 90bb 10d7 5fbd 45a4 c5bd
00000380: 1334 24be e3b7 0f3e 0876 da3e 1911 e13e
00000390: f117 e33e 682b b4bd 2f43 a83e dbfb 27bc
000003a0: 6896 023e 975f 1b3f b500 d2bb 5a39 9fbe
000003b0: c1c7 3a3f 54e7 b4be 85af 04bd c0d7 36bf
000003c0: f780 84be 0479 4a3d 04d4 1a3e e4fa 113a
000003d0: bef8 c2be 42d8 28bf 7e46 e33e dfc8 b93d
000003e0: 92d5 8f3e 9f99 6d3e 2051 b53d e32f 563e
000003f0: b106 29be 162f edbd 97f3 ac3d 290e b2be
0.073908105 -0.22426969 0.3016257 0.050519403 -0.41860342 0.43744427 0.4181928 -0.38001254
0.3829773 0.3732303 0.020777553 -0.005437731 0.23265257 0.22270116 -0.14244698 -0.2053759
-0.562374 0.1353043 0.23083039 -0.29678187 -0.59425175 -0.48242113 -0.16459571 0.15358016
-0.79620874 -0.6864841 0.42600286 0.45242494 -0.10041993 -0.31898987 0.13186441 0.27391458
0.428609 -0.025343409 -0.12706225 0.058425296 0.16534556 -0.43178606 0.4028951 -0.3357222
0.09685156 0.27275077 0.05363156 0.1470077 0.40719008 -0.64364344 -0.31189248 -0.33558282
0.33739215 -0.49017063 -0.34079134 0.3692118 -0.34563532 0.58369863 -0.22462367 0.28789935
-0.09029355 0.3690565 -0.3183474 0.33370113 -0.2296079 0.0066366484 -0.1681463 -0.4757853
-0.1620129 0.23104313 -0.24202967 0.37724048 0.13050804 0.00781508 -0.28057387 0.04475608
-0.2430406 0.3610746 -0.12050806 -0.28028202 0.24352789 0.3656416 0.28444174 -0.36281362
-0.5173196 0.23890275 0.3567537 -0.46340954 0.11099996 0.7076568 -0.13069889 0.2649236
-0.34682062 0.576748 0.20648037 0.08844027 0.018373696 0.24710925 0.20015992 0.30481237
-0.010318913 0.36343935 -0.045530863 0.12814194 0.6249357 0.06344207 0.1631265 0.011780987
0.2933085 -0.08957904 0.83719146 0.08220694 0.017314818 0.0088452855 0.07737261 -0.088439696
0.008094328 -0.011348875 -0.36932427 0.3146908 -0.0032100647 -0.6067361 0.24272825 -0.17994143
0.44370356 0.060084473 -0.31705984 0.40106466 0.48775297 -0.13495259 0.3853474 -0.16607727
0.011394916 -0.34561467 0.016334139 -0.19984187 -0.065161936 -0.58214146 0.20174265 -0.19144244
-0.30892122 -0.2752565 0.042891588 0.23612922 -0.24590118 0.21485421 -0.19024688 -0.15310673
0.020151814 -0.5849094 0.21150771 0.100638755 -0.35522562 0.46490768 -0.42799088 0.5492033
-0.4479251 0.08583007 0.3796211 0.8434655 -0.384006 -0.07078428 0.18521062 -0.01548084
0.07420146 0.60057044 -0.11360266 0.28719562 0.002349221 -0.4122002 0.18369068 -0.23740385
0.026759496 -0.37441713 -0.1347143 0.4679823 0.4683749 0.3560752 -0.19886322 -0.553629
-0.32252225 -0.04007679 -0.056114186 0.32545826 0.23911296 0.5691835 0.21629012 0.12266181
0.039806277 0.34931266 -0.04095788 0.26283062 -0.17607585 0.27402022 -0.31124827 -0.29446015
-0.026141632 0.78059584 -0.19690745 -0.23508212 0.32590786 0.17785017 0.059317067 0.032540374
0.4202266 0.54375184 -0.16147676 -0.62510556 -0.15276992 -0.046020158 -0.30811378 0.2740875
0.0778369 -0.24911232 -0.24708812 -0.12525868 0.3256334 0.26193982 -0.032217335 -0.06546577
0.22695406 -0.25961524 0.13708402 -0.29770303 -0.269332 -0.0044028475 -0.05464846 -0.096504726
-0.1603549 0.14034991 0.42668176 0.43958357 0.44354203 -0.087973416 0.32863757 -0.010252918
0.12752688 0.60692734 -0.0064087757 -0.31098443 0.7296105 -0.3533274 -0.03239395 -0.7142296
-0.25879642 0.049431816 0.1511994 0.00055686967 -0.380804 -0.65954983 0.4438972 0.09071516
0.2809263 0.23203133 0.08853364 0.20916705 -0.16506459 -0.115812466 0.084448986 -0.34776428

network_body._body_endoder.seq_layers.0.bias f4 [512]
00000000: d236 103d 5e5e 1ebc dada 163a 5e50 763c
00000010: 8bf2 b73c 89aa 0bbd 80e5 23bc c51a 9ebd
00000020: 45f4 57bd ab96 fdbc ab49 51bd b773 a13c
00000030: 404c 2fbc 8562 c7bc 39c6 393c 641b bebc
00000040: 9066 983b 0dd0 303c 7429 23bd 4e98 44bc
00000050: 8c2b 62bd f637 a3bc ad3a 643c 5d1b e8bc
00000060: 362c bebb c491 00bc b035 e4bc 4174 b3bc
00000070: 3006 caba 0347 36bd 1392 08bd 6fb9 bbbb
00000080: 8cbb dabc 593f a83c dd9b 62bc 3c9c 98bc
00000090: c94b babc d352 1bbd 2f63 ffbc bbb4 70bd
000000a0: 5f9f b13b 7f47 bbbd ae8b 49bd bdfb 9abc
000000b0: 6207 22bd 29a6 eabb b455 243b 0176 f4bb
000000c0: 9c2b d9bb 5a13 7bbc 49f0 24bd 1860 b5bc
000000d0: 88cb 66bd cc00 65bc cad8 a83c cb73 80bc
000000e0: 8a2d 20bd b13c 0ebd 735c 68bd d271 4cbd
000000f0: 6334 b7bb 6760 6bbd ce83 b4bd 4506 16bd
00000100: db33 8abd c6ef 20bc b783 15bc 7dab a7bc
00000110: ac72 8d3c 059f 233c 0713 4abd b77d ccbd
00000120: b13a 56bd ee0a 15bc cf9d 31bd 49d4 09bd
00000130: 9ce3 1bbd 6552 8a3b eaa6 163c feb3 7ebd
00000140: 875c c3bc 2cde 18bd 60c2 42bd dbd6 f4bc
00000150: e9f5 8fbc c2ae abbc 0770 17bd a1de dbbc
00000160: 2f1d cbbc 8d80 843c 3805 2ebd 0239 fa3c
00000170: 0835 83bd 465a 9e3c 0146 dabc 4dcd 81bd
00000180: 0559 963b 05b3 ae3c 6b15 1a3b 1401 fbbc
00000190: 4dfd afbd cbd7 0e3a feab 87bd e76e a4bc
000001a0: 4c38 34bd 507f 02bd d0cb 0ebc aeee 8bbd
000001b0: 7764 913c 2000 a7bd 15b9 7bbd 41a4 51bd
000001c0: 0e88 84bd 6ead 473c 67e4 3a3c df68 2ebd
000001d0: 01bd 39bd e7d1 5c3a e779 a93b 1840 13bc
000001e0: 093a 15bd f3ab 823c 4312 cebd 9244 fbbc
000001f0: 86d5 8fbc 13c1 59bc d78b c0bd 32ec 40bd
00000200: f0a6 3b3c 0313 97bc 8e77 e53b e1c8 37bd
00000210: 65a9 9bbd e880 59bd 8464 06bd 041d 0cbc
00000220: 616e 8e3c 466b b6bb 0362 f2bc 716e 753b
00000230: b2ec a3bd 7cbc 41bd 1dca 64bc c9dc 88bc
00000240: 7f79 08bc f19d a4bd 7846 cebc 41a6 29bd
00000250: 7c12 22bd bbbc 3bbd b11a b2bd 2191 67bd
00000260: a932 d4bc adb2 5abd ff19 573c 36ed b5bc
00000270: 51bb 78bc 40f8 6dbd 1942 a13a 1119 ebbb
00000280: 4140 0ebc 520e 433b 4edd 01bd f8ea cabc
00000290: eea9 5abd 231b 793c 4a3f 66bc 5473 c23b
000002a0: 13cd 88bd 812a 2dbd 217c c2bc 3a33 ec3a
000002b0: b8bf d0bd d2a8 42bc 8bd6 16bc 5baa 873d
000002c0: 997c 9abc f786 c8bc 5805 37bd 466c 04bd
000002d0: 142d 92bc c5b8 26bb c64e 02bd 67be 93bd
000002e0: 626c 15bd d1de 5eb9 a54e cfb9 dc5a 17bd
000002f0: 286c c1bc d6c2 1bbc 30c9 4dbd 139c e1bc
00000300: 14bf acbb 2cf0 0d3c 822a 643d fa29 e2bc
00000310: 065c 8abd 8c71 48bd 47cf ddbc e7f2 46bd
00000320: ee66 a3bd 4a89 c3bb 6d49 27bd 375d bebb
00000330: 9ecf 3b3c 579a 8cbd 7466 f2bc d2a8 8ebc
00000340: 6432 84bc faae f3bc 7f10 9fbc 011c a73b
00000350: 2aa6 32bd 713e 36bd 6e2b 8fbc afb1 2dbc
00000360: 03d3 afbc a7bf 67bd 3756 923c f606 d13c
00000370: 1c7c 1c3c 5dbf 253a bfe1 2fbd 84b0 f7bd
00000380: 1a45 38bd c09b 02bc 8be7 31bd 649c 8cbd
00000390: 3c99 0bbd 682d 8abb 0452 93bb 4c6a 02bd
000003a0: 0af0 35bd f390 8bbd 98eb 8bbd c5f5 8bbd
000003b0: 0ec5 29bb 8c46 55bd 95ab bebc 4522 82b9
000003c0: 2b02 b3bb 7d6d f13a 772d 5d3c a484 15bc
000003d0: fbd2 52bc 747d cfb9 0747 34bd 1809 83bb
000003e0: efff ddba 536b 27bc b5d8 b3bc 1e7a 43bd
000003f0: 49c5 69bc 4b25 373a 2c04 18bd 1747 ad3c
0.03520853 -0.009666054 0.00057546573 0.0150338095 0.02245452 -0.034098182 -0.0100034475 -0.0771995
-0.052723188 -0.030955633 -0.051095646 0.019708497 -0.010699332 -0.02433897 0.011338764 -0.02320642
0.0046508983 0.010791791 -0.039834455 -0.011999203 -0.05521731 -0.019924145 0.013930005 -0.02833336
-0.00580361 -0.007847253 -0.027857631 -0.02190602 -0.0015413221 -0.044501316 -0.033342432 -0.0057288925
-0.026700757 0.020538019 -0.013831106 -0.018629186 -0.022741215 -0.037920784 -0.031175224 -0.058766108
0.00542061 -0.09144496 -0.049205475 -0.018918866 -0.039557822 -0.007160921 0.0025075497 -0.007460356
-0.006627513 -0.015324438 -0.040268216 -0.022140548 -0.056346446 -0.013977241 0.020611186 -0.015680214
-0.03910593 -0.03472585 -0.05672879 -0.049913235 -0.005590962 -0.057464983 -0.08814202 -0.036627073
-0.06748172 -0.009822791 -0.009125642 -0.020467514 0.017266594 0.009986644 -0.049334552 -0.09984916
-0.052302066 -0.009096844 -0.04336339 -0.033649717 -0.038058862 0.004221248 0.009195069 -0.062183373
-0.023847831 -0.037321255 -0.04754865 -0.029887607 -0.017573314 -0.020957354 -0.036972072 -0.026839556
-0.02479419 0.016174579 -0.042485446 0.030544762 -0.06406599 0.019330155 -0.026644709 -0.06337986
0.0045882487 0.021325598 0.0023511301 -0.030640163 -0.08593235 0.0005449026 -0.06624602 -0.020072414
-0.043999 -0.031859696 -0.008715585 -0.06832634 0.0177481 -0.08154321 -0.061455805 -0.051182035
-0.06471263 0.012187345 0.011406994 -0.04258048 -0.045346264 0.0008423612 0.0051720026 -0.008987449
-0.0364323 0.015951132 -0.10062077 -0.030672345 -0.01755787 -0.013290661 -0.09401672 -0.047100253
0.011453375 -0.018441683 0.0070027774 -0.044869307 -0.07600669 -0.05310145 -0.032810703 -0.00855184
0.017386617 -0.005566987 -0.029587751 0.0037449861 -0.080041304 -0.047298893 -0.013964203 -0.016706841
-0.008329748 -0.080379374 -0.025180086 -0.041418318 -0.03956841 -0.045834284 -0.08696497 -0.05653489
-0.025903063 -0.053393055 0.013128757 -0.022207838 -0.015181378 -0.058098078 0.0012303024 -0.007174619
-0.0086823115 0.0029763174 -0.031705193 -0.024770245 -0.053384714 0.015204224 -0.014053175 0.0059341583
-0.0667974 -0.042276863 -0.02374083 0.0018020638 -0.101928174 -0.01188107 -0.0092064245 0.066242896
-0.01885824 -0.024478419 -0.04468283 -0.03232982 -0.01784376 -0.002543972 -0.031813405 -0.07214051
-0.036480315 -0.00021254575 -0.0003954071 -0.036951885 -0.023611143 -0.009506902 -0.050240695 -0.027540242
-0.0052718017 0.0086632185 0.0557046 -0.027607907 -0.06755833 -0.04893641 -0.027076377 -0.048571493
-0.07978617 -0.005967294 -0.04084151 -0.005809452 0.011463074 -0.068653755 -0.02958987 -0.017414484
-0.01613731 -0.029746521 -0.019417046 0.005099774 -0.043615498 -0.044493143 -0.017476764 -0.010601445
-0.021462923 -0.05657926 0.017863376 0.025516015 0.009551074 0.0006322766 -0.042939898 -0.120942146
-0.044987775 -0.007971704 -0.043433707 -0.06865767 -0.034081683 -0.0042168386 -0.004495861 -0.031839654
-0.044418372 -0.06814756 -0.06832045 -0.06833986 -0.0025904807 -0.052069232 -0.023275176 -0.00024821065
-0.005462905 0.0018419471 0.013499609 -0.009125862 -0.0128676845 -0.00039575587 -0.04401305 -0.003998887
-0.0016937236 -0.010218459 -0.02195392 -0.047723882 -0.014268228 0.0006986453 -0.037113354 0.021152062

action_model._continuous_distribution.log_sigma f4 [1, 2]
00000000: 8c13 19be 059b b7bd
-0.14948863 -0.089651145

action_model._continuous_distribution.mu.weight f4 [2, 512]
00000000: afef cf3c 5f19 a6bc 1edf 953b e171 f63c
00000010: c0e8 fabc daca d4bb f39a afbc 109d 9fbb
00000020: aa1a 23ba b44c 49ba 91ec 7f3c af27 ea3c
00000030: 430e 463c 269b 0d3c f6ec c3bc 4ec6 0dbc
00000040: 4ebc b9bc 6635 6e3c f75e b9bb 56e8 313c
00000050: 47be 93bc 524f c0bc 02fb 4f3d 07f6 633c
00000060: 890a 8dbc de50 abbc f91c c53b e716 0f3c
00000070: b73b 3f3d fb2d 0bbc 39f3 cebc 7d23 7ebc
00000080: 659d 393a fd2a d63c d278 00bc 2580 a5bb
00000090: 5af2 d5bc 9115 ec3a e993 9d39 d924 9939
000000a0: 1a2a 3fbc b98e c3bb 07db 02bb 7421 14ba
000000b0: 5cb3 b7bb 3266 a93b 974c f73c 0d30 a4bc
000000c0: 9719 40bc 6d3e da3c e732 2bbc e620 af3c
000000d0: 1745 713b e2d1 843c 61bf 1a3d a24f a8bb
000000e0: 8f66 dcbb f00e 803c 2314 43ba c74a 973c
000000f0: 03d4 c7ba b932 82bc a319 f1bb d729 07bc
00000100: ce64 3abb 313d f7bc af2c cdbb dbbc ccbb
00000110: fcad 103d dc0a ecbb 4319 013b edcf 21ba
00000120: b7d6 18bc cd9a 1ebd c563 83bb 38fd a2bb
00000130: 20db 6b3c 8249 9fbc 4890 0c3d 6bd1 093c
00000140: 4bcc a13b 0819 e63b 7530 683c d33f d8bb
00000150: 824a 8c3c ed03 4cbc cabe 47bc ee14 a0bc
00000160: b7f6 9ebb 3a8d e3bc 6314 2ebc 1a3a e6bc
00000170: 4c23 71bc ddf1 cebb 55aa c2bc bec8 ebbb
00000180: 6781 e0bc cc2d 0fbc ad1d 20bc ca90 523c
00000190: 8ade a8bb fd1e 9dbb 4a25 46bc 0aca bb3b
000001a0: a069 1bbb 1006 9f3a 5cbb 663c a3ea c9bb
000001b0: b7ef e93c fc92 38bb 5597 663b f89e 0fbc
000001c0: fdb5 30bc d8fa 11bd b38c 443c d12a dcbb
000001d0: 9dd7 30bc c70f d7bc c624 963b 8797 95bb
000001e0: d3ac 31bb 97d9 f63c 7c00 90bb fe3d ad3c
000001f0: 29b5 6cbc 2c50 a0bc 059d dcba 8998 6c3b
00000200: e615 123d 74c0 d3bc 6503 3a3c 844d cc3b
00000210: fd66 6838 aeb7 aabb 487c b43c 0703 b03b
00000220: 4640 2abd 09d7 653c 2fac 95bc 0ad7 4ebc
00000230: 361d 54bc 0dda 983b 1fb8 053c 89be e2bc
00000240: 88f6 09bd 3a88 f1bb d9ad 06ba 481d c6bb
00000250: b443 f33b 0ba3 ea3b 3b5f a83b f7d9 46bb
00000260: 59de 2cbc 1f15 b0bb ad0c d33b 14bc 0ebc
00000270: 7935 933c 05e9 a4bc 3680 a7bc 2514 41bc
00000280: 9793 90bc 607a 633c 4a9e bf3b 88ac b7b9
00000290: b1ac 61bb 4c39 e1bc 3e23 ea3b 14ca f13c
000002a0: 4127 22bc 724c 383c 29c7 013c 6ee1 c2bc
000002b0: c038 923b a95c 163a 77c0 0bbd bd73 67bc
000002c0: fc63 1dbc 6962 92bc e748 1abc ed03 003c
000002d0: aa1d 6d3c 3750 fc3c abe4 223a 7cc6 8cbc
000002e0: 508b 8cba 6d5b 9b3c acce 9cbc 3b1a 68bc
000002f0: 9c09 633c 294b cfbb 623e 8fbb ef34 c1bb
00000300: 11bd 113d b33c 50bc 63b9 5c3d 8412 953a
00000310: 0470 68bc cc91 b7bb a38a 65bc 9126 d53b
00000320: e802 25bb 318d 35bc 8021 4dbb 2138 e3bb
00000330: 6260 223d 69b3 aa3c 51c6 a8bc 7526 b1bc
00000340: 7085 b0bb 912b 2dbb 40e9 7f3b da7f 813c
00000350: a992 37bc 020b 203c 7bec 3dbc f534 a93c
00000360: 3cb8 ab3c 29a1 85bb 718a 5dbb bc33 01bd
00000370: e0b3 a93c 0c66 193d 9a86 2b3c 935b 4a3a
00000380: 4c9e 4e3c 58f7 963c deb4 f23b 2c3d 42bc
00000390: a06b 0ebc 387c aa3c ac6c 2f3c d82a 56bc
000003a0: 2599 dcba 1733 73bc 032f 84bb cc12 b83b
000003b0: 1703 b63b 3dd7 32bc c364 0a3b 2757 b83c
000003c0: 9bf7 a23c d7f8 0abd 9ba4 55bb c4a1 2ebc
000003d0: cb89 bebc 76d4 2dbb 84ee 8c3a b3f5 8bbc
000003e0: e94d 03bd 7713 97bc b3c5 2a3c 09c7 cf3b
000003f0: e540 c8bb fecb acbc 9001 383b b0e9 863c
0.025382845 -0.02027577 0.004573717 0.030083599 -0.030628562 -0.0064939084 -0.02143619 -0.004871018
-0.000622193 -0.0007678971 0.015620367 0.028583376 0.012088361 0.008642947 -0.023916703 -0.008653237
-0.022672798 0.014539098 -0.0056570726 0.010858616 -0.018035067 -0.023475323 0.05077649 0.013913638
-0.017216938 -0.020912584 0.0060154167 0.008733488 0.046687808 -0.008494849 -0.025262462 -0.015511391
0.00070806436 0.026143545 -0.007841306 -0.0050506764 -0.026116539 0.0018011798 0.00030055575 0.00029209888
-0.011667753 -0.0059679416 -0.0019966976 -0.0005650737 -0.005606098 0.0051696533 0.030187888 -0.020042444
-0.011724851 0.026641095 -0.010449148 0.021377992 0.0036814862 0.016213361 0.03778017 -0.005136446
-0.006726093 0.015632123 -0.000744166 0.018468274 -0.001524568 -0.015893327 -0.0073577925 -0.0082497215
-0.0028441432 -0.030180546 -0.00626143 -0.0062480993 0.035322174 -0.007203443 0.0019698895 -0.0006172646
-0.009328536 -0.03872185 -0.004009696 -0.0049740337 0.014395505 -0.019444231 0.034317285 0.008411746
0.0049376837 0.007022027 0.014171709 -0.0065994053 0.017125372 -0.012452108 -0.012191484 -0.01954123
-0.004851188 -0.027777303 -0.010624978 -0.028103877 -0.014717888 -0.0063154534 -0.023762861 -0.007195561
-0.027405454 -0.008738946 -0.0097727 0.012851903 -0.005153482 -0.004794954 -0.012093851 0.005730872
-0.002371408 0.0012132544 0.014082756 -0.006162004 0.028556688 -0.0028163781 0.0035185416 -0.008765928
-0.010785577 -0.035639614 0.011996436 -0.0067189713 -0.010793594 -0.02625264 0.0045820205 -0.0045651826
-0.0027111068 0.030133052 -0.004394589 0.021147724 -0.014447489 -0.019569479 -0.0016831463 0.003610166
0.035665415 -0.025848605 0.011353348 0.0062348265 5.5409026e-05 -0.0052098846 0.022031918 0.0053714546
-0.041565202 0.014028319 -0.01827058 -0.0126245115 -0.012946418 0.0046646656 0.008161574 -0.027678745
-0.033682376 -0.007370976 -0.00051375997 -0.006045971 0.0074238423 0.0071605495 0.0051383055 -0.003034232
-0.010551059 -0.0053736116 0.00644072 -0.0087118335 0.017969834 -0.020130644 -0.020446878 -0.011784588
-0.017648501 0.013884157 0.005847727 -0.00035033026 -0.0034435207 -0.027493142 0.0071453145 0.029515304
-0.009897054 0.011248695 0.007921019 -0.023789134 0.0044623315 0.00057358533 -0.034119096 -0.014126715
-0.009606358 -0.017869191 -0.009416795 0.007813436 0.0144724045 0.030799968 0.0006213884 -0.017184488
-0.0010722671 0.018964494 -0.019141518 -0.01416641 0.0138572715 -0.0063260985 -0.0043714503 -0.0058962028
0.0355807 -0.012709784 0.053887736 0.0011373316 -0.014186863 -0.005602097 -0.014010104 0.0065048416
-0.0025178734 -0.011081026 -0.0031300485 -0.0069341813 0.0396427 0.020837503 -0.020602377 -0.021624783
-0.0053870007 -0.0026423673 0.003904894 0.015808035 -0.0112044 0.0097682495 -0.011592026 0.020655135
0.020961873 -0.0040780497 -0.0033804441 -0.03154348 0.020715654 0.037450835 0.010469103 0.0007719334
0.012610983 0.01842849 0.007406815 -0.011855405 -0.008692652 0.020811185 0.010707062 -0.013071738
-0.0016830309 -0.014843724 -0.0040339245 0.005617475 0.0055545676 -0.010915575 0.0021117188 0.022502495
0.019893458 -0.03392872 -0.0032599333 -0.010658685 -0.023259064 -0.0026524342 0.0010752236 -0.017084932
-0.032056723 -0.018441899 0.010423112 0.0063408655 -0.0061112517 -0.021093365 0.0028077103 0.016468853

action_model._continuous_distribution.mu.bias f4 [2]
00000000: bbc2 e23a f386 e13b
0.0017300466 0.0068825423

exp_avg f4 [512, 8]
00000000: 7b59 023a b608 2538 4a1f eab7 f093 cab9
00000010: 5ee9 c1b8 8498 2eb9 6490 c3b7 52d3 f1b7
00000020: 7677 82b9 8cf8 f337 b8d1 e337 a5d4 c739
00000030: 7203 36b8 ebd6 0a39 4b90 2438 b598 c337
00000040: c32f 0239 4332 7d38 90d1 efb6 b1e2 d9b8
00000050: 05c9 4139 5c24 7038 5242 0837 7e94 74b8
00000060: b3f4 a739 9e0b 81b9 e6bf de37 85a6 22ba
00000070: 5296 7738 d384 beb8 23c5 26b9 b3ed 6139
00000080: f651 82b9 485f c839 bda0 33b8 d60a 8039
00000090: b052 0e38 484a 0939 19b2 63b9 9efb 81b9
000000a0: b763 16b9 5f60 dcb7 360d db37 83c7 6739
000000b0: bd3d b6b8 d8d1 8d38 d3da 4c38 fcd2 7738
000000c0: 23ed 3fb9 d125 ec39 8301 be37 3107 82b9
000000d0: 4a12 4939 1c9c bb39 ecca 05ba 02c6 c4b9
000000e0: 85a2 aab8 1183 22b8 33c5 2738 432c 0d39
000000f0: 2252 a2b7 186e 0337 1aeb 9837 0044 8c38
00000100: 3533 d5b7 771e 67b8 d418 ab37 120e 2e39
00000110: 2ff2 d1b8 8c64 82b8 c480 f038 cd55 8138
00000120: edde a3b7 ad85 00b8 fb88 5437 374c 9f37
00000130: c65d fdb7 550b e3b6 ce6d 1b38 ce3b 8437
00000140: 94b5 4e39 1b20 9536 ff51 d138 bf8b a337
00000150: 3e27 28b9 2bb3 83b9 ddb1 a339 26e0 b838
00000160: a850 9639 fb2b 25b9 702a d038 fa5a a8b9
00000170: e9ef 44b9 d3b8 9cb9 4cc2 6239 ecf7 9939
00000180: 6fe1 7238 3938 65b9 77d0 9e38 e7de 8238
00000190: e0bc 4fb9 b97c cbb8 0c64 af39 09c5 4d39
000001a0: f64b 0a39 7442 77b8 6be6 4735 fa1c 6bb9
000001b0: 4cbb de37 b5ab 8ab8 c481 edb7 d5eb 4e36
000001c0: 6142 cfb9 82aa 0739 20c1 9038 15a1 c439
000001d0: bfea ed37 2866 7239 56ca d6b8 c55d 3eb8
000001e0: 4110 17b9 a2c6 3b38 408a 1938 099d 4b39
000001f0: 8143 d637 491d d738 a1dc 1bb8 4c44 beb7
00000200: ee2c 40b9 c691 8239 9e47 deb8 370c 9cb8
00000210: 90ed b7b7 f36e ca38 3c64 33b9 7ee9 19b9
00000220: f360 2239 fcac b8b7 e4f3 f336 c4ff 85b9
00000230: d18f 9138 4898 2438 7863 40b9 70ac b137
00000240: 1ad7 87b8 6932 cf38 3975 1c38 3ee6 50b9
00000250: 8591 0739 4d1f 4b39 8903 9cb9 9be5 bfb8
00000260: 3cf7 9e38 a2ed f0b8 7e66 17b8 d4ad 1db9
00000270: 3a0b b636 9fb1 65b8 cfb4 f7b7 9c3c 8d37
00000280: 5221 3db9 d81d 5738 3fcf 5938 193f b739
00000290: 5a1c 1638 9dce 0d39 c654 fcb7 16b0 74b5
000002a0: 8e69 11b9 cb79 c539 d309 69b8 2188 c438
000002b0: 5f99 5339 0ad5 7c39 ecab a9b9 8ddf efb8
000002c0: a03b df39 6eae 11ba f018 a5b7 ac87 2dba
000002d0: 2801 77b8 00cd a5b9 7b64 8038 df32 c439
000002e0: 54b6 7f38 bece aeb8 67a5 dc37 584c 91b8
000002f0: eead 35b9 2804 34b9 e748 ea38 8fab be38
00000300: 172d 52b9 12f9 8bb8 4a12 4d37 0e2a 7239
00000310: 0dba 1bb9 045c b238 8293 8038 ef84 4c38
00000320: 9d41 7db9 eb57 3bb8 2596 a4b8 9347 5d38
00000330: 9043 6338 f9d3 1239 2f68 43b9 28b6 11b9
00000340: 6216 9138 33ea 88b8 d479 8637 53cf cb37
00000350: eb8f 05b7 703c 52b8 7849 8738 2fc6 4138
00000360: ce19 a338 bc00 85b8 d7fb 2e38 2406 0d38
00000370: 4967 beb7 fc75 6db8 980b ca38 32ca 8338
00000380: 7ba9 ad39 fcc0 39ba c782 a8b7 abd5 02ba
00000390: a254 24b7 5b4e acb9 3afb 6239 a9e0 a139
000003a0: 2ec3 33b8 9769 49b7 1110 87b8 11db 8a38
000003b0: bca4 9b38 bb7f 4f38 e9f3 b7b8 5ca7 70b7
000003c0: 96bf 7ab9 b5dd 4739 5361 82b8 adf6 2039
000003d0: da50 30b8 3820 f238 cfbb 3ab8 9575 2cb9
000003e0: 5ac3 9cb8 15f8 0f39 b549 e1b7 7270 2939
000003f0: db82 9938 fe89 a338 0fd2 1ab8 da3b d3b8
0.000497244 3.934718e-05 -2.7909544e-05 -0.00038638664 -9.246425e-05 -0.0001665075 -2.3313049e-05 -2.8827842e-05
-0.00024884538 2.9083596e-05 2.7158167e-05 0.0003811467 -4.339539e-05 0.00013240769 3.923503e-05 2.3316921e-05
0.00012415559 6.036671e-05 -7.1471513e-06 -0.00010389591 0.000184808 5.725432e-05 8.121673e-06 -5.8312427e-05
0.00032035037 -0.00024613453 2.6553822e-05 -0.0006204623 5.9029386e-05 -9.0846464e-05 -0.00015904433 0.00021546222
-0.00024856598 0.00038217963 -4.2826625e-05 0.00024422136 3.3932447e-05 0.0001309301 -0.00021714754 -0.00024792267
-0.00014342261 -2.627092e-05 2.6112986e-05 0.000221042 -8.689936e-05 6.7624904e-05 4.8841186e-05 5.9085884e-05
-0.0001830352 0.00045041603 2.2650469e-05 -0.0002480089 0.00019175667 0.0003578373 -0.0005103785 -0.0003753156
-8.136503e-05 -3.8745875e-05 3.999956e-05 0.00013463297 -1.9350151e-05 7.833842e-06 1.822929e-05 6.688386e-05
-2.5415424e-05 -5.5103064e-05 2.039635e-05 0.00016599175 -0.00010011007 -6.2176114e-05 0.00011468076 6.167181e-05
-1.9534922e-05 -3.0642073e-05 1.2668078e-05 1.8989767e-05 -3.0203617e-05 -6.7664464e-06 3.7057143e-05 1.5763475e-05
0.00019713334 4.4442836e-06 9.9811696e-05 1.9496189e-05 -0.00016036347 -0.00025119758 0.000312223 8.8155546e-05
0.00028670323 -0.0001575201 9.9261175e-05 -0.0003211124 -0.0001878139 -0.00029892343 0.00021625421 0.0002936715
5.7907248e-05 -0.00021860086 7.572857e-05 6.240402e-05 -0.0001981142 -9.703026e-05 0.00033453142 0.00019623725
0.00013189003 -5.895128e-05 7.446858e-07 -0.00022422141 2.655168e-05 -6.612336e-05 -2.8313028e-05 3.0833664e-06
-0.00039531573 0.00012938122 6.9024274e-05 0.0003750405 2.8361914e-05 0.00023116975 -0.00010242003 -4.538686e-05
-0.00014406537 4.4769266e-05 3.6606798e-05 0.00019418089 2.5542222e-05 0.00010257454 -3.7160356e-05 -2.2681568e-05
-0.00018327284 0.00024904142 -0.00010599125 -7.440935e-05 -2.1925924e-05 9.6527765e-05 -0.0001710811 -0.000146782
0.0001548564 -2.2015061e-05 7.270357e-06 -0.00025558297 6.940927e-05 3.924247e-05 -0.00018347602 2.1180342e-05
-6.4773674e-05 9.879919e-05 3.730247e-05 -0.00019922198 0.00012928814 0.00019371249 -0.00029757273 -9.150357e-05
7.580078e-05 -0.00011488354 -3.609666e-05 -0.00015037443 5.4253296e-06 -5.4763277e-05 -2.952889e-05 1.6836733e-05
-0.00018036857 5.128779e-05 5.1929845e-05 0.0003495149 3.578919e-05 0.00013523777 -3.0080217e-05 -9.115332e-07
-0.000138676 0.0003766551 -5.556068e-05 9.371364e-05 0.00020179663 0.00024111956 -0.00032362284 -0.00011438048
0.000425783 -0.0005557303 -1.9681145e-05 -0.0006619643 -5.8890466e-05 -0.0003162399 6.1222316e-05 0.00037421935
6.0966544e-05 -8.335475e-05 2.6303065e-05 -6.928359e-05 -0.00017326299 -0.00017167686 0.000111715686 9.091861e-05
-0.00020043958 -6.6744295e-05 1.222321e-05 0.00023094585 -0.00014851261 8.504841e-05 6.130991e-05 4.8761194e-05
-0.00024152403 -4.4666154e-05 -7.848096e-05 5.2757165e-05 5.418394e-05 0.00014002611 -0.0001863546 -0.00013896136
6.918308e-05 -6.528608e-05 1.6030775e-05 2.4296029e-05 -7.960926e-06 -5.012419e-05 6.450986e-05 4.619936e-05
7.777252e-05 -6.342071e-05 4.1719377e-05 3.362274e-05 -2.2697861e-05 -5.6615085e-05 9.63427e-05 6.2842286e-05
0.00033123404 -0.0007085947 -2.0088059e-05 -0.00049909455 -9.794867e-06 -0.00032864776 0.00021646629 0.00030875698
-4.28587e-05 -1.2005118e-05 -6.440294e-05 6.621157e-05 7.42166e-05 4.9471604e-05 -8.771552e-05 -1.4344081e-05
-0.00023913229 0.00019060711 -6.217011e-05 0.00015350683 -4.203697e-05 0.000115454604 -4.4520766e-05 -0.00016447001
-7.475047e-05 0.0001372996 -2.6856413e-05 0.00016158985 7.319982e-05 7.798149e-05 -3.6912093e-05 -0.00010072412

exp_avg_sq f4 [512, 8]
00000000: 55c3 1536 919f 3036 a60b 9135 b294 c135
00000010: 6a39 9f35 f92a 2935 8bcc 3f35 76f5 5e35
00000020: 57e7 7735 9dc8 5a35 5a7a 2435 60e5 5335
00000030: c470 2535 781e 7234 aa5b ea35 8c58 9f34
00000040: de73 8935 0030 6435 8cb1 aa34 f960 c234
00000050: 80dc 1835 5907 ae34 0b7f 1e36 ac64 dd34
00000060: 98ea 5136 0272 a236 fa73 ba35 36f3 5236
00000070: 567e 2636 6f43 6835 adbd ea35 b712 a935
00000080: f28b c735 ad43 0936 402c 4c35 d1eb b135
00000090: 57ea 9535 baad 0c35 469e 0d35 f51c 1b35
000000a0: 56e9 7634 3607 8434 f450 2134 e2fa 9934
000000b0: 9c72 6434 7a10 ad33 d014 3f35 7097 c733
000000c0: 46d6 2c36 1bc3 8b36 69ee 0e36 131f 9136
000000d0: 3c9a 2736 2765 4135 4a35 f036 4ce3 6935
000000e0: be4a d133 6689 f633 981f 9233 a61d 3d34
000000f0: e365 a433 228a d832 2b85 9534 9dca 2133
00000100: 8fb3 6134 5302 7d34 31e4 2234 c433 c334
00000110: 7301 3934 5e11 6633 26e4 3435 745b 8833
00000120: 5a97 7c32 1c63 9132 77ae 0232 53bf 7031
00000130: f157 0932 15f7 bc31 0944 c831 b9be cd31
00000140: 8678 2035 9c8d 0f35 9e40 8834 26a4 f333
00000150: f9ae b634 130c 5534 35ff 9c35 594b 8634
00000160: 4c21 0536 cb54 1c36 7473 5135 023d d735
00000170: 3985 9635 4e45 0c35 78fa 8335 655e 5a35
00000180: cffc 7735 2126 a035 a694 1835 8911 7235
00000190: efff 3a35 543b a134 0928 3635 ad7e b934
000001a0: 4d40 6734 2c1d 8f34 601f 0634 d851 6634
000001b0: e94a 2e34 ca64 6b33 8b48 2134 7b16 b233
000001c0: ce67 3435 ebc3 7935 b1f9 ea34 98bf 7d35
000001d0: bf57 1835 2208 6434 c116 eb34 86ef 9234
000001e0: 2284 1d34 bd02 6134 9db6 c533 0f70 5e34
000001f0: 50bc 1434 02ce 3733 5a3c 9433 6336 6e33
00000200: 208f 4635 dd17 bb35 f6c6 9f34 aaf8 c134
00000210: a05d 2e35 4880 bc34 4c9d c134 babd d234
00000220: 4a6e 7b35 067f 9535 4651 1535 6120 8535
00000230: a5a5 2c35 dfbb 6d34 8544 0836 1210 a434
00000240: a741 4b35 5e46 ad35 7439 0035 9e4c 8835
00000250: 4211 4435 4432 6434 88d6 2636 df78 b034
00000260: 81c3 8b34 9b13 a134 701a 1534 d20b c034
00000270: 7ff7 3134 f842 4333 6208 1c34 4ffa a033
00000280: ecee aa34 ed6e b234 4a0c 4534 451e d134
00000290: c00c 5234 c7a3 9f33 f605 6334 dd36 f833
000002a0: 44d1 a535 a75d 0a36 4794 8d35 5a72 0336
000002b0: 2946 af35 d200 bc34 632b 1f36 3acf d934
000002c0: 6554 8f36 6934 c436 c3c7 3536 52d6 b736
000002d0: 8c0d 6836 f25e a335 2cb3 0f36 c3ac d335
000002e0: ed8b da34 18ca f234 479e df34 1863 4435
000002f0: 61f5 d434 69fa de33 8c5a dc35 fa76 0f34
00000300: 8c45 0f35 0e08 3e35 2887 9134 04df 5634
00000310: e2e1 bb34 3ba3 4634 3f28 4d35 aaff 8034
00000320: 32a6 e234 6160 1335 c903 c634 113e 3034
00000330: 66e0 eb34 9c25 1b34 a997 1836 1585 8534
00000340: b10c d832 d41b 3d33 e61a f032 a45b 0133
00000350: fcf5 f932 7841 2b32 5216 7433 bfac 3b32
00000360: 80e7 8633 dc21 be33 83a4 1733 498b d232
00000370: af46 6d33 a61c dc32 530f 0f34 68bb 0333
00000380: a2fb 8d36 1bfa c836 7c6b 1d36 aae4 bb36
00000390: a810 6d36 3262 8b35 0244 df35 feb5 c335
000003a0: a0d0 0f34 11a8 1734 585e a733 75d6 8433
000003b0: c2bc de33 6b72 5233 6b97 5c34 3b23 8833
000003c0: 7238 6c35 79f9 9035 670a 8d34 9125 0b35
000003d0: 6ef0 1235 0104 a734 9b6b 9434 0510 e334
000003e0: 2c90 d334 128c e234 2c45 7c34 2986 0035
000003f0: 4f0a 8f34 28aa d233 b302 b534 4baa 0c34
2.2316428e-06 2.6318924e-06 1.0806732e-06 1.4422897e-06 1.1863133e-06 6.301994e-07 7.1450694e-07 8.305864e-07
9.2351314e-07 8.150326e-07 6.1272806e-07 7.893741e-07 6.1631386e-07 2.2549091e-07 1.7461036e-06 2.9680484e-07
1.0241017e-06 8.500647e-07 3.179415e-07 3.6205873e-07 5.694528e-07 3.2415372e-07 2.3617783e-06 4.1237706e-07
3.1279978e-06 4.8412485e-06 1.3891834e-06 3.1434006e-06 2.4809465e-06 8.6524864e-07 1.7489562e-06 1.2596928e-06
1.4867385e-06 2.0453983e-06 7.6060314e-07 1.3256159e-06 1.1169567e-06 5.240687e-07 5.275691e-07 5.778414e-07
2.2995422e-07 2.4592163e-07 1.5023744e-07 2.8681012e-07 2.127585e-07 8.058937e-08 7.118333e-07 9.294206e-08
2.575472e-06 4.165236e-06 2.1298422e-06 4.3249543e-06 2.4974715e-06 7.20453e-07 7.158761e-06 8.7130024e-07
9.7459164e-08 1.148026e-07 6.804402e-08 1.7612783e-07 7.655378e-08 2.5208525e-08 2.7850305e-07 3.767001e-08
2.1020081e-07 2.3563307e-07 1.5170441e-07 3.6359245e-07 1.7229995e-07 5.3566843e-08 6.7387225e-07 6.349629e-08
1.4702744e-08 1.6925291e-08 7.606665e-09 3.5033352e-09 7.994445e-09 5.49961e-09 5.828501e-09 5.987968e-09
5.978003e-07 5.347772e-07 2.537899e-07 1.1345428e-07 3.402745e-07 1.9841563e-07 1.1697181e-06 2.5014268e-07
1.9837926e-06 2.3295167e-06 7.8026574e-07 1.6036504e-06 1.1214644e-06 5.2254916e-07 9.833157e-07 8.134869e-07
9.2382555e-07 1.1932026e-06 5.6840724e-07 9.017754e-07 6.966283e-07 3.0031754e-07 6.785854e-07 3.4551104e-07
2.1536944e-07 2.665705e-07 1.2491137e-07 2.1450194e-07 1.6232265e-07 5.480687e-08 1.5020684e-07 8.29286e-08
6.720628e-07 9.3044827e-07 4.376757e-07 9.452865e-07 5.67521e-07 2.1237113e-07 4.3788717e-07 2.7368895e-07
1.4669834e-07 2.0955754e-07 9.2067445e-08 2.0716128e-07 1.3852082e-07 4.279537e-08 6.902765e-08 5.5463158e-08
7.396902e-07 1.3939531e-06 2.976082e-07 3.6129978e-07 6.4956293e-07 3.5111066e-07 3.60635e-07 3.9253592e-07
9.366528e-07 1.1138334e-06 5.5625094e-07 9.918696e-07 6.431604e-07 2.2140692e-07 2.0305463e-06 3.0559073e-07
7.571893e-07 1.2909984e-06 4.776732e-07 1.0155088e-06 7.3040803e-07 2.1252441e-07 2.4860801e-06 3.28705e-07
2.6033015e-07 3.0002852e-07 1.3886324e-07 3.5771387e-07 1.6574448e-07 4.5462883e-08 1.4531682e-07 7.4961115e-08
3.1838806e-07 3.3235793e-07 1.8351525e-07 3.8951308e-07 1.9562412e-07 7.4338054e-08 2.1143191e-07 1.15583795e-07
1.2354362e-06 2.0618115e-06 1.0548473e-06 1.9587083e-06 1.3058935e-06 3.5018326e-07 2.37181e-06 4.0570177e-07
4.271557e-06 5.8473565e-06 2.7087378e-06 5.478775e-06 3.457858e-06 1.2172079e-06 2.1412952e-06 1.5771005e-06
4.0707474e-07 4.5223055e-07 4.165215e-07 7.315989e-07 3.9666614e-07 1.038323e-07 1.641763e-06 1.3361196e-07
5.3372855e-07 7.0792237e-07 2.7106694e-07 2.0011436e-07 3.4995816e-07 1.849957e-07 7.6427017e-07 2.4027878e-07
4.2216703e-07 5.4902017e-07 3.6883128e-07 1.6413857e-07 4.3935432e-07 1.4449182e-07 2.2738043e-06 2.487001e-07
2.5151481e-08 4.40303e-08 2.795191e-08 3.01185e-08 2.9099276e-08 9.968396e-09 5.6830977e-08 1.09241105e-08
6.281971e-08 8.8537234e-08 3.530705e-08 2.4510557e-08 5.524515e-08 2.5624399e-08 1.3323488e-07 3.067126e-08
4.2314214e-06 5.9895806e-06 2.3457387e-06 5.5996543e-06 3.5325447e-06 1.0384886e-06 1.6634588e-06 1.4581599e-06
1.339381e-07 1.4124113e-07 7.7937045e-08 6.1857385e-08 1.03720154e-07 4.8998498e-08 2.0544182e-07 6.339402e-08
8.799899e-07 1.0801442e-06 2.6270865e-07 5.18362e-07 5.473911e-07 3.1109087e-07 2.7645441e-07 4.22937e-07
3.9406711e-07 4.2197695e-07 2.3494493e-07 4.7878945e-07 2.6643326e-07 9.809838e-08 3.371584e-07 1.3100468e-07

exp_avg f4 [512]
00000000: 7072 c539 3197 9db9 2c0e 6b39 2e45 2a39
00000010: 4d53 33b9 bee2 4eb9 b62e 5239 eaa5 afb8
00000020: 7e62 0cb9 1617 96b8 e414 6ab9 bf5b 9ab9
00000030: 4e54 9db9 bbd7 3839 a10f 7bb9 6c97 e3b8
00000040: 7902 31b9 19e5 1439 353d bd38 b834 5437
00000050: c3c3 a1b8 9133 4a39 3007 31b8 5419 68b9
00000060: 5e3a b9b9 dbda 06b9 f2d7 ae37 326b da37
00000070: 77c1 0339 528b 7438 e58c 3ab9 61c6 4d38
00000080: 9550 b4b6 92af df36 8600 dab9 a33a 9eb9
00000090: 7629 93b9 8492 dbb7 7966 b1b9 8ae4 10b9
000000a0: 0c31 5639 ba83 0fb8 f205 98b8 b02a 85b8
000000b0: 67e9 ca34 3000 c0b9 473b 4136 f068 8139
000000c0: 5ce4 8d38 c2f1 0637 8f0e d2b8 e503 a5b8
000000d0: 04f1 0bb8 ec33 6e39 b564 e338 de8c 7839
000000e0: d42c 8db9 50d1 1139 c15c b737 0c04 3a39
000000f0: 46d0 6739 c76e 34b9 e7fd c9b8 ca36 3f38
00000100: 4f09 5cb8 ab98 c939 8012 4738 463a a438
00000110: 2c91 32b9 60f0 8638 e26c 66b9 f5ff 2837
00000120: 1694 86b8 82d4 67b9 2e93 6cb8 cc7f 5b37
00000130: 759c cfb8 1535 c837 356c 98b9 8480 fe38
00000140: fa61 0fb8 b531 a5b8 b6f9 45b9 bd2d 0739
00000150: 4b00 1e38 3947 06b7 9a0f 6bb9 f50c 0eb9
00000160: 945f c7b9 669a dab8 008f 6b36 24b0 02b9
00000170: 23f7 2db9 a750 e7b9 e408 8837 af5c dcb8
00000180: a446 3db9 0770 5bb9 16cb a0b9 469d 57b7
00000190: a7e2 33b9 4aaf 5c39 04f3 b6b7 d88d 22b8
000001a0: b402 1db8 e73a f3b9 02a5 7f37 93e3 96b7
000001b0: ba09 c1b9 a1b3 0bb7 e98d 1938 82e5 2ab9
000001c0: 4587 cab9 e763 52b9 fdfc 5ab9 4027 1db9
000001d0: 75ab 1db8 f516 eab9 c570 6938 7e14 bfb9
000001e0: b6c6 54b9 ce8b abb9 876c e8b7 947f 9c38
000001f0: afd5 93b9 3be5 b8b9 3f32 35b8 3503 5337
00000200: 2c3a ecb9 f8c0 04b8 fe59 aa38 0fba 2438
00000210: 71c7 02b8 3d82 03b7 06de 97b8 f0bb b0b9
00000220: c807 82b9 2f87 42b8 f97e dfb8 07bf 6539
00000230: e879 2bb9 c02d f5b8 4545 b537 ff5c 5437
00000240: e5e9 25ba fc43 6ab8 29e7 7439 119d 0938
00000250: f3e1 03b9 0435 1d37 75e1 4eb8 b9d4 84b9
00000260: f32a 9e38 69e4 8a36 6c8c a9b8 e5cc dfb8
00000270: 9c70 8a38 b583 3ab9 a179 9938 9f2b 65b9
00000280: 75d5 1cb7 81ec 67b9 de3a 2439 ab88 93b9
00000290: 3c38 cc38 c310 a138 07b3 9d38 8367 c037
000002a0: 218f b8b8 bb6f 3737 d0d8 8438 b29f 0db9
000002b0: 994b 4937 adfd 8239 bac5 a9b9 b99d e1b9
000002c0: 79b0 5fb9 820d 02b9 893f 3538 c9bd 8d38
000002d0: 2a9c 1839 3c74 1939 40c0 b138 b9df 23b9
000002e0: a96c 0cba eb1c 4f39 805a e5b9 b206 f2b8
000002f0: 4bfe ed38 4bcd 8d39 29a8 90b8 5250 d538
00000300: 2bbe 9b37 6b0c 5f39 b453 5739 c048 9db9
00000310: 4b4e 8fb6 a328 9638 deca 6ab9 a960 a0b8
00000320: da42 9938 50b6 a138 4c43 d7b8 4de3 6939
00000330: 3d24 6538 800e f6b8 5fff a9b8 ed62 a2b9
00000340: 7284 78b9 2f76 1f39 0afa 02ba 91a8 ceb9
00000350: a691 7fb9 d977 f1b8 55e5 fab8 c1c2 91b8
00000360: 4d0b d239 4f16 93b8 32a7 9cb9 bc79 24b9
00000370: 58bf a0b9 6af6 d138 0edf 00b8 618c 92b7
00000380: 3bd9 83b9 72a4 20b7 5ff6 0e39 9c13 ce38
00000390: d06f 6d38 be37 7937 44aa 19b9 7e80 3038
000003a0: 41f8 8eb6 afa8 19b9 1292 a7b9 7d26 69b8
000003b0: e426 bf38 22e9 77b9 baab d9b8 9327 1739
000003c0: 4684 0a39 fa9b 86b9 869c 2539 e580 69b9
000003d0: 3dcb 12b9 d5e3 2039 369d a9b9 3b0a 4fb9
000003e0: a0ca 17b9 2da2 b8b9 0189 82b8 3e4f 3db8
000003f0: 6bee 8c38 82d9 a6b8 27d4 5d38 0ca7 9d39
0.0003766003 -0.0003005802 0.00022416626 0.00016238235 -0.00017101802 -0.00019730159 0.00020044562 -8.375554e-05
-0.00013388132 -7.1568575e-05 -0.00022323761 -0.00029441525 -0.00030008185 0.00017627973 -0.00023943048 -0.00010852408
-0.00016880957 0.00014199725 9.023623e-05 1.2648459e-05 -7.713542e-05 0.00019283431 -4.2206782e-05 -0.0002213468
-0.00035329437 -0.00012860766 2.0842974e-05 2.6037542e-05 0.00012565205 5.8303885e-05 -0.0001779083 4.9060563e-05
-5.373799e-06 6.666357e-06 -0.0004158059 -0.00030179796 -0.00028068916 -2.6175061e-05 -0.0003383642 -0.00013818048
0.00020426902 -3.4216537e-05 -7.249032e-05 -6.3498854e-05 3.7795255e-07 -0.00036621233 2.8793745e-06 0.00024682982
6.765939e-05 8.043311e-06 -0.00010016292 -7.8685385e-05 -3.3364646e-05 0.00022716791 0.00010842962 0.000237036
-0.00026927015 0.00013906253 2.1858492e-05 0.0001773985 0.00022107465 -0.00017207405 -9.63172e-05 4.5588975e-05
-5.2460757e-05 0.00038451454 4.7462527e-05 7.830984e-05 -0.00017029484 6.434391e-05 -0.00021975071 1.0073175e-05
-6.417201e-05 -0.00022109042 -5.6403856e-05 1.3083172e-05 -9.8996716e-05 2.3866576e-05 -0.0002907232 0.00012135602
-3.4185105e-05 -7.877072e-05 -0.00018880409 0.00012891642 3.767041e-05 -8.003605e-06 -0.00022417158 -0.00013547002
-0.0003802745 -0.00010423809 3.5100966e-06 -0.00012463384 -0.00016590631 -0.00044119844 1.6216603e-05 -0.00010507681
-0.0001805076 -0.00020927201 -0.0003066889 -1.2851617e-05 -0.00017155205 0.00021046135 -2.1809254e-05 -3.8755912e-05
-3.7434234e-05 -0.00046392457 1.5237603e-05 -1.7987366e-05 -0.00036819075 -8.326869e-06 3.6610207e-05 -0.00016297962
-0.00038629226 -0.00020064377 -0.00020884346 -0.00014987309 -3.75914e-05 -0.00044649062 5.5656554e-05 -0.00036445627
-0.00020291921 -0.00032719824 -2.7707092e-05 7.462423e-05 -0.00028197232 -0.00035266005 -4.3200558e-05 1.2577327e-05
-0.0004505677 -3.165097e-05 8.122994e-05 3.9273928e-05 -3.118016e-05 -7.838532e-06 -7.241596e-05 -0.0003370936
-0.0002480133 -4.6379104e-05 -0.00010657119 0.00021910305 -0.00016353244 -0.00011691032 2.1609138e-05 1.2657837e-05
-0.00063291035 -5.5853263e-05 0.00023355767 3.2809625e-05 -0.00012577306 9.370273e-06 -4.93242e-05 -0.00025335493
7.542027e-05 4.139311e-06 -8.0847036e-05 -0.00010671633 6.601328e-05 -0.00017787407 7.318264e-05 -0.00021855392
-9.348024e-06 -0.00022117981 0.00015662189 -0.0002813985 9.7379525e-05 7.6802e-05 7.51969e-05 2.2936385e-05
-8.8004635e-05 1.0933664e-05 6.334635e-05 -0.00013506299 1.1998135e-05 0.00024984535 -0.0003238151 -0.00043032857
-0.00021332678 -0.00012402798 4.3212935e-05 6.758754e-05 0.00014554025 0.00014634518 8.475827e-05 -0.00015628235
-0.0005356768 0.00019751831 -0.0004374571 -0.00011540706 0.000113484064 0.0002704657 -6.897777e-05 0.00010171592
1.8565994e-05 0.00021271563 0.0002053518 -0.00029999577 -4.2708466e-06 7.1601266e-05 -0.00022391553 -7.647399e-05
7.3080606e-05 7.7110366e-05 -0.00010264534 0.00022305288 5.4631604e-05 -0.00011732895 -8.1061145e-05 -0.00030972753
-0.00023700463 0.00015207448 -0.0004996365 -0.00039416974 -0.00024372953 -0.00011514099 -0.000119636454 -6.9504145e-05
0.0004006274 -7.0136615e-05 -0.0002987921 -0.00015685608 -0.0003066014 0.00010011795 -3.0725314e-05 -1.7469925e-05
-0.00025148116 -9.575031e-06 0.00013633956 9.826498e-05 5.6609337e-05 1.4854535e-05 -0.00014654646 4.2081338e-05
-4.2608303e-06 -0.00014654057 -0.00031961553 -5.5587374e-05 9.114834e-05 -0.00023642604 -0.00010379353 0.00014415225
0.00013209981 -0.00025674683 0.00015793936 -0.00022268629 -0.00013999357 0.00015343663 -0.00032351323 -0.0001974487
-0.00014475966 -0.00035216045 -6.224402e-05 -4.513491e-05 6.720129e-05 -7.956011e-05 5.288809e-05 0.00030069833

exp_avg_sq f4 [512]
00000000: 0eea 1a36 d76e 8535 fbd9 8e35 992d 5f36
00000010: bfc4 df35 31dd a334 4d4b 4136 e9a0 ee33
00000020: a0cd 7334 d6c6 9932 4a3f 2435 1d9e fe35
00000030: 152d 8835 4953 7f34 8da0 4d35 858c 3534
00000040: 0024 8335 9402 8035 6b09 7435 c0a2 5934
00000050: 7371 a634 e666 bc35 c174 9236 8538 fe34
00000060: 49e4 4135 6161 3735 937f 1933 22c8 b233
00000070: cf31 8a36 ef4c 3934 a158 6735 eec2 cf34
00000080: 0109 0731 f7dd d135 5b8f 4a35 67af 2235
00000090: bbe3 c235 f09a dc34 f234 2d35 b317 3135
000000a0: 0eb2 2436 87f5 4733 073f 7433 4fd2 8734
000000b0: 1a75 8d33 fa32 5f35 304f be35 ab84 8c35
000000c0: 75e6 4f35 5982 7335 3b6a a034 d51c 4c35
000000d0: adf3 d632 0d1f 6935 a769 c235 7535 aa34
000000e0: 9e9b 1935 86e0 6334 4ae4 d031 b149 fc34
000000f0: e3a0 3c35 17e3 a934 4c14 8a33 7c4d 6234
00000100: 7748 be33 aa59 8136 42f8 a834 6637 9734
00000110: 5e2c 0f36 45ee 2035 4361 6a34 e316 9131
00000120: 5d27 2b34 3aaa c935 9160 3134 362a 2334
00000130: 2704 cb34 cc80 b435 c686 dc35 3486 cc33
00000140: 1df0 a333 b922 4334 d3fb 3535 dc34 4035
00000150: 5c82 c535 b007 ad34 f0cb 0c35 4b96 4a35
00000160: c021 3935 28ef ba35 7e74 6334 0b80 ae35
00000170: 2f46 c734 2513 c135 98e4 6d35 6b09 b833
00000180: f13d a635 d896 8635 c41e 8635 5ffe 5834
00000190: 64d2 8334 2b9d c734 a5c1 d133 6630 c033
000001a0: 8726 4033 fba6 8335 469c 4435 cf0e c832
000001b0: 2b2d 0336 f597 dc32 4824 2533 cded ae34
000001c0: e291 0435 05cb 1e36 167c 5a36 cb8b 5c34
000001d0: cd9d 5e34 2844 8f36 b376 a333 1b5b 9035
000001e0: 7580 2035 7d09 2036 1c33 2933 2834 e134
000001f0: 525f b934 e87f 8835 9120 f332 2c6e b732
00000200: 1dec a936 1464 4435 d4a1 bf34 a05e ff33
00000210: 1a15 3133 8a2e 5633 6b35 f234 fb27 8335
00000220: 431a 4136 be5b c334 9ec6 b034 9ae3 c535
00000230: 0917 9a34 3640 0534 b67c c833 244d d335
00000240: ab42 ec35 1961 ee33 9266 d234 7324 4534
00000250: b48d 5734 9709 9333 6869 9333 39e8 b734
00000260: 9098 1035 da3a 0734 2717 d835 0378 6f34
00000270: 10f1 f934 e1c1 6335 a2a3 b335 7d05 4835
00000280: 1bd6 1535 0622 0d35 399d 1835 1b0c ae34
00000290: b498 8e33 dcc0 ac35 248d 4933 9189 9435
000002a0: 52dc 1634 cf79 3934 125e 1534 35e5 7235
000002b0: 8ae6 d532 cdab 7635 066a 0736 e069 9e35
000002c0: 63e1 cb34 783f b134 5b09 5c34 9ecd f533
000002d0: f37f bc34 ba8c 3436 3531 9733 adc0 d134
000002e0: 7b1a c535 f63d 2335 85b3 9c35 804a d434
000002f0: 42ac 9134 c80b 2e35 7aeb 0834 91cc 9134
00000300: 93f9 0c36 2119 5a35 12db 2637 e780 1535
00000310: 9eb2 2635 1c36 c934 114c 3c35 2fb8 1934
00000320: db67 0733 b73d a434 ce6e 4234 872e 8e35
00000330: ebeb 0636 47f9 8635 fe1a 5b35 1341 8535
00000340: 69c9 8435 8a3e 1135 5fc4 b235 4f79 de35
00000350: f733 b634 3fa9 2234 0ffb 8234 f591 e935
00000360: a992 7735 e066 da33 1c7c 4836 452b 1736
00000370: 3be0 a335 17bb de35 a9cc 3734 74bd bc31
00000380: d680 0c35 8751 1835 ac38 1034 34f8 ed34
00000390: 54a9 4b34 4e01 1035 247a c634 0199 dc34
000003a0: fb0e 7232 777c b334 6aac bc34 d2af 7934
000003b0: 61d2 fe34 b59d b634 4aca b033 c704 c935
000003c0: 6662 a235 8df0 0736 2189 ae35 7ae2 e434
000003d0: 2f09 6535 047a a934 d573 4435 c4fc a335
000003e0: 70f6 bf35 870f 2f36 645a 1034 c383 9033
000003f0: 1fe8 1234 2a90 5335 d7a9 8a33 d86e 9835
2.3084026e-06 9.941531e-07 1.0643265e-06 3.325613e-06 1.6672055e-06 3.0522054e-07 2.8803072e-06 1.1112008e-07
2.2705945e-07 1.7901964e-08 6.118686e-07 1.8970492e-06 1.014591e-06 2.3779025e-07 7.6602083e-07 1.690806e-07
9.770738e-07 9.537493e-07 9.091079e-07 2.0268908e-07 3.1002455e-07 1.4037039e-06 4.364731e-06 4.735231e-07
7.22303e-07 6.831452e-07 3.5739117e-08 8.325175e-08 4.118519e-06 1.7257456e-07 8.618318e-07 3.8698585e-07
1.9650204e-09 1.5636314e-06 7.5459474e-07 6.0604947e-07 1.4520405e-06 4.1090925e-07 6.452457e-07 6.5972125e-07
2.4541546e-06 4.6556604e-08 5.6868e-08 2.529873e-07 6.587125e-08 8.3148154e-07 1.417915e-06 1.0469424e-06
7.744887e-07 9.0714235e-07 2.9879615e-07 7.603788e-07 2.502369e-08 8.684445e-07 1.4484875e-06 3.1703863e-07
5.7223394e-07 2.1222704e-07 6.07955e-09 4.6992275e-07 7.026958e-07 3.1643933e-07 6.429818e-08 2.1076079e-07
8.860746e-08 3.854938e-06 3.147307e-07 2.816625e-07 2.1334486e-06 5.995137e-07 2.1828332e-07 4.2226573e-09
1.5939936e-07 1.502521e-06 1.651954e-07 1.5195914e-07 3.7814718e-07 1.344853e-06 1.6430502e-06 9.523902e-08
7.633955e-08 1.8173422e-07 6.7794207e-07 7.1602494e-07 1.4715583e-06 3.2229354e-07 5.245083e-07 7.546957e-07
6.8966983e-07 1.3927684e-06 2.1183402e-07 1.3001276e-06 3.7117704e-07 1.4385192e-06 8.862203e-07 8.569881e-08
1.2385991e-06 1.0027679e-06 9.992732e-07 2.0209107e-07 2.455373e-07 3.7180993e-07 9.7675446e-08 8.9495e-08
4.4738524e-08 9.808858e-07 7.32431e-07 2.3289799e-08 1.9546812e-06 2.5680473e-08 3.8450054e-08 3.2583048e-07
4.938612e-07 2.3662008e-06 3.255676e-06 2.0539953e-07 2.0732769e-07 4.2696665e-06 7.61187e-08 1.0755351e-06
5.9791574e-07 2.384738e-06 3.9394862e-08 4.1947465e-07 3.452829e-07 1.0170015e-06 2.8303733e-08 2.1354104e-08
5.0640797e-06 7.316132e-07 3.5694268e-07 1.1891575e-07 4.1230216e-08 4.9868085e-08 4.511488e-07 9.771896e-07
2.8774527e-06 3.6388332e-07 3.2927068e-07 1.4743885e-06 2.8701496e-07 1.240995e-07 9.3359105e-08 1.5743176e-06
1.7602773e-06 1.11004006e-07 3.9190178e-07 1.8360315e-07 2.0074987e-07 6.846965e-08 6.864394e-08 3.425537e-07
5.386619e-07 1.2594265e-07 1.6099992e-06 2.230227e-07 4.655526e-07 8.484622e-07 1.3384163e-06 7.451379e-07
5.581839e-07 5.2576104e-07 5.68532e-07 3.2418833e-07 6.640167e-08 1.2871128e-06 4.6927326e-08 1.1066896e-06
1.404999e-07 1.7273781e-07 1.3910929e-07 9.0485565e-07 2.49013e-08 9.1892144e-07 2.0178281e-06 1.1802731e-06
3.7975687e-07 3.3015e-07 2.04925e-07 1.1446103e-07 3.5110824e-07 2.6904004e-06 7.040436e-08 3.9069474e-07
1.4685351e-06 6.0812397e-07 1.1675153e-06 3.9542283e-07 2.713369e-07 6.4837195e-07 1.2751653e-07 2.7157196e-07
2.1006897e-06 8.1247896e-07 9.945377e-06 5.5694403e-07 6.209974e-07 3.7478537e-07 7.014615e-07 1.4316241e-07
3.1526593e-08 3.0592284e-07 1.8107968e-07 1.0593366e-06 2.0104878e-06 1.0056327e-06 8.1623136e-07 9.928211e-07
9.893384e-07 5.4107716e-07 1.3319185e-06 1.6575594e-06 3.393795e-07 1.5148997e-07 2.4397056e-07 1.7402332e-06
9.222809e-07 1.0170129e-07 2.9874564e-06 2.252594e-06 1.2209706e-06 1.6594739e-06 1.7117658e-07 5.4930585e-09
5.2341545e-07 5.674305e-07 1.3431662e-07 4.4325282e-07 1.896745e-07 5.364608e-07 3.6969243e-07 4.1089518e-07
1.408966e-08 3.3431908e-07 3.5143177e-07 2.3253895e-07 4.7464258e-07 3.401489e-07 8.232435e-08 1.4977057e-06
1.2098578e-06 2.0256587e-06 1.300392e-06 4.2633093e-07 8.532251e-07 3.156748e-07 7.318425e-07 1.2218011e-06
1.4302332e-06 2.608607e-06 1.3443929e-07 6.72949e-08 1.3681755e-07 7.881341e-07 6.4570195e-08 1.1357142e-06

exp_avg f4 [1, 2]
00000000: 8a6e 553b 0275 8fbc
0.0032567107 -0.017511848

exp_avg_sq f4 [1, 2]
00000000: ed6f d73b 7ea9 bc3b
0.006574622 0.0057575097
