results/max-hiddenunits512-config1-0/3DBall/3DBall-349309.onnx (onnx, 29626 bytes, 4 tensors)

action_model._continuous_distribution.log_sigma f4 [1, 2]
000000 e1 94 25 be 8e ff 20 be
       -0.16170074 -0.15722486

action_model._continuous_distribution.mu.bias f4 [2]
000000 a9 ab 8c 3d 7c da 91 3d
       0.06868679 0.07121751

network_body.processors.0.normalizer.running_mean f4 [8]
000000 37 c8 88 bb c1 b7 6e bb 68 58 62 be 16 5f 44 40
       -0.004174258 -0.0036425444 -0.22104037 3.0683036
000010 e8 8e cf 3e 35 26 28 3d 64 21 bb be 1e de ad bc
       0.40538716 0.041052062 -0.36548913 -0.021224078

sqrt f4 [8]
000000 51 ca 5b 3d 24 aa 54 3d 55 20 37 3f 73 51 5e 3e
       0.05365974 0.05192007 0.7153371 0.21710758
000010 f4 79 3c 3f 33 44 0d 3f b0 25 35 3f 15 10 08 3f
       0.73623586 0.5518219 0.7076063 0.5314954
